notebooks/models/long_linear_laplace_0.1/model.pth (torch, 360471 bytes, 6 tensors)

fc_0.weight f4 [100, 784]
0	0x34f45bef	4.5515432e-07
1	0x355ed8be	8.3016846e-07
2	0x3541c040	7.2177863e-07
3	0x3507b778	5.05584e-07
4	0x3580e70d	9.603988e-07
5	0x35133dd4	5.485174e-07
6	0x359c5f2e	1.1650607e-06
7	0x356ef120	8.901279e-07
8	0x359b3c4e	1.1565951e-06
9	0x35a5617e	1.2321832e-06
10	0x359889cc	1.1364987e-06
11	0x358fd484	1.071618e-06
12	0x355b47ce	8.1688347e-07
13	0x3542380c	7.235219e-07
14	0x34f4ed8f	4.5621388e-07
15	0x351eaec4	5.9113904e-07
16	0x350e387c	5.298132e-07
17	0xbd2b3fdc	-0.041808948
18	0x3581bc35	9.666024e-07
19	0x35a469a6	1.22497e-06
20	0x35977520	1.1284465e-06
21	0x35a0ea1c	1.1989064e-06
22	0x358a7399	1.0315445e-06
23	0x354c36c8	7.607564e-07
24	0x353c5598	7.0160013e-07
25	0x3598ab34	1.1374709e-06
26	0x3530ffc0	6.5937274e-07
27	0x356b6884	8.769641e-07
28	0x35855755	9.934689e-07
29	0xbcff7c81	-0.031187298
30	0x358851ce	1.0156598e-06
31	0x357e5592	9.4746895e-07
32	0x352a7148	6.349478e-07
33	0x35970e5a	1.1254554e-06
34	0x3565cb74	8.560521e-07
35	0x35a49028	1.2260907e-06
36	0x352639ba	6.192382e-07
37	0x3531ef84	6.628618e-07
38	0x35420ed8	7.229223e-07
39	0x3577da5e	9.2332436e-07
40	0x35025bcd	4.856236e-07
41	0x3584be83	9.890213e-07
42	0x35346cd9	6.721362e-07
43	0x3528ce10	6.288474e-07
44	0x359d0c30	1.1700959e-06
45	0x355558b0	7.947774e-07
46	0x3574f91c	9.1259585e-07
47	0x359ba274	1.159568e-06
48	0x358c21d8	1.0440663e-06
49	0x353bdb18	6.998175e-07
50	0x35204f77	5.972028e-07
51	0x359592c3	1.1144078e-06
52	0x3517df94	5.657723e-07
53	0x359acdc6	1.1533782e-06
54	0x35a39896	1.2188855e-06
55	0x351e5334	5.8980663e-07
56	0x355b73d6	8.175242e-07
57	0x3537bc98	6.844725e-07
58	0x3592ac0a	1.0927918e-06
59	0xbb16245d	-0.0022909858
60	0x35160ccc	5.5897976e-07
61	0x351229dc	5.445015e-07
62	0x354b275a	7.5680657e-07
63	0x3525843a	6.1659705e-07
64	0x35722c70	9.021669e-07
65	0x349a0d8d	2.8694595e-07
66	0xbc96cf24	-0.01840932
67	0x35a2edaa	1.213911e-06
68	0x350eb935	5.3168634e-07
69	0x35998bbc	1.1440056e-06
70	0x34ec94e7	4.4066766e-07
71	0x356ad0a8	8.747543e-07
72	0x353d0b40	7.042436e-07
73	0x3568d310	8.673387e-07
74	0x35a3ef63	1.2214117e-06
75	0x353929d9	6.8978767e-07
76	0x35718d02	8.998469e-07
77	0x351c15ae	5.8146077e-07
78	0x351cc935	5.8407323e-07
79	0x350735c6	5.036967e-07
80	0x35043390	4.9248865e-07
81	0xbb6e6a97	-0.003637945
82	0x358d250a	1.0516098e-06
83	0x35277004	6.237535e-07
84	0x352947cc	6.3061884e-07
85	0x35633472	8.464041e-07
86	0x351b9384	5.7956663e-07
87	0x35178f1c	5.6460135e-07
88	0x35247822	6.1269577e-07
89	0x359cc7ac	1.1681018e-06
90	0x35256d16	6.162603e-07
91	0x3533234c	6.673406e-07
92	0x350c38a9	5.2236516e-07
93	0x34aa3165	3.1700907e-07
94	0x354987bc	7.5075855e-07
95	0xbc9da784	-0.019244917
96	0x3549395d	7.496181e-07
97	0x356c77ea	8.809135e-07
98	0x36250745	2.4591147e-06
99	0x362d5331	2.5827433e-06
100	0xbd8d2455	-0.068916954
101	0x33bd40db	8.8127955e-08
102	0x33a49f32	7.6658026e-08
103	0x34a82703	3.1320823e-07
104	0x34bd2f0f	3.5238233e-07
105	0x355aaa00	8.145871e-07
106	0x353bc21f	6.994541e-07
107	0x355dd272	8.2635154e-07
108	0x3598ebe7	1.1393539e-06
109	0x35493c6c	7.496626e-07
110	0x354c5858	7.612448e-07
111	0x358c6df8	1.0462818e-06
112	0x35768e16	9.1848904e-07
113	0x359b58ce	1.1574245e-06
114	0x35743f1e	9.098893e-07
115	0x351c6428	5.8260275e-07
116	0x359e1348	1.1777529e-06
117	0x359bb4cb	1.1601018e-06
118	0x3516a90e	5.612536e-07
119	0x35713526	8.985684e-07
120	0x354e1e77	7.678531e-07
121	0xb3a6b3b9	-7.762669e-08
122	0x34e77e22	4.3118877e-07
123	0xb51ca328	-5.835195e-07
124	0x35d414ef	1.5801323e-06
125	0x371226b5	8.71129e-06
126	0x37919600	1.7355196e-05
127	0x37936e59	1.757515e-05
128	0x376fb07a	1.4286599e-05
129	0x346c1b4e	2.1989146e-07
130	0xb459fb1c	-2.0301053e-07
131	0xb4bc7e9a	-3.5109844e-07
132	0xb565f47d	-8.5664925e-07
133	0xb525b9ec	-6.173784e-07
134	0x3554f7b1	7.933659e-07
135	0x3504bb8b	4.9446743e-07
136	0x34f55fb9	4.5704454e-07
137	0x35581280	8.049319e-07
138	0x358092b5	9.57944e-07
139	0x35a2b0dc	1.2121413e-06
140	0xbc469c7a	-0.012122268
141	0x3594a61e	1.1075206e-06
142	0xbd9d0136	-0.076662466
143	0x3569a9ea	8.704652e-07
144	0x350e384c	5.2981045e-07
145	0x357007c2	8.9418256e-07
146	0x35b90faf	1.3788139e-06
147	0x358988be	1.0247093e-06
148	0x356c8c4a	8.8121e-07
149	0x35c490a2	1.4645232e-06
150	0x354a4718	7.535432e-07
151	0x36acf79f	5.1548263e-06
152	0x37a6a062	1.9863426e-05
153	0x38041118	3.1487172e-05
154	0x37f471f8	2.9140137e-05
155	0x37dc4b15	2.6261006e-05
156	0x374a0a34	1.2042514e-05
157	0xb6b39a66	-5.35259e-06
158	0xb6f66618	-7.3432566e-06
159	0xb66d0c2f	-3.5322844e-06
160	0xbc5e1d39	-0.013556772
161	0xb5dda109	-1.651265e-06
162	0xb303e501	-3.0709092e-08
163	0x350260bf	4.856956e-07
164	0x3dc7fe79	0.09765334
165	0x3e21880d	0.15774556
166	0x351b5390	5.78636e-07
167	0x3532782c	6.648504e-07
168	0x35a31790	1.2151304e-06
169	0x3570fab0	8.9771765e-07
170	0x3541366c	7.1977297e-07
171	0x3583eea0	9.82971e-07
172	0x3d899310	0.06717503
173	0x3d45bf1b	0.048277956
174	0x3604a729	1.9766833e-06
175	0x35a690fb	1.2410159e-06
176	0x351d97e8	5.870811e-07
177	0x34a44de5	3.0604056e-07
178	0x345af3ca	2.0391522e-07
179	0xbba27657	-0.004957955
180	0x371fc5a1	9.523153e-06
181	0x3538fbc2	6.89117e-07
182	0xb717624d	-9.023189e-06
183	0xb688ee2e	-4.0808436e-06
184	0xb66473ad	-3.404198e-06
185	0xb5f6b2e9	-1.8380498e-06
186	0x35a26a67	1.2100908e-06
187	0x3611d24a	2.1729088e-06
188	0xb73ae47a	-1.113966e-05
189	0xb6b315f2	-5.3371705e-06
190	0xb6934432	-4.3888804e-06
191	0x33b250d1	8.303471e-08
192	0x359d1df5	1.170613e-06
193	0x3504663c	4.93226e-07
194	0x35835a28	9.7865e-07
195	0x354793c0	7.434828e-07
196	0x3585f23e	9.979774e-07
197	0x34f39987	4.5373983e-07
198	0x34f8ceaf	4.6343982e-07
199	0x3573308a	9.059519e-07
200	0x35847244	9.868022e-07
201	0x35e238a3	1.6854796e-06
202	0x35374ef1	6.828769e-07
203	0x34bc4a10	3.5071616e-07
204	0xb5af750c	-1.3072581e-06
205	0x356321d3	8.461331e-07
206	0x3585dec3	9.974104e-07
207	0x370efa32	8.522113e-06
208	0x376c4a45	1.4083988e-05
209	0x369ba7b7	4.6388845e-06
210	0x38f36de3	0.00011607611
211	0xb6dab188	-6.5175736e-06
212	0x370713c5	8.05123e-06
213	0x3a2c45df	0.0006571691
214	0x371191f0	8.676652e-06
215	0x3ca6f0e2	0.020378534
216	0x37643a4f	1.3603435e-05
217	0xb666d523	-3.4396733e-06
218	0xb6d3920d	-6.3052926e-06
219	0xb64bf978	-3.0394567e-06
220	0x35366e8b	6.7961145e-07
221	0x350a3df5	5.1499165e-07
222	0x3557c28a	8.0376833e-07
223	0x350f9e94	5.350241e-07
224	0x35506ae8	7.764161e-07
225	0x359cfd20	1.1696575e-06
226	0xbcecb842	-0.028896455
227	0x3504cedc	4.947485e-07
228	0x353b3ee2	6.9754435e-07
229	0xb52eaf96	-6.507556e-07
230	0x33f49f01	1.1391058e-07
231	0xb57e935e	-9.483682e-07
232	0xb448b0b2	-1.8690733e-07
233	0x3611c4dc	2.172127e-06
234	0x370e4f05	8.482258e-06
235	0x378c803d	1.6749016e-05
236	0x37b43649	2.148295e-05
237	0x37a5afa5	1.9751324e-05
238	0x37b9633f	2.2099934e-05
239	0x37b30a87	2.1343365e-05
240	0x380c1a44	3.3403063e-05
241	0x37d3d39b	2.5251697e-05
242	0x3816b8c2	3.5934856e-05
243	0x387e8aef	6.068771e-05
244	0x3cab8285	0.02093626
245	0x3c4d6ba9	0.012537875
246	0x35516664	7.8007565e-07
247	0x345497c6	1.9799253e-07
248	0x33b4534b	8.397054e-08
249	0x35670634	8.606323e-07
250	0x354b7720	7.579674e-07
251	0x357835d2	9.246552e-07
252	0x35040e76	4.9194875e-07
253	0x358204b0	9.687119e-07
254	0x35646504	8.5083616e-07
255	0x3596c56a	1.1233326e-06

fc_0.bias f4 [100]
0	0x36dd82e4	6.601551e-06
1	0xb33dff4f	-4.4237193e-08
2	0xb5c8e2b0	-1.4967136e-06
3	0x3d0d7625	0.0345365
4	0x365344e4	3.148155e-06
5	0xb5156c40	-5.566435e-07
6	0x3704633e	7.89092e-06
7	0x3810b4e4	3.4500743e-05
8	0xb44b4c9c	-1.8933719e-07
9	0xb6f121e9	-7.1863074e-06
10	0x36fb7aeb	7.4946925e-06
11	0x35b16fa6	1.3220022e-06
12	0xb808dcc5	-3.2630534e-05
13	0xb5a2d776	-1.2132648e-06
14	0x3413ef34	1.3777463e-07
15	0xb553ea2c	-7.894439e-07
16	0x3dc63cf0	0.09679592
17	0x3aa4c91f	0.0012572146
18	0xb89d4baa	-7.500437e-05
19	0x3751cdb6	1.2505267e-05
20	0xb70a4b9a	-8.243043e-06
21	0x3492bc17	2.7331473e-07
22	0x38c08bec	9.181336e-05
23	0x33c1f805	9.032377e-08
24	0xb7fd7a52	-3.021691e-05
25	0x3ae98716	0.0017816748
26	0x3c078fa9	0.008273997
27	0x36c84465	5.9684266e-06
28	0x3c10d6c7	0.008840269
29	0x34cfbffe	3.8696447e-07
30	0x3749b7ba	1.2023311e-05
31	0xb64b12f8	-3.0260398e-06
32	0x365c1a53	3.2797877e-06
33	0x35e49a3a	1.703221e-06
34	0x36a58e55	4.933953e-06
35	0xb3155d4e	-3.4776626e-08
36	0x34a26282	3.0246525e-07
37	0xb757c605	-1.2861104e-05
38	0x3498f4d3	2.849034e-07
39	0x38785eaf	5.921599e-05
40	0xb788e110	-1.6317266e-05
41	0x3693710e	4.3941027e-06
42	0xb5992584	-1.1410307e-06
43	0x38794042	5.942607e-05
44	0xb593d6ab	-1.101483e-06
45	0x37fe4fd0	3.0316325e-05
46	0x378f96f4	1.7117221e-05
47	0xb6832279	-3.9081174e-06
48	0xb78b9d4d	-1.664334e-05
49	0xb6639c10	-3.3916476e-06
50	0xb51197eb	-5.423778e-07
51	0xb6fa8942	-7.4665595e-06
52	0xb6a05054	-4.777723e-06
53	0xb608dc3d	-2.0393775e-06
54	0x384e2edf	4.915788e-05
55	0x37aeb2ea	2.082573e-05
56	0xb7e86cb6	-2.7707178e-05
57	0x386ecb1a	5.6932775e-05
58	0x34b52f7f	3.3748435e-07
59	0x3798fd3f	1.8237739e-05
60	0xb694d450	-4.43546e-06
61	0xb73744b2	-1.0923644e-05
62	0x35e2de8f	1.6903085e-06
63	0xb5e7975b	-1.7254891e-06
64	0xb79df9cc	-1.883218e-05
65	0x364719e3	2.9668379e-06
66	0x3e574c16	0.21025118
67	0x3670d40b	3.5886212e-06
68	0x35e8b5d8	1.733827e-06
69	0x37b1e08e	2.120461e-05
70	0x37248f86	9.808578e-06
71	0xb5dce584	-1.6458075e-06
72	0xb442d8ec	-1.8146574e-07
73	0x3692fc08	4.3804794e-06
74	0xb87bffda	-6.0081344e-05
75	0xb6b7707c	-5.46692e-06
76	0x3839289f	4.414527e-05
77	0xb6e9dc8c	-6.969616e-06
78	0x35633c83	8.4652146e-07
79	0x3678e3b8	3.708743e-06
80	0xb437c48a	-1.7114704e-07
81	0x3591ebab	1.087193e-06
82	0x3e2135bd	0.15743156
83	0x36feec5b	7.5973053e-06
84	0xb59c7d8e	-1.1659447e-06
85	0x35523692	7.8310507e-07
86	0xb642a6d6	-2.9005364e-06
87	0x37c81576	2.3851851e-05
88	0x37a40b0f	1.9555473e-05
89	0x35d41dba	1.5803882e-06
90	0x3735f7e8	1.0846161e-05
91	0xb736ca56	-1.0895155e-05
92	0xb5ea150c	-1.7440484e-06
93	0xb6923f69	-4.358521e-06
94	0x354bba97	7.5894917e-07
95	0x378cedfa	1.6800117e-05
96	0xb79988b7	-1.8302684e-05
97	0x36dbcc16	6.5504673e-06
98	0x3cecf43c	0.028925054
99	0xb5880e31	-1.013692e-06

fc_1.weight f4 [100, 100]
0	0xb4c213bf	-3.6149683e-07
1	0x34bb8cdf	3.4933962e-07
2	0x3406994e	1.2535494e-07
3	0xb4d1eb94	-3.910069e-07
4	0x34a8f69c	3.147187e-07
5	0x331a2162	3.588628e-08
6	0x33fcbbea	1.1768846e-07
7	0x34eb8c84	4.38744e-07
8	0xb41a238b	-1.4355298e-07
9	0xb4e27240	-4.2178908e-07
10	0x34e49c4d	4.2582033e-07
11	0x3344a76c	4.5787075e-08
12	0xb557f242	-8.0446273e-07
13	0xb4c4bab0	-3.6643678e-07
14	0x34256948	1.5405124e-07
15	0xb44db72c	-1.915875e-07
16	0x33566707	4.991946e-08
17	0x352ad5ff	6.364134e-07
18	0xb56d49ca	-8.839676e-07
19	0xb22a8129	-9.92467e-09
20	0xb430d23c	-1.646776e-07
21	0x3406c4b0	1.2551277e-07
22	0x364ddcb1	3.067584e-06
23	0xb38576f9	-6.214936e-08
24	0x3daae5e2	0.08344628
25	0xb4948dc3	-2.7670293e-07
26	0xb442bf0e	-1.8137163e-07
27	0x34d17e02	3.9020966e-07
28	0xb3879a4f	-6.314496e-08
29	0xb3af5363	-8.1642405e-08
30	0x318dd8a9	4.1282715e-09
31	0xb4ad4bff	-3.2279056e-07
32	0x33cb7d24	9.475687e-08
33	0x358c3767	1.0446937e-06
34	0xb3e07e46	-1.0453782e-07
35	0xb428c5b1	-1.5718139e-07
36	0x3498fedc	2.849764e-07
37	0xb34be2d3	-4.7470916e-08
38	0xb2a60489	-1.9327006e-08
39	0xb4dce3c8	-4.1143926e-07
40	0xb489b40c	-2.564924e-07
41	0xb3c203b0	-9.0345e-08
42	0x320736cc	7.870494e-09
43	0xb44a657a	-1.8849633e-07
44	0x3a8ee550	0.0010902081
45	0xb4654baf	-2.135482e-07
46	0xb4b11bb4	-3.2988976e-07
47	0xb451dc62	-1.9544817e-07
48	0xbd97794d	-0.07396183
49	0xb4a5f65d	-3.0912898e-07
50	0xbd548312	-0.05188281
51	0xb4c16fa9	-3.6030295e-07
52	0x33cde45c	9.587595e-08
53	0xb445fc35	-1.8438807e-07
54	0x35ba37ec	1.3874355e-06
55	0x3d81c493	0.06336322
56	0xb52e1167	-6.4845375e-07
57	0xb3963a02	-6.995471e-08
58	0xb4a02e23	-2.983589e-07
59	0x32e9660d	2.7171177e-08
60	0x3446663d	1.8477381e-07
61	0x3590ed3f	1.0797884e-06
62	0xb4f203b9	-4.507872e-07
63	0xb494cc90	-2.7715987e-07
64	0xb4688e49	-2.1658447e-07
65	0xb2df383f	-2.5986195e-08
66	0x3683d882	3.929309e-06
67	0x34b5990f	3.3825242e-07
68	0x336f4326	5.5707595e-08
69	0xb398b547	-7.111026e-08
70	0xb5209070	-5.981483e-07
71	0x3307b0d1	3.159295e-08
72	0x3429c380	1.5810474e-07
73	0xb559f5dd	-8.119658e-07
74	0x35940ef4	1.1031211e-06
75	0x34bb75db	3.4917215e-07
76	0x3507351a	5.036869e-07
77	0xbd8a111b	-0.06741544
78	0x3ae7733f	0.0017658247
79	0xb4ac1cc4	-3.2058426e-07
80	0xb4be92c8	-3.5497055e-07
81	0x348fc8ab	2.678183e-07
82	0xb4808820	-2.3940902e-07
83	0xb47fa734	-2.3809554e-07
84	0xb4a75282	-3.1166206e-07
85	0x343b0407	1.7417197e-07
86	0x31e7bbd9	6.7443406e-09
87	0xb49ab15c	-2.881378e-07
88	0xb4c0fdc7	-3.5947434e-07
89	0xb48b9f23	-2.6006555e-07
90	0xb2ba7640	-2.1707024e-08
91	0xb46de933	-2.2157182e-07
92	0x34bda8e4	3.5326877e-07
93	0x348b93b1	2.5998227e-07
94	0xb4d4ee30	-3.966138e-07
95	0x34e760c7	4.3097518e-07
96	0xb3124e63	-3.4064566e-08
97	0x3502c695	4.871775e-07
98	0x354a4a5b	7.5359065e-07
99	0x340c4b10	1.3065824e-07
100	0x34a8f8cf	3.147347e-07
101	0xb41d596c	-1.4654296e-07
102	0xb490e0f4	-2.6985765e-07
103	0x347a2166	2.3295215e-07
104	0xb332cf4d	-4.1632394e-08
105	0x343efb48	1.7786545e-07
106	0x330ae704	3.2340736e-08
107	0x34590c90	2.021427e-07
108	0x3353f7f5	4.935278e-08
109	0x34174bc5	1.4090536e-07
110	0x3473f398	2.2719757e-07
111	0xb3f8480f	-1.1561507e-07
112	0xb4d53d4a	-3.9718935e-07
113	0x33444d81	4.5705296e-08
114	0x34d4d89a	3.9645676e-07
115	0x33ad4d72	8.0700275e-08
116	0x34080d76	1.2670884e-07
117	0x32b2fae7	2.0836024e-08
118	0xb4301b3a	-1.6401182e-07
119	0x3d1f44a0	0.038883805
120	0x3d684fc6	0.056716703
121	0xb43c24a3	-1.7522193e-07
122	0xb4bea106	-3.5507418e-07
123	0xb4aca64a	-3.2158488e-07
124	0xb41aa0f5	-1.4400923e-07
125	0xbdd43516	-0.10361688
126	0x32cd015d	2.3865761e-08
127	0x340f4854	1.3344226e-07
128	0xb5254dab	-6.158031e-07
129	0x33e5a202	1.06931125e-07
130	0xb4b269bb	-3.3232013e-07
131	0xb3e1f8b6	-1.0522619e-07
132	0xb49731a7	-2.816207e-07
133	0xb4dac78e	-4.075086e-07
134	0x3402672d	1.2144729e-07
135	0xb3c0ee8d	-8.984089e-08
136	0xb42ed3ae	-1.6282021e-07
137	0x34bbf534	3.5009873e-07
138	0xb4bdc13a	-3.5344584e-07
139	0xb4c9f3a9	-3.7616454e-07
140	0xb3fecaf9	-1.1864717e-07
141	0x322eb1ef	1.016859e-08
142	0x34190fec	1.4255028e-07
143	0x34ae968f	3.251957e-07
144	0x34b63882	3.3941257e-07
145	0xb387fcef	-6.332436e-08
146	0x3428359d	1.5665724e-07
147	0x331199ec	3.3900434e-08
148	0xb4d0e996	-3.8912975e-07
149	0xb4a9fef3	-3.1664203e-07
150	0x3cfcf511	0.030878576
151	0xb4c2b674	-3.6268068e-07
152	0xb4a500d8	-3.073426e-07
153	0xb445a96e	-1.8408693e-07
154	0xb432e698	-1.6661431e-07
155	0xb38aa4ea	-6.4561235e-08
156	0x341f760e	1.4850977e-07
157	0x34d7c493	4.0189897e-07
158	0xb48d9293	-2.6369943e-07
159	0xb48e4e57	-2.650656e-07
160	0x348cda75	2.623598e-07
161	0xb47a1ea6	-2.3294214e-07
162	0x3464b482	2.1299823e-07
163	0x34451cae	1.8357488e-07
164	0xb40f8df9	-1.3369562e-07
165	0x34cdae90	3.8311236e-07
166	0xb457aec4	-2.0087015e-07
167	0xbb38cd4d	-0.002819854
168	0xb48c38a2	-2.6118238e-07
169	0xb43c6235	-1.7544592e-07
170	0xb40d24e0	-1.3145063e-07
171	0xb457277a	-2.0037797e-07
172	0xb4930269	-2.7382637e-07
173	0x34600daa	2.0866597e-07
174	0xb48f0bf2	-2.6644517e-07
175	0x33e47d79	1.0639901e-07
176	0xb5275b53	-6.234524e-07
177	0xb3ac8589	-8.033664e-08
178	0x346a91fe	2.184606e-07
179	0x3427ce37	1.5628108e-07
180	0x33fa8f57	1.16676055e-07
181	0xb4cbab8f	-3.7936522e-07
182	0x34537065	1.9691795e-07
183	0xb4786f3e	-2.313727e-07
184	0x34d3ae13	3.9428468e-07
185	0x349d819b	2.933783e-07
186	0xb4699e68	-2.1757444e-07
187	0xb40f684f	-1.335586e-07
188	0xb33dac42	-4.416166e-08
189	0xb40d92b7	-1.3185023e-07
190	0xb4b2c6d4	-3.329975e-07
191	0x3d87555f	0.0660808
192	0xb4db9e7e	-4.0907247e-07
193	0x34ced4cb	3.8525317e-07
194	0xb343a1ff	-4.554931e-08
195	0xb1958aa8	-4.352234e-09
196	0xb34987c9	-4.6922455e-08
197	0xb42c9637	-1.6073396e-07
198	0x3494dfaa	2.7729885e-07
199	0xba4e055c	-0.0007859075
200	0xb6a4a288	-4.906502e-06
201	0x3677245f	3.682704e-06
202	0xb5449bbd	-7.324232e-07
203	0xb6c820fc	-5.9643044e-06
204	0x371ba867	9.277929e-06
205	0x368261a5	3.8856692e-06
206	0xb822f630	-3.885309e-05
207	0xbd2270f3	-0.039658498
208	0xb497b148	-2.825493e-07
209	0x36322049	2.654286e-06
210	0xb808ce5c	-3.2617114e-05
211	0xb54b20a9	-7.567092e-07
212	0x370e515b	8.482802e-06
213	0xbd9d5c1f	-0.07683586
214	0xb506025c	-4.9922323e-07
215	0x3cb4df13	0.022079026
216	0x3e127fac	0.14306515
217	0xbb71e73a	-0.0036911503
218	0xb7e37222	-2.7113656e-05
219	0xb7ed17b1	-2.8263634e-05
220	0xb69b0a09	-4.620528e-06
221	0xb5e96ef1	-1.7392141e-06
222	0xb8ab800b	-8.177765e-05
223	0x34ab2148	3.1875447e-07
224	0x3cb759f8	0.022381768
225	0x37b0a17b	2.105603e-05
226	0x37a4bbc4	1.9637759e-05
227	0xbe2f84f7	-0.17140566
228	0x3df26207	0.118351035
229	0x352c5759	6.42021e-07
230	0x369054e5	4.3014174e-06
231	0x3e195ef9	0.14977635
232	0xb54c644a	-7.614186e-07
233	0xbd26e576	-0.040746175
234	0xb6405870	-2.8661707e-06
235	0x33ee6870	1.1101736e-07
236	0xb6da9e5e	-6.5153426e-06
237	0xb7217ea6	-9.625835e-06
238	0x33f8655f	1.1566839e-07
239	0x363639e3	2.7153808e-06
240	0x37ec15eb	2.8143599e-05
241	0x36554e93	3.178521e-06
242	0xb6190cd2	-2.280624e-06
243	0x38035e56	3.132069e-05
244	0xb5838f6e	-9.802004e-07
245	0xb4010aab	-1.2017942e-07
246	0xb8dd5a55	-0.00010554927
247	0xb6f7c749	-7.3843735e-06
248	0xb708566c	-8.126353e-06
249	0xb6e1512a	-6.7149713e-06
250	0x37423ed8	1.1577933e-05
251	0x3dc77a18	0.097400844
252	0xb6a68263	-4.9623645e-06
253	0x3c641cb8	0.013922863
254	0xbcbb9716	-0.022899192
255	0x3d7d6be7	0.06187048

fc_1.bias f4 [100]
0	0xb4321321	-1.6584501e-07
1	0x34461e7a	1.8451274e-07
2	0x361e181d	2.355787e-06
3	0x340024fc	1.1934384e-07
4	0x3d2d2d83	0.04227973
5	0x3791231b	1.7301694e-05
6	0xb2280305	-9.779574e-09
7	0xb6e8750c	-6.927765e-06
8	0x36f927b5	7.425401e-06
9	0xb6b056b8	-5.255304e-06
10	0x36f5b6df	7.322858e-06
11	0x34a97d50	3.156988e-07
12	0x38570b0d	5.1270286e-05
13	0x36dd2dfb	6.591666e-06
14	0x3496bbd7	2.807635e-07
15	0xb73b89a3	-1.1178115e-05
16	0x3da85c5b	0.082207404
17	0x3669b112	3.4822774e-06
18	0x360dce6b	2.1130788e-06
19	0x366f07ac	3.561824e-06
20	0x3849bff3	4.81009e-05
21	0xb869fb40	-5.5785524e-05
22	0x3408e62f	1.2749727e-07
23	0xbc7e4e66	-0.015521621
24	0x37183583	9.072365e-06
25	0xb515b43f	-5.576912e-07
26	0xb572140c	-9.01812e-07
27	0xb36562ee	-5.3408193e-08
28	0xb514f9dc	-5.549789e-07
29	0x368bfe3f	4.172121e-06
30	0xb6dc9651	-6.57401e-06
31	0xb49426c3	-2.759535e-07
32	0xb6703f75	-3.5799724e-06
33	0x36c7f718	5.9594277e-06
34	0x3748994a	1.1956619e-05
35	0xb6922188	-4.3550426e-06
36	0x36fba0e9	7.4991153e-06
37	0x331f0a19	3.7029256e-08
38	0x3d8ce49a	0.0687954
39	0xb7187e68	-9.089337e-06
40	0xb43e2060	-1.7706907e-07
41	0xb5b7530f	-1.3658736e-06
42	0xb71d171c	-9.36331e-06
43	0x35d20e8d	1.5650454e-06
44	0x36322252	2.6544044e-06
45	0x36779ae3	3.6896024e-06
46	0xb692e0c6	-4.377306e-06
47	0xb71ae4f1	-9.23242e-06
48	0xb714f9f3	-8.879683e-06
49	0xb7bf1396	-2.2778095e-05
50	0x3da14df5	0.07876197
51	0xb7d23b52	-2.5061574e-05
52	0x37607475	1.3378555e-05
53	0x371f60e8	9.499701e-06
54	0x33c20d9d	9.036305e-08
55	0xb74475d4	-1.1709944e-05
56	0xb73e474b	-1.1341482e-05
57	0xb7315915	-1.0570763e-05
58	0xb4bb7d23	-3.4922513e-07
59	0xb481b245	-2.415783e-07
60	0xbb9f20eb	-0.004856219
61	0xb796390e	-1.7907962e-05
62	0xb4514593	-1.9489953e-07
63	0x36eac75d	6.9969524e-06
64	0x3e32b558	0.1745199
65	0x3c15bde4	0.009139512
66	0x34fd12ba	4.7138548e-07
67	0x3b84f67b	0.004057703
68	0x37615579	1.3430946e-05
69	0xb5ce73e4	-1.5381925e-06
70	0xb5c7ff79	-1.4901008e-06
71	0xb56b80d9	-8.773182e-07
72	0xb77dff5a	-1.5139429e-05
73	0xb49cc97e	-2.920387e-07
74	0xb48e471b	-2.6501297e-07
75	0xb65126ab	-3.1165935e-06
76	0x34bc03bd	3.502045e-07
77	0xb5e320f5	-1.692241e-06
78	0x34bbd82c	3.498875e-07
79	0xb48c343d	-2.611504e-07
80	0xb462aafb	-2.1110093e-07
81	0x383b11d6	4.4600885e-05
82	0xb7ebf563	-2.812845e-05
83	0x371227e8	8.7115695e-06
84	0x33ec6b55	1.100913e-07
85	0xb6c85855	-5.9707477e-06
86	0x38a11324	7.6806435e-05
87	0x38561438	5.1040406e-05
88	0x3626abb4	2.4835872e-06
89	0x376d031f	1.41270275e-05
90	0x3767dbd6	1.38198575e-05
91	0x351cfe36	5.8484454e-07
92	0x35404c8d	7.163697e-07
93	0xb5471822	-7.4168395e-07
94	0xb4cfab34	-3.868132e-07
95	0x323d08da	1.10032605e-08
96	0x34d202b8	3.9117526e-07
97	0x3e4e5326	0.20148906
98	0x346723f9	2.1526638e-07
99	0xb762d1a2	-1.3519459e-05

fc_2.weight f4 [10, 100]
0	0x348f1d55	2.6657167e-07
1	0xb548914e	-7.471725e-07
2	0xb7d153c6	-2.4953752e-05
3	0xb70a9faa	-8.262616e-06
4	0x3e2dd76d	0.1697671
5	0xbbae5621	-0.005320326
6	0x34d15257	3.8989194e-07
7	0x3eccfc35	0.4003617
8	0xb7027217	-7.775167e-06
9	0x3eb87bf2	0.36032063
10	0xb7787fa4	-1.4811671e-05
11	0xb64990ce	-3.0035621e-06
12	0x3c5fdda8	0.013663687
13	0xbd86d30b	-0.06583222
14	0xb4703530	-2.2371091e-07
15	0xbef68471	-0.4814792
16	0xb7c161be	-2.3052908e-05
17	0xb7e50a0f	-2.7303611e-05
18	0xb618ce24	-2.2769755e-06
19	0xb5970baf	-1.1253777e-06
20	0xbf15085a	-0.5821587
21	0xb7e86948	-2.770558e-05
22	0xb5974e0b	-1.127309e-06
23	0xb35d6332	-5.154579e-08
24	0x3dae82d7	0.085210495
25	0x358a849e	1.0320398e-06
26	0x3db9b7a6	0.09068231
27	0xb3f1829a	-1.1246193e-07
28	0xb6231149	-2.4298954e-06
29	0xb785dfca	-1.5959045e-05
30	0xb82ffa03	-4.1956093e-05
31	0xb4cefb6a	-3.8553418e-07
32	0x367e710f	3.7914758e-06
33	0xb3b4890f	-8.406834e-08
34	0xb784b38b	-1.5819232e-05
35	0xbc84d9d6	-0.016217154
36	0xb71d4ede	-9.376292e-06
37	0x3de9d22c	0.1141704
38	0x3c5813bf	0.013188302
39	0xb6e5c601	-6.8477825e-06
40	0x339a7a54	7.193435e-08
41	0x3e2a0e45	0.16607006
42	0x3d7445d4	0.059636906
43	0x3663b2c7	3.3929698e-06
44	0xb58b44b3	-1.0376301e-06
45	0xb63e3875	-2.8345069e-06
46	0x3e3e8652	0.18605927
47	0xb714c735	-8.867869e-06
48	0x3f047fa9	0.51757294
49	0x3eb711eb	0.35755858
50	0xbba8eab5	-0.0051549324
51	0xbe586730	-0.21133113
52	0xb63202ef	-2.6525775e-06
53	0xb7bad74e	-2.2273187e-05
54	0x3428bfc5	1.5715985e-07
55	0x3ee421ea	0.44557124
56	0x3de37110	0.11105549
57	0xb70d9d26	-8.440844e-06
58	0xb5746c66	-9.1054824e-07
59	0x33cd8f11	9.57208e-08
60	0x338222c1	6.0599184e-08
61	0x3e83a0d8	0.25708652
62	0xb4981c2e	-2.833271e-07
63	0xb68c039f	-4.1727467e-06
64	0x3e2a9350	0.16657758
65	0xbcb69238	-0.02228652
66	0xb5d4ba52	-1.5849457e-06
67	0x37e5ec1c	2.7408874e-05
68	0x3ecba533	0.39774475
69	0xb790eeab	-1.7277276e-05
70	0xb6bc39fa	-5.609586e-06
71	0xb62efc8f	-2.607503e-06
72	0xb79d4754	-1.8749073e-05
73	0x34867e81	2.505149e-07
74	0x34207f3a	1.4947446e-07
75	0x3e13714a	0.14398685
76	0xb608cc7e	-2.038461e-06
77	0xb75cdaf7	-1.3164004e-05
78	0xb3cf4ad6	-9.652801e-08
79	0xbbf4f2db	-0.0074752397
80	0xb5e22dfb	-1.6851694e-06
81	0xbed372b6	-0.41298455
82	0xb739bfe8	-1.1071541e-05
83	0xb6bbc6b2	-5.5961655e-06
84	0xb4080d34	-1.267079e-07
85	0xb7b57db4	-2.1635416e-05
86	0xbec90652	-0.39262635
87	0xbf4bf9fa	-0.7967831
88	0x3698779b	4.543877e-06
89	0xb52246c7	-6.04527e-07
90	0xbe1caf77	-0.1530131
91	0xb6ceeabb	-6.1666046e-06
92	0xb63e8716	-2.8390837e-06
93	0xb5fb2e06	-1.8714352e-06
94	0x348c7070	2.615884e-07
95	0x3384d88f	6.186121e-08
96	0xbb91cff2	-0.004449838
97	0x3e59ebfb	0.21281426
98	0xb70e9137	-8.49767e-06
99	0x3e9b4b34	0.30330813
100	0x355edee6	8.3025805e-07
101	0xb4a7bfa7	-3.124562e-07
102	0x387d386e	6.0372455e-05
103	0xb36eb132	-5.557485e-08
104	0xbe6d3fbf	-0.23168848
105	0x375f3c56	1.3305884e-05
106	0x34b0d77f	3.293935e-07
107	0x371886b4	9.091269e-06
108	0xbcc9587e	-0.02457833
109	0x37754343	1.4618799e-05
110	0x3ebaedf0	0.36509657
111	0xb4b7fe60	-3.4271488e-07
112	0xbef0656b	-0.46952376
113	0xbe693522	-0.22774175
114	0x33454881	4.593358e-08
115	0x386e02bf	5.674618e-05
116	0xbe7143a4	-0.23560959
117	0xbda7d3b8	-0.08194679
118	0x3da159ec	0.07878479
119	0x3d96b6e2	0.07359101
120	0x3f13dca4	0.57758546
121	0x3deec5dd	0.11658833
122	0x34603e99	2.0884399e-07
123	0x34035d8b	1.2234356e-07
124	0xbe77411f	-0.24145935
125	0x34eb29bf	4.3802535e-07
126	0xb43a5317	-1.7352828e-07
127	0x3da6af52	0.081389084
128	0xb268c8b2	-1.354981e-08
129	0x37a36066	1.9476003e-05
130	0x37aed8a5	2.08433e-05
131	0xb42bd131	-1.600172e-07
132	0x37230368	9.71635e-06
133	0x3e0abba5	0.13548143
134	0xbe7701f6	-0.24121842
135	0xbdcc2d6f	-0.09969603
136	0x3c46f60b	0.012143622
137	0xade60980	-2.6152192e-11
138	0x38024074	3.1054442e-05
139	0xbd816338	-0.063177526
140	0x3481aaf0	2.4152496e-07
141	0x37a2a0a0	1.9386702e-05
142	0x363ce64e	2.8148238e-06
143	0xbd9c1362	-0.076208845
144	0x3db5a932	0.08870162
145	0x37a6226d	1.9804773e-05
146	0x377c1f51	1.5027662e-05
147	0x3efaadf2	0.48960835
148	0x36aaafba	5.086852e-06
149	0x3881c0f4	6.18714e-05
150	0xbe7352bd	-0.23762031
151	0x3edce660	0.43144512
152	0x3ea445ee	0.32084602
153	0x388241ba	6.2111256e-05
154	0x34bf52d8	3.56368e-07
155	0xbe07a0f2	-0.1324499
156	0xbe25cbfb	-0.16191094
157	0x35e6b3d2	1.718867e-06
158	0x33ecfbc2	1.1035401e-07
159	0x348c77da	2.6164236e-07
160	0x344210b7	1.8073739e-07
161	0xbe6c68cb	-0.2308685
162	0xb362df99	-5.2823086e-08
163	0x36bb4810	5.5814235e-06
164	0xbe222d06	-0.15837488
165	0x3db9ec1f	0.0907824
166	0x34ecf952	4.413983e-07
167	0xbeac9c83	-0.3371316
168	0xbe12b22a	-0.14325777
169	0x3756b3aa	1.2797225e-05
170	0x372f8234	1.0461128e-05
171	0x359ec728	1.182988e-06
172	0x3751be89	1.2501733e-05
173	0xb3e9eb89	-1.08927516e-07
174	0xb49c0b7d	-2.9065623e-07
175	0x3780eddf	1.5369556e-05
176	0xbd258bb0	-0.04041642
177	0xbe1b94d5	-0.15193494
178	0x33987fbc	7.101286e-08
179	0xb31a6f4a	-3.5957136e-08
180	0x33bcde6c	8.7948905e-08
181	0x36d30eb1	6.2900003e-06
182	0x39672cc5	0.00022046555
183	0x37f5cbf0	2.9301242e-05
184	0xb481d146	-2.418039e-07
185	0x380edf94	3.406366e-05
186	0x3e813a9a	0.25240022
187	0xbda2fc53	-0.07958283
188	0x3d81509b	0.063142024
189	0x3ed3db5b	0.41378292
190	0x3edec62e	0.43510574
191	0xb4b16072	-3.3038992e-07
192	0x3eb8791f	0.36029908
193	0xb4d2c5ae	-3.925938e-07
194	0x34aae938	3.1834657e-07
195	0xb49b7b44	-2.8960687e-07
196	0x37b75754	2.1855965e-05
197	0xbd95941c	-0.0730364
198	0x37359372	1.08227705e-05
199	0x3885d26c	6.381128e-05
200	0xbd226759	-0.03964934
201	0x352bda03	6.4019713e-07
202	0x3e0ec617	0.13942753
203	0x35888d74	1.0173958e-06
204	0xbd97c50e	-0.07410632
205	0xb7cd0eb1	-2.4444746e-05
206	0xb4ab19fd	-3.187014e-07
207	0xb795a699	-1.7839762e-05
208	0xb725bf45	-9.8793e-06
209	0xb6ea7f59	-6.9885687e-06
210	0xb8cd9014	-9.8019984e-05
211	0x35600974	8.346026e-07
212	0xbe66cd0e	-0.2253916
213	0x3c2aa9a1	0.010416419
214	0xb4158f74	-1.3928894e-07
215	0x3f33c50d	0.7022255
216	0xbe2df8a9	-0.16989388
217	0xb864297b	-5.4398068e-05
218	0xb5592e3d	-8.0906085e-07
219	0xbdf74ce6	-0.12075214
220	0xbe94c7b2	-0.29058605
221	0x3f9a649a	1.2061951
222	0x350df48d	5.288246e-07
223	0x34887b5e	2.5421735e-07
224	0xbe7826ef	-0.24233602
225	0x345ad00d	2.037852e-07
226	0x3411a926	1.3565713e-07
227	0xb496443e	-2.798933e-07
228	0xb3b84f0d	-8.582547e-08
229	0xbe3cefea	-0.18450895
230	0x3de96e7f	0.113980286
231	0xb4a66ea2	-3.1000405e-07
232	0x35a25864	1.2095666e-06
233	0xb74c94be	-1.2193979e-05
234	0xbdaa8905	-0.08326916
235	0xb795b78d	-1.7847657e-05
236	0xbf04256e	-0.51619613
237	0x34af8f29	3.2700453e-07
238	0xbe37bb59	-0.17942561
239	0x3e38543f	0.18000887
240	0x34c4d653	3.6663786e-07
241	0x3e49f0dd	0.19720788
242	0xb60d6fb0	-2.1075648e-06
243	0xb7a984b9	-2.0208174e-05
244	0xbe458901	-0.19290544
245	0xb80fc068	-3.427305e-05
246	0xb7e78455	-2.7598968e-05
247	0x3ddac3a9	0.106818505
248	0xbe8c71e7	-0.2743065
249	0x3ef898ec	0.4855417
250	0xbdd61e56	-0.10455005
251	0x3f2e178d	0.68004686
252	0xb749a43b	-1.20187715e-05
253	0x36806a66	3.8270837e-06
254	0x34715cca	2.247863e-07
255	0x3d7861bf	0.060640093

fc_2.bias f4 [10]
0	0xb7749d73	-1.4580192e-05
1	0x3739e242	1.1079539e-05
2	0xb852b37f	-5.023507e-05
3	0xb7396579	-1.1050485e-05
4	0x3790fbe2	1.728343e-05
5	0x37eb3a67	2.8041379e-05
6	0xb81ee99c	-3.78877e-05
7	0x35edc2b4	1.7714542e-06
8	0x3d2e9763	0.042624842
9	0x3783c7e4	1.5709498e-05
