notebooks/models/long_cnn_normal_0.100/model.pth (torch, 216215 bytes, 6 tensors)

conv_0.weight f4 [64, 1, 3, 3]
0.09426381 -0.004562268 -0.10160525 0.13944307 0.053630188 -0.03842999 0.12872335 0.115972616
0.06568716 0.119182035 0.222277 0.21171884 0.17144157 0.26299486 0.19323379 0.13175301
0.1642496 0.096841305 0.10486318 0.121245414 0.10668879 -0.0054044686 0.010675682 0.050067224
-0.10799462 -0.11088124 -0.03997785 0.022302909 -0.057047706 -0.07889004 0.06337574 0.03595865
0.0022668112 0.047259916 0.08220298 0.07897813 0.018851139 0.03605209 0.047821853 -0.0052368077
-0.012130143 -0.009226701 -0.017249698 -0.027932176 -0.019819735 0.13512342 0.27385512 0.3119997
0.14570965 0.3309252 0.31874767 0.09129669 0.23050001 0.20665428 0.07844016 0.07774868
0.062126655 0.05222746 0.05257307 0.04518742 -0.019531561 -0.0064445147 0.0012930126 0.040547412
0.049039792 0.052051865 -0.010515198 -0.0062073036 0.0030537324 -0.036965 -0.041871503 -0.028275723
0.10389185 0.15071326 0.09096878 0.15634428 0.15845162 0.036062714 0.1540424 0.114410624
-0.0021629233 0.11220928 0.07003539 0.01336118 0.2114042 0.21542305 0.12442162 0.19736576
0.23135154 0.18805902 0.022688707 0.05264 0.05082865 0.09479437 0.13960941 0.10764708
0.11199668 0.12868965 0.0924677 0.047759015 0.08587411 0.092398256 0.07464397 0.11930453
0.10677196 0.036165267 0.05953753 0.044262193 -0.0022781417 -0.0061127623 -0.013521067 -0.016255742
-0.025597459 -0.015988575 0.022339404 0.031414084 0.029540572 -0.00076210353 0.030714612 0.04506705
0.033331066 0.0766246 0.052138563 0.058977075 0.081165716 0.040550597 -0.038148914 -0.0075477296
0.034197472 -0.041098725 0.007285866 0.048328426 -0.014118335 0.027191259 0.041745767 0.054722603
0.07700366 0.06705066 0.058092598 0.075454846 0.049592465 0.018419497 0.018688634 -0.0013667217
-0.032598335 -0.05486136 -0.05353535 0.00067440746 -0.017191274 -0.0024253952 0.06387795 0.07102641
0.05681799 -0.041613083 -0.00456829 0.05485416 -0.038741734 0.01178997 0.063916445 -0.013485455
0.03951616 0.04537139 -0.0044278624 -0.0022132813 -0.0066370415 -0.0066026095 -0.00080072106 -0.0029455284
-0.005954162 -0.005256004 -0.0036571706 -0.007783302 -0.011161729 -0.0071350024 -0.0072555104 -0.0064079105
-0.010202007 -0.008111823 -0.005017996 -0.009347392 -0.060960837 -0.041798644 0.039487798 -0.070459366
0.0061857235 0.10395245 -0.004684535 0.08951782 0.10532673 -0.004739178 -0.008726096 -0.011445427
-0.010976058 -0.008229833 -0.009399364 -0.012038113 -0.0075916327 -0.008773988 -0.03945442 -0.098056175
-0.09443953 0.024976244 -0.014594886 -0.0016309342 0.096751705 0.11238287 0.096704654 -0.014602548
-0.007695754 -7.100464e-05 -0.0074444255 -0.010637298 -0.00835446 -0.0009908105 -0.009288701 -0.012192923
-0.01588703 -0.012926881 -0.016957851 -0.013904159 -0.010621924 -0.014954337 -0.016589055 -0.014824543
-0.009869807 -0.07058452 -0.22563736 -0.19753656 0.094363995 0.04260781 0.09000944 0.23683184
0.27978876 0.26103774 0.011984267 0.08271537 0.13099061 0.0066363574 0.11145043 0.15107419
0.0053642057 0.07205839 0.097865395 -0.048785254 0.06195028 0.15273467 -0.022971956 0.14679098
0.21131511 0.06393585 0.18658505 0.18553895 0.1168169 0.13472117 0.10290932 0.049003825
00000000: 620d c13d 147f 95bb 6a16 d0bd 2aca 0e3e
00000010: 54ab 5b3d c468 1dbd 0ed0 033e 0d83 ed3d
00000020: fd86 863d b615 f43d 959c 633e d3cc 583e
00000030: 618e 2f3e 43a7 863e 14df 453e 43ea 063e
00000040: 0c31 283e bc54 c63d 82c2 d63d 844f f83d
00000050: a77f da3d f817 b1bb 0ee9 2e3c 4a13 4d3d
00000060: 492c ddbd b415 e3bd d0bf 23bd 97b4 b63c
00000070: dbaa 69bd 1a91 a1bd 24cb 813d 6149 133d
00000080: c88e 143b 9d93 413d 095a a83d 49bf a13d
00000090: b46d 9a3c 5bab 133d d9e0 433d 8799 abbb
000000a0: 82bd 46bc 972b 17bc 3d4f 8dbc 05d2 e4bc
000000b0: ff5c a2bc cb5d 0a3e bd36 8c3e 6dbe 9f3e
000000c0: e934 153e 076f a93e e532 a33e c2f9 ba3d
000000d0: 3208 6c3e 2e9d 533e 3ca5 a03d b33a 9f3d
000000e0: 8578 7e3d 76ec 553d dc56 573d 7216 393d
000000f0: a700 a0bc 822c d3bb 4e7a a93a 0b15 263d
00000100: f3dd 483d 5634 553d f047 2cbc a366 cbbb
00000110: 2121 483b 9d68 17bd 7481 2bbd 7da2 e7bc
00000120: 40c5 d43d 9454 1a3e d74d ba3d b718 203e
00000130: 2441 223e 7fb6 133d 4abd 1d3e 1e50 ea3d
00000140: d5bf 0dbb fbcd e53d b76e 8f3d dae8 5a3c
00000150: 587a 583e dc97 5c3e c3d0 fe3d 401a 4a3e
00000160: 6be7 6c3e 8b92 403e abdd b93c 0a9d 573d
00000170: b431 503d 8d23 c23d c5f5 0e3e 1376 dc3d
00000180: 845e e53d 38c7 033e b55f bd3d f59e 433d
00000190: c4de af3d 4c3b bd3d f0de 983d ef55 f43d
000001a0: 42ab da3d 0822 143d a0dd 733d 464c 353d
000001b0: e04c 15bb 914d c8bb 7787 5dbc c32a 85bc
000001c0: c3b1 d1bc 79fa 82bc 2001 b73c 0eac 003d
000001d0: 12ff f13c e7c7 47ba 369d fb3c 3a98 383d
000001e0: 2886 083d 5ced 9c3d 3f8f 553d f291 713d
000001f0: 363a a63d 6218 263d 0942 1cbd f252 f7bb
00000200: a612 0c3d 2357 28bd 46be ee3b 07f4 453d
00000210: 9750 67bc 34c0 de3c 9cfd 2a3d cf24 603d
00000220: 18b4 9d3d db51 893d 81f2 6d3d 1288 9a3d
00000230: 7821 4b3d 7ce4 963c e818 993c 9223 b3ba
00000240: d585 05bd 4eb6 60bd e247 5bbd b8ca 303a
00000250: b7d4 8cbc 61f3 1ebb 71d2 823d 4b76 913d
00000260: fbb9 683d 7b72 2abd 98b1 95bb c1ae 603d
00000270: a7af 1ebd b82a 413c a0e6 823d 19f2 5cbc
00000280: b2db 213d 5ad7 393d 9a17 91bb b30c 11bb
00000290: 8a7b d9bb b45a d8bb 7be7 51ba c409 41bb
000002a0: 221b c3bb 8f3a acbb 24ad 6fbb 120b ffbb
000002b0: afdf 36bc bdcc e9bb a2bf edbb 73f9 d1bb
000002c0: 5226 27bc 74e7 04bc 006e a4bb ce25 19bc
000002d0: 12b2 79bd 0e35 2bbd f5bd 213d 004d 90bd
000002e0: 9cb1 ca3b 06e5 d43d ba80 99bb 1e55 b73d
000002f0: 8ab5 d73d 1b4b 9bbb e6f7 0ebc 9a85 3bbc
00000300: edd4 33bc 6cd6 06bc caff 19bc 813b 45bc
00000310: 3bc3 f8bb c6c0 0fbc f59a 21bd add1 c8bd
00000320: 8369 c1bd fb9a cc3c 641f 6fbc 12c5 d5ba
00000330: c225 c63d fd28 e63d 170d c63d 873f 6fbc
00000340: aa2c fcbb 53e8 94b8 5ef0 f3bb 1048 2ebc
00000350: 25e1 08bc 15de 81ba a32f 18bc d3c4 47bc
00000360: 8425 82bc 45cb 53bc 31eb 8abc 45ce 63bc
00000370: 9407 2ebc 0903 75bc c5e5 87bc a4e2 72bc
00000380: f9b4 21bc 9e8e 90bd 7b0d 67be 0647 4abe
00000390: e941 c13d 8785 2e3d df56 b83d 0c84 723e
000003a0: 7940 8f3e bda6 853e a959 443c ad66 a93d
000003b0: 6722 063e cd75 d93b 1f40 e43d 31b3 1a3e
000003c0: 38c6 af3b 5993 933d a76d c83d 0cd3 47bd
000003d0: 94bf 7d3d 7a66 1c3e af2f bcbc 6050 163e
000003e0: fd62 583e cdf0 823d 2710 3f3e ecfd 3d3e
000003f0: b33d ef3d 59f4 093e 1fc2 d23d 3cb8 483d

conv_0.bias f4 [64]
0.038913693 0.07567984 0.033894863 0.016506145 0.0047177277 0.11138334 0.02808067 0.008827054
0.050624594 0.08008032 0.045803044 0.03673866 0.003656431 0.024266403 0.0103568 0.024727212
0.013448638 0.014722236 0.0034801695 0.018275812 0.031139916 0.023609588 0.03391567 0.01855513
0.033177514 0.08851076 0.048044827 0.069405176 0.035344943 0.06252302 0.03285581 0.029476264
0.022213861 0.059743814 0.024896832 0.0054915617 0.0060805366 0.12772594 0.0053402 0.020977916
0.053145144 0.035652716 0.09946634 0.002436151 0.019023571 0.015905824 0.0019362147 0.09829627
0.029699983 0.05356811 0.014031768 0.09320222 0.044400126 0.0054875496 0.078583166 0.03409286
0.0074928026 0.04074984 0.034559455 0.066509835 0.095795795 0.01734854 0.023170669 0.047495283
00000000: f763 1f3d 08fe 9a3d 57d5 0a3d e537 873c
00000010: 2b97 9a3b f31c e43d 6f09 e63c 599f 103c
00000020: bc5b 4f3d 2701 a43d f99b 3b3d 477b 163d
00000030: bca0 6f3b 56ca c63c 91af 293c b990 ca3c
00000040: ad57 5c3c 8935 713c 8e13 643b 28b7 953c
00000050: 2319 ff3c e568 c13c 28eb 0a3d ee00 983c
00000060: 25e5 073d 2145 b53d a7ca 443d 4d24 8e3d
00000070: dcc5 103d 120c 803d d093 063d 3578 f13c
00000080: d8f9 b53c eeb5 743d 71f4 cb3c 8ff2 b33b
00000090: 3d3f c73b 97ca 023e d8fc ae3b e1d9 ab3c
000000a0: b9ae 593d 9508 123d 02b5 cb3d d5a7 1f3b
000000b0: 52d7 9b3c ee4c 823c 96c8 fd3a 8e4f c93d
000000c0: 614d f33c 3c6a 5b3d 80e5 653c cee0 be3d
000000d0: e8dc 353d e7d0 b33b 36f0 a03d f4a4 0b3d
000000e0: 2f86 f53b 4ee9 263d 378e 0d3d 4f36 883d
000000f0: 9630 c43d 861e 8e3c 6ad0 bd3c 6a8a 423d

conv_1.weight f4 [64, 64, 3, 3]
-0.0115023 -0.011347248 -0.022849336 -0.021662904 -0.0069672153 -0.0013816791 -0.010110215 0.012906456
0.0022201373 -0.016936883 -0.014509751 -0.034215793 -0.03805785 -0.044575665 -0.0053767 -0.021689825
0.047627103 0.051858094 -0.001185852 0.007694736 0.01134149 -0.005662542 -0.0070085614 -0.009436328
-0.01584806 -0.009511379 0.009653348 -0.00549355 -0.0031938073 -0.0069943345 -0.0060706427 0.00013504727
0.012314708 0.0032673767 0.012395177 0.002728465 0.00082209776 0.0013681344 0.002963117 0.0014292494
0.0011706896 -0.002042839 -0.0029853557 -0.0046635424 0.0064317184 -0.01931885 -0.027640747 -0.044578087
-0.057033878 -0.054171633 -0.0052056327 -0.017995652 0.06276259 0.05520055 -0.0038600028 -3.0366833e-05
-0.0041136118 -0.0029932489 -0.013933417 -0.008284075 -0.009837391 0.003588667 0.012764793 0.0021065695
0.002708662 0.006643875 -0.002596853 0.00014409689 -0.004278545 -0.002109341 -0.00022324045 0.008298282
-0.011629573 -0.00854876 -0.025298897 -0.024676774 -0.023336716 -0.0064771473 -0.02097602 0.030683242
0.0306718 -0.012605262 -0.019853739 -0.036681976 -0.044192325 -0.022328712 0.011667092 -0.004442342
0.05109905 0.030733366 -0.008149804 -0.014487269 -0.025491213 -0.024599513 -0.015521399 0.00801868
-0.003962402 0.03338232 0.027956802 -0.0073566963 -0.00321171 -0.0106140915 -0.018561576 -0.016617721
-0.0016206508 -0.0074395123 0.017780282 0.020366788 -0.0020495479 -0.003759572 0.0012726866 -0.0013525814
0.006059394 0.008548982 0.0050103813 0.0046480056 0.00167403 -0.004869472 -0.0011554515 -0.01284991
-0.01546061 -0.005194087 0.004141332 -0.0022859322 0.014032184 0.016300825 0.0012293336 -0.0060618073
-0.008844056 0.0015649586 0.0009826289 0.0077473363 0.010293719 0.013242976 0.0029142809 -0.00030984948
-0.0007494314 -0.0056010177 -0.0063844505 -0.010251217 -0.006060203 -0.008134724 0.0106226625 0.015406891
0.0001330875 -0.0022129 -0.0034797888 -0.003104195 0.005607326 0.018329399 0.0038813571 0.017703483
0.007813109 -0.0036658936 -0.007969519 -0.007467788 -0.0029009145 -0.0033674971 0.0010132296 0.0074447524
0.01133567 0.0040405374 0.0031532038 -0.00057824305 0.00046089457 -1.7985503e-05 0.00434035 0.0017564453
8.443279e-05 0.0027619042 -0.0032999534 0.0044407393 0.002944158 0.0034431687 0.0025791996 0.0021288425
0.0026675265 0.0022829832 0.0008677671 -0.0038294848 -0.004358056 -0.012951124 -0.009414116 -0.005672466
0.007556533 0.015149251 0.025176989 0.023200724 0.007673656 0.0007293962 -0.0010244428 0.0038591595
-0.000113429705 0.0011503407 0.0033518276 0.0006371865 -0.001662608 -0.00015597093 -0.0037507412 -0.0072572785
-0.005672499 -0.010102532 0.00886254 0.028077774 0.0119535625 0.025500901 0.012286165 0.003685061
0.0010177755 -5.6662607e-06 0.0032826539 0.0001303005 0.003375356 0.0013059296 -0.0016239773 -0.0032539822
0.0013466715 0.0015230926 -0.0013900991 0.0048961067 0.0013610552 0.0014659709 -0.0031285586 -0.00061938347
-0.0015803457 -0.01112903 -0.025414761 -0.022432843 -0.028372398 0.024630085 0.056182433 0.028035484
0.06448066 0.039713632 -0.006131263 -0.01582801 -0.017907636 -0.01898591 -0.020372815 -0.00081617
-0.001206444 0.019291917 0.016555732 -0.011620446 -0.03072449 -0.030485416 -0.028271774 -0.015354116
0.013198357 0.018732 0.04350673 0.028150542 -0.0020094684 -0.0020363443 -0.005189843 -0.016976068
00000000: 2574 3cbc cfe9 39bc 882e bbbc 6776 b1bc
00000010: 3d4d e4bb 7519 b5ba 51a5 25bc 9a75 533c
00000020: b97f 113b 38bf 8abc 4fba 6dbc dc25 0cbd
00000030: 8ce2 1bbd f994 36bd 072f b0bb dcae b1bc
00000040: a314 433d 2769 543d 976e 9bba 2024 fc3b
00000050: a8d1 393c d88c b9bb 13a8 e5bb d49a 1abc
00000060: cad3 81bc 9dd5 1bbc 1329 1e3c 3d03 b4bb
00000070: 324f 51bb bb30 e5bb 3eec c6bb 7a9b 0d39
00000080: a1c3 493c 7c21 563b 2415 4b3c 0cd0 323b
00000090: 0c82 573a f952 b33a db30 423b a755 bb3a
000000a0: d371 993a 27e1 05bb f5a5 43bb a1d0 98bb
000000b0: 2ac1 d23b 9142 9ebc d96e e2bc 8397 36bd
000000c0: 5b9c 69bd 13e3 5dbd 0394 aabb 9e6b 93bc
000000d0: ac89 803d f919 623d 1af8 7cbb 47bc feb7
000000e0: 7acb 86bb 622a 44bb fd48 64bc eeb9 07bc
000000f0: 022d 21bc d72f 6b3b 6c23 513c 5f0e 0a3b
00000100: cf83 313b ddb4 d93b f72f 2abb b718 1739
00000110: 0933 8cbb df3c 0abb a715 6ab9 84f5 073c
00000120: f789 3ebc 1910 0cbc a23f cfbc f226 cabc
00000130: a42c bfbc 403e d4bb e7d5 abbc 6c5b fb3c
00000140: 6d43 fb3c 4d86 4ebc 4fa4 a2bc d73f 16bd
00000150: 0303 35bd b4ea b6bc 5527 3f3c 1191 91bb
00000160: 3d4d 513d 8ac4 fb3c c186 05bc 035c 6dbc
00000170: f3d2 d0bc eb84 c9bc 774d 7ebc c860 033c
00000180: 0ad7 81bb e6bb 083d aa05 e53c 7110 f1bb
00000190: 8d7b 52bb bae6 2dbc 720e 98bc e321 88bc
000001a0: 046c d4ba 27c7 f3bb f4a7 913c 40d8 a63c
000001b0: b551 06bb 2763 76bb 47d0 a63a 1a49 b1ba
000001c0: e28d c63b 0811 0c3c 202e a43b 4c4e 983b
000001d0: 206b db3a 1790 9fbb 8572 97ba 6e88 52bc
000001e0: 804e 7dbc 2933 aabb 03b4 873b 94cf 15bb
000001f0: 3fe7 653c 4f89 853c 9721 a13a 20a2 c6bb
00000200: a9e6 10bc 4c1f cd3a 8ecb 803a 5edd fd3b
00000210: fda6 283c 11f9 583c 85fd 3e3b 4b73 a2b9
00000220: 7d75 44ba be88 b7bb a734 d1bb b8f4 27bc
00000230: ab94 c6bb 8147 05bc ad0a 2e3c 2f6d 7c3c
00000240: 678d 0b39 4d06 11bb 2b0d 64bb c06f 4bbb
00000250: a9bd b73b 8927 963c 5e5e 7e3b e506 913c
00000260: 8e02 003c 7d3f 70bb 9692 02bc 59b4 f4bb
00000270: 451d 3ebb 3ab1 5cbb 58ce 843a 1cf3 f33b
00000280: 3fb9 393c 7c66 843b fba5 4e3b 3c95 17ba
00000290: 39a4 f139 93df 96b7 7f39 8e3b 8638 e63a
000002a0: 8211 b138 1001 353b 0844 58bb 9f83 913b
000002b0: c6f2 403b c9a6 613b ca07 293b 0d84 0b3b
000002c0: abd1 2e3b 1a9e 153b dd7a 633a 18f8 7abb
000002d0: 06ce 8ebb f430 54bc aa3d 1abc 18e0 b9bb
000002e0: cb9c f73b 9034 783c f93f ce3c 720f be3c
000002f0: 4b73 fb3b f334 3f3a 9946 86ba f4e9 7c3b
00000300: 1ce1 edb8 07c7 963a 56aa 5b3b dd08 273a
00000310: deeb d9ba 218c 23b9 ffce 75bb 77ce edbb
00000320: 5fe0 b9bb 1785 25bc 3034 113c 5c03 e63c
00000330: e0d8 433c 44e7 d03c e94b 493c 1081 713b
00000340: e166 853a cf20 beb6 cb21 573b 46a1 0839
00000350: 1435 5d3b ba2b ab3a a3db d4ba c340 55bb
00000360: cc82 b03a 82a2 c73a fc33 b6ba 856f a03b
00000370: 6f65 b23a d225 c03a 8108 4dbb 1f5e 22ba
00000380: 9a23 cfba 8956 36bc 9e32 d0bc 15c5 b7bc
00000390: 3b6d e8bc 08c5 c93c 8d1f 663d acaa e53c
000003a0: 700e 843d c3aa 223d c3e8 c8bb bea9 81bc
000003b0: 09b3 92bc 5788 9bbc e4e4 a6bc 3ef4 55ba
000003c0: 8b21 9eba 150a 9e3c e39f 873c af63 3ebc
000003d0: edb1 fbbc 8dbc f9bc 359a e7bc d58f 7bbc
000003e0: ec3d 583c da73 993c 1d34 323d f79b e63c
000003f0: 49b1 03bb 3074 05bb 8f0f aabb 6511 8bbc

conv_1.bias f4 [64]
0.005377714 -0.0005026818 0.0036872826 0.0020049731 0.00044426307 -0.0030964983 -0.0025045562 -0.0042465753
0.0023320043 -0.0038672986 -0.008713171 -0.011958607 0.008615829 0.020775154 0.0004450397 0.0049223364
0.0036725113 0.00015190015 -0.0064082346 -0.00078609516 -0.0100483345 0.000453922 -0.0032546415 0.0003289124
0.004199227 -0.006036623 0.0047606304 0.0021991956 0.0017551807 0.008494982 0.0044029728 0.0037479086
0.006464648 -0.019109948 0.0009116145 0.0009896002 0.006770612 -0.003756138 0.0006485004 -0.0021539317
0.004071694 0.0039408244 0.004376802 0.014610581 -0.0014606698 0.007492555 -0.0062500313 -0.007307676
0.002040604 0.00044638567 -0.0037451943 0.000298637 -0.00049817574 0.008490692 0.0040265657 0.014000645
0.00014772991 -0.0088947 0.012766678 0.00725137 -0.0007956217 -0.005749231 -0.0061513195 -0.0055692494
00000000: 8937 b03b 68c6 03ba 56a6 713b de65 033b
00000010: fbeb e839 9fee 4abb 7b23 24bb db26 8bbb
00000020: 8ad4 183b 8172 7dbb b0c1 0ebc 08ee 43bc
00000030: 6829 0d3c a830 aa3c 3854 e939 8d4b a13b
00000040: 84ae 703b 6347 1f39 2bfc d1bb f411 4eba
00000050: c5a1 24bc 61fc ed39 d34b 55bb e071 ac39
00000060: ab99 893b ddce c5bb 10ff 9b3b 6120 103b
00000070: 170e e63a 892e 0b3c d046 903b 799f 753b
00000080: 66d5 d33b 778c 9cbc 6af9 6e3a 79b5 813a
00000090: 03dc dd3b 8a29 76bb 2000 2a3a fa28 0dbb
000000a0: d86b 853b 0822 813b 476b 8f3b 3861 6f3c
000000b0: f273 bfba 1b84 f53b 10cd ccbb 3b75 efbb
000000c0: a7bb 053b df08 ea39 ef71 75bb 6192 9c39
000000d0: 0298 02ba 8b1c 0b3c 48f1 833b f662 653c
000000e0: f2e7 1a39 13bb 11bc 542b 513c e79c ed3b
000000f0: 4591 50ba 0c64 bcbb 0291 c9bb 407e b6bb

fc.weight f4 [10, 1600]
0.00013427512 -0.005853611 0.018635133 0.0035249111 -0.020600885 0.0021625196 0.017268015 0.027564444
-0.02195939 -0.031956747 -0.01070492 0.021473259 -0.01121732 -0.019964166 0.0014825796 -0.029704161
-0.03905062 -0.022262027 -0.007164743 0.012141457 -0.022155238 -0.03716265 -0.006128329 0.0039875777
0.0036866728 0.00043197686 -0.014027478 -0.0068691946 0.0064939405 -0.007813298 -0.00519087 0.0063552787
0.026311137 0.014249276 0.009512368 -0.0055823387 0.0032265803 0.025414305 0.0014527378 0.01088249
0.0016386267 0.0012541731 0.002658917 -0.01139766 -0.00722047 0.0005081384 0.008449872 -0.02807266
-0.044905957 -0.034692105 -0.0036042742 0.012784814 -0.016945628 0.013126273 -0.006748993 0.0053595332
0.0024314672 0.0040178862 -9.9179175e-05 -0.006342333 0.010006072 0.009981098 0.00072584284 -0.048926234
0.013771297 0.0028042467 -0.002101296 -0.0013255475 0.004241948 0.0072515146 -0.0057617924 -0.021971527
0.031319905 -0.0064015165 -0.0040292195 -0.001937422 -0.0016024939 -0.0015681551 -0.0018964071 0.0033530793
-0.002252209 -0.004777638 -0.0040483917 0.0028168496 0.0038962022 -0.00311778 -0.01056118 -0.000436033
-0.002164935 0.010885294 -0.0090472745 -0.015626052 -0.006811112 0.0059288642 0.0019410204 -0.0015695539
0.0031986374 0.0029591322 0.0071138223 -0.0016102573 -0.0019128995 -0.0073970025 0.0052050315 0.0032588057
-0.012257871 -0.004810519 0.0053785313 -0.005762151 0.0011191436 0.0010659326 -0.010515564 -0.014398815
-0.03020996 -0.036931694 -0.009808031 -0.023578318 -0.01188411 -0.007178883 -0.0039208746 -0.0077784993
0.0031504605 -0.00825327 0.024616636 0.015732422 -0.0046400037 0.00055113924 -0.009299325 -0.010708324
0.0018436474 0.0020259689 -0.0028861954 -0.014922547 -0.0034848712 0.011073881 0.03990324 -0.0026744201
-0.027733862 -0.0155919 0.015359515 0.05586436 -0.00029238165 0.02309805 -0.035398427 -0.0049903207
0.0182983 -0.007607542 0.022969525 -0.03559883 -0.0501796 -0.016826952 -0.0022557355 -0.005571215
-0.0042839115 0.003510123 0.008102117 0.0016255903 -0.0008554066 0.016970046 0.003108524 0.004688624
0.008702612 0.018414896 -0.0024743348 -0.03023509 0.014645133 0.0202137 0.008369453 0.009599069
-0.011039122 0.013999679 0.0069473395 -0.0015464697 0.0044077635 0.004052847 -0.0074186386 -0.007321312
0.006602733 -0.02042301 -0.0007060411 0.0038507867 0.0070292014 -0.0052914927 -0.021807907 -0.01769723
-0.019723862 -9.406115e-05 0.010522388 -0.011543592 -0.007342079 -0.013128663 0.0022600212 -0.0115239145
0.00064116 0.016540894 -0.004199914 -0.009075396 0.00050195935 -0.008724601 0.015053588 5.285519e-05
-0.0031119057 -0.0051145866 0.0036154443 0.0162818 0.0024426815 0.00069168204 0.0013767437 -0.012322793
-0.027541729 -0.026275111 -0.011957603 0.0033284263 -0.029459393 -0.02463376 -0.022026667 -0.011931709
-0.016941382 0.004594121 -0.0075311814 -0.0052552284 -0.0066217696 0.0013205417 0.018169058 0.02123852
-0.0017672871 0.00074623857 0.006216548 0.008816337 0.0032483814 0.0022895571 -0.0014514909 0.00822983
0.012672576 0.02211677 0.012041824 -0.0045812065 -0.016610393 -0.036427733 -0.0077807643 -0.016996434
-0.001542835 -0.01842354 -0.007013328 -0.014756307 0.005077491 -0.00024723393 0.00782987 0.028624674
0.011353584 -0.007943744 -0.0060157324 -0.008290937 -0.0053025265 0.01537363 0.0031449776 -0.006477661
00000000: 34cc 0c39 a6cf bfbb b5a8 983c 3202 673b
00000010: 30c3 a8bc 0fb9 0d3b a775 8d3c d4ce e13c
00000020: 2ee4 b3bc 14e5 02bd b063 2fbc b0e8 af3c
00000030: dac8 37bc e48b a3bc 1e53 c23a 2456 f3bc
00000040: 8bf3 1fbd db5e b6bc 38c6 eabb f6ec 463c
00000050: e77e b5bc dd37 18bd 26d0 c8bb 3aaa 823b
00000060: 1b9c 713b f47a e239 82d3 65bc fb16 e1bb
00000070: 1fcb d43b 5903 00bc 2c18 aabb f13f d03b
00000080: 748a d73c cc75 693c c3d9 1b3c 0dec b6bb
00000090: 0975 533b a931 d03c cb69 be3a 794c 323c
000000a0: 30c7 d63a 1163 a43a 3a41 2e3b 40bd 3abc
000000b0: b199 ecbb 9734 053a 5571 0a3c a3f8 e5bc
000000c0: 4fef 37bd 4f19 0ebd b035 6cbb 6677 513c
000000d0: 8fd1 8abc 940f 573c a826 ddbb 069f af3b
000000e0: 4059 1f3b 79a8 833b 6afe cfb8 58d3 cfbb
000000f0: 82f0 233c c287 233c 7d46 3e3a e066 48bd
00000100: 02a1 613c 74c7 373b e6b5 09bb febd adba
00000110: 0a00 8b3b 1d9e ed3b 6bcd bcbb a2fd b3bc
00000120: 4d49 003d d0c3 d1bb 8b07 84bb 18f1 fdba
00000130: c60a d2ba 8e8a cdba dd90 f8ba 56bf 5b3b
00000140: cc99 13bb bb8d 9cbb 5fa8 84bb e59a 383b
00000150: 6d57 7f3b ab53 4cbb cd08 2dbc 5c9b e4b9
00000160: 95e1 0dbb 3b58 323c 053b 14bc 3502 80bc
00000170: c02f dfbb eb46 c23b d669 fe3a 7db9 cdba
00000180: 3ba0 513b 00ee 413b 111b e93b 450f d3ba
00000190: 42ba faba 8e62 f2bb f88e aa3b b091 553b
000001a0: 3dd5 48bc 8fa1 9dbb 643e b03b 6dd0 bcbb
000001b0: 3ab0 923a c3b6 8b3a 7949 2cbc 02e9 6bbc
000001c0: e17a f7bc b045 17bd ddb1 20bc 5127 c1bc
000001d0: 92b5 42bc d63c ebbb ae7a 80bb c8e2 febb
000001e0: f577 4e3b b938 07bc d4a8 c93c 48e1 803c
000001f0: 2c0b 98bb 547a 103a 325c 18bc f771 2fbc
00000200: 8ba6 f13a 1ec6 043b 5326 3dbb b37d 74bc
00000210: 7062 64bb 396f 353c 9471 233d 5345 2fbb
00000220: 2032 e3bc 2b75 7fbc 7aa6 7b3c 07d2 643d
00000230: cd4a 99b9 1f38 bd3c f1fd 10bd d885 a3bb
00000240: 51e6 953c b048 f9bb 962a bc3c 14d0 11bd
00000250: 2089 4dbd add8 89bc f6d4 13bb bd8e b6bb
00000260: 0e60 8cbb 170a 663b bebe 043c c211 d53a
00000270: 5d3d 60ba c404 8b3c 61b8 4b3b 07a3 993b
00000280: 6695 0e3c d6da 963c 7328 22bb 94af f7bc
00000290: 24f2 6f3c 3497 a53c 0820 093c 6a45 1d3c
000002a0: 6fdd 34bc e95e 653c 82a6 e33b eab2 caba
000002b0: 006f 903b bfcd 843b 0d18 f3bb 9ee7 efbb
000002c0: bd5b d83b 284e a7bc 9e15 39ba 7b5d 7c3b
000002d0: 3755 e63b 4264 adbb 7fa6 b2bc c8f9 90bc
000002e0: f093 a1bc b242 c5b8 1866 2c3c 5621 3dbc
000002f0: d395 f0bb 9b19 57bc dd1c 143b cdce 3cbc
00000300: 8513 283a c580 873c 6f9f 89bb f8b0 14bc
00000310: ec95 033a a1f1 0ebc 53a3 763c d4b0 5d38
00000320: 1df1 4bbb 4398 a7bb 17f1 6c3b 6961 853c
00000330: 6515 203b ff51 353a da73 b43a 8ae5 49bc
00000340: 319f e1bc e73e d7bc d2e9 43bc ba21 5a3b
00000350: d354 f1bc bdcc c9bc 4571 b4bc 377d 43bc
00000360: a7c8 8abc 488a 963b 21c8 f6bb 0d34 acbb
00000370: 6efb d8bb 0716 ad3a 47d7 943c 68fc ad3c
00000380: 51a4 e7ba 399f 433a 2fb4 cb3b 6672 103c
00000390: cce2 543b 650c 163b f43f beba 69d6 063c
000003a0: a3a0 4f3c 3a2e b53c 124b 453c f21d 96bb
000003b0: 8512 88bc 3f35 15bd c8f5 febb 1b3c 8bbc
000003c0: f438 caba f7ec 96bc 0fd0 e5bb 70c4 71bc
000003d0: 1561 a63b 2d9f 81b9 db48 003c 4b7e ea3c
000003e0: 6204 3a3c 7a26 02bc 9f1f c5bb b6d6 07bc
000003f0: d1c0 adbb aee1 7b3c f81b 4e3b 8f42 d4bb

fc.bias f4 [10]
0.0064223614 0.0141310785 0.006718753 -0.014226079 -0.0035794857 0.01451767 -0.0015230465 -0.0015707471
-0.013943218 -0.0025174213
00000000: ac72 d23b 0a86 673c fc28 dc3b 8014 69bc
00000010: ce95 6abb 85db 6d3c f6a0 c7ba 87e1 cdba
00000020: 1872 64bc 52fb 24bb
