notebooks/models/cnn_normal_0.005/model.pth (torch, 216215 bytes, 6 tensors)

conv_0.weight f4 [64, 1, 3, 3]
0	0xbd9c980c	-0.07646188
1	0xbae58cb3	-0.0017513245
2	0x3e0047f9	0.12527455
3	0xbd85e6ce	-0.06538163
4	0x3cdd1515	0.026987592
5	0x3d9266ff	0.07148551
6	0xbcd6d7a4	-0.026225872
7	0x3d7aabc2	0.061198957
8	0x3dddcceb	0.108301006
9	0x3d99aa02	0.075031295
10	0x3d5e2120	0.05423081
11	0x3ca1f6f2	0.019771073
12	0x3b5c6144	0.003362731
13	0xbdaa5b29	-0.08318169
14	0x3c9d872e	0.019229498
15	0xbcdff73d	-0.027339572
16	0xbd8d77ae	-0.06907593
17	0xbc512bb7	-0.01276677
18	0x3d3ddd71	0.04635376
19	0x3d505736	0.05086442
20	0x3c92c0f6	0.017914277
21	0x3d0fbd4a	0.03509263
22	0x3d98349e	0.07431911
23	0x3d6c759a	0.05772934
24	0xbd8f25ee	-0.069896564
25	0xbde9115e	-0.11380266
26	0xbafd9d2f	-0.0019349213
27	0x3da8bedd	0.08239529
28	0xbd1f6e4f	-0.038923558
29	0xbd90c501	-0.070688255
30	0x3da5fb39	0.081045575
31	0xbb4d1645	-0.0031293791
32	0xbd9f73a7	-0.07785731
33	0x3de864a8	0.11347324
34	0xbcf01b01	-0.029309751
35	0xbb2b4fcb	-0.002614009
36	0xbbbdfa32	-0.005797648
37	0xbddbd880	-0.107346535
38	0xbd8f03f6	-0.06983177
39	0xbd615278	-0.05501029
40	0x3b8bee2e	0.0042703366
41	0xbbf6a259	-0.0075266776
42	0x3d2c57fb	0.042076092
43	0x3dd5aa24	0.104328424
44	0x3d85d693	0.065350674
45	0x3dbd168f	0.09232818
46	0x3cbcd726	0.02305181
47	0xbd92c9dd	-0.071674086
48	0x3e5bc3d5	0.21461423
49	0x3d2d8b37	0.042369094
50	0xbe14f67d	-0.14547153
51	0x3df224ca	0.11823423
52	0x3db5bcaf	0.08873879
53	0xbd72c099	-0.059265707
54	0x3d86d9ae	0.06584488
55	0x3dc3aae0	0.09554076
56	0x3e19ed0b	0.15031831
57	0xbdbeb049	-0.093109675
58	0xbd862e28	-0.06551772
59	0xbd470454	-0.048588112
60	0xbcc5401e	-0.024078425
61	0xbd9a99e7	-0.07548886
62	0xbd9e39b5	-0.077258505
63	0x3de9ab9b	0.11409684
64	0xbce5c162	-0.028046314
65	0xbd93753a	-0.072000936
66	0x3d99b599	0.0750534
67	0xbc8cbc22	-0.017179552
68	0xbd5db92c	-0.05413167
69	0x3d8da405	0.0691605
70	0xbb578da9	-0.0032890833
71	0xbda93fd2	-0.08264126
72	0xbd95b27c	-0.07309434
73	0xbbf9dafd	-0.0076249824
74	0x3d695cc1	0.056973223
75	0x3d32fef7	0.043700185
76	0x3d14986b	0.03627817
77	0x3dba5041	0.090973385
78	0x3df68990	0.12037957
79	0x3d8a4d39	0.0675301
80	0x3dda599e	0.10661624
81	0xbc934cd4	-0.01798097
82	0xbc65c894	-0.014024872
83	0x3c358ee1	0.011081428
84	0x3ccefe34	0.025267698
85	0x3ab024e6	0.0013438731
86	0xbd328ae3	-0.043589484
87	0xbd410e71	-0.047132913
88	0xbcefc457	-0.029268427
89	0xbd3db74c	-0.046317384
90	0xbd111632	-0.035421558
91	0x3d9519b2	0.072802916
92	0x3c05546a	0.008137802
93	0xbdfa8b25	-0.12233571
94	0xbd3923ea	-0.045200266
95	0x3dad8bf3	0.08473959
96	0xbd0af777	-0.033927407
97	0x3ce4b7ec	0.027919732
98	0x3d5b1ef1	0.053496305
99	0xbdc004dc	-0.09375927
100	0xba7c49f6	-0.0009624058
101	0xbd186e29	-0.037214432
102	0xbd37ce75	-0.044874627
103	0x3c2bdf78	0.010490291
104	0xbd3274a5	-0.043568272
105	0xbc864b6b	-0.016393384
106	0xbcb23085	-0.021751652
107	0xbba4193c	-0.005007891
108	0x3e574d96	0.2102569
109	0x3e0b76f3	0.13619594
110	0x3df55155	0.119784035
111	0x3de8139d	0.11331866
112	0x3bc646ca	0.006050919
113	0x3b42d583	0.0029729314
114	0xbd98845c	-0.074471205
115	0xbd7dc0c1	-0.061951403
116	0xbddcf145	-0.10788206
117	0x3d3a8e46	0.04554584
118	0xbd407b61	-0.046992663
119	0xbd8f861e	-0.07008003
120	0x3c86d2d4	0.016457953
121	0xbc4b1ed2	-0.012397485
122	0xbd4901f9	-0.049074147
123	0x3c971ef0	0.01844737
124	0x3d9cf1f8	0.076633394
125	0x3d4d1c38	0.05007574
126	0xbd87659c	-0.06611177
127	0xbdbc49bc	-0.09193751
128	0xbd782753	-0.060584377
129	0xbd39b365	-0.0453371
130	0x3daf82ac	0.085698456
131	0x3e316365	0.17323072
132	0x3d950b67	0.072775654
133	0x3e3698f8	0.1783179
134	0x3e4e1add	0.20127435
135	0x3d6dd3b2	0.058063217
136	0x3c8483f6	0.016176205
137	0x3d72bf25	0.05926432
138	0x3c7f1dc0	0.015571058
139	0xbd200d9b	-0.039075475
140	0x3d1c97c3	0.03823067
141	0xbd96fc5b	-0.07372352
142	0xbbe3c372	-0.006950789
143	0xbde88f6f	-0.11355483
144	0x3e858e0f	0.26084945
145	0x3eb09131	0.34485772
146	0x3e95229e	0.29127973
147	0x3e7d5b60	0.24741888
148	0x3ea51aa0	0.32246876
149	0x3e9015d6	0.2814166
150	0x3d9b5351	0.07584251
151	0x3e5cf697	0.21578442
152	0x3e321be4	0.17393452
153	0x3d833f94	0.06408611
154	0x3d767bcb	0.060176652
155	0x3da8018f	0.08203422
156	0x3bf23149	0.007391129
157	0x3b865f47	0.0041007134
158	0xbc397ea8	-0.011321701
159	0xbd85523d	-0.06509826
160	0xbd0e0e40	-0.03468156
161	0xbd79dd24	-0.06100191
162	0x3d5e07da	0.054206707
163	0xbdd98956	-0.10621898
164	0xbc97247d	-0.018450016
165	0x3c2ac6a0	0.010423332
166	0x3c1897fd	0.009313581
167	0xbd364ab8	-0.04450485
168	0xbcb714f8	-0.022348866
169	0x3da31a65	0.07964019
170	0x3de9e5ce	0.11420785
171	0x3de58590	0.11207116
172	0x3d505753	0.05086453
173	0xb917e927	-0.00014487338
174	0x3df553fa	0.11978908
175	0x3dcdcc4d	0.10048733
176	0x3b209ad3	0.0024506345
177	0x3dccfd43	0.10009243
178	0x3df8a694	0.12141147
179	0x3e28ec40	0.16496372
180	0x3dac08eb	0.084001385
181	0x3ddf2a8c	0.10896787
182	0x3e170155	0.14746602
183	0x3e12b7b1	0.14327885
184	0x3df8f849	0.12156732
185	0x3e3cf5f1	0.18453194
186	0xbc8ebc64	-0.017423816
187	0xbca69736	-0.020335775
188	0x3d10660c	0.03525357
189	0xbc944cc1	-0.018103005
190	0xbdb40e4b	-0.08791789
191	0xbdb8a985	-0.09016708
192	0x3d8aa707	0.06770139
193	0x3d998d02	0.07497598
194	0x3cf5e7d6	0.030017775
195	0x3d984095	0.07434193
196	0x3ca07f03	0.019591814
197	0x3d87287c	0.06599519
198	0x3bf519be	0.0074798753
199	0xbcd488d4	-0.025944151
200	0xbca31926	-0.019909453
201	0x3d59f45d	0.05321156
202	0xbc033ee9	-0.008010604
203	0xbc8b958b	-0.017039081
204	0x3ca38b53	0.019963896
205	0xbc7d46f2	-0.015458809
206	0x3c435bcc	0.011923742
207	0x3cb5fe5e	0.022216018
208	0xbc18e9ae	-0.009333057
209	0x3d728009	0.059204135
210	0x3df9efe0	0.12203956
211	0xbbb9c7a2	-0.00566955
212	0xbdb1018a	-0.08642872
213	0x3cf2450e	0.029573943
214	0xbd2af789	-0.041739974
215	0xbd137f47	-0.036010053
216	0x3e4742c9	0.1945907
217	0x3e4ad2cd	0.19806977
218	0x3e3cce6b	0.18438117
219	0x3e051904	0.12997824
220	0x3deb6cfe	0.11495398
221	0x3e164197	0.14673458
222	0xbe26454f	-0.16237377
223	0xbe1c5378	-0.15266216
224	0x3c0d4d17	0.008624337
225	0x3c9d2f0d	0.019187475
226	0x3d9d8670	0.076916575
227	0x3dae102d	0.08499179
228	0xbca199e0	-0.019726694
229	0xbc86365b	-0.01638334
230	0x3b8e0908	0.0043345727
231	0xbd1631bb	-0.03666852
232	0xbda163ed	-0.078803875
233	0xbd43836c	-0.047732756
234	0xbce6c58e	-0.028170373
235	0xbdd1dbea	-0.102470234
236	0x3ceb49e8	0.028721765
237	0x3ce3b77c	0.027797453
238	0x3b80e1a8	0.0039331503
239	0xbd3ba678	-0.045813054
240	0xbd8259a5	-0.063647546
241	0xbd77bf80	-0.060485363
242	0xbad719bb	-0.0016410867
243	0xbc31ee2e	-0.010860009
244	0xbcd67a1c	-0.026181273
245	0xbd08048b	-0.033207458
246	0xbade81ff	-0.0016975998
247	0xbd18d6e4	-0.03731431
248	0xbd3fccf6	-0.046826325
249	0xbcb0634a	-0.02153172
250	0x3995a505	0.00028542444
251	0x3c7ddbc0	0.015494287
252	0x3c009af5	0.007849445
253	0xbc348de4	-0.0110201575
254	0x3dd20dce	0.10256539
255	0x3cd0d394	0.025491513

conv_0.bias f4 [64]
0	0x3cf3be5e	0.02975386
1	0x3d6d8b9b	0.057994466
2	0xbd44ff2a	-0.048094906
3	0x3b7200ed	0.0036926821
4	0x3cd533bd	0.026025647
5	0x3d645349	0.05574349
6	0x3d78681e	0.06064617
7	0xbb4abdfe	-0.0030935998
8	0xbd15978c	-0.03652148
9	0xbd2afef2	-0.04174704
10	0x3d29d02d	0.041458298
11	0x3cee4f04	0.029090412
12	0xbb8ff3eb	-0.004393091
13	0x3c135583	0.008992556
14	0x3de815d7	0.113322906
15	0x3c94c643	0.018160945
16	0x3d850de1	0.06496788
17	0x3c665399	0.014058017
18	0x3c9ade94	0.018904962
19	0xbce9d8c7	-0.02854575
20	0xbab17c97	-0.0013541159
21	0x3c0bd34b	0.008534263
22	0xbc705993	-0.014669794
23	0x3bfe7f66	0.007766652
24	0x3b468128	0.0030289385
25	0x3d4963f9	0.049167607
26	0x3c0863be	0.008324562
27	0xbdadfe76	-0.084958
28	0x3cbb531b	0.022866776
29	0x3c8a95f8	0.016917214
30	0xbd124a4e	-0.035715394
31	0xbc18b2ef	-0.009320005
32	0x3dd8e891	0.105912335
33	0x3d7ba947	0.061440732
34	0x3dc6bb54	0.09703699
35	0x3d8fd418	0.070228755
36	0x3df00fb8	0.11721748
37	0x3d02d61e	0.03194248
38	0xbcbe4e7b	-0.023230782
39	0x3dd13625	0.102154054
40	0xbbe70124	-0.0070496965
41	0x3d332c17	0.04374322
42	0x3df17137	0.11789172
43	0x3d896809	0.06709296
44	0x3d40613f	0.04696774
45	0x3d76e6fa	0.06027887
46	0x3df192e2	0.11795594
47	0x3d857571	0.06516541
48	0x3a167f13	0.00057409814
49	0x3d202d0a	0.039105453
50	0xbc83c928	-0.01608713
51	0x3d79d730	0.060996234
52	0x3d424464	0.047428504
53	0xbd044482	-0.032291897
54	0xbd71e4f9	-0.059056256
55	0x3d1e7145	0.03868224
56	0x3dec3385	0.11533264
57	0x3da15661	0.078778036
58	0xbcb4bf8f	-0.022063999
59	0x3caee29e	0.021348294
60	0x3d949e5a	0.07256766
61	0x3d510e9c	0.051039323
62	0x3c0b7b20	0.008513242
63	0x3d4f7ebf	0.050657984

conv_1.weight f4 [64, 64, 3, 3]
0	0x3ceecad7	0.029149456
1	0xbca362e6	-0.01994462
2	0x3d47b0d6	0.04875263
3	0xb9b5fa26	-0.00034709385
4	0xbca990fe	-0.02069902
5	0xbc422206	-0.011848932
6	0x3c6d7d09	0.014495143
7	0x3c088bf4	0.008334149
8	0x3a484091	0.00076390157
9	0xbcee05a3	-0.029055422
10	0xbd4ba1d4	-0.04971488
11	0xbc242eec	-0.010020953
12	0xbd79d675	-0.060995538
13	0x3b8ac6ef	0.0042351405
14	0xba64e1cd	-0.00087311567
15	0xbca771ef	-0.02044007
16	0x3d355664	0.04427184
17	0x3ab13c02	0.0013521912
18	0x38e2f2e4	0.00010821762
19	0xbb042d27	-0.0020168514
20	0xbc7b7aeb	-0.01534913
21	0x3c92469b	0.017855933
22	0xbd11aec2	-0.035567053
23	0x3cc846b3	0.024447775
24	0x3ce31a7a	0.027722586
25	0xbcacbb7f	-0.021085499
26	0xbc29568d	-0.010335577
27	0x3d9719d7	0.073779754
28	0x3d6afc9a	0.057369806
29	0x3a9c801c	0.0011940035
30	0x3d94b480	0.0726099
31	0x3d8472df	0.064672224
32	0xbd01cee2	-0.03169144
33	0x3d64fb07	0.05590346
34	0xbc708d88	-0.014682181
35	0xbd6aa907	-0.057290103
36	0xbc869506	-0.016428482
37	0xbb593012	-0.0033140224
38	0x3c2b4881	0.010454298
39	0x3bed4e37	0.00724199
40	0x3d1174bb	0.035511713
41	0x3d1220f2	0.03567595
42	0xbd87728f	-0.06613647
43	0xbcfd781a	-0.030941058
44	0xbc62ca77	-0.013842217
45	0x3b8769b8	0.0041324757
46	0xbcd4f475	-0.025995472
47	0x3d29b103	0.041428577
48	0x3d2d194a	0.042260446
49	0x3d2e3c8e	0.04253822
50	0x3c6e2b32	0.014536666
51	0xbc790b5f	-0.015200465
52	0x3ce21a99	0.027600573
53	0xbce6fa04	-0.028195389
54	0xbbcd3fc9	-0.0062637073
55	0x3db83cc3	0.089959644
56	0x3c25d982	0.010122659
57	0xbd5a4c33	-0.053295325
58	0x3d254dd6	0.040357433
59	0x3bcc2872	0.0062304074
60	0x3ddf854b	0.109140955
61	0x3ce388fe	0.027775284
62	0xbb862f85	-0.0040950202
63	0xbac7734b	-0.0015216855
64	0x3d4851c7	0.048906114
65	0xbd021e4c	-0.031767175
66	0xbd3b3ef5	-0.045714337
67	0xbdd1bce5	-0.10241107
68	0xbc0d6dce	-0.0086321365
69	0xbd7bcb3c	-0.061473116
70	0xbcd59f32	-0.026076887
71	0x3ab3bd79	0.0013713083
72	0xbcbd46ba	-0.023105014
73	0x3ab95247	0.00141389
74	0xbc2b5538	-0.010457329
75	0xbc2a734b	-0.010403465
76	0x3cde12dd	0.027108604
77	0x3d2b8673	0.041876268
78	0xbcd8f23f	-0.0264827
79	0xbcaf31d6	-0.021386068
80	0xbcf57fc4	-0.02996815
81	0xbc862882	-0.016376738
82	0x3ccdf35e	0.02514046
83	0x3d23411d	0.03985702
84	0xbd1d6bb9	-0.03843281
85	0xbcf98763	-0.030460065
86	0x3c2c792e	0.010526938
87	0x3947f1a7	0.00019068141
88	0x3c90374a	0.017604489
89	0x3c7378ea	0.014860371
90	0xbbf7b1e8	-0.00755905
91	0xbd2eb39b	-0.042651754
92	0xbd548179	-0.051881287
93	0x3c90b0d4	0.017662443
94	0x3d62ec47	0.055401113
95	0x3d4313eb	0.047626417
96	0xbb7d9af5	-0.0038697098
97	0xbc55f8bb	-0.01305979
98	0x3cb37003	0.021903997
99	0xbcadc9b8	-0.021214351
100	0xbc896915	-0.01677374
101	0xbcf23462	-0.029565994
102	0xbc799d09	-0.015235194
103	0xba01eb87	-0.0004956056
104	0xbc8d79c4	-0.017269976
105	0xb9cb3837	-0.0003876106
106	0xbcb76925	-0.022389004
107	0xbc1855e0	-0.009297818
108	0x3c80210e	0.015640762
109	0x3c19fa35	0.009398033
110	0xbc5453b3	-0.012959409
111	0xbbb15a87	-0.005412403
112	0x3d7f408f	0.062317427
113	0x3d02f2c7	0.03196981
114	0xbc6bbe6a	-0.01438866
115	0xbba4d907	-0.0050307545
116	0x3cd4472d	0.025912846
117	0xbc939d3f	-0.018019317
118	0xbc00b9ec	-0.007856827
119	0xbd414ec8	-0.047194272
120	0x3c1be3e7	0.009514785
121	0x3d6f06e6	0.05835619
122	0xbd234ca4	-0.039868012
123	0x3b428c74	0.0029685767
124	0xbda6cfc7	-0.08145099
125	0x3cb6af33	0.022300338
126	0x3a51aa3e	0.00079980853
127	0xbcb2ce0e	-0.02182677
128	0x3ca017ee	0.01954266
129	0x3c7b2ce6	0.015330529
130	0x3d637b57	0.055537548
131	0x3cdf6dbd	0.027274007
132	0xbc8a29db	-0.016865661
133	0xbd31e4d5	-0.04343112
134	0x3c6a3bc8	0.0142964795
135	0x3d0a5816	0.03377541
136	0xbd32c2a6	-0.043642662
137	0xbd329e9f	-0.043608304
138	0xbd346b8d	-0.04404788
139	0x3db07b5d	0.0861728
140	0xbc30421c	-0.010757949
141	0xbcd86a30	-0.026417822
142	0xbce7d43f	-0.028299449
143	0xbbe4e170	-0.006984882
144	0x3d2ce2ab	0.042208355
145	0xbba9ebce	-0.005185581
146	0xbd0b3a54	-0.033991173
147	0x3d28fe35	0.041258056
148	0x3d2754af	0.040852245
149	0x3c4e5c64	0.01259527
150	0x3d7083d7	0.058719482
151	0x3d5f8425	0.054569382
152	0x3d8432e5	0.0645502
153	0xbcc484a1	-0.023989024
154	0xbd86c22f	-0.06580006
155	0xbcdd63bf	-0.027025102
156	0x3b0a8dc9	0.002114164
157	0xbc62bfd3	-0.01383968
158	0xbd7dd563	-0.06197108
159	0xbc847723	-0.01617009
160	0x3c29d49c	0.010365631
161	0x3bf978b9	0.007613268
162	0xbc7991cb	-0.015232514
163	0xbd0c8c75	-0.034313638
164	0xbda59b1d	-0.08086226
165	0x3d67fc97	0.056637373
166	0xbce30bf3	-0.027715659
167	0xbc125b8b	-0.008932958
168	0xbd71eba0	-0.0590626
169	0x3c0b3cdd	0.008498398
170	0xbcf6384e	-0.030056145
171	0x3b9f70ac	0.0048657265
172	0x3d637ad8	0.055537075
173	0xbd9403bf	-0.07227277
174	0x3d2b8f8e	0.04188495
175	0x3c77b34a	0.015118429
176	0x3cf99ee1	0.030471267
177	0x3d73937f	0.059466835
178	0x3d794b09	0.060862575
179	0x3da15b4f	0.07878744
180	0x3c1843f6	0.009293547
181	0xbcf00efa	-0.029304016
182	0xbd87c0bd	-0.06628559
183	0xbc65f62a	-0.014035741
184	0x3b8eb143	0.0043546273
185	0xbb19f470	-0.0023491643
186	0xbc55e98b	-0.013056169
187	0x3d8b5152	0.0680262
188	0xb910d185	-0.00013810962
189	0xbd5a9f84	-0.053374782
190	0xbc4d8101	-0.012542964
191	0x3d5dfc1a	0.0541955
192	0x3c9f7d69	0.01946898
193	0xbc9d2e12	-0.019187007
194	0x3af62173	0.0018778279
195	0x3d2308a7	0.039803173
196	0x3df8412e	0.12121807
197	0x3d0d6eff	0.034529682
198	0x3c074b67	0.008257723
199	0x3cd60647	0.02612604
200	0xbcea643a	-0.028612245
201	0x3d2266b6	0.039648734
202	0x3b90c0a2	0.004417495
203	0xbd30d7b4	-0.04317446
204	0xbc7401aa	-0.014892975
205	0x3c3a25c5	0.011361544
206	0x3be30416	0.0069279773
207	0x3b25ad31	0.0025280232
208	0xbbbc81d8	-0.0057527833
209	0xbcbe6610	-0.023242027
210	0x3d5c643a	0.05380652
211	0xbcfe9918	-0.03107886
212	0x3c735d30	0.014853761
213	0xbd19440b	-0.037418406
214	0x3d4f290b	0.05057625
215	0x3d513bb9	0.051082347
216	0xbb1a8ece	-0.0023583653
217	0x3b9eac89	0.004842345
218	0xbd44c023	-0.0480348
219	0xbd057396	-0.032580934
220	0xbc499e91	-0.012305872
221	0x3d1fe20b	0.03903393
222	0xbce5ab19	-0.028035687
223	0x3d8e09d2	0.06935467
224	0x3d97b9db	0.07408496
225	0xbbab9b58	-0.0052370243
226	0xbbc786cf	-0.0060890685
227	0x3d84a399	0.06476516
228	0xbc83b403	-0.016077047
229	0x3ae8e05e	0.0017767062
230	0x3c853f55	0.01626555
231	0x3bd2b2a3	0.0064299866
232	0xbc22ce6f	-0.009936913
233	0xbc679cd7	-0.014136515
234	0x3c46d929	0.012136736
235	0x3d0107fd	0.03150176
236	0xbb9da903	-0.0048114075
237	0x3d66c382	0.056338795
238	0xbc528ab2	-0.01285045
239	0xbbab5ca8	-0.0052295513
240	0xbdb267fb	-0.08711239
241	0x3d2e6bdf	0.042583343
242	0x3d2b3e8f	0.041807707
243	0xbd021a27	-0.031763222
244	0xbd811360	-0.063025236
245	0xbd9ce1a1	-0.07660223
246	0x3d1b6bfc	0.03794478
247	0x3d0adb67	0.033900645
248	0x3c957466	0.01824398
249	0xbcafe459	-0.02147119
250	0x3c92c494	0.017916001
251	0xbb76b7d0	-0.0037646182
252	0x3cbe884e	0.023258355
253	0xbb8eb0fb	-0.004354594
254	0x3ca764ec	0.020433865
255	0xbc2ded20	-0.010615617

conv_1.bias f4 [64]
0	0x3cf1cc20	0.02951628
1	0xbb16ee43	-0.0023030199
2	0x3d3add55	0.045621235
3	0x3c497b1a	0.012297416
4	0x3d22a08d	0.039703894
5	0xbd10176a	-0.03517858
6	0x3d89d582	0.067301765
7	0xbd58ff81	-0.052978043
8	0xbde033e8	-0.109474
9	0xbc3f6e27	-0.011683977
10	0x3d1761ee	0.036958627
11	0xbcc7da38	-0.024396047
12	0x3c111bfd	0.008856771
13	0xbbc7d3b0	-0.006098233
14	0xbcd1f74f	-0.025630621
15	0xbd17c298	-0.037050813
16	0x3ce69f71	0.0281522
17	0xbd80ebb4	-0.06294957
18	0xbc362e36	-0.011119416
19	0x3d03a24e	0.032137208
20	0x3d8063b1	0.062690146
21	0xbc184ba1	-0.009295375
22	0xbd4a23ab	-0.049350422
23	0x3cff3432	0.031152818
24	0x3c6dd4a7	0.014516032
25	0xbb6053e0	-0.003422968
26	0x3bc2ff41	0.005950839
27	0xbb6e098a	-0.0036321604
28	0xbc4f4465	-0.012650584
29	0x3d19081c	0.03736125
30	0x3ca35ea9	0.019942598
31	0xbd4f6d61	-0.05064142
32	0x3bb1e65b	0.005429072
33	0x3c158f6f	0.0091284355
34	0x3de3e42c	0.11127505
35	0xbaa4e5ca	-0.001258069
36	0x3c4ec0ac	0.012619179
37	0xbd15f563	-0.036610972
38	0x3d95ca73	0.07314005
39	0xbcd8fd88	-0.02648808
40	0xbc3350a7	-0.010944522
41	0x3d445be6	0.047939204
42	0x3d3faa09	0.046793018
43	0x3cf1dc06	0.02952386
44	0x3db723d8	0.089423835
45	0xbd153521	-0.03642762
46	0xbabe8e0f	-0.0014538186
47	0xbc30af09	-0.010783919
48	0x3cf41b70	0.02979824
49	0xbd96ed13	-0.07369437
50	0x3bae9c2a	0.005328675
51	0xbd1d7c2a	-0.03844849
52	0x3d5d688f	0.054054793
53	0xbcb856c0	-0.022502303
54	0x3ce1482e	0.027500238
55	0x3d3db5ec	0.046316072
56	0x3cbec2c0	0.023286223
57	0x3c73a742	0.01487142
58	0x3d42a37b	0.04751919
59	0x3cb77755	0.02239577
60	0x3d4e8361	0.05041826
61	0xbcf1044e	-0.029420998
62	0x3d4fb9fe	0.050714485
63	0xbd4dcf74	-0.05024667

fc.weight f4 [10, 1600]
0	0x3da2e5db	0.07953998
1	0x3cbc5f7c	0.02299475
2	0xbd850777	-0.064955644
3	0x3d39abac	0.045329735
4	0x392e88c0	0.00016644876
5	0xbdd3fbf9	-0.10350794
6	0xbd16cdd8	-0.0368174
7	0x3cfd609a	0.030929852
8	0x3d337d73	0.04382081
9	0x3930038a	0.00016785986
10	0xbb5eb4df	-0.003398232
11	0x3c96f7fe	0.018428799
12	0xbd9a9606	-0.07548146
13	0xbdba21cf	-0.0908848
14	0x3ca66f97	0.020316882
15	0x3ca27739	0.01983224
16	0x3c260224	0.010132346
17	0xbbd731d8	-0.006567221
18	0xbc3466f7	-0.011010877
19	0xbd190cb8	-0.037365645
20	0xbd40cfb2	-0.047073074
21	0x3d0fb4d3	0.035084557
22	0x3db86ff7	0.090057306
23	0xb9aed66f	-0.00033347632
24	0xbc6b32d7	-0.014355383
25	0x39fef32d	0.00048627835
26	0x3d4d023b	0.050050955
27	0x3aa869a8	0.0012848871
28	0xbd2baae8	-0.041911036
29	0xbb0c41ba	-0.002140148
30	0xbd086bba	-0.03330586
31	0x3d43755c	0.047719344
32	0xbcc91006	-0.024543773
33	0x3b65a3e2	0.0035040309
34	0xbaab9403	-0.0013090376
35	0xbd5a5894	-0.05330713
36	0xbd311be9	-0.043239508
37	0xbcd70e92	-0.026252065
38	0xbd0e75eb	-0.034780424
39	0xbd8f140d	-0.06986246
40	0xbcbfb995	-0.023403922
41	0x3d09b9cd	0.03362446
42	0xbd8762ca	-0.066106394
43	0x3c8183a5	0.015809843
44	0x3b950108	0.004547242
45	0x3c84e73d	0.016223544
46	0xbcc85fa9	-0.024459677
47	0xbc9756f7	-0.018474085
48	0x3ca693cd	0.020334149
49	0x3cc3fda9	0.023924666
50	0xbd1762e9	-0.036959562
51	0x3d4ab9ae	0.049493484
52	0x3c66261a	0.01404717
53	0x3cb28d9a	0.021796037
54	0x38abc8fb	8.191351e-05
55	0xbc2d1b4f	-0.010565593
56	0x3ba445e0	0.0050132126
57	0xbbf4efc7	-0.0074748727
58	0xbe1189d0	-0.14212728
59	0xbd6d45ed	-0.057928015
60	0x3b8d8bf4	0.004319662
61	0xbcbb513e	-0.022865888
62	0xbc0d2480	-0.008614659
63	0x3c638c49	0.013888427
64	0xbdbb7709	-0.091535635
65	0xbd766fc4	-0.06016518
66	0x3c488d2e	0.012240691
67	0xbcab9c79	-0.020948635
68	0x3c31d2a8	0.010853447
69	0xbc98219f	-0.01857072
70	0xbc6022ec	-0.013680201
71	0x3a38551a	0.0007031724
72	0xbbb270c8	-0.0054455735
73	0x3cf17cc1	0.029478433
74	0xbc163f60	-0.009170383
75	0x3c9566f9	0.018237578
76	0xbd8c5b1c	-0.06853315
77	0x3a58f7ad	0.00082766527
78	0x3bfe1a06	0.007754567
79	0x3d84282f	0.06452977
80	0x3cfe5603	0.031046873
81	0xba04f354	-0.0005071659
82	0xbaf5870f	-0.0018732267
83	0x3d9f33cc	0.07773551
84	0x3d7eeeb3	0.06223936
85	0x3ca51c40	0.020155072
86	0xbd5bbd87	-0.053647544
87	0x3ce35317	0.027749581
88	0x3cc27994	0.023739614
89	0x3d4f42f5	0.050600965
90	0x3d8495b0	0.06473863
91	0xbc248f83	-0.0100439815
92	0x3abc7ea5	0.0014381005
93	0xbc8e1f3f	-0.017348884
94	0x3bf8d388	0.007593576
95	0x3d8f0922	0.06984164
96	0xbd66c3dc	-0.05633913
97	0xbcb22408	-0.021745697
98	0xbc44532a	-0.0119827185
99	0xbd59250b	-0.053013843
100	0x3d0ac2be	0.033877127
101	0xbd6fc8b6	-0.058541022
102	0xbd04e1c2	-0.032441862
103	0xbd4bbcf6	-0.049740754
104	0xbc2279bf	-0.009916722
105	0xbba25cbe	-0.0049549034
106	0xbc0b6b56	-0.008509478
107	0xbc6baab2	-0.014383959
108	0xbd0afeb8	-0.033934325
109	0xbc631518	-0.01386001
110	0xbc695f3a	-0.014243895
111	0x3c5890bc	0.013218101
112	0x3a24110f	0.00062586454
113	0x3bc76906	0.006085518
114	0x3ce93e92	0.028472219
115	0xbc38757f	-0.011258482
116	0x3c194b28	0.009356298
117	0x3d3cb407	0.046070125
118	0x3c878197	0.016541285
119	0xbd0ab2ff	-0.03386211
120	0x3d127614	0.03575714
121	0x3cbd5f2d	0.023116672
122	0xbd2d8e94	-0.0423723
123	0x3c91f421	0.017816605
124	0x3d21d7c3	0.039512407
125	0xbd67018c	-0.05639796
126	0xbd9c1d7d	-0.07622812
127	0x3d825f22	0.063658014
128	0x3dac0b19	0.08400554
129	0xbd437299	-0.04771671
130	0xbca2faee	-0.019895043
131	0x3d2d6a01	0.04233742
132	0x3d1529b3	0.03641672
133	0xbda5f3c7	-0.081031375
134	0xbd86a459	-0.065743156
135	0xbd32452c	-0.043523
136	0x3ccba4c9	0.02485885
137	0x3d6be67b	0.05759285
138	0xbc888744	-0.016666062
139	0xbc9bf12f	-0.019035904
140	0x3d4675a0	0.04845202
141	0x3ccf506c	0.025306903
142	0xbc4f8805	-0.012666707
143	0xbc704df8	-0.014667027
144	0x3d9b0467	0.07569199
145	0xbb9e4377	-0.00482982
146	0x3ce3e379	0.027818428
147	0x3cf8826d	0.03033563
148	0x3bf8a319	0.007587802
149	0x3d00382b	0.031303566
150	0x3d434562	0.04767359
151	0xbc52525f	-0.012837022
152	0x3d15a58d	0.036534835
153	0xbd7479c4	-0.059686437
154	0x3bed9e5d	0.0072515444
155	0x3985a2ae	0.00025488943
156	0x3ce869e8	0.028370813
157	0xbd1c04a8	-0.038090378
158	0x3d758734	0.059943393
159	0x3b368142	0.002784804
160	0x3cc9f754	0.024654068
161	0xbc9a5347	-0.018838538
162	0x3d06cb67	0.032908823
163	0x3ce8f2cc	0.028436087
164	0xba79fff7	-0.0009536738
165	0x3c8e65a9	0.01738246
166	0x3cf9249a	0.03041296
167	0xbd6d9b41	-0.05800939
168	0x3ce7f539	0.028315173
169	0x3a1a200d	0.000587941
170	0x3c9fcc7a	0.019506682
171	0xbc7a3da3	-0.015273484
172	0x3d49cc76	0.049267255
173	0x3c9740da	0.01846354
174	0x39e529c5	0.00043709404
175	0xbc3ac71c	-0.01140001
176	0xbc766c5b	-0.015040482
177	0xbcb59e66	-0.022170257
178	0x3c170a6e	0.009218795
179	0xbce72010	-0.02821353
180	0xbd7682ba	-0.060183264
181	0xbc560c63	-0.013064477
182	0x3d101be9	0.035182867
183	0xbc884fab	-0.016639551
184	0xbc4c23f7	-0.012459747
185	0xbdd6191e	-0.104540095
186	0xbd4b1a49	-0.049585614
187	0xbafc932e	-0.0019269937
188	0xbd920230	-0.071293235
189	0x3cb577cb	0.022151848
190	0x3a7b3779	0.0009583156
191	0xbd76e379	-0.06027553
192	0xbaa0b928	-0.0012262212
193	0xbc2023af	-0.009774133
194	0x3c2cea2f	0.010553881
195	0xbcf81d34	-0.030287363
196	0x3b824afd	0.0039762245
197	0x3d614081	0.054993156
198	0x3d04a3b6	0.03238269
199	0x3d6c2ee9	0.057661925
200	0x3a6da53a	0.0009065453
201	0xbc20d47b	-0.009816284
202	0x3d708e60	0.05872953
203	0xbba3ab21	-0.0049947654
204	0x3d1d3e5a	0.03838954
205	0x3da875d5	0.082256
206	0x3d169bb5	0.036769588
207	0xbae2dd51	-0.0017308389
208	0x3cb86384	0.02250839
209	0xbd6f16fc	-0.05837153
210	0x3b0f9364	0.002190792
211	0x3d494213	0.04913528
212	0xbcf5c6b6	-0.03000198
213	0xbd27c2de	-0.040957324
214	0xbc60614c	-0.013695072
215	0xbab42ed5	-0.0013746867
216	0x3d087f62	0.033324607
217	0xbba51a1a	-0.005038512
218	0xbcb50c3a	-0.022100557
219	0x3b0f07d5	0.0021824737
220	0xbd6286eb	-0.05530445
221	0x3d4434dd	0.047901977
222	0x3c4b8788	0.01242245
223	0xbd28a835	-0.04117604
224	0xbd1d7614	-0.038442686
225	0xbc9eda53	-0.019391214
226	0xbcc5fe7b	-0.024169197
227	0x3cf2ffba	0.029662956
228	0x3c301dcf	0.010749294
229	0xbce48cb3	-0.027899122
230	0x3c9481eb	0.018128356
231	0x3bc63169	0.0060483706
232	0x3cbf11b2	0.023323867
233	0x3ba9ee6a	0.005185892
234	0xb9a89af0	-0.00032158894
235	0xbca66d3b	-0.020315757
236	0x3cd60738	0.026126489
237	0xbc9281ee	-0.01788422
238	0x3b2f38f8	0.0026736837
239	0x3d1b31a4	0.037889138
240	0xbbc2547c	-0.0059304815
241	0x3c7f50fd	0.015583274
242	0x3bb308cd	0.0054636956
243	0xbd5562c9	-0.052096162
244	0x3cb162d7	0.021653576
245	0xbd0cfb89	-0.03441957
246	0xba56314f	-0.00081707997
247	0xbc19a891	-0.009378568
248	0xbb3b6a8c	-0.0028597442
249	0xbd1716da	-0.036887027
250	0xbce89fa0	-0.028396428
251	0xbccd44c5	-0.025057206
252	0x3bd2c948	0.006432686
253	0xbd1d1a38	-0.038355082
254	0xbd40366a	-0.046926893
255	0xbbef4d08	-0.007302884

fc.bias f4 [10]
0	0xbc622714	-0.013803262
1	0x3d9a96ea	0.07548316
2	0x3c3b5a9d	0.011435178
3	0xbd4cd77e	-0.050010197
4	0x3d14ee5f	0.03636014
5	0xbcbe00b8	-0.023193702
6	0x3d022ece	0.031782918
7	0x3ca255e6	0.01981635
8	0xbca77ad4	-0.020444311
9	0x3c431a1f	0.011908083
