notebooks/models/fcnn_normal_0.010/model.pth (torch, 360471 bytes, 6 tensors)

fc_0.weight f4 [100, 784]
000000 cc 6a c9 3c fa 7e b7 bb cf 88 ac bc 7d 73 c6 3c
       0.024587058 -0.0055998536 -0.02106133 0.024224991
000010 5a 4f cc bc 65 ff a6 3c 39 d9 0f bc 39 c5 cc bb
       -0.024940182 0.020385453 -0.008779817 -0.0062490967
000020 5c a8 30 bd 8f 62 85 bc be e3 7b bd d1 5a 9b bc
       -0.04312931 -0.016282348 -0.06149649 -0.018964203
000030 60 0d e0 bc 08 9e 08 3d c2 c0 5a bc 06 ab 0d 3c
       -0.027350128 0.033353835 -0.013351621 0.008646732
000040 fb 13 88 3b 42 4f 3d 3c 82 95 17 3c b8 7b f3 3b
       0.0041527725 0.011554541 0.009251954 0.00743052
000050 b2 e8 76 3c 3a 4c c1 3a 45 a8 09 bc df bb 02 bd
       0.015070127 0.0014747449 -0.008401935 -0.03191745
000060 78 05 ff bc c2 4b a1 bb 55 21 ab ba 5f 9f 2d 3d
       -0.031130537 -0.004922361 -0.0013056198 0.042388316
000070 a2 5e ad bc a0 aa 30 3d 4d 4d b8 3b 30 04 7d bd
       -0.021163289 0.04313147 0.0056244493 -0.06177157
000080 a2 f5 fe 3c 06 d8 45 3c be 0b 91 bd 95 a9 21 bc
       0.031122986 0.01207543 -0.07082318 -0.009867092
000090 4c 72 15 3d a0 90 bc 3c 29 15 46 bc f4 77 56 bd
       0.036485955 0.023018181 -0.012090006 -0.05236049
0000a0 fe 65 9a bd 5d 9c c4 bc 9c c6 05 bd 59 b0 15 bd
       -0.07538985 -0.024000341 -0.03266011 -0.03654513
0000b0 66 23 bc 3c 4a 85 fc 3c bc f7 bf bc 25 5f 40 3d
       0.022966098 0.030825276 -0.023433559 0.046965737
0000c0 42 b4 56 bd b1 42 0f 3c 96 55 01 bd 27 69 70 3c
       -0.052418 0.008743928 -0.03157576 0.014673508
0000d0 d2 91 ff 3b ae 8f e4 bb a5 82 08 3d 94 ce 8f bd
       0.0077993656 -0.0069751358 0.033327717 -0.070218235
0000e0 a0 35 f4 3c e6 d6 dd 3c 20 e8 98 bc 48 be 49 bd
       0.029810727 0.02708001 -0.018665373 -0.049253732
0000f0 ac 30 19 3d 86 d2 b4 3c 07 ac 81 ba ed 4a 05 bd
       0.037399933 0.022073042 -0.0009893187 -0.032542158
000100 d1 56 7f bd aa a1 bd 3b 19 0f 48 3c 0d c9 31 bc
       -0.062338654 0.005787094 0.012210631 -0.010851157
000110 0e 45 84 bc 6d 6b 84 bd ba f1 90 bd e2 71 06 bd
       -0.01614621 -0.06465802 -0.07077356 -0.03282345
000120 c7 68 c3 3c 84 bd b0 3c bc 3e 8d 3c f7 17 58 bc
       0.023853673 0.021574743 0.017241828 -0.013189307
000130 fa e7 0a bc 92 0c 52 3c c7 05 5c bc 50 de 9c 3c
       -0.008478159 0.01282038 -0.013429112 0.019148976
000140 c8 ac 06 bc 37 56 9a bc b5 02 1f bd e8 3d 96 bc
       -0.008219905 -0.018839939 -0.03882094 -0.018340066
000150 75 3c 1e 3d 98 41 01 3c 58 b1 85 bc b7 6b e9 bc
       0.038631875 0.007889174 -0.016319916 -0.028493745
000160 ef 81 52 3b f4 6b 28 3d 61 cd a7 bc 4e c9 86 bd
       0.0032120903 0.041118577 -0.020483674 -0.065813646
000170 79 af 6f 3d e7 cc 9b 3a 32 fd d5 3c 8d 83 20 bd
       0.058516953 0.0011886627 0.02612171 -0.039187957
000180 cf 89 c2 3c 5f 76 45 bc 92 a5 ba bc 2a 2c 80 bc
       0.023747353 -0.012052148 -0.022784028 -0.015646059
000190 45 94 12 3c 7e e9 ca bd 4a 09 1a be 54 2a 91 bc
       0.008946483 -0.09907816 -0.15042606 -0.017720379
0001a0 3c 94 3c 3c 88 49 d7 bc 41 68 74 bc 5e 99 49 3d
       0.011509951 -0.02628018 -0.014917434 0.049218528
0001b0 c3 a8 65 3b 7b 29 1f 3d f3 b8 92 3d 26 15 99 bd
       0.0035043217 0.03885792 0.071641825 -0.07474737
0001c0 51 da 8a bd db 37 17 bc 73 85 df 3b d4 dc 00 bc
       -0.06779922 -0.009229626 0.0068213283 -0.0078651495
0001d0 41 1e ee 3c 9a 25 e3 bc 2d e3 8d 3c 5c df cb bd
       0.02906716 -0.02772789 0.01732024 -0.09954712
0001e0 83 8b 11 bd b9 54 db bc f1 c3 44 bd ba a0 8d 3b
       -0.03553344 -0.026773797 -0.048038427 0.0043221386
0001f0 c7 ae 93 3a 86 94 c0 3a e2 1e 01 bd 0d 5b 20 bd
       0.0011267298 0.0014692701 -0.031523593 -0.039149333
000200 54 5d 15 bc ce b0 14 3d 07 e3 57 bd 6e 2f 50 bd
       -0.009116489 0.036301427 -0.052706745 -0.050826482
000210 03 41 ca bc cf 22 d5 bc 53 40 91 39 d2 de 00 bd
       -0.024689203 -0.026017575 0.0002770448 -0.031462498
000220 ac 5c 8f 3c 31 05 ca 3b d0 2b 57 bd 1b df 4c bc
       0.017500244 0.0061651696 -0.052532017 -0.012504364
000230 04 28 61 bc 6c 68 5c bd 38 26 a8 bc d3 4a 0c bd
       -0.013742451 -0.053810522 -0.020526037 -0.034251045
000240 94 04 29 3c ef 88 3d 3c 62 62 02 bd 83 93 03 bd
       0.010316033 0.011568292 -0.031832106 -0.0321231
000250 cc 66 c5 3c 6a d5 a3 38 3d ed ee bb 6b 21 a3 bc
       0.024096869 7.812197e-05 -0.0072914646 -0.019913396
000260 37 a5 56 bd dc ee af 3c 67 6b 77 bc dc 3f 49 bd
       -0.052403655 0.021476202 -0.01510129 -0.049133167
000270 f4 bc e7 3c 21 04 53 bd 02 d1 8f bd 94 3e 81 bc
       0.028288342 -0.05151761 -0.07022287 -0.01577691
000280 5f c4 26 3c c0 43 24 3c e4 98 38 bc 0e 58 94 3d
       0.010178654 0.0100259185 -0.011266921 0.072433576
000290 25 cd a4 bc 8f 05 24 3d 97 53 85 bc 34 b6 1b bd
       -0.020117352 0.040044364 -0.01627521 -0.03801556
0002a0 e0 f3 39 bd d2 4d 17 3d 1d 1f 8e 3b 49 6b a8 3c
       -0.045398593 0.03693945 0.004337205 0.02055897
0002b0 e1 60 45 3c 5e 08 f7 bc 4f 8e b1 bb 6c b9 8e 3c
       0.0120470235 -0.030155357 -0.005418576 0.0174224
0002c0 2f 95 61 bd 88 49 88 bd 50 71 8e bd 7f 88 ce bd
       -0.055073913 -0.0665465 -0.069552064 -0.10084628
0002d0 74 e5 e5 bb 69 01 69 bd c6 6e fc bc 09 dc 19 3a
       -0.0070158783 -0.05688611 -0.03081454 0.00058692746
0002e0 4c f2 06 bd 92 ab d2 3c 38 f5 9d bb f8 6f c6 3c
       -0.032945916 0.025716577 -0.004820492 0.024223313
0002f0 39 77 7e 3d 3a 29 95 3c 7b 07 5c 3d 39 a8 b8 b9
       0.06212542 0.018208135 0.05371807 -0.0003522055
000300 06 e8 12 3d c0 c0 6a bb 29 9c 5b bd a3 f1 14 bb
       0.035865806 -0.0035820454 -0.053615723 -0.0022727035
000310 7f c7 ce 3c 2c b8 49 3c a2 4c d9 bc 59 c7 6d bc
       0.025241612 0.012311976 -0.0265258 -0.01451286
000320 d2 ff be 3d 85 5d 81 3b dc 24 b2 bb 2b 5b c7 bc
       0.093261376 0.003947916 -0.005436523 -0.024335464
000330 61 68 82 3d 17 c5 88 bc 18 11 e8 bc 23 a6 3e bc
       0.06367565 -0.016695542 -0.028328463 -0.01163629
000340 ad 2a 8f 3a ee 02 2e 3c af df 53 bc 30 e3 9c 3c
       0.0010922753 0.010620816 -0.012931748 0.0191513
000350 72 62 d9 3b ec 69 d1 ba 8d 19 3e bd 48 67 da 3d
       0.00663405 -0.0015977002 -0.046411086 0.106642306
000360 d2 64 83 3c ab 15 0a 3d bd f0 fb bb 96 e6 60 3c
       0.016039286 0.03371207 -0.0076886103 0.013726851
000370 ea a6 62 3c 45 fe 22 bd 19 07 1c 3c 14 da 48 bd
       0.013833741 -0.03979327 0.009523177 -0.0490361
000380 ed 76 84 bd c3 c0 2d bc 25 88 d1 3b 9c 16 3d 3d
       -0.06467996 -0.01060504 0.0063944035 0.04616414
000390 3e c4 48 bd 5d b1 d7 3b 35 6e 5e bc de 2c 7e bc
       -0.049015276 0.0065824226 -0.01357608 -0.015513627
0003a0 28 4c c7 bd 1b 61 5c bd 77 0a 65 3c cb aa a2 bd
       -0.097313225 -0.053803544 0.013979546 -0.079427324
0003b0 85 cc b7 3c e6 f8 5c bc da 51 bc 3a f4 d5 5c bc
       0.02243639 -0.013487076 0.0014367655 -0.013478745
0003c0 8b 31 89 3d 27 ad 88 bc af 92 10 3d 04 fb 23 3c
       0.06698903 -0.016684128 0.03529614 0.010008577
0003d0 33 ab 03 3d 43 c3 8f 3b 5d 4f 03 3d b3 c0 10 3c
       0.03214569 0.0043872907 0.03205811 0.008835006
0003e0 3e af 10 bc 2f c9 20 3d 2f 24 a1 bc b4 db 95 bd
       -0.0088308435 0.039254364 -0.019670574 -0.07317296
0003f0 2f 1d 79 bd 6f 06 d4 bc 89 44 15 bd bd e6 90 3c
       -0.060818847 -0.025881974 -0.036442313 0.01768815

fc_0.bias f4 [100]
000000 58 01 8b bb 1d 2d e7 bc b0 24 4f 3d d1 cc c2 bc
       -0.0042421035 -0.028219754 0.050572097 -0.023779305
000010 2e bf 7d 3c 68 c3 7f 3c e7 40 48 bd 43 65 78 bb
       0.015487475 0.015610553 -0.04889002 -0.0037902154
000020 60 db ee bb 72 7c 02 bd 82 40 2b 3d bb 31 3b bd
       -0.007289335 -0.03185696 0.041809566 -0.045701724
000030 9e 6b 13 bc f1 49 e4 3c ee 98 a0 3b 16 91 1f bd
       -0.008997826 0.02786729 0.004901043 -0.038956724
000040 30 cb 5c 3d 33 95 bb 3b 6a 4a de 3c f4 20 87 3d
       0.053904712 0.005724573 0.027135093 0.06598082
000050 c4 7b 82 3d 39 fe 60 bc a6 80 81 3d ce ce 6c bc
       0.06371263 -0.013732486 0.06323366 -0.014453603
000060 a3 60 56 bd e6 e7 1e bc 29 c7 38 3d 31 75 0a 3c
       -0.052338254 -0.009698844 0.04511181 0.008450792
000070 3c aa 38 3d 55 aa 9b bd 60 3b c6 3b 5e 8b bf 3d
       0.045084223 -0.07600848 0.0060495585 0.09352754
000080 ce 5a 46 3d e6 d0 35 3d 40 b2 7a bd a8 46 96 3c
       0.04842644 0.044388674 -0.06120515 0.018344238
000090 56 14 2e bd a8 de fa 3a db e7 9c 3c ba 74 73 3c
       -0.042499863 0.0019139843 0.019153526 0.014859373
0000a0 df d3 a9 bc 71 f9 43 bd 8d a7 6f bd 30 64 49 bc
       -0.02073091 -0.047845308 -0.0585094 -0.012291953
0000b0 f0 a1 ed 3b bf cf 64 bd b9 1a 17 3d e2 95 52 bd
       0.0072519705 -0.055862185 0.03689072 -0.05141247
0000c0 95 d2 17 3d ab 1f 5c 3d 78 21 e5 bc 8a 06 47 3d
       0.03706606 0.05374114 -0.02797006 0.04859022
0000d0 16 be 28 3b e9 c2 59 3d 8d 86 fb 3c 09 0c b6 3b
       0.0025748066 0.053164396 0.030703807 0.005555634
0000e0 cd 72 78 bc 4f 53 ab 3c 6c 4e a0 3c 2d 6f 51 3b
       -0.015164089 0.020913748 0.019568644 0.0031957135
0000f0 99 d5 2f bd a1 20 12 3d a4 c7 92 3c 79 90 3d 3d
       -0.042928312 0.03567565 0.017917462 0.046280358
000100 bf 0a c5 3d d2 95 24 bd bb f3 85 bd d5 68 4b bd
       0.0962119 -0.040181942 -0.065406285 -0.049660522
000110 78 d8 29 3c d0 41 01 bc 4a b8 d3 3c e5 e7 8c bc
       0.010366552 -0.007889226 0.025844712 -0.01720042
000120 b5 be 77 3c 57 87 69 3d ca d4 77 bc 4f e7 37 bd
       0.015121152 0.057013836 -0.015126416 -0.044898327
000130 78 a5 dc bc 22 02 4d bb 88 4b 14 bc e9 4b 71 3c
       -0.02693437 -0.0031281789 -0.009051211 0.014727571
000140 64 3d e9 3b fb 83 d2 bc a7 7b da 3c 1a db 42 3d
       0.007117914 -0.025697699 0.02667029 0.047572233
000150 79 d5 dc ba ea b8 43 3b ac be 6c bc b2 29 eb 3c
       -0.0016848288 0.0029864856 -0.014449757 0.028706405
000160 96 7f 23 3d 45 06 b3 3d 7d e0 af 3b 90 09 64 3c
       0.039916597 0.0874143 0.0053673373 0.0139182955
000170 5d a1 9e bc 88 a2 12 bd 35 3f 3a b9 0b a5 14 3d
       -0.019364053 -0.035799533 -0.00017761889 0.03629021
000180 8d c7 28 3d 2f c5 0a bd 5f f7 16 3d 6e 82 25 3d
       0.04120593 -0.033879455 0.036857005 0.04040759

fc_1.weight f4 [100, 100]
000000 a2 a5 93 3c f4 f1 ba 3a a2 54 22 bd a0 02 86 bd
       0.018023316 0.0014262781 -0.039631493 -0.065434694
000010 ca 43 3b bd 32 86 ce 3b b7 94 b5 3c e7 bd e1 3d
       -0.045718946 0.0063026184 0.02216564 0.11022549
000020 65 78 c6 bd 7e b7 66 bd 39 cd b4 bd 86 8c 17 3c
       -0.09690932 -0.056327336 -0.088282056 0.009249812
000030 4b 47 17 3d b9 98 a3 bc fe b5 43 3d c8 7e fa bc
       0.036933225 -0.019970285 0.047780983 -0.030578032
000040 56 8f 21 bd 6f 55 4f bd 57 c5 dc 3c 40 c7 16 bd
       -0.039443336 -0.050618585 0.026949568 -0.036811113
000050 1d 5a 5f bd da b4 87 3d 1b 5f 30 3d 98 28 31 3d
       -0.054529298 0.066262916 0.04305945 0.043251604
000060 54 f9 ad 3b 85 ec 1c bc df 81 d3 3c 71 b6 c3 bc
       0.0053092632 -0.009577875 0.025818763 -0.023890706
000070 09 03 6d bd 66 31 6b 3a 25 3f 28 3b 2e 6c 47 bd
       -0.057864223 0.00089718995 0.0025672403 -0.048687153
000080 e7 9c c2 3c f4 03 6b bd 26 ae 4f bc ed 5a 01 bd
       0.023756457 -0.057376817 -0.012675798 -0.031580854
000090 69 14 b7 3c 1d 9e 5b bb 36 bb 80 bc 44 89 30 bd
       0.0223486 -0.003351099 -0.01571427 -0.043099657
0000a0 48 a9 65 3d bf 29 48 bd 4b d1 1c 3d 8f 0e c6 bc
       0.056069642 -0.048867937 0.038285535 -0.024176864
0000b0 d0 07 8d 3c b2 2d d8 3c a0 79 ab 3d b3 fc 66 bd
       0.01721564 0.026388977 0.083728075 -0.056393337
0000c0 5b 3a 00 3d bc 23 b3 bd 79 a3 16 bc ac ce 3d 3d
       0.031305652 -0.0874705 -0.009194248 0.046339676
0000d0 6b 85 00 3e a0 9b 4b 3d 5c ea f5 bc ef 60 4c 3d
       0.12550895 0.049708962 -0.030018978 0.04989713
0000e0 0c 89 cd bc e5 16 db 3c 84 d8 61 bd 6d ca 59 3d
       -0.025089763 0.026744315 -0.055138126 0.053171564
0000f0 28 e5 80 3b 9c 86 15 bd ed ae 2d bb 9c aa e5 3b
       0.0039335676 -0.036505327 -0.002650197 0.0070088636
000100 81 f6 f1 3d 40 51 e3 bd cf 59 05 3d ad 0b a1 bd
       0.11814595 -0.110994816 0.03255635 -0.07863555
000110 30 75 a0 bd d7 5f 3e 3d 77 31 33 bd fb 49 a3 bc
       -0.07834852 0.04647812 -0.043748345 -0.019932738
000120 3c d3 1a 3d d5 04 91 3c 11 e1 20 3d 77 40 60 3c
       0.037799105 0.0177025 0.03927714 0.013687245
000130 e2 7b b4 3d 0c 4d 91 3c 82 6e 8f 3d 71 89 83 3d
       0.08812691 0.017736934 0.070034996 0.06422699
000140 a0 98 ec bc 4f d7 c2 3c e4 b9 70 bc 5f cb 8a 3c
       -0.028881371 0.023784308 -0.014692757 0.016942678
000150 36 39 fa 3c 59 58 d2 3c ce 54 3f 3d d5 67 a5 3d
       0.030544858 0.025676893 0.046711735 0.08076445
000160 b0 83 9e 3d aa 6e ea ba e5 35 f2 3c 72 65 9b bd
       0.07739961 -0.0017885764 0.029566715 -0.075877085
000170 57 aa 04 bd 5c 3a 15 bd 3a 60 02 3c 6f cd e8 3c
       -0.03238901 -0.03643261 0.0079575125 0.02841827
000180 c4 62 eb 3b 4e d7 ad bc 20 c5 8b bc 04 e1 1e 3d
       0.0071834046 -0.02122083 -0.01706177 0.03878881
000190 cd 0c 9d 3d 2d 48 1a bc 46 04 fc 3c a0 00 2e bc
       0.07668457 -0.009416622 0.030763756 -0.010620266
0001a0 f6 eb 9c 3c c0 3a ff 3d 19 e3 a5 3c c5 77 c1 3c
       0.019155484 0.124623775 0.02024989 0.02361668
0001b0 62 ff 4a bc 53 b0 68 bc df f6 45 3d ff 3d a6 3c
       -0.01238999 -0.014202195 0.048331138 0.020293234
0001c0 0e 3e 14 3b 51 4d 7f 3d dd d8 4a bd d5 7c aa bd
       0.0022619995 0.062329594 -0.049523223 -0.08324591
0001d0 ad f8 d8 3d 14 0c 20 bd 53 64 bd bc da 8f 92 bb
       0.10594306 -0.03907402 -0.023119127 -0.004472715
0001e0 29 1d 39 3c 66 24 0c bd 01 f4 8f bc b8 32 81 bd
       0.011298456 -0.0342144 -0.017572405 -0.06308502
0001f0 e7 32 49 3b 1b eb a4 bd 99 8f c9 3c be 5e 8e 3c
       0.0030700506 -0.08052655 0.024604606 0.017379161
000200 9b d0 8d 3b d8 a4 50 3d 43 96 90 3c a4 04 9d bd
       0.004327846 0.050938457 0.017649775 -0.07666901
000210 3b 39 4a bd 4f 6c 6f bd df 29 e6 3d 57 56 f7 3c
       -0.049370985 -0.0584529 0.11238455 0.030192537
000220 17 14 bb 3c aa bf 9e 3c c7 da 89 bd d0 39 89 3c
       0.022836728 0.019378502 -0.067311816 0.0167512
000230 f5 61 aa 3c a4 7a 02 3d b2 4a 10 3d 82 3f f4 3c
       0.020798663 0.03185524 0.035227485 0.02981544
000240 fa 94 39 bd 35 8b 17 bc ba 1c f0 3d 22 83 29 bc
       -0.04530809 -0.009249498 0.11724229 -0.010346206
000250 4f 56 e3 bd d0 f3 34 3d 9b 62 af bd c6 f2 76 3d
       -0.111004464 0.04417783 -0.085637294 0.06029012
000260 e4 d4 ba 3c cc 0a df bb c5 82 e3 3c f1 6e 58 bb
       0.022806592 -0.006806707 0.027772317 -0.003302511
000270 45 99 d1 3c 0b 41 71 bd b6 04 9a bc c6 2c 21 bd
       0.02558578 -0.05889992 -0.018801074 -0.03934934
000280 18 e7 0c 3d 11 e3 be 3b 6e a2 88 bc c9 09 72 3d
       0.034400076 0.0058254083 -0.016679015 0.059091363
000290 ce 5f b4 3d b6 b3 6b 3d aa 0f 97 3a 5c e2 a9 bc
       0.08807336 0.057544433 0.0011525054 -0.02073782
0002a0 83 77 7f 3d bc f2 7d bc 81 df d6 ba c0 c3 e6 3b
       0.062369835 -0.015499767 -0.0016393514 0.007042378
0002b0 e7 27 fd 3b 29 d2 92 bd b1 c3 ac bc 19 28 2a bd
       0.007725704 -0.07168991 -0.021089407 -0.041542146
0002c0 06 e8 cf 3d fc 49 33 3c db 97 ab 3d ea 5a 57 bd
       0.10151677 0.010942932 0.083785735 -0.052576937
0002d0 46 27 47 bd 82 c2 ed bc f5 d8 d1 3b ea 50 f0 3d
       -0.04862144 -0.029023413 0.006404037 0.11734183
0002e0 53 9c e0 ba 4e 2b 5b 3d 1b ff e2 3a 39 3f b8 bb
       -0.0017136432 0.053508095 0.0017318459 -0.005622771
0002f0 92 f3 bc 3d 68 c2 f9 bb 37 de 15 39 f9 39 dc bb
       0.09226145 -0.007622052 0.00014292529 -0.006720778
000300 59 c7 e7 bc 06 dd 9f 3d de f6 ab bc bc 2d 8d 3d
       -0.028293299 0.07805829 -0.020991739 0.06893489
000310 de 3c 6d 3d 3e 40 d3 3b 5d 3f c1 3b 0d 61 9a bb
       0.057919376 0.0064468672 0.005897446 -0.0047112764
000320 e5 19 8a 3d df ba 31 3c 95 c9 ba bc 01 ec 8b bd
       0.0674322 0.010847776 -0.0228012 -0.068321235
000330 cc 54 37 bd ae c8 c9 3b 77 a8 26 3d fa ac 7c bd
       -0.044758603 0.006157956 0.040688004 -0.0616884
000340 6b 04 57 3d 18 b3 18 bd 34 c5 08 bd ca 2e 11 bd
       0.052494448 -0.037280172 -0.033391193 -0.035445012
000350 c9 32 6d 3d 7e 96 65 bd e0 4b de bc 74 1a a2 bd
       0.05790976 -0.056051724 -0.02713579 -0.07915202
000360 90 70 44 bd e0 b2 9a bd b4 00 86 bd 51 2a ca 3d
       -0.04795891 -0.07553649 -0.06543103 0.098713525
000370 a7 b8 42 bd 36 d8 41 3d cf 81 91 3c 3e fe 5a 3d
       -0.04753938 0.047325335 0.017762093 0.05346512
000380 91 38 d8 bc ed 43 2a bd 75 6a a3 3d 45 cd c1 3d
       -0.02639416 -0.041568685 0.079792894 0.0946298
000390 11 fa 4e bd 3b 48 f1 3c bd 45 80 bb 37 79 07 3e
       -0.05053145 0.029453387 -0.0039145635 0.13229834
0003a0 c1 2e 82 bb ed e2 50 3c 10 aa 93 bd ac 8e 64 bd
       -0.0039728587 0.012749416 -0.07210171 -0.055800125
0003b0 d4 ca 12 bc 59 e8 4a 3d e7 10 f1 3c 42 d9 49 3d
       -0.008959491 0.04953799 0.029427005 0.04927946
0003c0 8e 3f 2b bd e0 6c 8a bd a3 a9 c1 3d b9 86 24 ba
       -0.041808657 -0.067590475 0.09456184 -0.0006276179
0003d0 d9 20 7e 3d b3 ee d4 bc 9a 30 84 bc 9a d3 12 3d
       0.062043045 -0.025992727 -0.016136456 0.03584633
0003e0 d4 47 7b bd 83 ba fc 3d 0d d0 f2 bd ac b6 cf 3d
       -0.061347798 0.12340262 -0.11856089 0.10142264
0003f0 90 f9 56 3d e1 96 34 3d 01 10 1d 3c a7 01 a1 bd
       0.052484095 0.0440892 0.009586335 -0.07861643

fc_1.bias f4 [100]
000000 f4 96 a4 3c 1b 0e 0b bc 1b ce 04 3d d7 ee 04 3c
       0.020091511 -0.00848725 0.03242312 0.0081135845
000010 3f e9 33 bd 9b 48 05 3d 0d 1d c1 bc 73 1e 33 3c
       -0.043923613 0.032539945 -0.023573423 0.010932553
000020 49 70 d2 3d e7 c5 be bc 35 17 82 bb a8 e8 70 3d
       0.10275323 -0.023287727 -0.0039700516 0.05881563
000030 57 57 16 bc 91 b8 a9 bc 45 40 85 3d 5c c3 10 bb
       -0.009176097 -0.020717891 0.06506399 -0.00220891
000040 08 8b 83 3c 2e 56 3b 3d 0a 9b 6d bc 8e bd 48 3d
       0.016057506 0.045736484 -0.014502296 0.0490089
000050 b5 6c 9c bd 03 94 e3 3b 92 a8 01 bb 10 76 8e bc
       -0.07637922 0.0069451346 -0.0019784314 -0.017390281
000060 4c a3 91 3c 0b 86 07 3d 40 d5 13 3d f5 c1 77 bc
       0.017778061 0.033086818 0.036092043 -0.015121927
000070 4f 8c 8b 3c 1a 41 cf bc de ee b2 3c 65 5d 61 3d
       0.017034678 -0.025299598 0.021842416 0.05502071
000080 e7 f0 47 3c 2b 58 23 3d d3 65 ec 3b df ad 9c bd
       0.012203432 0.039879005 0.007214287 -0.07650351
000090 7b 08 2d bb 04 33 d5 3c 47 e9 59 3a 63 da a1 bc
       -0.002640276 0.026025303 0.0008312654 -0.019757455
0000a0 82 84 44 3d e9 19 a2 bc 49 0b be 3c 8d 08 23 bc
       0.04797793 -0.019787746 0.02319874 -0.009950769
0000b0 9e cd f2 3b 44 0a c1 bc 9f b2 09 3c db 64 be 3c
       0.0074097654 -0.023564465 0.008404403 0.023241451
0000c0 ee 13 d8 bc ed 8b dc bb 56 f0 8f 3c 9e 93 e3 3c
       -0.02637669 -0.0067305476 0.017570656 0.02778035
0000d0 38 05 82 bd cf 73 5a bc c3 49 8c 3d e1 13 bd bb
       -0.06348652 -0.013333275 0.068500064 -0.005770192
0000e0 b7 d7 43 3c 55 64 49 bc d6 d4 cb 3a a6 9f 64 3c
       0.011953286 -0.012291987 0.0015551101 0.013954079
0000f0 97 29 fd 3c 65 8f 38 3d 73 e8 8a 39 da fa ca 3b
       0.03090362 0.045058627 0.000264946 0.0061944546
000100 45 5e eb bb 3d a9 67 3d 00 08 a5 3b 25 da fa 3c
       -0.0071828687 0.056557883 0.005036354 0.030621598
000110 b0 ca 64 3d 2f 81 98 3c 44 60 e0 3b b1 19 ab bb
       0.05585736 0.018616287 0.0068474133 -0.0052215685
000120 36 37 be 3c 10 ed 8f 3d d4 45 34 3d 27 db 91 3b
       0.023219686 0.07027638 0.044011906 0.004451174
000130 6d 34 50 bc 0c 26 0f bd ea 6f 9b bd 7a d4 06 3c
       -0.012707812 -0.034948394 -0.07589705 0.008229369
000140 d8 b5 a4 bb a6 70 c0 bc 0f cf 69 3d 12 b2 da 3b
       -0.0050265603 -0.023491215 0.057082232 0.0066740597
000150 d9 fb e7 3c f4 0c 7c 3c 49 13 95 3d 09 cc 1b bd
       0.028318333 0.015383948 0.07279069 -0.03803638
000160 31 05 f8 bc 7d b4 08 3c 5a 53 41 bd 51 be 05 bd
       -0.030275913 0.008343813 -0.04719863 -0.032652203
000170 06 7a 6e 3d b5 7f 7f 3d 02 65 9d bb a9 f3 c7 3d
       0.05822184 0.06237765 -0.004803301 0.09763271
000180 da c0 a7 3c 6d 20 9a 3d 07 9a 4a bb a6 c9 c1 3c
       0.020477701 0.07525716 -0.0030914561 0.023655724

fc_2.weight f4 [10, 100]
000000 ff 58 1a 3d a7 e3 3a be 9a 86 a2 bc d1 23 1f bd
       0.03768253 -0.18250905 -0.019839574 -0.038852517
000010 03 de 82 3c 3c 32 93 3c b5 de f7 3d 27 32 0a be
       0.015975004 0.01796829 0.12103025 -0.13495694
000020 64 58 be bd 4b 95 92 bc 6b 59 82 bb 3b ee d5 bd
       -0.09294203 -0.017893454 -0.0039779446 -0.104458295
000030 f2 72 86 bc e6 99 fb 3d 8e 12 b9 3d 37 93 e0 bc
       -0.016412232 0.12285213 0.09036742 -0.027413948
000040 37 a8 bd 3c 7b 83 86 bd 49 a1 3c 3c 59 1a 5a 3b
       0.0231515 -0.06568047 0.011513063 0.0033279865
000050 a2 ab 6c bd c4 8d 44 3c 02 d0 0f be 09 76 22 3d
       -0.05778087 0.01199669 -0.14044192 0.03966335
000060 99 83 5d bd bb d5 4d 3e bd 2c 06 be 1b 0e 01 be
       -0.05408058 0.20101063 -0.13103004 -0.12603037
000070 f1 84 94 3c 33 ab 7c bd 9a 3a 22 be 2d f4 19 3e
       0.018129798 -0.061686706 -0.15842667 0.15034552
000080 a5 d8 8d bd 1e f9 be bd 7e 7f fc 3c 63 76 e3 bc
       -0.06926087 -0.09324859 0.030822512 -0.027766412
000090 83 a3 10 3d ab cb 1f be 22 d4 56 3c 4c 77 3d 3c
       0.035312187 -0.15605037 0.0131121 0.011564087
0000a0 72 ac be bc 26 43 ff bd 8b d6 2f 3d da 98 73 3d
       -0.023275588 -0.124639794 0.042929213 0.059471942
0000b0 bd 45 84 bd 31 83 f6 3b b1 f4 af bc 17 56 de 3d
       -0.06458614 0.0075229635 -0.021478983 0.10856264
0000c0 d6 c4 90 3d 90 f5 c5 bd 78 d4 fe bc 1a 0c e7 bd
       0.070687935 -0.09665978 -0.031107172 -0.11281605
0000d0 0e 1f fb bc df d2 4d bd 27 82 aa 3b c9 a4 6f bd
       -0.030654456 -0.05024993 0.0052035036 -0.05850676
0000e0 a3 b5 c0 3d f7 57 e5 3c 9f ff fe 3d 72 5b 45 bd
       0.094096445 0.027996046 0.124510996 -0.048182912
0000f0 0d 35 8e 3d de 83 f5 bd 9d 7d b5 ba 29 64 7e bd
       0.069437124 -0.11988042 -0.001384664 -0.06210724
000100 90 34 cb 3d 9e 51 91 bd bd 68 f0 ba f7 58 ac bc
       0.09922135 -0.07095645 -0.0018341761 -0.021038515
000110 24 73 64 3e 32 d8 63 3d 87 e0 b6 3d 90 d5 91 bc
       0.22309548 0.0556261 0.08929544 -0.01780203
000120 bd f0 48 3e 05 25 55 bd dd 2a 33 3b f3 30 d3 3d
       0.19623084 -0.052037258 0.002733878 0.10312071
000130 42 f9 d0 3d 63 35 e4 3d 5e f9 cc bc 74 e8 b8 bd
       0.10203792 0.11142995 -0.025021251 -0.09028712
000140 be 06 49 be 26 c8 d9 3c c5 c4 67 bd 3b d5 6b 3d
       -0.19631478 0.026584696 -0.05658414 0.0575764
000150 9b 42 f4 3d 5f 0e ae bd 38 99 67 3e 03 0f 9d 3e
       0.119267665 -0.08498835 0.22617042 0.30675516
000160 9b 9e bd bd 06 fa 3e 3c 52 2f 1c bd 34 65 ce bc
       -0.09258767 0.01165629 -0.038131066 -0.025194742
000170 f9 ad 81 bd fd 02 d1 bd 04 07 cb 3b 5a 40 3a 3d
       -0.06332011 -0.10205648 0.0061959047 0.045471527
000180 c4 57 10 bd 6a 7c bd bd 65 6c 50 bd 87 5e 1c 3d
       -0.03523995 -0.09252246 -0.050884623 0.038176086
000190 27 fb 91 bc ad 3f a7 3d b5 ad b2 3d f0 25 b7 bd
       -0.017819954 0.08166442 0.08724538 -0.08942783
0001a0 88 73 6a 3c 96 1a 6f bd cc 36 3c bd 93 29 0f be
       0.014309771 -0.058374964 -0.045950696 -0.13980703
0001b0 4a 7d 99 bd 26 f9 7e 3d 50 c4 8c bd 16 f9 40 3e
       -0.074946 0.062249325 -0.06873381 0.18845019
0001c0 3e d5 1a 3d ac 77 94 bd 66 05 6e bd 16 a7 87 3d
       0.03780102 -0.07249388 -0.058110617 0.06623666
0001d0 f6 a9 35 3d dc 62 5f 3d 37 ae 28 3d 67 ca d1 bc
       0.04435154 0.05453764 0.04118177 -0.025609208
0001e0 bb 7b 5a be 26 48 9f 3c be 58 83 3c ee d3 a2 3c
       -0.21336262 0.019443583 0.016033527 0.019876447
0001f0 f8 5c ab 3d 50 c9 f9 bd 80 e1 4e 3d 50 67 10 3e
       0.08367342 -0.121966004 0.050508022 0.1410191
000200 76 26 25 3d f8 8a 90 bc 50 e5 be 3d 5b 11 d5 bd
       0.040319882 -0.01764439 0.09321082 -0.10403701
000210 2c 28 cf bd 98 43 de bb 39 42 5c 3d d4 7e bc 3b
       -0.10115084 -0.00678296 0.053774092 0.005752424
000220 f4 b9 8d bd 83 5a 63 3e 93 da ca 3c 7a 12 51 bd
       -0.06920233 0.22202496 0.024762427 -0.05104301
000230 4b 60 35 3e cb 3b 21 3e b2 ab f5 bd 77 44 88 3c
       0.17712514 0.15745465 -0.11995639 0.01663421
000240 c4 38 81 3e 78 3e 1d bd 13 3c 32 3c 84 11 ad bd
       0.2523862 -0.038389653 0.010878581 -0.084506065
000250 4a df 6a 3c a5 52 6c 3d 3f a5 01 be ed 7e 6e bd
       0.014335463 0.057696003 -0.12660693 -0.058226515
000260 94 c7 17 3d 5e a8 9e bd 2a 77 37 bd ad ba 40 3d
       0.037055567 -0.07746957 -0.044791378 0.047053028
000270 ad 96 78 bd e5 de fa bc 2b 4a b8 bd 08 13 07 be
       -0.06069057 -0.030623863 -0.089985214 -0.13190854
000280 15 27 a6 3c 6d 0c 83 3e 15 d0 1d be 32 6b 46 3e
       0.020282308 0.25595418 -0.15411408 0.1937683
000290 bc d2 23 be 27 7a 62 3e eb 2b 89 3c 9a 7c 77 bd
       -0.15998358 0.2211691 0.016744575 -0.060421564
0002a0 3f 35 f3 bd 0b 55 60 bc 1c 96 a6 3b 0d 18 56 bd
       -0.1187539 -0.013692151 0.0050838124 -0.05226903
0002b0 03 7f 48 bd bd b7 a7 bd 03 95 5b bd 07 65 89 bd
       -0.048949253 -0.08189342 -0.053608906 -0.067087226
0002c0 33 ba c1 3d 27 06 54 bd 94 8c 3a bd 2c 3b f8 39
       0.09459343 -0.05176368 -0.045544222 0.00047346333
0002d0 bd 15 31 be 77 c2 12 bd 82 5b cd bd d2 51 89 3a
       -0.17293449 -0.035829987 -0.10027219 0.0010476655
0002e0 47 14 d2 3c d3 e4 07 bd a2 89 56 be e7 aa cd 3c
       0.025644435 -0.03317721 -0.2095094 0.025105907
0002f0 a7 08 67 bd c1 7f 16 3a ae a4 08 bd 17 e3 bc 3d
       -0.056404736 0.0005741083 -0.033360176 0.092230015
000300 34 3d 29 bc a9 6a d4 bd 4a f5 a9 bb ed 76 39 bb
       -0.010329533 -0.10371906 -0.0051867114 -0.0028299645
000310 e3 f8 a8 3c 00 bd 10 3c 12 44 ad 3b 13 3c 0d bd
       0.020626491 0.008834124 0.0052876556 -0.03448112
000320 fc c5 c4 bd 48 36 e2 bd 49 0d 8c bd ba d9 5f bd
       -0.09608075 -0.110455096 -0.068384714 -0.054651
000330 de 54 b4 3c 32 bc 20 bc 80 b0 a0 bc d8 f9 e7 3d
       0.022013124 -0.009810494 -0.019615412 0.11326951
000340 26 91 b3 bb 75 91 90 bc d9 3e aa bb ad 33 58 3d
       -0.0054799495 -0.017647484 -0.0051954803 0.052783657
000350 43 75 93 3d ef 14 91 bc 8d 0f ec bc 22 2c f1 bd
       0.072001 -0.017710177 -0.028816009 -0.11775996
000360 f9 d2 43 3c 20 83 f2 bc b0 23 a3 38 b5 ba d2 bb
       0.011952155 -0.02960354 7.779093e-05 -0.0064309486
000370 50 08 c0 3d 83 de a9 3d e3 fa c7 bd 70 d0 fa bc
       0.093765855 0.08294394 -0.0976465 -0.030616969
000380 01 2b 59 3e 73 db 34 3d be c1 31 bd e9 3b 91 bc
       0.21207811 0.044154596 -0.043397658 -0.017728763
000390 be 6f 10 3d 38 10 03 be 46 98 65 3d 1b 60 2a bc
       0.035262816 -0.12799156 0.056053422 -0.01039889
0003a0 86 b4 40 3d c1 a2 4c 3d fe 77 13 3d 4d 24 84 3d
       0.04704716 0.0499599 0.036003105 0.06452236
0003b0 bd 65 4c bc e1 3f 2c 3d c3 32 c8 bd a6 a5 34 bc
       -0.012475428 0.042053107 -0.09775307 -0.011025822
0003c0 9c fc e1 3c 91 cd 0d bd 79 8a 0b be 40 a2 9f 3d
       0.027586274 -0.03461987 -0.13627042 0.077946186
0003d0 74 bf 80 bd 0f 6d 5d bc 5a c8 9c bc 4d 72 76 be
       -0.06286517 -0.013514771 -0.019138504 -0.2406704
0003e0 3b ed d2 3c a2 5d 37 be 41 c6 e6 3d a4 24 06 bd
       0.025747886 -0.17906812 0.11268283 -0.032749787
0003f0 7f 3e a8 3d f9 01 8c bc 2f bf 1c 3c a6 26 60 bd
       0.08215045 -0.017090784 0.009567066 -0.054724358

fc_2.bias f4 [10]
000000 94 92 af bd e9 1f 47 bc 4d d3 7a 3c fa 5f eb 3a
       -0.085728794 -0.012153604 0.015309167 0.001795768
000010 34 e3 1e 3d 01 00 14 3d 31 02 13 3d ab 9d c5 bc
       0.038790897 0.036132816 0.03589076 -0.024123034
000020 73 44 53 bd 5c f3 a1 bc
       -0.05157895 -0.019769363
