models/fashion_fcnn_normal_1.000/model.pth (torch, 360455 bytes, 6 tensors)

fc_0.weight f4 [100, 784]
00000000: 57bc 4ebb 6a71 e1ba c229 043c 42d9 613c
00000010: df6f b2bc 68a1 a8bc a4c5 63bd c16d a0bd
00000020: 5c17 64be 9a8f 40bc 5873 eb3b a4d2 88be
00000030: 88ca 6dbe 871f 00be 080f c53c 51c0 cdbd
00000040: 2e52 6a3d 3cb8 1fbc ef00 8dbd 59c0 d8bd
00000050: 1408 213d 9317 82bc 6128 95bd c72d 24bd
00000060: 4c81 943c c832 3cbb d85c 8dbc 4c18 ae3b
00000070: 543c cdb9 5c7c ddba c971 903c 7ed2 e23c
00000080: f4bb a4b9 8ae4 73bc 23b5 13be 0ca5 c5bd
00000090: 3dc4 92bd 56c8 ff3c ab42 09be e001 88be
000000a0: 02ab 98bd 6d41 6d3d ceb1 8b3e 7964 033c
000000b0: 0b0c 123d 682a a7bb 4858 3f3d 584e 92bd
000000c0: 9f82 0b3e 6643 4a3d d289 9b3d 4c23 00be
000000d0: 15b5 5fbd 52f5 3ebd 733d 32bd ce3c 9bbb
000000e0: ffd1 58bb 450d 5abb 1744 0ebc a432 b73d
000000f0: 6d81 2c3e ba6f c9bc e3f9 08be d575 353d
00000100: fd54 f43d 63eb 5abd e355 1cbe 7883 58be
00000110: 01f2 bfbc acc4 23bd 6f1d 4f3d 483a adbd
00000120: c85b 0c3d d3a8 32be 198e 9f3e d03e 0f3e
00000130: aba3 0f3e 61c4 ad3d 6083 ce3d e17b e13d
00000140: 8e6a 0dbc d33c a8bd 2071 86bc 4862 da3a
00000150: 64a5 60bc 0ed8 79bb 7721 9d3d e3ab 2a3d
00000160: b727 a73d 10b1 64be 0d87 1dbd 7f38 a8bb
00000170: 9b12 26be f96b 073d 4030 853e c0f1 263e
00000180: 69d2 f73d dcd3 75be cf95 33be 8a56 ccbd
00000190: 5ff0 37be 57ed 8c3e 6883 9c3e d8da 08be
000001a0: 24d7 45bd a404 cc3c 5290 12bd b8e2 fc3d
000001b0: a819 373d ec89 8fbc c23a 433c f601 bb3c
000001c0: a79c 27bc 2ec4 f43c 23c3 683c 50b9 7e3e
000001d0: 207a 693d 3185 6dbe 8e03 4cbe 5bbc 1f3d
000001e0: c961 89bb 94c4 743d 2aa9 633e c44a 8e3d
000001f0: 7f7c 863e 0171 4c3e 6629 0b3e 3879 05be
00000200: bad5 02bd a018 723e c1c8 193d 4328 973b
00000210: e5dd 203c 6e22 9ebc fd72 debd 539b d83d
00000220: 980c 193d b6fe 70bd 304a 983c 283e 203c
00000230: 7e8c 393c 88b1 3dbc 76c3 a13a 9503 1a3e
00000240: fac6 85bb f042 6cbd 236f b0bd a3b2 ac3d
00000250: 5d3c 603e c806 143d 95b6 b13d 91b4 0f3c
00000260: a401 013e b8cf 523c 560c f13c a4f0 ac3d
00000270: 5956 233e 8c4d 853e 6007 d13d e537 303e
00000280: 83d9 a03d 5d30 02bd c6b4 ba3c 3e01 363d
00000290: 8ae9 b3bc 64e9 5ebc d5fd 1d3c a4b0 aa3c
000002a0: 18c9 2dbc 2482 5abd a8f9 c6bc a6e1 75bd
000002b0: 5228 b2bd cc80 083d 5769 44bd 3b01 1c3e
000002c0: 6e8f b23d 0eb6 2bbd abe3 3d3d 1bcf a53d
000002d0: 4128 0d3e 8100 fb3b dfb6 a13b 1976 a23e
000002e0: 9641 263e 83a2 bf3d ae12 5b3e 2eaa 5a3d
000002f0: 10d1 7d3d e1bb 443d eaa6 7d3e 5abc 33bd
00000300: fa90 0bbb 5a4e 73bc 865a 89bd 31aa 5cbc
00000310: 1a6d a6bc 0b68 31bd 73c9 27bd 3def c5bd
00000320: 65a9 b63c c0cf 99bd fbba afbc 72c7 153e
00000330: c344 fabd d5f4 27be 47a4 4dbe 594a cfbd
00000340: 643c cfbb 454b 1cbe 8f63 f5bd 2722 18be
00000350: a093 24be 8fa7 96bd da8d dcbd c4b3 0d3d
00000360: 9ca4 52be 5a05 203d 7bd2 163e 0288 12be
00000370: 393c 85bd 78e8 aabd 6dcb a0bd 627a 8e3c
00000380: 1f36 b734 1974 8fbd cefd 34bc 843a cb3d
00000390: e62e 913c 5d36 eebd afb9 41be 9ed2 ab3c
000003a0: 1fdd 29bd 193a abbd 6cf9 b0bd 4566 78bd
000003b0: 14a5 573d d10f 05be d1c6 cebd 0c8a d0bd
000003c0: 4bc6 e33d 10a8 593d 6445 903c f46d fb3b
000003d0: e451 eebd dd56 85be ed65 86bd c7f8 d6bd
000003e0: 0dd9 753d 79ef 11bd 0a02 743d af23 943c
000003f0: f8d8 b03b 2d25 bbbd 1d37 713d 2968 bf3d
-0.0031545365 -0.0017199938 0.008066596 0.013784708 -0.02178186 -0.020584777 -0.055608407 -0.07833434
-0.22274536 -0.011752987 0.007185381 -0.26723206 -0.23221791 -0.12512027 0.024055019 -0.10046447
0.05720728 -0.009748515 -0.06884944 -0.105835624 0.039314345 -0.015880382 -0.07283092 -0.04008272
0.01812806 -0.0028716791 -0.017256185 0.005312955 -0.00039145595 -0.0016898024 0.017632382 0.027688261
-0.00031420554 -0.014886031 -0.14424567 -0.09650621 -0.07166336 0.031223457 -0.13404338 -0.2656393
-0.07454492 0.057923723 0.27284092 0.00801956 0.035656016 -0.0051014908 0.04671505 -0.07143849
0.13624047 0.049380682 0.075946465 -0.12513465 -0.054616053 -0.046620674 -0.043515634 -0.004737473
-0.0033084152 -0.003327207 -0.008683226 0.08945206 0.16846247 -0.024589408 -0.13376574 0.044301827
0.11930273 -0.05344714 -0.15267138 -0.21143901 -0.023430826 -0.039982483 0.05056518 -0.08458382
0.034267217 -0.17447214 0.311631 0.13988805 0.14027278 0.08484722 0.100836515 0.11009956
-0.008631362 -0.08214726 -0.016411364 0.001666137 -0.013711307 -0.0038123163 0.076723985 0.04166783
0.08161872 -0.22333169 -0.038458873 -0.005133688 -0.16218035 0.033061955 0.26013374 0.16303158
0.121006794 -0.24006599 -0.17537616 -0.099774435 -0.17962788 0.27524826 0.30569005 -0.13364732
-0.048300877 0.024904557 -0.035782166 0.12347931 0.044702202 -0.017521821 0.011915864 0.022828083
-0.01023022 0.029878702 0.0142066805 0.24875379 0.057001233 -0.2319534 -0.19923231 0.03899799
-0.004192565 0.059757784 0.222325 0.06947854 0.26266858 0.19964983 0.13590011 -0.13034523
-0.031942107 0.23642206 0.03754497 0.004612954 0.009818529 -0.019303527 -0.10861776 0.10576501
0.037365526 -0.05883666 0.018590063 0.009780444 0.011325 -0.011577971 0.0012341577 0.15040429
-0.0040825577 -0.057681024 -0.08614948 0.0843251 0.21898027 0.03613928 0.08677403 0.008771078
0.12598282 0.012866907 0.029424828 0.08444336 0.15950908 0.26035726 0.10206485 0.17208822
0.07853987 -0.031784404 0.022791278 0.04443478 -0.021961946 -0.013605449 0.009643038 0.020836182
-0.0106070265 -0.053346768 -0.024288967 -0.06002965 -0.08699097 0.033325955 -0.047952022 0.15234844
0.08718763 -0.041921668 0.0463597 0.08096143 0.13784887 0.007659972 0.00493513 0.31730726
0.16235957 0.093571685 0.21393844 0.053384952 0.061966956 0.048030738 0.24770704 -0.043880798
-0.002129613 -0.014850223 -0.06706719 -0.013468311 -0.020315696 -0.043312114 -0.0409636 -0.09664772
0.02229757 -0.07510328 -0.021451464 0.14626864 -0.122201465 -0.1640199 -0.20082198 -0.101216026
-0.006324338 -0.15263088 -0.1198188 -0.14856778 -0.1607194 -0.07356178 -0.107692435 0.034595266
-0.20570606 0.039067604 0.1472873 -0.14309695 -0.06505627 -0.08345121 -0.078513004 0.017392341
3.4125785e-07 -0.07004566 -0.01104684 0.0992327 0.017722558 -0.11631463 -0.18918489 0.020974454
-0.041470643 -0.083606906 -0.086413234 -0.060644407 0.052647665 -0.12994315 -0.10096515 -0.1018258
0.11121806 0.053138793 0.017611213 0.0076730195 -0.11636713 -0.26042834 -0.065624095 -0.10496669
0.06002145 -0.03562877 0.059572257 0.018083422 0.0053969584 -0.0913795 0.05889045 0.09346039

fc_0.bias f4 [100]
00000000: 567c 3e3d a7f2 2d3f ecb9 eb3d b691 b03e
00000010: fdad d03e ab94 013e a554 ddbe 07ce a13e
00000020: b9ae d13e 6c57 893d 8368 b23d e51e 8a3e
00000030: 3af4 9a3e 4d28 aabe f8ca b6be 5b2b e33b
00000040: 99f5 d93e d350 d83d cdac 3dbe 47ac d13d
00000050: 0550 863c 3a26 8abd 7e41 87be 2753 f73d
00000060: 619e 23bf af9c 4cbe f2b1 ef3e a334 873d
00000070: 7acb 41be 95a0 063e 9f0b 73be f87a 163e
00000080: c5c9 9f3e b962 d13d 2d7a 703e cc28 a93e
00000090: 9f33 0dbf ea61 22be aee3 96be d207 4e3e
000000a0: aac9 523e 6bb6 be3e 61aa 8d3e 1e76 853f
000000b0: d1c4 f73e c3a0 26bc 92ca 57be f222 b73e
000000c0: 5155 373e eeb4 0ebd 25a0 993e 254e b93e
000000d0: 8087 c23e 14e2 963e 387b 84be b743 01bd
000000e0: 32f7 1b3c c126 72be e493 0dbf 0c33 113f
000000f0: 1d7c bb3d 6d30 523e 04de 4c3f 3620 a53e
00000100: 508f 513e c7c3 99bd b530 8dbe 1585 cf3d
00000110: b6c1 743e 2c0a 2d3e def1 e43e dc48 a1be
00000120: f5f1 52bd 87f3 c93e fcb5 73bf 7645 72bd
00000130: 9c65 d63d 0b1a 0f3f fa39 92be c8ae ea3e
00000140: 25bf 73bc 63d6 993e 053c a33d 25e1 c4be
00000150: 124e a93e 76b4 ec3d 37b6 923e bb8a 5b3e
00000160: 033f 933c c886 7b3e a022 393d 8519 953c
00000170: 29df c23c 0620 463d 4d48 acbd b316 843e
00000180: 1e1f 833e 7c49 8d3e bf10 f43e ed45 a83f
0.046505295 0.67948383 0.11510071 0.3448617 0.40757743 0.12654369 -0.4322864 0.316025
0.40953615 0.067061275 0.0871134 0.26976696 0.30264455 -0.33233872 -0.35701728 0.0069326586
0.4257019 0.10562291 -0.1852295 0.102379374 0.016395578 -0.067455724 -0.26417154 0.12076407
-0.6391354 -0.19981645 0.4681545 0.066018365 -0.18925276 0.13147195 -0.23734902 0.14695346
0.31208625 0.10223908 0.23484106 0.33038938 -0.5515689 -0.15857664 -0.2947058 0.2012017
0.20584741 0.3724855 0.2766905 1.0426672 0.48392347 -0.0101701645 -0.21073368 0.3576885
0.1790364 -0.034840517 0.30004993 0.36192432 0.37994003 0.2946936 -0.25875258 -0.03155872
0.009519385 -0.23647596 -0.5530379 0.56718516 0.09154532 0.20526285 0.8002627 0.32251137
0.20464826 -0.07508045 -0.27576223 0.10132805 0.2390202 0.16898412 0.4471578 -0.315009
-0.05150028 0.3944361 -0.9519956 -0.059148274 0.10468599 0.55899113 -0.28559858 0.45836473
-0.014877115 0.30046377 0.07970432 -0.38453022 0.33067375 0.11557858 0.28654644 0.2143964
0.017974382 0.24563134 0.045199037 0.018200645 0.023788052 0.048370384 -0.08412228 0.25798568
0.25609678 0.27595127 0.47669026 1.314634

fc_1.weight f4 [100, 100]
00000000: 2ed4 04bc bc67 b13e 40c3 63bd e89c efbd
00000010: 3616 4f3e bd42 32be ec02 073e 1139 07be
00000020: 7ec2 15be 3ddf 94bd 15ef 8abe 833e 35be
00000030: 1536 e03d 11c8 813d f4b8 f3bd 7e47 eabc
00000040: f5d2 c7bd f648 b7bd 6bec c5bd 454b cbbe
00000050: 589d 8e3e a729 26be bf9e b43e e9be a7bb
00000060: c72e 0abd 6aa6 31bd fa82 01be 6cc7 14be
00000070: 1d54 433d 8a09 5d3e 9d88 f03d bb19 92bd
00000080: 3037 863e eb7a 81be 82bd 6c3e f3f2 433e
00000090: 25ee 603e 482c fdbb 26f1 5bbd 2102 3cbc
000000a0: 3256 7dbe 57e4 3abe 65e5 8e3e 30d1 4a3e
000000b0: 9c05 a13e b5d8 a5be b074 383d 7bbf 2f3e
000000c0: 7b46 1ebe 59a9 0c3e fdc2 1b3d 6b57 d3bd
000000d0: 78d3 91be 8ece be3c 7c2c 91bd 1568 783e
000000e0: e884 2cbe b7b6 f33d cbef 5abe f81f 8bbe
000000f0: fdaf 50be 7eed 243e 70d6 ba3e 3988 b9bd
00000100: 54ca c33d b33e d83d 89da 35be b0fb 8fbd
00000110: e6e0 82bc 8c2a b1bc 2a27 aebe ba24 65be
00000120: a00e 713e f83a 853c 7e85 2cbe 556b fdbd
00000130: 5c5e 82be 0442 0a3e f8fa 533e 3910 803d
00000140: e07f fa3d 56d1 80bd a016 5a3e 302d 4f3e
00000150: 5bca de3c 4756 3a3c 4fe1 543e 770c b3bd
00000160: 24c8 79be 92e2 263e de40 6dbd e272 09bc
00000170: 86c7 bf3c af1f 623e 1592 20be 337e 163e
00000180: 05e3 2b3e 7a6c 3a3e 5fbc b53e 5a18 7e3e
00000190: cf7f 9d3e ad02 bb3c 5ae0 f53d a18c 7e3c
000001a0: bca9 b9bd 295f 4dbe 70eb 23be ea84 723d
000001b0: fc82 843e 1956 a2be 602b a4bd 51aa fc3d
000001c0: 744b 62be f722 933c bdbc f63c 2e07 c43c
000001d0: 7cf5 fbbc e0e3 a8bb 6ec2 adbd f1ac 2c3c
000001e0: ddf2 ba3e 35f8 03be 5144 8abe 96a8 2fbd
000001f0: 55b7 e7bc 881a 23bd d0a6 1fbe 4f15 df3d
00000200: a5f9 e43e 28ae 603c c222 4f3e 1149 36be
00000210: 868e 5fbe 3588 3f3d 904b 1dbf 19d7 85bd
00000220: 0afe a7be f007 163c 18dd 11bd 0c1c 69bd
00000230: 7b6e debd fda9 0fbe 0b3d 87bd 78b5 f6be
00000240: 7b0f 4f3e eee1 7fbd bc42 573e bfbc f93d
00000250: 78ec 47bd f520 39be 1a40 e03e d5ad 613d
00000260: d346 3dbe d008 d4bc 8821 343c 8cd2 ff3b
00000270: 5ada e33c 73dc ee3d af49 f5be a98b 803e
00000280: 58a7 2cbe 0bee 1bbd 3c21 74bd 6aff c83d
00000290: d8df 9bbe 2fa8 72bc 5e6f 193e e604 3c3e
000002a0: c765 283e fb63 70bd 0c37 ef3d 6f0d a73d
000002b0: afe8 3d3e c56f 553d 467d d4bc 1363 54be
000002c0: 2d62 7a3d 5744 403d 5687 32bd cacc 683d
000002d0: 4ac1 a23d f15f 36be fb7a f3bc 4500 833e
000002e0: 4bc4 133e df38 2cbd fb31 0d3d 360f 4bbb
000002f0: e183 36be 1041 c53e 0375 4d3d f317 a03b
00000300: d4ee ca3b aa6c e43d f6bd 8e3e 4da7 4ebe
00000310: 9e8b b33d 9461 5dbc 2ff8 363d 031c 843d
00000320: 19ec be3c 508f 013d a07f 98bd 0746 373d
00000330: d146 b4be 8073 613e 9aad 89bc 8b5a 273d
00000340: 06ff 713e 2e1d 3dbe 96a4 643e 3c5d ad3c
00000350: f3d6 c5bd d29d 1f3e ac47 d5bd e282 bbbb
00000360: 018f 943d e68c 073a 437e 3dbe 6b0c 5b3d
00000370: 68bc 1a3d 4f1f 0bbe e100 553e 36f2 60bc
00000380: d86e a7bd 748d dfbd 6414 59bd becc 57be
00000390: 746d 173e 4830 77be e0ee 8ebe 43b4 8e3e
000003a0: 724f 90bd c6e0 523e 929b 98be 9ea9 183e
000003b0: 4000 04bf 69d9 59be d653 293e cc46 e9bd
000003c0: 27a8 94bd 6c1e bcbe 5551 22bd 9865 1bbe
000003d0: dcc1 7e3e b7f2 71bd 1c50 173e d338 b7bd
000003e0: 88da 58bd b422 813d bdf4 163d 7e21 f4bc
000003f0: 17e9 3cbc 3eec e7bd 1dcc 91be ee11 c6bd
-0.008107228 0.34649456 -0.055606127 -0.11699849 0.20223317 -0.17408271 0.13184708 -0.13205363
-0.14624974 -0.07269142 -0.2713553 -0.17699628 0.10947815 0.06336988 -0.119005114 -0.028598543
-0.09757034 -0.08949463 -0.09664234 -0.39705864 0.2785442 -0.16226827 0.35277364 -0.005119194
-0.033736017 -0.043371595 -0.1264762 -0.14529198 0.04768764 0.2158567 0.11744807 -0.07133814
0.2621398 -0.2528909 0.23119166 0.19135647 0.21965845 -0.007726226 -0.053696774 -0.011475117
-0.24739912 -0.18251167 0.2790939 0.19806361 0.31449592 -0.32391897 0.045033157 0.17162888
-0.15456574 0.13736476 0.038027752 -0.10319408 -0.2848165 0.023291852 -0.07088563 0.24258454
-0.16847575 0.119000845 -0.21380536 -0.27172828 -0.20379634 0.16106221 0.36491728 -0.090591855
0.095600754 0.10558834 -0.17759146 -0.070304275 -0.01597638 -0.021626733 -0.34014255 -0.22377291
0.23540735 0.01626347 -0.16847798 -0.123739876 -0.25462615 0.13501745 0.20701206 0.06253094
0.122314215 -0.06289928 0.21297693 0.20232081 0.0271961 0.011373109 0.20789073 -0.08742612
-0.24392754 0.16297367 -0.05792319 -0.008389207 0.02341057 0.22082399 -0.15680726 0.14696579
0.1678582 0.18205443 0.35495278 0.24813977 0.30761573 0.022828424 0.12005682 0.015536458
-0.090655774 -0.20055832 -0.16007781 0.059208788 0.25881183 -0.31706312 -0.080160856 0.12337173
-0.22099096 0.017961008 0.030119294 0.023929205 -0.030756705 -0.005154118 -0.0848435 0.010539279
0.36513415 -0.12887652 -0.27005246 -0.042885385 -0.028285662 -0.039820224 -0.15590978 0.10892736
0.44721714 0.013713397 0.20228103 -0.1780131 -0.21831712 0.046760757 -0.61443424 -0.06535167
-0.32811004 0.009157166 -0.035611242 -0.056911513 -0.10860916 -0.14029689 -0.0660344 -0.48185325
0.20220749 -0.062471323 0.21021551 0.121942036 -0.0488095 -0.18078978 0.43798906 0.05509742
-0.18484049 -0.025883108 0.010994323 0.0078070816 0.02781408 0.11663141 -0.4790778 0.25106552
-0.16860712 -0.038068812 -0.059602007 0.09814341 -0.30444217 -0.014810606 0.1498389 0.18361244
0.16445075 -0.0586891 0.11680421 0.08156859 0.18545793 0.052108545 -0.025938641 -0.20740919
0.061128784 0.046940174 -0.043586098 0.056835927 0.07947023 -0.17810036 -0.029721728 0.25586143
0.14430349 -0.042046424 0.034471493 -0.0030984408 -0.17823745 0.385262 0.05016042 0.0048856675
0.0061930213 0.111535385 0.27879304 -0.20181008 0.08766864 -0.013512034 0.04467028 0.06450655
0.02330594 0.031630814 -0.074462175 0.044744518 -0.3521028 0.22016716 -0.016806412 0.040857833
0.2363244 -0.18468162 0.2232841 0.021162622 -0.09660139 0.15587547 -0.10414061 -0.0057223896
0.07253838 0.0005170837 -0.18505196 0.05347864 0.037777334 -0.13586162 0.20801117 -0.013729623
-0.08175439 -0.10915652 -0.05299796 -0.21074197 0.14787847 -0.24139512 -0.27916622 0.27871904
-0.07046403 0.20593557 -0.2980619 0.14908454 -0.5156288 -0.21274342 0.16535887 -0.113904566
-0.07258635 -0.3674196 -0.039628346 -0.15175474 0.24878639 -0.05906936 0.14776653 -0.08946385
-0.052942783 0.06305447 0.036854494 -0.029801127 -0.011530182 -0.113243565 -0.2847604 -0.096713886

fc_1.bias f4 [100]
00000000: 8e27 f13c 8e1c 513d 22c6 f23d cfc7 663d
00000010: 8f64 cb3d bd9e 8e3d 7da6 213e 3b02 263b
00000020: d5b5 583d 7b98 7d3e f01d b43b 334b 71bc
00000030: 4181 93b9 0a9a 023e e88a 61be 7822 96b8
00000040: 5058 c93e 9637 cc3d f941 623e dbc0 98bd
00000050: b690 123e ece2 813e 14aa 493e 0de5 1dbe
00000060: d187 1dbe a17f 073f 9d0a bbbd 5fbc bd3c
00000070: 2cba 1ebd c746 893d 6283 6a3e 2d3f 4b3e
00000080: 978f 473e f168 923e a912 9a3d 80b5 7a3d
00000090: e081 e33e 5203 363e c30c ab3e 28f6 1abd
000000a0: f010 75bd 073f 9dbd 7c22 113d eb07 493e
000000b0: a1d8 c5bd 0c72 0fbd f41e 2a3e f3c5 083e
000000c0: 256a 013e eba3 23be 7e48 c93e 2782 9c3e
000000d0: 93cc dd3e b940 82bd 06db a83d 6086 7b3c
000000e0: 1a6c 543e ccd7 333d a941 f03c 1675 10be
000000f0: ae86 00be 69c8 c03d 70da 883d 5732 e73c
00000100: ba30 1dbe 2ac0 ae3e a881 163e b438 2d3e
00000110: 9535 2dbe d8a1 c8bd 9e96 ae3d 14e3 773e
00000120: 0f77 b93d 0c77 2e3e ffee 483e 7062 2d3e
00000130: a7b7 1f3e 0ba7 493e 7fa0 783e 0aed cebc
00000140: 3802 433e 9725 693e 52e7 c33d cbea 4a3d
00000150: 17b5 edbd cea1 42bd 015d e23d 5c7d eb3d
00000160: d9c2 1ebc 0d54 4abb 81e8 a8bd 8e77 b2bd
00000170: fb38 80bd 5858 0fbd 7240 b63e 1d44 bcbd
00000180: e0ab 153e a739 8f3e a1c2 8e3d a05f 843e
0.029437806 0.051052622 0.11854197 0.056342896 0.099312894 0.06963871 0.15786166 0.002533092
0.052907784 0.24765198 0.005496733 -0.014727402 -0.00028134327 0.12754074 -0.22025645 -7.158978e-05
0.3932519 0.0997154 0.22095479 -0.07458659 0.14313015 0.2536844 0.19693786 -0.15419407
-0.15383841 0.5292912 -0.09132884 0.023161111 -0.038751766 0.06702953 0.22901681 0.19848318
0.19488369 0.2859569 0.075230904 0.06120825 0.44435024 0.17774704 0.33408174 -0.03783241
-0.059830606 -0.07678037 0.035433277 0.19631927 -0.09660459 -0.035020873 0.1661337 0.13356762
0.12638147 -0.15980498 0.3931312 0.30568048 0.4332014 -0.06360001 0.082449004 0.015351862
0.20744362 0.04390697 0.029328184 -0.14107165 -0.12551376 0.09413225 0.06682289 0.028222246
-0.15350619 0.34130985 0.14697897 0.16916162 -0.16914971 -0.09796494 0.08524822 0.24207717
0.09055912 0.170376 0.1962242 0.16932082 0.15597402 0.19692628 0.24279974 -0.025259513
0.19043815 0.22768246 0.09565605 0.049540322 -0.11606806 -0.04751759 0.11052895 0.1149852
-0.00969001 -0.0030872852 -0.082474716 -0.087142095 -0.06260868 -0.03499636 0.35596043 -0.09192679
0.14616346 0.27973673 0.06970716 0.25854206

fc_2.weight f4 [10, 100]
00000000: f25c f2bd 9c4c 513f 0723 a8be 9130 b93e
00000010: 372e fd3e c452 333f 9704 cf3d e0ad 763f
00000020: 4b1b 683f f59c 4ebf 575c 113f 1bfd fabe
00000030: 2e22 ebbd d96b 9abf 8412 8abd dca8 1cbe
00000040: 03d1 59be 2e78 b93e c3f4 863f 706e 143f
00000050: bba6 883e 2655 e43d e75c 73bf 48d8 4fbf
00000060: 659c 133f e686 0d3f 6623 9c3e 98e7 da3e
00000070: 0396 e7be e4d0 eabd 8888 953e acbc b33e
00000080: 6354 623e 4d45 973e 1863 08bf b052 3abf
00000090: 1ab9 833f 4a64 e73e 5cbc a0bf 70aa 47bf
000000a0: dbbb 71bf ac5e c2bd 57a7 623f 54fa 1e3c
000000b0: e38e 8c3d c922 8bbf 0a3c 383f d850 dfbe
000000c0: dfa0 e4be ee26 cd3e 1d5a 24bf 25a3 193e
000000d0: 3fb2 953d ad1a db3d 415c 613f d68b e43c
000000e0: 0933 603e c88e 223f dfac b2be 7698 1cbe
000000f0: 6937 b6be a19d 31bf 0c24 7cbe 837b 8bbe
00000100: 29aa a6be 1fa2 b7bf 631d 483f 1c08 ac3e
00000110: 01f4 2dbe 4e2f 6b3e 73dd 753e 9d51 a43e
00000120: 65b3 cf3e 0f78 a1bf 2a08 a0be 4313 fcbb
00000130: b649 eabe 39f0 49bf 25f2 8b3e 98d5 34bd
00000140: d729 733e fac3 64bf b6f4 28bf 7237 043d
00000150: 4ef8 133f b76a 6b3f 0ea4 17bf 0abc 3e3f
00000160: d655 63be 265c a03f 56f3 fa3e 407d c13d
00000170: 3087 ba3e c8a3 8fbe 94ce 20be 9da7 9e3e
00000180: 3436 ba3d 80c5 593f e8cc bcbd 8ae9 a7be
00000190: 9f9c 51bd 2ad3 ac3d ba9d 4a3f 2780 853c
000001a0: cd7e b13d 1777 fe3e 7dd5 8a3e c23c 2ebe
000001b0: 98d1 1cbe 6eb3 40be 6eb3 3dbc c430 2dbd
000001c0: a07c b3bd a796 023f fc2b 783e 02bf 633d
000001d0: fcf2 853e e223 94bd 8478 6bbe 72f4 c43c
000001e0: f95b 123f 82d5 443d ffa3 48be e3bd 1cbe
000001f0: c765 60be 0998 e6be fd46 26bb c50b 0c3d
00000200: 06c3 653e 3825 4dbd 5828 79be 61b9 b6bd
00000210: c819 89be bc46 abbd e14c 0abe f978 d53e
00000220: 2db8 263e 288a 9ebd 74e8 b8bd ab2f e5bc
00000230: dc8d 56bd 9ab0 a33e 5257 b83e dcb6 5b3e
00000240: 5095 423e b277 3b3f 7ab7 2cbe e3df 35bd
00000250: b903 b6be ad78 933d 95ea 0d3a a6d0 9fbc
00000260: 1c51 a5be 427d 1f3f 9c50 acbe 8f4c a6bd
00000270: 1a01 07bf ebf8 b23d 5a93 91bd c088 aa3d
00000280: e5c2 823d 2f75 383d 55f8 963d 3b31 bdbd
00000290: 61b6 a33b 4dd8 e43d 0bb4 8dbe a468 803e
000002a0: d64d 013f 4092 9a3f 8c74 243e bb2b b0be
000002b0: a8de 3cbd 6cce 19bf 7a8f 0e3f 2e65 c4bd
000002c0: f446 1a3e 4e0d 8dbe 52d2 1bbf a08f 58bc
000002d0: eece b93e aead 37be 778c 4fbe c235 9cbc
000002e0: aa00 c4bd ddf9 91be 31a3 c73c 7a74 3b3d
000002f0: 0a61 ebbc 8318 24bd 7f01 c8bc 08e7 863e
00000300: c040 f0bb 7fd0 1dbe 18af 70be 125d 033e
00000310: acdf f2bd ffdf 1bbe b27f 793e a681 203e
00000320: 72ec 28bf 9713 33ba d9b3 533f e8fa b03d
00000330: b32d 153f 243f 9abe 5256 dcbd e8de d9be
00000340: c2a1 a4bd 4556 093f 1f01 633f 6492 5fbe
00000350: b968 a9bd 0aae acbe 7dd9 253f f18d f4be
00000360: 9ff5 4c3f 5549 e43e cb92 31bf 022b 4abf
00000370: 1ba6 36bf 000c 803d a7c4 bebd 0e90 e6be
00000380: f842 eb3e 0d09 a9bf d00f 2f3e ad5a 23bf
00000390: 08dd 7ebf 2ace 203e dca8 4a3f 6da7 4dbe
000003a0: 6843 1dbf 13b7 4d3f def5 6d3f c24d c8be
000003b0: d8a6 f23e 43e3 003f d16a 0d3d dacf 703f
000003c0: 026e 1fbe eadf 32be 5f32 8fbf 10c4 19bf
000003d0: 5ec8 2cbf 915d 4dbf e8c1 25bf bcb9 113f
000003e0: 2a73 08bf e79c 2cbf 3f0e 5c3c 119f 873f
000003f0: ccd7 623f f536 a73e 927d c9be c21b b63e
-0.11834134 0.8175752 -0.32839224 0.36169866 0.49449322 0.70048165 0.10108297 0.9635906
0.90666646 -0.8070825 0.56781524 -0.4902123 -0.11481129 -1.2064162 -0.06741813 -0.1529879
-0.21271138 0.36224502 1.0543445 0.57981014 0.26689705 0.11149053 -0.9506363 -0.81189394
0.57660514 0.55283964 0.30495757 0.42754817 -0.45231637 -0.11465624 0.29205728 0.35104883
0.22102503 0.2954506 -0.53276205 -0.7278242 1.0290864 0.45193702 -1.2557483 -0.7799444
-0.9442727 -0.094907135 0.8853659 0.009703238 0.06863191 -1.086999 0.7196661 -0.43616366
-0.44653985 0.40068763 -0.642 0.15003641 0.07309388 0.106984474 0.88031393 0.02789871
0.21894468 0.63499117 -0.34897515 -0.15292534 -0.3558915 -0.6938115 -0.24623126 -0.2724267
-0.32551697 -1.434635 0.7816984 0.33599937 -0.16987611 0.22967264 0.24010257 0.32093516
0.40566555 -1.2614764 -0.3125623 -0.007692726 -0.45759362 -0.78882176 0.2733318 -0.04414901
0.2374643 -0.89361537 -0.659984 0.03227944 0.5780076 0.9195971 -0.592347 0.74505675
-0.22200713 1.2528121 0.49013776 0.09447718 0.36431265 -0.28054643 -0.15703803 0.30987254
0.0909237 0.85066986 -0.0921877 -0.32795364 -0.051174756 0.08438714 0.7914692 0.01629646
0.086667635 0.49700233 0.27116004 -0.17015365 -0.15314329 -0.18818447 -0.011578424 -0.042282835
-0.08764005 0.5101113 0.24235529 0.05560208 0.26161945 -0.072334066 -0.22995192 0.024042342
0.5717159 0.04805518 -0.1959381 -0.15306811 -0.21913825 -0.4503787 -0.0025371902 0.03419091
0.22437677 -0.050084323 -0.24331796 -0.08922077 -0.26777482 -0.08363101 -0.1350589 0.41693857
0.16281195 -0.07741195 -0.09028712 -0.027976831 -0.05238138 0.31970674 0.3600412 0.21456474
0.1900227 0.73229516 -0.16866866 -0.04440297 -0.35549715 0.072007515 0.00054136786 -0.019508671
-0.32288444 0.62300503 -0.3365525 -0.08120071 -0.52736056 0.087388836 -0.07108183 0.08326864
0.063848294 0.04503363 0.07371584 -0.092379056 0.0049961065 0.111740686 -0.27676424 0.25079834
0.50509393 1.2075882 0.16060084 -0.34408364 -0.04611078 -0.600806 0.5568768 -0.09589611
0.15066129 -0.27549213 -0.608678 -0.013217837 0.36290687 -0.17937347 -0.20268427 -0.019068602
-0.09570439 -0.28510943 0.024369808 0.045765378 -0.028732795 -0.04006244 -0.024414776 0.26348138
-0.0073319376 -0.15411566 -0.23504293 0.12828472 -0.11859068 -0.15222166 0.24365118 0.15674457
-0.65985787 -0.0006831227 0.826963 0.086416066 0.58272856 -0.30126297 -0.10758652 -0.42552876
-0.08038665 0.5364726 0.88673586 -0.21833187 -0.082719274 -0.3372653 0.64784986 -0.47764543
0.8006229 0.44587198 -0.69364613 -0.78971875 -0.71347207 0.06252289 -0.09314852 -0.4503178
0.4594953 -1.3205887 0.17095876 -0.63810235 -0.99556017 0.15703645 0.7916391 -0.20083399
-0.6143098 0.80357474 0.9295329 -0.39121825 0.47392917 0.50346774 0.034525696 0.94067156
-0.15569308 -0.17468229 -1.1187247 -0.6006479 -0.67493236 -0.80220896 -0.64749 0.56924033
-0.53300726 -0.67426914 0.013431131 1.0595418 0.8861053 0.32659116 -0.39353615 0.35568053

fc_2.bias f4 [10]
00000000: 5b9d 6cbd 56d8 cdbd 1664 9e3e 3c9e 0d3e
00000010: b89e 83bd cfba 0cbe de3a 813d 70fb 13be
00000020: a125 023e ed38 03be
-0.057767253 -0.100510284 0.30935735 0.13829893 -0.064267576 -0.13743137 0.06310056 -0.14451385
0.12709667 -0.12814684
