models/fashion_fcnn_normal_0.010/model.pth (torch, 360455 bytes, 6 tensors)

fc_0.weight f4 [100, 784]
0	0x3b01e101	0.001981795
1	0x3a074f4e	0.00051616586
2	0x3c5c930d	0.013462794
3	0xba24d603	-0.0006287994
4	0x398ce657	0.00026874497
5	0x3db6e4d1	0.08930362
6	0x3d659992	0.05605466
7	0x3dd78e33	0.10525169
8	0x3db22970	0.0869931
9	0xbe3a97ca	-0.18221965
10	0x3eb398ee	0.35077614
11	0x3f46cd67	0.7765717
12	0x3e0cd821	0.13754322
13	0xbe505afb	-0.20347206
14	0xbf04db40	-0.5189705
15	0xbe88e793	-0.26739177
16	0x3ef141e7	0.47120592
17	0x3ee20f3a	0.44152242
18	0xbe8af7e5	-0.27142254
19	0x3d81a13e	0.06329583
20	0x3e08bab0	0.13352466
21	0xbc37cd83	-0.011218431
22	0xbd56139c	-0.052264795
23	0xbd256a51	-0.040384594
24	0x3ce8596c	0.028362952
25	0xbbedf61c	-0.0072620045
26	0xbbfa511e	-0.0076390645
27	0x3c86ce72	0.016455863
28	0x3b19db65	0.0023476717
29	0x3a80e32e	0.000983333
30	0x3d35959b	0.044332128
31	0x3d8d9383	0.06912901
32	0x3cee1ae1	0.029065551
33	0x3da11e73	0.07867136
34	0x3eb94a67	0.36189577
35	0x3dced30a	0.10098846
36	0xbdc64f91	-0.09683145
37	0x3e8ccbe1	0.27499297
38	0x3eb215e4	0.34782326
39	0x3d556711	0.052100245
40	0xbd971f39	-0.07379002
41	0xbe25e150	-0.16199231
42	0xbefe96c6	-0.49724406
43	0xbe8c30e3	-0.27381048
44	0xbea18722	-0.3154841
45	0x3d2092c8	0.03920248
46	0x3d287f02	0.04113675
47	0x3cce1c93	0.02516011
48	0x3d14b527	0.036305573
49	0x3e830ba8	0.2559483
50	0x3d6d7ab0	0.057978332
51	0xbe282cf7	-0.16423403
52	0xbd4e5f21	-0.05038369
53	0xbcf5d789	-0.030010002
54	0xbd5020e9	-0.050812636
55	0x3d052dc7	0.03251436
56	0xbc13ba0a	-0.009016523
57	0xbc9d3218	-0.019188926
58	0x3bce3569	0.006292988
59	0x3cdcaac0	0.026936889
60	0x3c846550	0.01616159
61	0x3e6e98e8	0.23300517
62	0x3dc4a0b0	0.09600961
63	0xbe8fb56d	-0.28068104
64	0xbd4ec09a	-0.050476648
65	0xbdbaf93d	-0.0912957
66	0x3cb18f95	0.02167491
67	0xbe8a8d54	-0.2706095
68	0x3dc58116	0.09643762
69	0x3bb231f6	0.0054380847
70	0xbeecbad8	-0.462363
71	0xbe12b564	-0.14327008
72	0xbf0dc28a	-0.5537497
73	0xbd8574ce	-0.06516419
74	0xbe485f61	-0.19567634
75	0xbe102ecf	-0.14080356
76	0xbccd49b0	-0.025059551
77	0x3cf9a9fd	0.030476565
78	0x3e050237	0.12989126
79	0x3d2e42a0	0.042544007
80	0x3e3f8552	0.18703201
81	0xbcd3be6e	-0.02584764
82	0xbd672a44	-0.056436792
83	0xbc8f05af	-0.017458765
84	0xbcd1aa21	-0.02559382
85	0xbd276c6e	-0.04087489
86	0x3b1d5b14	0.0024010586
87	0x398b0761	0.00026517644
88	0x3cfefab4	0.031125404
89	0x3d8f424d	0.06995068
90	0xbec365eb	-0.38163695
91	0xbd874e3c	-0.06606719
92	0xbd783973	-0.060601663
93	0xbe08bb3b	-0.13352673
94	0xbd25c4ec	-0.040471002
95	0xbdd12363	-0.102118276
96	0xbde614e2	-0.11234452
97	0xbe0d9207	-0.13825236
98	0xbe14a9cc	-0.14517897
99	0xbc6625a0	-0.014047056
100	0x3dc377d5	0.095443405
101	0x3e5b71fd	0.21430202
102	0xbe88bdee	-0.26707405
103	0xbdec97e6	-0.1155241
104	0xbd35cde7	-0.044385817
105	0xbe5534c5	-0.20820911
106	0xbe060222	-0.13086751
107	0xbeada650	-0.3391595
108	0x3c8fa016	0.01753239
109	0x3dbe78a1	0.09300352
110	0x3d04e097	0.032440748
111	0xbae75697	-0.0017649707
112	0xbd03a8c2	-0.032143362
113	0xbd266b1a	-0.040629484
114	0xbc055be7	-0.008139587
115	0xbd50a0e2	-0.05093468
116	0x3d81cb01	0.06337548
117	0xbca10784	-0.019656904
118	0xbe10a374	-0.14124852
119	0xbbac2945	-0.005253943
120	0x3d304a72	0.043039747
121	0xbd8e481e	-0.06947349
122	0xbce1a846	-0.02754606
123	0x3c19cf4c	0.009387802
124	0xbd1a931f	-0.03773796
125	0x3ca72485	0.020403156
126	0x3d35d101	0.044388775
127	0xbd38bb29	-0.045100365
128	0x3ce71046	0.028206002
129	0x3d833b2f	0.06407773
130	0x3b1e1f88	0.002412768
131	0x3d7c9189	0.06166223
132	0xbd91cadf	-0.07118773
133	0xbe3580e8	-0.17724955
134	0xbdfbc163	-0.12292745
135	0xbe2638cf	-0.16232608
136	0x3d13b1db	0.036058288
137	0x3d8831b9	0.06650109
138	0x3d2f54d3	0.042805504
139	0x3caa1f46	0.020766865
140	0xbd2e4072	-0.04254193
141	0xbd36adbb	-0.044599276
142	0x3d124643	0.035711538
143	0x3dc84406	0.097785994
144	0xbe035236	-0.1282433
145	0x3dc9c88f	0.09852707
146	0xbcdae228	-0.026719168
147	0x3e44dcd6	0.19224867
148	0xbbf4c3c6	-0.007469627
149	0x3de25651	0.1105162
150	0x3e4e4319	0.20142783
151	0x3c6545f0	0.013993725
152	0xbe3bee75	-0.18352683
153	0xbccbb12e	-0.02486476
154	0xbecc0fd3	-0.39855823
155	0x3d47f684	0.04881908
156	0x3e33bf82	0.17553523
157	0xbc1d486c	-0.009599786
158	0x3e17d095	0.14825661
159	0x3d09599c	0.033532724
160	0x3e088c93	0.13334875
161	0x3d842291	0.064519055
162	0xbdbdb190	-0.09262383
163	0x3cf9b76d	0.030482972
164	0x3e878bf7	0.26473972
165	0x3d278fa5	0.040908474
166	0x3b85950d	0.004076606
167	0xbbbbaaa7	-0.0057271305
168	0xbd1df534	-0.038563922
169	0xbc613c38	-0.013747267
170	0xbc0b0483	-0.008484962
171	0xbe0a0346	-0.13477811
172	0xbdfba32f	-0.12286984
173	0xbd06fb86	-0.032954715
174	0xbe17d0eb	-0.1482579
175	0x3e414c6e	0.18876812
176	0xbe2b54be	-0.16731545
177	0x3dc8a140	0.09796381
178	0xbd278983	-0.040902626
179	0xbcbb7a9e	-0.022885617
180	0xbe300053	-0.17187624
181	0x3e01582c	0.12631291
182	0x3d56b7b3	0.052421283
183	0x3e119f28	0.1422087
184	0x3db0b083	0.08627417
185	0x3a33d513	0.00068600586
186	0x3e19d229	0.15021576
187	0x3ec06707	0.37578604
188	0x3e67f109	0.22650541
189	0x3e0c86d8	0.13723314
190	0x3deb0f5a	0.114775375
191	0xbdc66819	-0.09687824
192	0xbe661152	-0.22467545
193	0x3d14800c	0.036254928
194	0xbdbcbc4c	-0.09215602
195	0xbd5918fa	-0.053002335
196	0xbd2c6c23	-0.042095315
197	0xbd4137f0	-0.047172487
198	0xbe013d61	-0.1262107
199	0xbe1df0f5	-0.15423949
200	0xbd53f18d	-0.051744033
201	0xbbad31d7	-0.0052854824
202	0xbdbcba92	-0.09215273
203	0x3e34dfdd	0.17663522
204	0x3deca2fd	0.11554525
205	0x3dc5f505	0.096658744
206	0xbdb484a7	-0.08814364
207	0xbe0df611	-0.13863398
208	0xbeab885f	-0.3350248
209	0x3d99191a	0.07475491
210	0xbe366073	-0.1781023
211	0x3baa67c3	0.0052003576
212	0xbd512ec2	-0.051069982
213	0xbc713648	-0.014722414
214	0x3d6b7598	0.057485193
215	0x3e50b75c	0.20382446
216	0x3e2786c1	0.16359998
217	0xbdd16465	-0.10224227
218	0xbc325f1d	-0.010886935
219	0x3d5c3fcd	0.053771783
220	0xbd962cf2	-0.073327914
221	0xbe289d2d	-0.16466208
222	0xbdd22d73	-0.10262575
223	0xbd250d15	-0.04029568
224	0xbd0ef83d	-0.034904707
225	0xbd42c389	-0.047549758
226	0xbdf8158f	-0.12113487
227	0xbe2b5f38	-0.16735542
228	0xbd285760	-0.041098952
229	0xbcbbc3e2	-0.022920553
230	0xbde4bfdd	-0.111694075
231	0x3e326a9e	0.17423484
232	0x3e252718	0.16128194
233	0x3d9e4728	0.07728416
234	0xbe095cc9	-0.13414301
235	0xbe53c3d9	-0.20680179
236	0xbd9397ba	-0.07206674
237	0x3d6fdebe	0.058562033
238	0x3ea9399b	0.33051762
239	0x3e003315	0.12519486
240	0xbdaa1f58	-0.083067596
241	0xbb6f98fa	-0.0036559687
242	0xbdb0bd65	-0.08629874
243	0x3e7908a3	0.24319701
244	0x3d70b0b6	0.058762275
245	0xbe25fff9	-0.16210927
246	0x3dd375c7	0.103251986
247	0xbe22e642	-0.15908149
248	0xbe805a1b	-0.25068745
249	0xbe82d851	-0.2555566
250	0xbd88e64f	-0.06684553
251	0xbd9590c0	-0.073029995
252	0xbcc88d9e	-0.02448159
253	0xbd6ba361	-0.057528857
254	0xbdaac7cf	-0.08338892
255	0xbdd12c61	-0.10213543

fc_0.bias f4 [100]
0	0x3e087581	0.13326074
1	0x3cc66156	0.024216335
2	0x3ee91056	0.45520276
3	0xbd190511	-0.037358347
4	0xbe1953d8	-0.1497339
5	0xbd88f67a	-0.06687637
6	0xbe0b07e3	-0.13577227
7	0xbd10983e	-0.03530144
8	0x3f031dbf	0.51217264
9	0xbe532d5d	-0.20622773
10	0xbcad7c45	-0.02117742
11	0xbe1253b6	-0.14289746
12	0xbe561fd5	-0.2091058
13	0xbeb690e6	-0.35657424
14	0x3f767180	0.9626694
15	0xbdf93546	-0.12168364
16	0xbc1026ec	-0.008798342
17	0x3e20b4fb	0.15694039
18	0x3d9aa69d	0.0755131
19	0xbe2aec9a	-0.16691819
20	0x3e32b82b	0.17453067
21	0x3dd85d90	0.10564721
22	0x3eb9a52d	0.36258832
23	0xbcccabfd	-0.024984354
24	0x3eb334e0	0.35001278
25	0x3eaac3fe	0.33352655
26	0x3f375bc1	0.7162438
27	0x3e4c51ef	0.1995313
28	0xbf141a75	-0.5785287
29	0x3cf1aaa6	0.029500317
30	0x3f12d006	0.5734867
31	0x3e9fc768	0.31206822
32	0x3f09dff4	0.5385735
33	0x3e84e3a4	0.25954926
34	0x3d391513	0.045186114
35	0xbed6a1e8	-0.419204
36	0xbf1877c3	-0.5955774
37	0x3f24d37f	0.6438522
38	0x3db0be70	0.08630073
39	0xbe80850c	-0.25101507
40	0xbd3b4644	-0.045721307
41	0xbe1784d3	-0.14796762
42	0x3ea19005	0.3155519
43	0x3e44003a	0.19140711
44	0xbf04ffce	-0.51952827
45	0x3e00a715	0.12563737
46	0x3ee25c4f	0.4421105
47	0x3f147954	0.5799763
48	0xbe51c5d5	-0.20485623
49	0xbe1723d3	-0.1475976
50	0x3f899c2d	1.0750786
51	0x3e3accf7	0.1824225
52	0x3ee0eb9f	0.43929765
53	0x3d2b4e26	0.041822575
54	0xbd697860	-0.056999564
55	0xbea03124	-0.3128749
56	0x3d5b3569	0.053517733
57	0x3d27ce05	0.04096796
58	0x3df25803	0.11833193
59	0x3ef52102	0.47876745
60	0x3f1ab1fe	0.60427845
61	0x3e578f6e	0.21050808
62	0x3e8ea0db	0.27857098
63	0xbef639a2	-0.48090845
64	0x3e6cf5d4	0.23140651
65	0xbed8dd42	-0.42356306
66	0x3e7e5d38	0.24840248
67	0x3d6ad9e9	0.05733672
68	0xbd58c172	-0.05291886
69	0xbee3f64f	-0.44523856
70	0x3f7550da	0.95826495
71	0xbedd2e44	-0.4319936
72	0x3e8cb397	0.27480766
73	0x3e4b723f	0.198678
74	0xbec5841e	-0.3857736
75	0xbe16a5ff	-0.1471176
76	0xbe26519b	-0.16242068
77	0xbe683efd	-0.22680278
78	0x3e920a20	0.2852335
79	0x3ed0567a	0.40690976
80	0xbe1a6016	-0.15075716
81	0x3f9ae3e3	1.2100796
82	0x3e888683	0.26665124
83	0x3d9976ca	0.0749336
84	0x3f20c811	0.6280528
85	0x3f658158	0.8965049
86	0x3eabb1c9	0.33534077
87	0x3e31a85e	0.17349383
88	0x3ea55f77	0.32299396
89	0xbd06ffb8	-0.032958716
90	0x3e5d5f91	0.21618487
91	0xbda7d8e8	-0.081956685
92	0x3eb18e27	0.34678766
93	0xbd23630a	-0.039889373
94	0x3f6fc8b2	0.9366561
95	0x3ef1e1bf	0.47242543
96	0x3dfdae18	0.123867214
97	0xbe3caadd	-0.18424554
98	0xbe3aed9f	-0.18254708
99	0x3e623094	0.22088844

fc_1.weight f4 [100, 100]
0	0xbd691ce1	-0.056912307
1	0x3d8f4eda	0.069974616
2	0x3e35a6ba	0.17739382
3	0xbb979dff	-0.004626989
4	0x3eae9664	0.34099114
5	0xbda42808	-0.08015448
6	0x3e222d89	0.15837683
7	0xbec69926	-0.38788718
8	0x3e243ef9	0.16039647
9	0xbf08a6de	-0.5337962
10	0x3d23dbc2	0.0400045
11	0x3e191f98	0.14953458
12	0x3ea2a06c	0.31763017
13	0xbe1d8827	-0.15383969
14	0xbe0d7edf	-0.13817929
15	0xbc71fc5e	-0.014769642
16	0x3a8adff9	0.0010595314
17	0xbea176db	-0.31535992
18	0xbddc9efd	-0.10772512
19	0x3ed94afd	0.42440024
20	0x3c1456db	0.009053911
21	0x3f06160a	0.5237738
22	0xbe84c902	-0.25934607
23	0x3e2200df	0.15820645
24	0x3e8786a1	0.264699
25	0xbe4873f7	-0.19575487
26	0x3df63947	0.120226435
27	0x3ebf1cf5	0.3732678
28	0xbea1ec2b	-0.31625494
29	0xbe0a87d0	-0.13528371
30	0xbda6ac8a	-0.08138378
31	0x3e02136a	0.12702718
32	0x3ef2affd	0.47399893
33	0x3c33e9db	0.010981048
34	0x3d3502c9	0.04419211
35	0xbe897da9	-0.26853684
36	0xbd001d71	-0.031278078
37	0x3da3999c	0.07988283
38	0xbc3b02fe	-0.011414288
39	0xbdbef161	-0.09323383
40	0x3d7d67fc	0.061866745
41	0x3d51ee52	0.05125267
42	0x3e2be301	0.16785814
43	0xbbcd2dcf	-0.0062615643
44	0xbe56081b	-0.2090153
45	0xbd8c8863	-0.06861951
46	0xbcd57762	-0.026057903
47	0x3dc0f192	0.09421076
48	0xbe885b14	-0.26631987
49	0xbd85e3d7	-0.065375976
50	0x3e9a91ef	0.30189463
51	0xbcf9b5b3	-0.030482149
52	0xbd8aba07	-0.06773763
53	0xbdded079	-0.10879607
54	0x3e090a34	0.13382798
55	0xbe5755ea	-0.21028867
56	0xbdc502d3	-0.09619679
57	0xbc18018e	-0.009277714
58	0xbd3dffec	-0.046386644
59	0x3e9130fa	0.2835768
60	0x3ebaf7fa	0.36517316
61	0x3d8d7267	0.06906586
62	0x3eab4444	0.3345052
63	0xbce395aa	-0.027781326
64	0xbc25c3b8	-0.010117464
65	0x3ce583a2	0.028016869
66	0x3ecc364f	0.39885184
67	0x3ce20976	0.027592402
68	0xbd33a049	-0.04385403
69	0x3e89ddd7	0.26927063
70	0xbeb2c4a3	-0.34915647
71	0x3d2d32f9	0.04228494
72	0xbe22e98c	-0.15909404
73	0x3e53d7b4	0.20687753
74	0x3d9b83f8	0.075935304
75	0xbe158dad	-0.14604826
76	0xbe0cb755	-0.1374181
77	0x3eaf31ed	0.34217778
78	0x3e2393ef	0.15974401
79	0x3d331e41	0.043730024
80	0xbf1e5a96	-0.61856973
81	0x3ecda044	0.40161335
82	0xbb871191	-0.004121967
83	0x3e0fd6df	0.1404681
84	0xbc96561d	-0.018351609
85	0xbe5a4d98	-0.21318662
86	0xbd8960d9	-0.06707925
87	0x3ef22407	0.47293112
88	0x3e3235b6	0.17403302
89	0x3e30f633	0.17281418
90	0xbde74cf8	-0.112939775
91	0xbe07251e	-0.13197753
92	0xbdf86e44	-0.121304065
93	0x3caa6752	0.02080122
94	0x3e142b7b	0.14469711
95	0xbe361e89	-0.17785086
96	0xbcde5f56	-0.02714507
97	0xbe3a999e	-0.18222663
98	0xbe1e8f41	-0.15484335
99	0x3dee44e4	0.116342336
100	0x3c9086a6	0.01764233
101	0xbcd9099f	-0.026493846
102	0xbe647591	-0.22310473
103	0xba98fac4	-0.0011671414
104	0x3e2506da	0.16115895
105	0xbf15d01d	-0.5852068
106	0x3e181f1e	0.1485562
107	0xbe14b7a2	-0.14523175
108	0x3df972ed	0.121801235
109	0x3cb9b3ee	0.022668805
110	0x3d556a78	0.05210349
111	0xbdf5622d	-0.11981616
112	0xbd3dd23b	-0.04634307
113	0x3de9d310	0.1141721
114	0x3f064d4a	0.52461684
115	0xbd12de01	-0.03585625
116	0x3e4ada20	0.1980977
117	0xbe14a863	-0.1451736
118	0x3e0704d6	0.13185439
119	0xbf468e99	-0.77561337
120	0x3daf4e4c	0.08559856
121	0xbf09a46a	-0.537665
122	0xbe424668	-0.1897217
123	0x3dbd8245	0.092533626
124	0xbd81e127	-0.063417725
125	0xbdc1d06a	-0.0946358
126	0x3d28f5be	0.041249983
127	0x3e422738	0.18960273
128	0xbee60d25	-0.44931903
129	0xbc1cb8b4	-0.009565521
130	0x3d81591d	0.06315825
131	0x3d0777ce	0.03307324
132	0x3ea52a49	0.32258824
133	0xbde41a15	-0.11137787
134	0xbcdc308c	-0.026878618
135	0xbe88ea92	-0.26741463
136	0x3e5218b3	0.20517235
137	0xbd480352	-0.04883129
138	0xbdc5f0a9	-0.09665043
139	0x3e922192	0.28541237
140	0xbd05cd49	-0.03266648
141	0x3e4742a9	0.19459023
142	0x3dfa1c76	0.1221246
143	0xbea5054f	-0.32230613
144	0xbea4137f	-0.32046124
145	0x3db9c440	0.09070635
146	0xbd11ff88	-0.035644084
147	0x3ee0c257	0.4389827
148	0xbe726705	-0.23672111
149	0xbde98bd1	-0.11403621
150	0xbccd5b20	-0.025067866
151	0x3d8e41fc	0.06946179
152	0x3e53fe5c	0.20702499
153	0x3de0fedd	0.10986111
154	0xbf19f2a5	-0.6013587
155	0x3e670ec7	0.22564231
156	0xbe9704ff	-0.29496
157	0x3d213bac	0.03936355
158	0x3e24b3c1	0.16084196
159	0x3f0cae5f	0.5495357
160	0x3d760b96	0.060069643
161	0xbe764a65	-0.24051817
162	0xbe3d33d0	-0.18476796
163	0x3e255fcd	0.16149826
164	0x3e3b5003	0.18292241
165	0xbe00edf6	-0.12590775
166	0x3e6fc869	0.23416294
167	0x3c626510	0.0138180405
168	0xbe846ef7	-0.2586591
169	0x3cd993b3	0.026559686
170	0x3e276c4b	0.16349904
171	0x3e6574fd	0.22407909
172	0x3d101522	0.035176404
173	0x3e63cd57	0.222463
174	0x3e893774	0.2680012
175	0x3d1fbbd3	0.038997483
176	0x3d5f2898	0.054482073
177	0xbe2e2f55	-0.17010243
178	0xbe763a72	-0.24045733
179	0x3e26a300	0.16273117
180	0xbe404de6	-0.18779716
181	0xbec18ff8	-0.37805152
182	0xbe313449	-0.17305101
183	0xbe0917ed	-0.13388033
184	0xbdd519f8	-0.10405344
185	0x3ed39997	0.41328117
186	0x3def2930	0.11677778
187	0xbed9a5a8	-0.42509198
188	0x3d53a4b9	0.051670764
189	0xbeac62fd	-0.33669272
190	0xbe935ee8	-0.28783345
191	0x3d8be7dc	0.06831333
192	0xbed044e1	-0.4067755
193	0x3d9e6d0d	0.077356435
194	0x3e8979f6	0.2685086
195	0x3ecb5a8f	0.39717528
196	0xbdb97c7c	-0.09056947
197	0xbde0f5c2	-0.109843746
198	0xbd3f79c2	-0.046746977
199	0xbdcbfa6e	-0.09959875
200	0x3ea73004	0.3265382
201	0xbd3f58fc	-0.04671572
202	0xbe5bedb1	-0.21477391
203	0xbe09feea	-0.13476148
204	0x3ed256e8	0.4108193
205	0x3d583aa1	0.052790288
206	0xbdac901a	-0.08425923
207	0xbe5b78d5	-0.21432813
208	0xbe9f15d0	-0.3107133
209	0xbe927a81	-0.28609088
210	0xbe00cb86	-0.12577638
211	0xbe4c27f6	-0.19937119
212	0x3f12569b	0.571634
213	0xbee7276e	-0.4514727
214	0xbe5f2de1	-0.21794845
215	0x3e1a278c	0.15054148
216	0xbdd0c870	-0.101944804
217	0x3e3f9514	0.18709213
218	0x3c89c65f	0.016818224
219	0xbd6b9d86	-0.057523273
220	0x3def6f2b	0.116911255
221	0x3e1b8f4b	0.1519138
222	0xbe173daf	-0.14769624
223	0x3dec1ae1	0.11528564
224	0xbe83de47	-0.25755522
225	0x3da2332c	0.079199165
226	0xbd89d5bc	-0.0673022
227	0xbe37361a	-0.17891732
228	0xbd3be5a3	-0.045873296
229	0xbe5112d1	-0.20417334
230	0xbd3619d8	-0.04445824
231	0x3a82b2fe	0.0009971557
232	0x3caaf5c4	0.020869143
233	0xbd0d2445	-0.034458417
234	0x3c27fc1b	0.010252978
235	0xbe29b49b	-0.16572802
236	0x3cef402a	0.0292054
237	0x3e951f53	0.2912546
238	0x3d7b9442	0.061420687
239	0x3e99d228	0.3004315
240	0x3e29b6e0	0.16573668
241	0xbe0f3a50	-0.13987088
242	0x3e673431	0.22578503
243	0xbe3b6d48	-0.18303406
244	0xbe8b93de	-0.2726125
245	0x3b9b64d4	0.0047422443
246	0x3dc61eba	0.096738294
247	0x3d454982	0.048165806
248	0xbeb13ddf	-0.34617516
249	0x3d641d0e	0.05569177
250	0xbb039a21	-0.0020080882
251	0xbd8f2732	-0.06989898
252	0x3d9e099d	0.07716677
253	0x3bae606e	0.005321554
254	0x3f0f6fc7	0.56029934
255	0xbdd624ec	-0.10456261

fc_1.bias f4 [100]
0	0xbdcb70c3	-0.09933617
1	0x3ee068f8	0.43830085
2	0x3f1b5bcd	0.6068695
3	0x3e258cbc	0.16166967
4	0xbeb53e62	-0.35399157
5	0x3eca96dd	0.39568225
6	0xbd1d94ac	-0.038471863
7	0x3d21282f	0.039344963
8	0xbc5c518d	-0.013447178
9	0xbdd3f1e9	-0.10348875
10	0xbeb88da9	-0.36045578
11	0x3ec23434	0.37930453
12	0xbdb321a9	-0.087466545
13	0xbba25539	-0.004954007
14	0x3f0b5dd6	0.5444006
15	0x3e1d10c4	0.15338427
16	0x3e8b1ed8	0.2717197
17	0xbd2cd233	-0.04219265
18	0xbe16416a	-0.14673391
19	0x3e623466	0.22090301
20	0x3e795d41	0.2435198
21	0xbe8e4237	-0.27784893
22	0x3de4112d	0.111360885
23	0x3e6e30c5	0.23260792
24	0x3ea7fcb4	0.32809985
25	0x3e98c438	0.29837203
26	0x3e5006fe	0.20315167
27	0xbdc82ed7	-0.09774559
28	0x3b2a7780	0.002601117
29	0x3dd0d292	0.10196413
30	0x3d25ba4a	0.040460862
31	0x3e32f25b	0.17475264
32	0x3dd9791a	0.106188014
33	0xbdf61482	-0.1201563
34	0x3f00bc6f	0.50287527
35	0x3d1e6c02	0.038677223
36	0x3daeaa0d	0.08528528
37	0xbdfd27b6	-0.1236109
38	0x3e0dc44e	0.13844416
39	0x3edefcdb	0.43552288
40	0x3f1391de	0.5764445
41	0xbd673b64	-0.056453124
42	0x3e0e5548	0.1389972
43	0xbdb790d7	-0.08963173
44	0xbcb67360	-0.022271812
45	0x3d9198d8	0.07109231
46	0x3e4ccb29	0.19999374
47	0x3e989a78	0.2980535
48	0xbe3d6470	-0.18495345
49	0x3e3f0dac	0.18657559
50	0xbd9bc626	-0.07606153
51	0x3e783d91	0.24242236
52	0xbdb255ff	-0.08707809
53	0x3d2ad3dd	0.041705955
54	0x3c8f2208	0.017472282
55	0x3e9d256c	0.30692613
56	0xbebf6653	-0.37382755
57	0xbe03b455	-0.1286176
58	0x3e0494a2	0.12947324
59	0x3ec04806	0.3755495
60	0xbe826d06	-0.25473803
61	0x3eb499c7	0.35273573
62	0xbdab6fbc	-0.08370921
63	0x3e9ab56a	0.30216533
64	0x3cd9ea5e	0.026601013
65	0x3edafa93	0.42769298
66	0x3ec5ae05	0.3860933
67	0x3e4d3d70	0.20042968
68	0x3e7edd1e	0.24889037
69	0x3ed00904	0.40631878
70	0xbe8d9ee1	-0.27660277
71	0xbcc6056c	-0.024172507
72	0xbe2f5e3d	-0.17125793
73	0x3d64a7ac	0.055823967
74	0xbd2a16fe	-0.041525833
75	0x3e17c616	0.14821658
76	0xbe310ec3	-0.17290787
77	0x3f122a6d	0.57095987
78	0xbec741c4	-0.38917363
79	0xbe9180fe	-0.28418726
80	0x3e8329b3	0.2561775
81	0x3ebe842d	0.37210217
82	0x3d10d7cb	0.035362046
83	0xbde42d0e	-0.11141406
84	0x3e33d373	0.1756113
85	0xbb067297	-0.0020515078
86	0xbcc792f7	-0.02436207
87	0x3dadf9f0	0.084949374
88	0xbdfea4b8	-0.12433761
89	0x3ee9ba1b	0.456498
90	0x3ebd4c8d	0.36972466
91	0x3d730d3b	0.05933879
92	0x3dc084cc	0.09400329
93	0xbed4feb3	-0.4160057
94	0xbeb8d85a	-0.36102563
95	0xbd1873f8	-0.03721997
96	0xbe956501	-0.29178622
97	0xbe25dae9	-0.16196789
98	0x3e1d515b	0.15363066
99	0xbe84b596	-0.2591979

fc_2.weight f4 [10, 100]
0	0x3d72c7ce	0.05927258
1	0xbe469958	-0.19394433
2	0xbeae1776	-0.34002274
3	0x3eeb58e8	0.45966268
4	0x3de11e7b	0.10992142
5	0x3f6d16ff	0.92613214
6	0x3f36e63c	0.7144506
7	0xbe8c5854	-0.2741114
8	0xbdeda9fa	-0.11604686
9	0xbf429505	-0.76008636
10	0x3ead0c08	0.33798242
11	0xbe88afc9	-0.26696613
12	0xbd091023	-0.033462655
13	0x3e9923d6	0.29910153
14	0x3ede863b	0.43461785
15	0x3ebb696d	0.3660387
16	0x3f1f606d	0.6225651
17	0x3f1f3cb4	0.62202
18	0x3e54378a	0.20724311
19	0x3f5cbd0d	0.8622597
20	0xbee9a902	-0.45636755
21	0x3ebba5d8	0.36649966
22	0xbf852be0	-1.0404015
23	0xbeec7434	-0.46182406
24	0x3ec3b4fd	0.3822402
25	0xbf03aa88	-0.51432085
26	0x3d287df9	0.041135762
27	0xbfa42ce7	-1.2826203
28	0xbec4f36c	-0.38466966
29	0x3ed65ef8	0.4186933
30	0xbe3afa47	-0.18259536
31	0xbe2838e2	-0.16427949
32	0x3f0e86c2	0.55674374
33	0x3ee3ec69	0.44516304
34	0x3f120af7	0.5704798
35	0xbf643acc	-0.89152217
36	0x3d832bcd	0.06404839
37	0x3f174b9b	0.5909974
38	0xbe131c00	-0.1436615
39	0xbd8b8cc8	-0.06813961
40	0xbdfe1919	-0.12407131
41	0x3eaf069c	0.3418473
42	0xbedcfaf1	-0.43160203
43	0x3f8b3e74	1.0878434
44	0xbf0c0681	-0.54697424
45	0x3ef3c7dd	0.4761342
46	0xbf59b8ad	-0.8504742
47	0xbf88db32	-1.0691893
48	0x3dc2e60e	0.09516536
49	0x3f27d6c8	0.65562105
50	0x3ed08cb5	0.4073235
51	0x3f2a6b48	0.6656995
52	0xbf4be1f9	-0.7964168
53	0x3f0108ef	0.50404257
54	0xbe774c44	-0.24150187
55	0x3f000f43	0.5002329
56	0xbf430eeb	-0.7619464
57	0x3f5caa99	0.8619781
58	0x3f0439f6	0.5165094
59	0xbf8ab74d	-1.0837189
60	0x3f62c6d0	0.88584614
61	0xbf13bc6b	-0.5770938
62	0xbe9aa47a	-0.3020361
63	0xbf063d2b	-0.52437085
64	0xbf23a1f6	-0.6391901
65	0x3f07e9c0	0.5309105
66	0xbe4fb3a9	-0.20283379
67	0xbf522790	-0.8209162
68	0x3ef5e6eb	0.4802774
69	0x3edb121f	0.42787263
70	0xbf991daf	-1.1962184
71	0x3ea62b9f	0.32455155
72	0xbf02182e	-0.50818145
73	0xbf33adae	-0.7018689
74	0x3e854c84	0.2603494
75	0x3efeeb49	0.49788883
76	0x3f0aa4d9	0.5415779
77	0x3e0ba1c1	0.13635923
78	0x3f1f9af4	0.62345815
79	0x3ef8dd6d	0.48606434
80	0xbd7f6190	-0.062348902
81	0x3f6e2c5e	0.9303645
82	0x3e992eeb	0.29918608
83	0xbcc56056	-0.024093788
84	0xbf237330	-0.6384764
85	0x3ea88e15	0.329209
86	0x3e9ec2b1	0.31007913
87	0xbf4176c7	-0.75571865
88	0xbc40ebf4	-0.011775006
89	0xbe00a207	-0.12561809
90	0x3e26d017	0.16290317
91	0xbed43ac9	-0.414511
92	0x3f0457b1	0.51696306
93	0x3d0630c7	0.03276136
94	0x3efd5a52	0.4948297
95	0x3f124259	0.5713249
96	0x3f381ada	0.7191597
97	0xbf1bfb21	-0.6093007
98	0x3f2e657f	0.6812362
99	0x3f502840	0.81311417
100	0x3f2d3525	0.6765922
101	0xbe6aaa1a	-0.22916451
102	0xbe251ea7	-0.16124974
103	0xbe8ad3af	-0.27114627
104	0x3ea1fa00	0.31636047
105	0xbe8946ce	-0.26811832
106	0x3ddbc949	0.107317515
107	0xbe2a6995	-0.16641839
108	0xbd16fd04	-0.03686239
109	0x3c23c7f1	0.0099964
110	0x3e11b573	0.14229374
111	0x3eac413a	0.33643514
112	0xbe84c94c	-0.25934827
113	0xbd707ba6	-0.05871167
114	0xbf08758f	-0.5330438
115	0x3e87a975	0.26496473
116	0xbe9347da	-0.28765756
117	0xbd5530c2	-0.052048452
118	0x3e3e35ff	0.18575285
119	0x3e3a5b36	0.18198857
120	0xbf0fba4d	-0.5614365
121	0x3ee07b7e	0.43844217
122	0x3d894463	0.06702497
123	0x3c702ee8	0.014659621
124	0xbf0e1357	-0.5549826
125	0xbdbe4243	-0.09289982
126	0xbe09d20b	-0.13459031
127	0x3ee4fbea	0.44723445
128	0x3e0dfad6	0.13865218
129	0x3d94abf5	0.07259361
130	0x3f39309a	0.72339785
131	0x3e36255f	0.17787693
132	0xbe39a616	-0.18129763
133	0x3eb2b25f	0.3490171
134	0xbe8ca8d5	-0.2747256
135	0xbc418f0a	-0.011813888
136	0x3cdffee4	0.027343221
137	0xbe29222b	-0.1651694
138	0xbd3f1a38	-0.046655864
139	0x3c941642	0.01807702
140	0xbe564774	-0.20925695
141	0x3e20ec1c	0.15715069
142	0x3f130559	0.57430035
143	0x3d928394	0.07154003
144	0xbecff451	-0.40616086
145	0x3d40eade	0.047098987
146	0x3e1b090a	0.15140167
147	0x3d15970a	0.036520995
148	0x3ea10b93	0.31454143
149	0xbe3fa913	-0.1871684
150	0x3cce2ad4	0.025166906
151	0xbea99271	-0.33119538
152	0xbf462147	-0.7739453
153	0x3fa23275	1.2671648
154	0x3e3cb292	0.18427494
155	0xbea6f9d5	-0.32612482
156	0x3d8d45b9	0.06898064
157	0x3e075d14	0.132191
158	0xbe9a0f04	-0.3008958
159	0xbe9acd74	-0.30234873
160	0x3dbb208b	0.091370665
161	0xbe1b1dcc	-0.15148085
162	0x3d9dad25	0.0769904
163	0xbccc5676	-0.024943572
164	0xbe8e69e1	-0.27815154
165	0xbd5838b6	-0.05278846
166	0xbdb3b03a	-0.08773847
167	0xbe600e86	-0.2188054
168	0xbe3e7ed1	-0.18603064
169	0x3f21206c	0.62940097
170	0x3f056e5d	0.52121526
171	0x3f849e06	1.0360725
172	0xbd9707fc	-0.0737457
173	0x3e4b51ca	0.19855419
174	0xbd7b8dd4	-0.061414555
175	0x3deaf7f7	0.11473077
176	0x3e2f284b	0.17105214
177	0xbda3a7bf	-0.079909794
178	0xbd201fe3	-0.03909291
179	0x3e430ab0	0.19047046
180	0xbea1b987	-0.3158686
181	0xbe6481da	-0.2231516
182	0x3e786c43	0.24260049
183	0xbe1b57ec	-0.15170258
184	0xbe40838d	-0.18800183
185	0xbbb94798	-0.0056542866
186	0x3ea4b686	0.32170504
187	0x3e8d6a11	0.27619985
188	0xbe6c7df2	-0.2309492
189	0xbeade0db	-0.33960614
190	0xbf56717d	-0.8376692
191	0xbf1853ed	-0.5950306
192	0x3df0cfe2	0.117584005
193	0xbd7f56ce	-0.062338643
194	0x3d74a682	0.059729107
195	0xbc5bb7d4	-0.013410527
196	0xbd9715dc	-0.07377216
197	0x3de63ab9	0.11241669
198	0xbdc4d891	-0.09611619
199	0xbce71885	-0.028209934
200	0x3e95a27a	0.29225522
201	0xbf729b2b	-0.9476802
202	0x3f28226c	0.65677524
203	0xbebd524a	-0.36976844
204	0x3ed15d79	0.40891626
205	0xbe69083f	-0.22757052
206	0xbe93513f	-0.28772923
207	0xbebaab28	-0.36458707
208	0x3ef285c2	0.47367674
209	0x3f6400c0	0.89063644
210	0xbefbcd11	-0.4917989
211	0xbf27c4f2	-0.6553489
212	0xbed8c74a	-0.42339545
213	0xbf151040	-0.5822792
214	0x3f070756	0.5274557
215	0x3efb4a52	0.4908014
216	0xbf113a7a	-0.56729853
217	0x3de4b1c1	0.11166716
218	0x3d95d5ab	0.073161446
219	0xbf8a721a	-1.0816071
220	0x3f66a7e4	0.9009993
221	0xbf20f8f3	-0.62879866
222	0x3f60b90a	0.8778235
223	0x3ea45e7b	0.32103333
224	0x3f24e905	0.6441806
225	0x3f61fce1	0.8827649
226	0xbf512625	-0.8169883
227	0x3e405d71	0.18785645
228	0xbf49386f	-0.78601736
229	0x3e6b968f	0.23006652
230	0xbf54e306	-0.8315891
231	0xbe04def1	-0.1297567
232	0xbf6b7dc1	-0.9198876
233	0xbf107732	-0.5643188
234	0xbfaa31eb	-1.3296484
235	0x3f1e7319	0.61894375
236	0xbd2af8b8	-0.041741103
237	0xbeaa406b	-0.33252272
238	0x3e4ceaac	0.20011395
239	0x3f7a4171	0.97756106
240	0x3f4a4b5d	0.79021245
241	0x3d81981d	0.063278414
242	0x3d511414	0.05104454
243	0xbeb72956	-0.35773724
244	0x3e511a94	0.20420295
245	0xbea69a2c	-0.325395
246	0xbf3b591c	-0.73182845
247	0xbdf06657	-0.1173827
248	0x3ee8364b	0.45353922
249	0xbf2d01c4	-0.6758082
250	0xbe000141	-0.12500478
251	0xbf6fedb6	-0.93722093
252	0x3f2a3f90	0.6650324
253	0xbf4b8125	-0.79493934
254	0x3ef61310	0.4806142
255	0xbe6e4bed	-0.23271151

fc_2.bias f4 [10]
0	0x3da6de66	0.08147888
1	0xbd98093d	-0.07423637
2	0x3ea6e576	0.3259694
3	0x3ea240b3	0.31689987
4	0xbe2e170f	-0.17000984
5	0xbe82ee67	-0.25572512
6	0x3ec29ebf	0.3801174
7	0xbe60332f	-0.21894525
8	0xbe508404	-0.2036286
9	0xbe34ee31	-0.17668988
