models/fashion_fcnn_normal_0.001/model.pth (torch, 360455 bytes, 6 tensors)

fc_0.weight f4 [100, 784]
-0.001887561 -0.0014417395 0.0052392827 -0.0025467922 -0.015529304 -0.0104067465 0.03593276 -0.04783308
0.041233834 0.2503773 0.04856554 0.2060592 -0.27723533 -0.22236449 -0.20617883 -0.16853473
0.21091518 -0.1880725 0.1441915 0.21669175 0.10017852 -0.063999176 -0.03598993 -0.016390262
0.005895185 -0.0017109999 -0.0063278563 0.0076363585 0.0018145165 0.0034989882 0.0015251861 -0.023952547
-0.042149894 0.005854886 -0.27866575 -0.15701559 -0.0052542244 0.21759623 0.21415307 0.16464223
-0.13965903 0.32976583 0.25461856 -0.0011048069 0.093121044 0.23649153 0.110534 0.025640262
-0.05297113 -0.020840656 -0.039824698 -0.09767061 -0.028649516 0.004643326 0.0063037653 0.0039809686
0.0009841564 -0.0053687 -0.007135273 -0.008526054 -0.030378198 -0.2865387 0.06787304 0.0004780033
0.19479132 0.20588271 0.22267923 -0.09418403 -0.122122936 -0.16249879 -0.13584852 -0.23855819
-0.03359737 0.3583176 0.048811078 0.03841817 -0.023920596 -0.25464454 0.031964142 -0.021718998
0.023223557 -0.011183833 0.0039475155 -0.003174461 -0.011340029 -0.009737324 0.007890883 -0.032608405
-0.025364595 -0.105481505 0.2727619 0.1438256 -0.0015859443 0.34152782 0.22976579 -0.0038454696
-0.16058683 0.04482202 0.082069926 -0.27553442 -0.11969071 -0.018765744 0.39554983 0.048872836
-0.11649382 -0.16157007 0.01617553 -0.06270083 -0.022838034 0.042319085 0.0063607846 -0.0007224694
-0.015805656 -0.0049617756 0.015752232 0.10730876 -0.053590022 -0.033043254 0.10267609 -0.052923974
-0.19454363 0.18507504 -0.12859035 -0.17234792 -0.41277716 -0.24674547 -0.20899113 -0.39516938
-0.19208163 -0.1195139 0.2547522 0.24859783 0.082130335 -0.14846002 0.24384128 0.01641012
-0.05534072 -0.0028695182 -0.095810875 0.013008569 0.0037205238 0.00061849033 -0.009949284 0.07912543
0.05668238 -0.088999555 0.11343293 0.026353281 0.10942901 -0.008487886 -0.23658356 -0.23026729
-0.18237962 -0.21975948 -0.15180059 -0.18212378 -0.15311746 0.030484894 0.10921726 0.09798788
0.27336437 0.03810245 -0.031210413 -0.1179314 -0.09605224 -0.0031341624 -0.06717635 0.039180234
-0.0077026654 0.01809782 0.03733729 0.11854401 0.009001209 0.00046463427 0.25340357 0.06276683
0.14777869 0.09718726 -0.2176698 -0.3580524 -0.4582043 -0.104872555 -0.21057498 -0.060530044
-0.058338955 -0.07155542 0.023518588 0.021610562 0.197279 0.08682824 0.11133149 -0.021367714
-0.06696104 -0.03763725 -0.12849069 -0.06958841 0.022800311 0.074167825 0.03116384 0.1470393
-0.046338957 -0.035253275 0.048595164 0.17883469 0.23959838 0.17769799 -0.025966106 -0.15290768
-0.31696987 -0.262632 -0.26155308 0.007099557 -0.11493998 0.0832131 0.0703698 0.33209795
0.31232324 0.27381945 0.24599057 -0.13353829 -0.001456941 0.13407703 -0.074599095 -0.075717375
0.037309088 0.032261796 0.09619603 0.14339872 0.08889726 -0.059156176 -0.22628593 0.17754681
0.12279777 0.03259909 0.0029376487 -0.22550638 -0.19482033 -0.25615904 -0.100489765 -0.15982886
-0.2483088 -0.06475368 0.028298063 0.12488608 0.22959386 -0.08966593 0.053460192 0.04501053
-6.3075866e-05 0.015330699 0.0986292 -0.004340682 0.014650713 0.05710865 0.14091663 0.066800974
00000000: 0a68 f7ba c0f8 bcba 4aae ab3b 15e8 26bb
00000010: 9f6e 7ebc 0f81 2abc 3b2e 133d 9fec 43bd
00000020: cfe4 283d 7431 803e a9ec 463d 2f01 533e
00000030: caf1 8dbe 84b3 63be 8b20 53be 5e94 2cbe
00000040: 26fa 573e 1496 40be f0a6 133e 71e4 5d3e
00000050: 652a cd3d 0012 83bd 2d6a 13bd df44 86bc
00000060: 652c c13b a143 e0ba e859 cfbb 6b3a fa3b
00000070: 12d5 ed3a 484f 653b c1e8 c73a 2238 c4bc
00000080: 5ea5 2cbd 58da bf3b 47ad 8ebe b2c8 20be
00000090: a12b acbb 8cd1 5e3e f14a 5b3e f997 283e
000000a0: c702 0fbe 11d7 a83e 5d5d 823e 2bcf 90ba
000000b0: 3fb6 be3d d62a 723e a65f e23d 870b d23c
000000c0: 41f8 58bd 06ba aabc 391f 23bd 8707 c8bd
000000d0: 64b2 eabc 0b27 983b d18f ce3b c972 823b
000000e0: cffe 803a ebeb afbb 02cf e9bb ddb0 0bbc
000000f0: b3db f8bc 33b5 92be 0501 8b3d 849c fa39
00000100: 6077 473e ebd2 523e 0606 643e 8fe3 c0bd
00000110: 971b fabd 1566 26be e01b 0bbe 9948 74be
00000120: 659d 09bd 6875 b73e 20ee 473d 5f5c 1d3d
00000130: 20f5 c3bc c560 82be d5ec 023d 0aec b1bc
00000140: 543f be3c 653c 37bc 295a 813b 9e0a 50bb
00000150: 87cb 39bc 4c89 1fbc c348 013c 6490 05bd
00000160: 69c9 cfbc b006 d8bd 73a7 8b3e 0547 133e
00000170: 76df cfba bcdc ae3e b947 6b3e 4604 7cbb
00000180: e070 24be 4b97 373d 4714 a83d d912 8dbe
00000190: 6720 f5bd 9eba 99bc 8285 ca3e e22e 483d
000001a0: 5094 eebd a072 25be 8c82 843c 4b69 80bd
000001b0: d416 bbbc c756 2d3d 216e d03b 1a64 3dba
000001c0: dd7a 81bc 6496 a2bb d30a 813c b2c4 db3d
000001d0: 3681 5bbd 5d58 07bd d847 d23d cfc6 58bd
000001e0: 7236 47be 5084 3d3e 30ad 03be f97b 30be
000001f0: 8757 d3be d8aa 7cbe c501 56be a453 cabe
00000200: 0cb1 44be b4c3 f4bd e16e 823e 6e90 7e3e
00000210: f333 a83d e705 18be 87b1 793e 846e 863c
00000220: f3ac 62bd 870e 3cbb 7e38 c4bd e521 553c
00000230: 08d4 733b 2f22 223a 5202 23bc 830c a23d
00000240: c92b 683d 6645 b6bd 864f e83d d6e2 d73c
00000250: 511c e03d c610 0bbc f642 72be 30cb 6bbe
00000260: b9c1 3abe a108 61be 9d71 1bbe a87e 3abe
00000270: d3ca 1cbe 75bb f93c 4cad df3d dfad c83d
00000280: 6af6 8b3e 5111 1c3d fbac ffbc 0586 f1bd
00000290: 09b7 c4bd 8566 4dbb c193 89bd 747b 203d
000002a0: a466 fcbb e141 943c fcee 183d 34c7 f23d
000002b0: cf79 133c 289a f339 1dbe 813e e58b 803d
000002c0: 4c53 173e 1d0a c73d d5e4 5ebe a552 b7be
000002d0: c199 eabe 6cc7 d6bd f8a0 57be 5aee 77bd
000002e0: d4f4 6ebd a68b 92bd 0eaa c03c a208 b13c
000002f0: 8203 4a3e 01d3 b13d c401 e43d 580b afbc
00000300: df22 89bd 8429 1abd 1093 03be 5e84 8ebd
00000310: b8c7 ba3c 4de5 973d 4f4b ff3c 7891 163e
00000320: ebcd 3dbd bd65 10bd b90b 473d 7120 373e
00000330: 4759 753e 76f6 353e dfb6 d4bc d593 1cbe
00000340: e049 a2be b477 86be 49ea 85be 67a3 e83b
00000350: a765 ebbd a16b aa3d 0b1e 903d be08 aa3e
00000360: d5e8 9f3e 1032 8c3e f4e4 7b3e 43be 08be
00000370: d4f6 beba 7d4b 093e 69c7 98bd b611 9bbd
00000380: 6ad1 183d f224 043d 6d02 c53d 1dd7 123e
00000390: c40f b63d bf4d 72bd 80b7 67be d5ce 353e
000003a0: 667d fb3d a086 053d 9185 403b 25eb 66be
000003b0: fb7e 47be 4727 83be 94cd cdbd 2daa 23be
000003c0: a944 7ebe 949d 84bd 57d1 e73c 46c4 ff3d
000003d0: a71a 6b3e c5a2 b7bd 13f9 5a3d f65c 383d
000003e0: 9947 84b8 9d2d 7b3c 1bfe c93d 483c 8ebb
000003f0: 8b09 703c c3ea 693d 734c 103e f3ce 883d

fc_0.bias f4 [100]
-0.26667044 0.25491858 0.35130706 0.27552167 0.043642957 -0.019717343 0.18989915 -0.064111754
-0.37258226 0.09366742 0.40953538 0.5661629 -0.07618525 0.14356945 0.33697098 0.4817081
-0.15706782 -0.064716816 0.087796025 0.23000215 -0.003209291 0.041707978 0.21043497 -0.7940422
0.040252537 -0.1054848 -0.030518193 -0.12011173 0.39654335 0.96353817 0.2550339 0.5708823
0.25939748 0.10581205 0.47512802 0.08873611 -0.3109668 -0.27201453 0.06481988 0.12131271
0.22705272 0.66302496 0.5941409 0.8377612 -0.522865 -0.655168 -0.18735585 -0.002967268
0.112049475 0.7260792 0.0580388 -0.12101704 0.07806893 -0.045419373 0.10699885 -0.16140045
-0.27359766 0.09113102 -0.30994156 -0.20014368 0.18434235 -1.2342958 0.09370692 -0.27473652
-0.044389687 0.015808403 -0.083220884 0.19380333 1.3503392 -0.062550895 0.07219959 -0.15198125
0.10719702 0.3602129 -0.2179984 0.11549034 -0.25476432 0.0042196787 0.18722437 0.0751478
0.5709657 0.4463627 -0.051451173 0.20700935 0.13787244 -0.09973929 0.00070585514 -0.09057866
0.61308223 0.35234186 0.0391267 -0.050679505 0.19381316 0.8947507 0.5335437 0.61167973
-0.1547257 0.06415129 0.1898125 -0.061488144
00000000: 0789 88be b084 823e 85de b33e 2d11 8d3e
00000010: f5c2 323d 4486 a1bc ec74 423e 064d 83bd
00000020: 1ac3 bebe b4d4 bf3d 9fae d13e 0df0 103f
00000030: 0307 9cbd df03 133e 7687 ac3e 72a2 f63e
00000040: 63d6 20be 408a 84bd 67ce b33d af85 6b3e
00000050: f852 52bb fcd5 2a3d 447c 573e 5a46 4bbf
00000060: d8df 243d 6a08 d8bd 4a01 fabc 24fd f5bd
00000070: bb07 cb3e 70aa 763f ce93 823e 5825 123f
00000080: bfcf 843e fdb3 d83d fb43 f33e 47bb b53d
00000090: 0a37 9fbe 7d45 8bbe 49c0 843d cc72 f83d
000000a0: 8280 683e 01bc 293f 9e19 183f 8577 563f
000000b0: 7bda 05bf 17b9 27bf 36da 3fbe 7f76 42bb
000000c0: 327a e53d 54e0 393f 18ba 6d3d c8d7 f7bd
000000d0: 9ae2 9f3d aa09 3abd 3722 db3d 2946 25be
000000e0: fe14 8cbe e6a2 ba3d a9b0 9ebe 77f2 4cbe
000000f0: 3ec4 3c3e 68fd 9dbf 6ae9 bf3d 44aa 8cbe
00000100: f6d1 35bd a080 813c b66f aabd 6174 463e
00000110: ead7 ac3f af1a 80bd 61dd 933d f9a0 1bbe
00000120: 1c8a db3d d36d b83e f93a 5fbe 3386 ec3d
00000130: 7870 82be 3b45 8a3b bfb7 3f3e 17e7 993d
00000140: cf2a 123f a789 e43e 77be 52bd 42fa 533e
00000150: 6f2e 0d3e 1d44 ccbd 2309 393a 4e81 b9bd
00000160: f5f2 1c3f 2766 b43e 5243 203d 5095 4fbd
00000170: f576 463e 620e 653f 5296 083f 0b97 1c3f
00000180: 6a70 1ebe c061 833d 355e 423e feda 7bbd

fc_1.weight f4 [100, 100]
0.0957115 0.04031545 0.02575811 0.21380432 -0.008495217 0.13726111 -0.32346806 0.23069064
0.2488533 -0.07576428 -0.13948892 -0.14728817 -0.02993909 0.40422082 -0.13007888 0.12989447
0.079351485 -0.0019237689 -0.006678751 0.25848147 -0.0101413075 -0.059181646 0.026259018 -0.21331699
-0.03400484 -0.037625358 -0.004551906 -0.1871086 -0.1510068 -0.2522668 -0.053752813 0.0355109
0.24014829 0.023433657 0.052321896 0.2710868 -0.34335002 -0.047157153 -0.1295548 0.00454581
-0.037409395 0.021354359 -0.15478955 0.05637549 -0.2020043 -0.06404043 -0.4192984 -0.06348985
0.047606025 -0.15211399 -0.21211125 -0.18958978 0.3145532 0.19586767 -0.008137765 0.04869903
-0.016216679 0.12853058 0.16409068 -0.07265855 0.1343391 -0.13381734 0.083425164 -0.096063025
-0.016914682 0.01134607 0.006180398 -0.10583196 -0.18654229 -0.18371783 0.0044302447 0.08513773
0.093828626 -0.011646728 -0.08915192 -0.018237006 0.2187889 -0.15763764 0.20834698 0.03129346
-0.02542246 0.16581833 0.38198915 -0.0025470152 0.11418228 -0.03406112 -0.004005609 0.12632507
-0.096892454 0.2371889 -0.20868641 0.15353508 -0.13744771 -0.07389323 0.11886084 -0.08164047
0.05995635 0.12632185 -0.22215569 0.19701718 -0.029380048 -0.382302 -0.16521612 -0.06717168
-0.049036305 -0.111036316 0.17520435 -0.023765376 0.1590115 -0.022290677 -0.24082114 -0.17764679
0.010145829 -0.2234702 -0.08822796 0.00025448238 0.06715121 -0.16175802 -0.017397577 -0.04143811
0.2952755 0.021744685 0.20568761 0.1400668 0.11228577 -0.005266304 0.0021444026 0.017236177
0.19023067 0.3141492 -0.05463729 0.14503787 -0.046758477 0.03247324 0.12419115 0.08259179
0.20813194 -0.018398952 -0.031962603 0.020286424 -0.11234472 0.1826338 -0.18248549 -0.24201097
0.10741656 -0.07185172 0.5207918 0.054171015 0.07670722 -0.12657396 0.07505826 -0.17540881
-0.1732266 -0.13358945 0.04765595 0.53745526 -0.055729706 -0.018955564 -0.3502473 0.004940224
0.028163843 0.059489734 0.20107514 0.007321827 0.043323487 0.029759476 -0.39644745 -0.28725585
0.2157766 -0.04794799 0.0016992461 -0.050312925 0.05360918 -0.14430188 0.04379223 -0.2484236
0.24030586 0.036746234 0.29911664 0.33338013 -0.07496477 0.009682797 -0.029295428 0.100545965
0.37486494 0.030504543 -0.0073887897 -0.13923196 0.035315584 -0.07567572 -0.43387526 0.13990828
-0.3558585 0.13825163 0.14404625 -0.29330957 0.057557996 0.008716593 0.02557544 0.2918563
0.46120518 -0.24988963 0.074756265 -0.07494301 0.0003530256 -0.22893384 -0.3292832 0.19055367
-0.15720193 -0.20605323 -0.37913322 -0.22230189 0.009282765 -0.20054041 0.26334605 -0.18728037
0.29412958 -0.30492154 -0.021234607 -0.04737939 0.020006396 -0.016561015 0.0071622594 0.33306158
-0.08184563 -0.23753129 -0.0025887706 0.115180805 0.033340607 0.06475293 0.055931106 -0.011578477
0.004424232 -0.18801528 0.22170016 0.023512961 -0.22396484 0.12486191 0.28946805 0.04815445
-0.10842853 -0.11954974 -0.15203063 0.19966142 -0.2362198 -0.14524128 -0.023502534 -0.0007000324
0.1744369 0.1749619 0.0067756413 -0.1391107 -0.07210835 0.053900167 -0.02005955 0.15985169
00000000: 6404 c43d d021 253d ac02 d33c 85ef 5a3e
00000010: 862f 0bbc 2d8e 0c3e 9b9d a5be 2b3a 6c3e
00000020: 66d3 7e3e 4e2a 9bbd 2fd6 0ebe b6d2 16be
00000030: d342 f5bc 08f6 ce3e 6633 05be 0e03 053e
00000040: 0883 a23d f926 fcba 6dd9 dabb af57 843e
00000050: ba27 26bc 7468 72bd 271d d73c c56f 5abe
00000060: a948 0bbd 0c1d 1abd 2828 95bb 6699 3fbe
00000070: 87a1 1abe 1d29 81be e92b 5cbd e173 113d
00000080: 6fe9 753e f1f7 bf3c 7c4f 563d e4cb 8a3e
00000090: 93cb afbe dc27 41bd 03aa 04be 05f5 943b
000000a0: 983a 19bd 56ef ae3c 2781 1ebe fce9 663d
000000b0: 37da 4ebe a127 83bd 48ae d6be f706 82bd
000000c0: 89fe 423d c5c3 1bbe b133 59be d323 42be
000000d0: 1e0d a13e 8991 483e 4354 05bc a278 473d
000000e0: d7d8 84bc 859d 033e 6307 283e 02ce 94bd
000000f0: 3090 093e 6a07 09be d0da aa3d b1bc c4bd
00000100: a990 8abc dee4 393c f084 ca3b 6dbe d8bd
00000110: f104 3fbe 8720 3cbe 962b 913b b15c ae3d
00000120: 3929 c03d ebd1 3ebc 4895 b6bd c665 95bc
00000130: 330a 603e c36b 21be e958 553e 922d 003d
00000140: c342 d0bc 48cc 293e 1594 c33e d3eb 26bb
00000150: 66d8 e93d ac83 0bbd 7c41 83bb 5c5b 013e
00000160: 8d6f c6bd a6e1 723e e4b1 55be 4d38 1d3e
00000170: 18bf 0cbe 5555 97bd 506d f33d 1e33 a7bd
00000180: ca94 753d 845a 013e c87c 63be dfbe 493e
00000190: 6dae f0bc 16bd c3be 6a2e 29be 4e91 89bd
000001a0: 4bda 48bd 0267 e3bd c568 333e 9baf c2bc
000001b0: e9d3 223e f09a b6bc d199 76be 0ae9 35be
000001c0: b13a 263c 5fd5 64be dcb0 b4bd 0c6c 8539
000001d0: 9386 893d e5a3 25be 5d85 8ebc 02bb 29bd
000001e0: 5a2e 973e e921 b23c c69f 523e ac6d 0f3e
000001f0: 15f6 e53d f690 acbb 1b89 0c3b e232 8d3c
00000200: d4cb 423e 2ad8 a03e 5acb 5fbd cf84 143e
00000210: d185 3fbd a902 053d ee57 fe3d e225 a93d
00000220: 8a20 553e 66b9 96bc 38eb 02bd b72f a63c
00000230: fd14 e6bd 5b04 3b3e 7add 3abe b9d1 77be
00000240: 37fd db3d ff26 93bd 9d52 053f 6de2 5d3d
00000250: ad18 9d3d 9b9c 01be 25b8 993d 5e9e 33be
00000260: 5062 31be accb 08be e332 433d ab96 093f
00000270: d544 64bd b348 9bbc 9d53 b3be 9ae1 a13b
00000280: dcb7 e63c 82ab 733d a4e6 4d3e f0eb ef3b
00000290: f873 313d 25ca f33c 29fb cabe 3313 93be
000002a0: 8bf4 5c3e 1d65 44bd 3db9 de3a ed14 4ebd
000002b0: 4d95 5b3d dfc3 13be 7b5f 333d c262 7ebe
000002c0: bd12 763e 3883 163d d125 993e cdb0 aa3e
000002d0: 2187 99bd 98a4 1e3c f7fc efbc 0beb cd3d
000002e0: 4cee bf3e aae4 f93c a91d f2bb d392 0ebe
000002f0: 13a7 103d dffb 9abd e624 debe 1e44 0f3e
00000300: 1633 b6be d691 0d3e dc80 133e ac2c 96be
00000310: efc1 6b3d 0ad0 0e3c 9683 d13c 306e 953e
00000320: 1623 ec3e 11e3 7fbe d019 993d b97b 99bd
00000330: 4b16 b939 a26d 6abe cf97 a8be 8020 433e
00000340: 8bf9 20be 9eff 52be c01d c2be 1ba3 63be
00000350: bd16 183c 775a 4dbe 4bd5 863e 6dc6 3fbe
00000360: 2798 963e ad1e 9cbe 33f4 adbc e410 42bd
00000370: 74e4 a33c f7aa 87bc 63b1 ea3b 0c87 aa3e
00000380: af9e a7bd 673b 73be 5da8 29bb eae3 eb3d
00000390: 2990 083d 2f9d 843d 0418 653d a7b3 3dbc
000003a0: 26f9 903b 1487 40be 5e05 633e 419e c03c
000003b0: 0a57 65be 9ab7 ff3d 2835 943e 9a3d 453d
000003c0: c70f debd 7ed6 f4bd ebad 1bbe 0b74 4c3e
000003d0: 9ae3 71be 21ba 14be 6388 c0bc 6182 37ba
000003e0: 969f 323e 3629 333e 3306 de3b 0973 0ebe
000003f0: 8bad 93bd 6cc6 5c3d ed53 a4bc 29b0 233e

fc_1.bias f4 [100]
0.0244897 -0.047853075 -0.023198502 0.038638096 0.1923596 0.14797688 -0.294212 -0.14371419
0.24710964 -0.22970179 0.29765204 -0.14252166 -0.02084822 0.08877951 0.08877683 0.52545816
0.19402984 0.5931891 -0.13675117 0.10981967 0.16772683 -0.20538056 0.029897423 -0.038835313
0.1769513 0.08213059 0.35260642 0.05773741 0.056307882 0.20569943 -0.21187639 0.07964392
0.09517318 0.053874705 -0.0015022176 0.49205303 0.078606635 0.3640384 -0.032022666 0.38834876
-0.13316536 -0.21032573 0.5960259 0.18751341 0.09512039 -0.03929014 0.014123342 -0.03486893
0.027765213 0.14703692 0.22327371 0.30181882 0.21222696 0.07443519 0.0460367 0.3874887
-0.109875955 0.113602445 0.06618755 0.42585468 -0.017011514 0.17303437 -0.07373306 0.12498377
0.08794299 -0.10429228 -0.31929976 0.43921387 0.08376957 0.49123916 0.15473312 -0.074353024
-0.21332501 -0.0047823917 0.24205102 0.10119697 -0.020665893 -0.1243808 0.03125161 0.01620694
-0.13702999 -0.072601214 0.0759339 0.20877114 0.050305314 0.14750509 -0.0139335655 0.05160298
-0.13936198 -0.06845692 0.26376817 0.042665094 -0.4320775 -0.12906477 -0.07665719 0.07885956
0.5489038 0.44433764 -0.26960018 0.40076783
00000000: a09e c83c 9601 44bd c90a bebc fb42 1e3d
00000010: eaf9 443e 4087 173e f5a2 96be d029 13be
00000020: 4f0a 7d3e f236 6bbe d965 983e 33f1 11be
00000030: e3c9 aabc 08d2 b53d a0d0 b53d 6d84 063f
00000040: c2af 463e 3edb 173f 8008 0cbe 23e9 e03d
00000050: 95c0 2b3e 484f 52be 71eb f43c c711 1fbd
00000060: b932 353e 1534 a83d d488 b43e 107e 6c3d
00000070: 18a3 663d dfa2 523e 20f6 58be 5a1c a33d
00000080: 28ea c23d b9ab 5c3d 0fe6 c4ba 60ee fb3e
00000090: 84fc a03d 3e63 ba3e 332a 03bd a6d5 c63e
000000a0: 805c 08be a15f 57be 2795 183f 8403 403e
000000b0: 7bce c23d b3ee 20bd 9765 673c b9d2 0ebd
000000c0: df73 e33c d990 163e dda1 643e ff87 9a3e
000000d0: 0652 593e 7a71 983d fb90 3c3d eb64 c63e
000000e0: a506 e1bd 66a8 e83d 578d 873d a009 da3e
000000f0: bb5b 8bbc ec2f 313e 5c01 97bd 7ef7 ff3d
00000100: 741b b43d 3197 d5bd 427b a3be a4e0 e03e
00000110: 618f ab3d b383 fb3e 5c72 1e3e 6646 98bd
00000120: df71 5abe 9cb5 9cbb 39dc 773e 5b40 cf3d
00000130: 854b a9bc 5cbb febd b001 003d 6bc4 843c
00000140: 9751 0cbe f2af 94bd 3c83 9b3d 1ac8 553e
00000150: f20c 4e3d 930b 173e 9c49 64bc a55d 533d
00000160: e8b4 0ebe 2433 8cbd 9f0c 873e 98c1 2e3d
00000170: 4339 ddbe 8e29 04be 72fe 9cbd 1f81 a13d
00000180: f684 0c3f 3980 e33e 0909 8abe 7131 cd3e

fc_2.weight f4 [10, 100]
0.27305272 0.6882527 -0.67145205 -0.78485316 0.93797773 1.5011299 -0.55384743 -0.6862543
-0.14002287 0.13503413 0.49051175 -0.3332901 0.00761216 -0.16532737 -0.22334896 0.16365927
0.22993746 0.57940066 -0.8876829 0.54486597 -0.062520646 0.019180363 0.12961294 -1.1316653
-0.98875713 -0.7786387 0.4971254 -0.011779436 -0.59999377 0.3132995 0.7434954 0.2270802
0.42860454 0.850677 -0.023235261 -0.25981295 -0.18229562 -1.3224759 0.15127753 0.5524405
-0.38325104 0.20566696 -0.34186032 0.5712967 0.18015286 0.89591306 0.48605603 -0.13555388
0.50170684 0.12863807 0.4657692 -0.54171693 0.5986703 0.04523511 -0.5682875 -0.5526149
0.03835262 0.19354753 -0.52483535 0.25574493 -0.22858351 -0.9885169 -0.20907289 0.5296145
0.7423523 0.3419236 -0.48362422 -0.17409195 0.25345802 -1.0226524 -0.141658 0.69656473
0.29931432 1.0559272 0.24701428 0.019368974 0.0837149 0.50659096 -0.23063762 0.044165157
0.536916 0.2034923 -0.8935643 -0.12255389 0.5792079 -0.60933065 0.57268703 -0.7873277
-0.5835437 0.87460405 -0.75908834 -0.529319 0.1029416 0.7891241 -0.7241263 -0.16258101
0.7744289 0.568783 0.5073561 -0.9216717 0.08053472 -0.13803646 -0.022009932 -0.22063732
-0.5548407 0.22226563 1.0931761 0.15869871 -0.009460751 0.03468176 0.30352992 0.13943583
-0.11763196 0.09314263 0.3026365 0.04804946 0.010261656 0.21085368 0.09999982 -0.067622356
0.08825438 0.20460284 -0.11134045 0.3680511 -0.030019773 -0.021679513 -0.124112554 0.044054616
-0.42428818 0.07711084 0.20460181 0.06838737 -0.33942986 -0.053346034 -0.010038937 -0.22822292
-0.003631764 -0.32509267 -0.28945744 0.02469211 0.21595058 0.13697062 0.14729878 -0.073792584
-0.2794602 -0.20960751 -0.1742234 0.30185264 0.15563191 0.8978591 -0.2875769 -0.3148584
-0.6242562 0.15483253 -0.008993349 -0.15971678 0.12788005 -0.049900893 0.96214545 -0.07268641
-0.09657918 -0.29299137 -0.09947949 0.008787517 -0.025611905 -0.07139042 0.20513003 -0.109114245
0.2896182 -0.12290402 0.06527374 1.2269316 -0.070770666 -0.18150689 -0.37278736 -0.024011327
0.3994744 0.028698461 0.12220034 -0.020644108 -0.112106994 0.4494997 -0.040730152 0.13652553
0.089591905 0.008062654 -0.1648407 -0.18320653 -0.19932406 -0.057905205 0.27119604 -0.0073367283
-0.083314076 0.19834465 -0.024492085 -0.09745469 -0.37603167 -0.18268745 -0.061345026 -0.3111915
0.7331715 -0.04360568 -0.8073156 1.1476777 0.60278416 -0.5993701 -0.69156957 -0.9597805
0.13668102 -0.33573553 1.0518006 -0.25299978 -1.1536878 -0.5738296 -0.76609796 1.1819661
0.19359747 0.63841087 0.2318798 0.16439961 0.16429526 -0.18479933 0.61746776 0.20047037
0.78989893 -0.42514572 -0.22799164 -0.40386617 -0.06753945 0.82786953 -0.2227541 0.37199813
0.71384114 -0.6958233 -0.03848997 0.95240176 -0.01585296 0.04291042 0.4739768 0.93857896
-0.6235659 -0.7246938 0.58363616 0.5755834 -0.6845239 -0.3219534 0.35240942 -0.07819124
-0.09210484 0.4886 0.16327764 0.5152198 0.34940532 -0.49462864 0.4210316 -0.20292431
00000000: 91cd 8b3e 5431 303f 48e4 2bbf 23ec 48bf
00000010: 4f1f 703f 0625 c03f f2c8 0dbf 5dae 2fbf
00000020: 2862 0fbe 6346 0a3e 5b24 fb3e 00a5 aabe
00000030: 6d6f f93b 944b 29be 97b5 64be 4c96 273e
00000040: ba74 6b3e 9a53 143f 303f 63bf 567c 0b3f
00000050: d30a 80bd 2320 9d3c 41b9 043e 69da 90bf
00000060: 301f 7dbf de54 47bf 3887 fe3e 89fe 40bc
00000070: 3199 19bf cb68 a03e b755 3e3f b687 683e
00000080: 0e72 db3e f8c5 593f e057 bebc 3406 85be
00000090: b4ab 3abe e446 a9bf 7fe8 1a3e be6c 0d3f
000000a0: 7b39 c4be 5c9a 523e 5108 afbe 8040 123f
000000b0: fe79 383e 8f5a 653f 56dc f83e a3ce 0abe
000000c0: dc6f 003f b3b9 033e 4d79 ee3e f6ad 0abf
000000d0: 7542 193f 7348 393d 4a7b 11bf 2c78 0dbf
000000e0: a317 1d3d 5331 463e 9c5b 06bf 00f1 823e
000000f0: cc11 6abe 720f 7dbf 3417 56be d194 073f
00000100: cd0a 3e3f 9c10 af3e 989d f7be 2945 32be
00000110: 40c5 813e 46e6 82bf cb0e 11be 1152 323f
00000120: ba3f 993e 9f28 873f 50f1 7c3e afab 9e3c
00000130: b872 ab3d f2af 013f 452c 6cbe 86e6 343d
00000140: 5473 093f 4960 503e a1c0 64bf 89fd fabd
00000150: f846 143f 18fd 1bbf 9e9b 123f 4f8e 49bf
00000160: 1f63 15bf 0de6 5f3f 9d53 42bf 7381 07bf
00000170: 0cd3 d23d 0904 4a3f 5760 39bf a37b 26be
00000180: f940 463f c39b 113f 17e2 013f adf2 6bbf
00000190: 63ef a43d 6e59 0dbe 2c4e b4bc c0ee 61be
000001a0: 0a0a 0ebf 9a99 633e 32ed 8b3f ea81 223e
000001b0: 4401 1bbc 760e 0e3d 4668 9b3e 44c8 0e3e
000001c0: 06e9 f0bd 90c1 be3d 2cf3 9a3e 83cf 443d
000001d0: 8120 283c 07ea 573e b5cc cc3d 977d 8abd
000001e0: b6be b43d 6883 513e 7606 e4bd 3271 bc3e
000001f0: 07ec f5bc 3c99 b1bc b92e febd 9d72 343d
00000200: 4d3c d9be 4aec 9d3d 2383 513e ad0e 8c3d
00000210: c0c9 adbe 5f81 5abd 5b7a 24bc 45b3 69be
00000220: e402 6ebb 8c72 a6be c433 94be 1c47 ca3c
00000230: 2622 5d3e 0742 0c3e 7ed5 163e 9120 97bd
00000240: 6815 8fbe 5aa3 56be 9e67 32be 6e8c 9a3e
00000250: f95d 1f3e 18da 653f 483d 93be 1f35 a1be
00000260: 41cf 1fbf 6b8c 1e3e d758 13bc cc8c 23be
00000270: fdf2 023e e164 4cbd 2a4f 763f 9ddc 94bd
00000280: 4ecb c5bd f702 96be e7bb cbbd 85f9 0f3c
00000290: 0fd0 d1bc 2435 92bd 9b0d 523e 4a77 dfbd
000002a0: d648 943e 1ab5 fbbd 3dae 853d 180c 9d3f
000002b0: 36f0 90bd f1dc 39be fcdd bebe 67b3 c4bc
000002c0: e987 cc3e 0919 eb3c 2c44 fa3d d51d a9bc
000002d0: 5a98 e5bd d324 e63e a9d4 26bd 59cd 0b3e
000002e0: f67b b73d 3919 043c 00cc 28be 7e9a 3bbe
000002f0: 9b1b 4cbe 022e 6dbd 35da 8a3e f068 f0bb
00000300: 92a0 aabd dc1a 4b3e a0a3 c8bc 5396 c7bd
00000310: 3987 c0be 6b12 3bbe ec44 7bbd 7e54 9fbe
00000320: 21b1 3b3f df9b 32bd 3cac 4ebf 1ae7 923f
00000330: 1050 1a3f 5270 19bf b40a 31bf 2db4 75bf
00000340: 1cf6 0b3e 87e5 abbe 67a1 863f 3089 81be
00000350: 0bac 93bf 7fe6 12bf ff1e 44bf aa4a 973f
00000360: 6a3e 463e e56e 233f e671 6d3e 5f58 283e
00000370: 043d 283e 093c 3dbe 5e12 1e3f 1b48 4d3e
00000380: d136 4a3f b3ac d9be a476 69be 8cc7 cebe
00000390: 2052 8abd 42ef 533f a719 64be 8a76 be3e
000003a0: 4bbe 363f 7a21 32bf a9a7 1dbd 9ad0 733f
000003b0: 11de 81bc d6c2 2f3d 16ad f23e b646 703f
000003c0: 04a2 1fbf 8885 39bf 2e69 153f 6f59 133f
000003d0: f53c 2fbf 13d7 a4be 026f b43e bb22 a0bd
000003e0: 76a1 bcbd c729 fa3e 4132 273e 72e5 033f
000003f0: 41e5 b23e f73f fdbe 7491 d73e 64cb 4fbe

fc_2.bias f4 [10]
0.08185397 -0.124710575 0.13730459 0.17827687 -0.13442595 -0.15938273 0.3974008 -0.16266608
-0.06260085 -0.15355386
00000000: 0ea3 a73d 4268 ffbd 9399 0c3e 368e 363e
00000010: f5a6 09be 3a35 23be 1e78 cb3e f091 26be
00000020: e034 80bd 393d 1dbe
