notebooks/models/cnn_normal_0.001/model.pth (torch, 216215 bytes, 6 tensors)

conv_0.weight f4 [64, 1, 3, 3]
0	0x3a8f487a	0.0010931634
1	0xbdc4d87d	-0.09611604
2	0xbd697512	-0.056996413
3	0xbd9c4776	-0.076308176
4	0x3d17d550	0.037068665
5	0x3d1b01b9	0.03784344
6	0xbc870445	-0.016481528
7	0xbc919ad7	-0.017774029
8	0x3d795c50	0.06087905
9	0x3b482685	0.0030540538
10	0xbcf3aa37	-0.02974425
11	0xbd590bdc	-0.052989826
12	0x3dc6c0ff	0.0970478
13	0xbd1c0256	-0.038088165
14	0xbc088ee1	-0.008334846
15	0x3be74512	0.0070577944
16	0xbcf0734f	-0.029351858
17	0xbd9e9c69	-0.077446766
18	0xbd10bf8d	-0.035338927
19	0xbce90ec0	-0.028449416
20	0x3dce58c9	0.10075528
21	0xbd3ed63b	-0.046591025
22	0xbd452006	-0.048126243
23	0x3cfa580d	0.030559564
24	0xbce54480	-0.027986765
25	0xbd0a17b4	-0.03371401
26	0x3c9fd84a	0.019512314
27	0x3e07ea60	0.13273
28	0x3d954634	0.07288781
29	0xbde7f5c5	-0.11326174
30	0x3dd6a276	0.10480206
31	0x3e092be1	0.13395645
32	0x3c4d61b7	0.012535504
33	0x3c1a4808	0.009416588
34	0x3e2490d9	0.1607088
35	0x3e224c90	0.15849519
36	0x3c052cc2	0.008128347
37	0xbd5d6a2e	-0.05405634
38	0xbd1e6bd6	-0.03867706
39	0x3cc95cde	0.024580415
40	0xbcd84bee	-0.026403394
41	0x3d3e61f5	0.046480138
42	0xb8630303	-5.4123822e-05
43	0x3ceceb42	0.028920773
44	0x3cfc1741	0.030772807
45	0x3a78a4f4	0.0009485029
46	0xbda70441	-0.08155108
47	0xbd8237ed	-0.06358323
48	0x3cf75141	0.030190112
49	0x3bd1ada6	0.0063988743
50	0xbaba4e14	-0.0014213943
51	0xbb2b2028	-0.0026111696
52	0x3d57ee94	0.05271776
53	0x3d91ded8	0.07122582
54	0xbbea1f53	-0.0071448474
55	0xbda7208d	-0.081605054
56	0xbd721ae1	-0.059107665
57	0x3e39facb	0.18162076
58	0x3e31a9bf	0.17349909
59	0x3d8f5fed	0.07000718
60	0x3c903d92	0.017607484
61	0x3e377576	0.17915902
62	0x3e58a170	0.21155334
63	0xbd014eea	-0.0315694
64	0x3d2aa227	0.041658547
65	0xbd57fb67	-0.05272999
66	0x3cbabf92	0.022796426
67	0x3bbc3dbb	0.0057446635
68	0xbcf8898d	-0.030339027
69	0xbd10aa74	-0.035318807
70	0xbd2d73f6	-0.042346917
71	0x3d0a1ae5	0.033717055
72	0x3dff4c27	0.12465697
73	0x3e109e51	0.14122893
74	0x3cda8122	0.026672903
75	0x3d83d0e8	0.0643633
76	0x3dc7b099	0.0975048
77	0x3dc0004b	0.09375056
78	0xbdd14f2e	-0.102201805
79	0xbd3d7b88	-0.046260387
80	0x3cb48b41	0.022039058
81	0xbcc3af30	-0.023887247
82	0x3cb2620c	0.021775268
83	0xbd2bfbc1	-0.041988138
84	0x3c135c93	0.008994239
85	0x3d993145	0.074801005
86	0x3d3941bf	0.045228716
87	0xbd8e5d49	-0.069513865
88	0x3c1d4611	0.009599225
89	0xbd16c005	-0.036804218
90	0xbdaffe4f	-0.085934274
91	0xbd832679	-0.064038225
92	0xbd7e05ba	-0.06201718
93	0x3d24e6cd	0.04025917
94	0xbd49c857	-0.049263325
95	0xbdc6eee4	-0.097135335
96	0x3e1c0446	0.15236005
97	0x3dd98bed	0.10622392
98	0x3d39ce7b	0.04536293
99	0x3e05d311	0.13068797
100	0x3d283c4c	0.04107313
101	0x3d6b45c0	0.057439566
102	0x3e07dc50	0.13267636
103	0x3e15f77c	0.14645189
104	0x3e018fe3	0.12652545
105	0xbb8741ea	-0.0041277306
106	0x3da2f4a4	0.07956818
107	0x3d856b28	0.06514579
108	0xbd34c46b	-0.04413263
109	0x3c9de99c	0.019276433
110	0x3dd9f4fd	0.10642431
111	0x3d6531c6	0.05595567
112	0x3e12fdf5	0.1435469
113	0x3dc1c647	0.094616465
114	0x3dc34a32	0.09535636
115	0x3df5f63b	0.12009855
116	0x3d3bb2ec	0.04582493
117	0x3c2ec33e	0.010666667
118	0xbca0c7f9	-0.019626604
119	0x3e293229	0.16523041
120	0x3c08f505	0.008359198
121	0x3d95a716	0.0730726
122	0x3d9933ad	0.074805595
123	0x3ceedb4d	0.029157305
124	0xbc9ab6a1	-0.018885912
125	0xbcf43ee6	-0.029815149
126	0xbc68a76b	-0.014200072
127	0x3ceca2e3	0.028886264
128	0xbc645634	-0.013936568
129	0xbd8e8091	-0.06958116
130	0x3c4f857c	0.0126661025
131	0xba3d083c	-0.0007211005
132	0xbd3f3447	-0.046680715
133	0x3d5d139f	0.05397379
134	0xbd12c8d3	-0.035836052
135	0x3d68b606	0.056814216
136	0x3d00d024	0.0314485
137	0xbd2e0555	-0.042485554
138	0x3e171d9b	0.14757387
139	0x3d831bcc	0.06401786
140	0xbd895f22	-0.06707598
141	0x3da323f2	0.079658404
142	0x3e04e5a3	0.12978224
143	0x3e40cda1	0.18828441
144	0x3c3cb6a8	0.011518158
145	0xbc5309ff	-0.012880801
146	0xbd84d5b2	-0.06486072
147	0x3c078822	0.008272203
148	0x3d8710a1	0.065949686
149	0xbd8a5a40	-0.06755495
150	0xbc2e7875	-0.010648836
151	0xbcbaf0f5	-0.022819975
152	0x3daaf1c4	0.083468944
153	0x3dc88db7	0.09792655
154	0x3d0d07cd	0.034431268
155	0x3dbdfd15	0.09276787
156	0x3dc57c8f	0.09642898
157	0x3ddf7e13	0.109127186
158	0x3ddf57dc	0.1090543
159	0xbdaf1bd8	-0.08550233
160	0x3d4a71ee	0.049425058
161	0x3dbd6e8a	0.09249599
162	0xbc3a96c9	-0.011388489
163	0x3dd6775e	0.10471986
164	0x3de87c5b	0.11351844
165	0x3cb4268b	0.021991035
166	0xbc5f43e7	-0.013627029
167	0x3a48dc3b	0.00076622114
168	0x389ffadb	7.628436e-05
169	0xbd802c70	-0.06258476
170	0xbd9d1ac4	-0.07671121
171	0x3e029e86	0.12755784
172	0x3d807eff	0.062742226
173	0xbcb172f6	-0.021661263
174	0x3ded37e1	0.11582924
175	0x3d71d6db	0.059042793
176	0xbd9e9063	-0.07742383
177	0x3d260233	0.04052944
178	0x3c3a8b11	0.011385695
179	0xbd15e9fc	-0.036600098
180	0xbc674b1b	-0.014117028
181	0xbcc9f19a	-0.024651337
182	0x3e0036eb	0.1252095
183	0x3ca912b3	0.0206388
184	0x3e1ba148	0.15198243
185	0x3e9ac8ed	0.3023142
186	0x3e0d81da	0.13819066
187	0x3e62c7b6	0.22146496
188	0x3e7d7c83	0.24754529
189	0x3d55b0ed	0.052170683
190	0xbccc51f7	-0.024941428
191	0xbcd24bd4	-0.025670923
192	0x3d9ed8cb	0.07756194
193	0x3c0b8c8e	0.008517398
194	0xbd7d9049	-0.06190518
195	0x3d0c88af	0.03431004
196	0x3aa7ad5b	0.0012792753
197	0xbc93a8d8	-0.018024847
198	0x3d302a91	0.043009344
199	0x3d25c663	0.0404724
200	0xbd046dcc	-0.032331273
201	0x3d422667	0.047399905
202	0xbda28f3a	-0.079374745
203	0xbd8a8c06	-0.067649886
204	0xbc129df2	-0.00894879
205	0x3d015250	0.03157264
206	0x3ce2ea89	0.027699726
207	0x3d567ebc	0.052366957
208	0x3e0aeeaf	0.13567613
209	0x3e09aaf8	0.13444126
210	0xbb2f1245	-0.002671377
211	0x3e358924	0.17728096
212	0x3e32a85b	0.17447035
213	0xbe1d5ec0	-0.15368176
214	0x3d7a3628	0.061086804
215	0x3e42a8b4	0.19009668
216	0xbc9e2159	-0.01930301
217	0xbdef01b1	-0.116702445
218	0xbd864ef7	-0.0655803
219	0x3e01a06f	0.12658857
220	0x3e1b4f59	0.15166987
221	0x3da8825c	0.08227989
222	0x3e6c1e0f	0.23058341
223	0x3e6a5c97	0.22886883
224	0x3e1e91f1	0.1548536
225	0xb9a78917	-0.00031954862
226	0xbd33d6c4	-0.04390599
227	0xbdb0d02c	-0.08633456
228	0x3d9df11e	0.07712005
229	0x3dbf1230	0.09329641
230	0x3dd3d487	0.10343271
231	0x3c7a6cee	0.01528476
232	0x3e09cfa4	0.13458115
233	0x3e0f943a	0.14021388
234	0x3dedbcf4	0.116083056
235	0x3df8c7be	0.12147473
236	0x3df4cb09	0.119527884
237	0xba8edb45	-0.0010899088
238	0xbd7e2e4a	-0.062055863
239	0xbce9794a	-0.028500218
240	0xbe03f422	-0.12886098
241	0xbd543ac7	-0.051813867
242	0xbdb4efb3	-0.088347815
243	0xbca56247	-0.020188464
244	0xbdd7a705	-0.10529903
245	0xbd4d3f8a	-0.050109424
246	0xbbd755bd	-0.0065715
247	0x3c8f61ac	0.017502628
248	0x393c57ab	0.00017961736
249	0xbcb53fb9	-0.022125112
250	0xbcb5919d	-0.02216416
251	0xbce0c64e	-0.027438309
252	0xbaa93611	-0.001290979
253	0xbcc71275	-0.024300793
254	0xbc0fda7a	-0.008780116
255	0xbd200e96	-0.03907641

conv_0.bias f4 [64]
0	0x3d81415e	0.06311296
1	0x3cce1323	0.02515561
2	0x3d4b092e	0.0495693
3	0xbc288e2f	-0.010287805
4	0xbd30f441	-0.04320169
5	0xbbb26f85	-0.005445423
6	0x3d73f9b3	0.059564304
7	0xbd78ebf5	-0.0607719
8	0xbd7c8c1b	-0.061657052
9	0x3d226c30	0.039653957
10	0xbd266f89	-0.040633712
11	0x3acfaa58	0.0015843613
12	0x3d08ada6	0.03336873
13	0x3b48c106	0.003063263
14	0xbd8ec2ef	-0.069707744
15	0x3c4c17f9	0.012456887
16	0x3d03b5a4	0.032155648
17	0x3d51bb67	0.05120411
18	0xbd3055b8	-0.043050498
19	0x3cb670c7	0.022270573
20	0x3d9ff4bb	0.078103505
21	0x3ccc5bc4	0.024946101
22	0x3c48c4a8	0.012253918
23	0x3d28fe80	0.041258335
24	0x3d8fc6db	0.070203505
25	0x3c0e93f5	0.008702268
26	0x3d5d61c9	0.054048333
27	0xbda59917	-0.0808584
28	0xbd163053	-0.03666718
29	0x3d2f351f	0.04277527
30	0x3daff2c4	0.08591226
31	0x3d6798db	0.05654226
32	0x3d5d86fb	0.054083806
33	0x3c07cebf	0.008289038
34	0x3d6b7ffc	0.057495102
35	0x3dd0a59f	0.1018784
36	0x3a0b8ec3	0.00053237024
37	0xbcefe63c	-0.029284589
38	0x3ddb8f48	0.10720688
39	0x3b782e1f	0.0037869287
40	0x3dd9a0e2	0.10626389
41	0x3d803fce	0.0626217
42	0x3db99d64	0.09063223
43	0x3d217217	0.039415445
44	0xbd29818d	-0.041383315
45	0xbcd9df06	-0.026595604
46	0x3e10cc56	0.14140448
47	0x3d1c0612	0.038091727
48	0x3de4c81e	0.11170982
49	0x3c8f631a	0.01750331
50	0x3c2ddf17	0.010612271
51	0xbc43b8ad	-0.011945886
52	0xbc448cf5	-0.011996497
53	0x3cfd563e	0.030924913
54	0x3cdaac6c	0.026693545
55	0xba45bfd0	-0.0007543536
56	0x3db11854	0.08647218
57	0xbb9e0321	-0.0048221503
58	0x3d662d70	0.056195676
59	0xbce4cae5	-0.027928779
60	0x3ce79ec9	0.028273957
61	0x3d6d0fec	0.057876512
62	0x3dc26139	0.094912
63	0x3b33102f	0.0027322879

conv_1.weight f4 [64, 64, 3, 3]
0	0x3b93d33c	0.004511265
1	0x3cae5644	0.021281369
2	0xbd980f5b	-0.07424804
3	0x3c9713ea	0.018442113
4	0xbbb09bfb	-0.005389688
5	0xbc5383d4	-0.012909848
6	0x3cd86357	0.026414556
7	0xbce2992b	-0.027660927
8	0xbc601170	-0.013676032
9	0xbbae211e	-0.0053140065
10	0x3d17ca21	0.037058
11	0x3c8e40e5	0.017364928
12	0xbc888248	-0.016663685
13	0xba74b36b	-0.00093345967
14	0x394a2c54	0.00019280735
15	0x3abde15b	0.0014486717
16	0x3d066b51	0.03281719
17	0x3d7b9538	0.061421603
18	0xbc645734	-0.0139368065
19	0x3c902ae8	0.017598584
20	0xbc6dc805	-0.01451302
21	0x3d862d64	0.06551626
22	0xbc1f4e33	-0.009723234
23	0xbdee4c73	-0.11635675
24	0x3abacafe	0.001425117
25	0x3af55151	0.0018716251
26	0xbc827f61	-0.01592988
27	0xbd62799d	-0.05529176
28	0x3d902722	0.07038714
29	0x3d194a1a	0.037424184
30	0x3ac9de48	0.0015401328
31	0x3ccda890	0.02510479
32	0x3cf12b90	0.029439718
33	0x3cf6c308	0.030122295
34	0xbd9bc8a2	-0.07606627
35	0x3d1a7ab8	0.03771469
36	0xbc3cc420	-0.011521369
37	0x3c125f58	0.0089338645
38	0x3bfc86a0	0.0077064782
39	0x3ca422f4	0.020036198
40	0x3cbe70c8	0.023247138
41	0x3d14da19	0.036340807
42	0xbcf6a219	-0.030106591
43	0x3ccde747	0.025134696
44	0x3d49eff9	0.04930112
45	0xbbe9b9bd	-0.0071327374
46	0xbcf3af8c	-0.029746793
47	0xbd1c3683	-0.038137924
48	0xbaaccda7	-0.0013183848
49	0xbc39a759	-0.011331403
50	0xbcd90c30	-0.02649507
51	0xbc12bf2c	-0.008956712
52	0xbc4012df	-0.011723249
53	0xbb3ced85	-0.0028828096
54	0x3d792d9a	0.060834505
55	0x3c9105b1	0.01770291
56	0xbd900ac4	-0.070333034
57	0x3be076e0	0.0068501085
58	0xbc1c152e	-0.009526534
59	0xbd2d9172	-0.042375036
60	0x3d1af34b	0.03782968
61	0xbb0b018a	-0.0021210634
62	0xbbdd3da6	-0.006751734
63	0xbd04ed0d	-0.03245263
64	0xbcff1694	-0.031138696
65	0x3baeff45	0.005340489
66	0x3d729cb0	0.05923146
67	0xbcba7059	-0.02275865
68	0xbb89e001	-0.0042076115
69	0xbdba1fa5	-0.09088067
70	0x3d2d19da	0.042260982
71	0xbbcdee0d	-0.0062844814
72	0x3cd42106	0.025894653
73	0xbc9d3a2a	-0.019192774
74	0xbd40056c	-0.04688017
75	0xbd8d2766	-0.0689228
76	0x3d02c995	0.031930525
77	0xbcbeefd5	-0.02330772
78	0x3d67b033	0.05656452
79	0x3da508c6	0.08058314
80	0x3bf37c87	0.0074306163
81	0xbcc650c0	-0.024208426
82	0x3bd965c6	0.006634447
83	0xbccbdec2	-0.024886493
84	0x3c9539eb	0.018216094
85	0x3b4e90bb	0.0031519372
86	0x3d163825	0.036674637
87	0x3c227676	0.009915939
88	0x3caa88e3	0.020817226
89	0x3d2d0485	0.04224064
90	0xbdb7e943	-0.08980038
91	0xbd713116	-0.058884703
92	0xbcb86158	-0.022507355
93	0x3c4d71d9	0.01253935
94	0x3c2df207	0.010616786
95	0x3cee548a	0.029093046
96	0x3aeedfed	0.0018224694
97	0xbd52ca43	-0.051462423
98	0xbcbbb711	-0.022914441
99	0x3d2a6288	0.041597873
100	0xbcb90842	-0.022586945
101	0x3ca67b47	0.020322455
102	0x3d0f19b8	0.034936637
103	0xbc64d211	-0.013966099
104	0xbc37bd87	-0.01121462
105	0x3c6035b8	0.013684683
106	0xbd04013e	-0.032227747
107	0x3c7d4ee0	0.0154607
108	0x3d0c04ab	0.03418414
109	0x3d416d17	0.047223177
110	0x3cff9aec	0.031201802
111	0x3cb23def	0.021758048
112	0x3d96c0f2	0.0736102
113	0xbd42013b	-0.047364455
114	0xbd3e6003	-0.046478283
115	0x3d318322	0.04333795
116	0xbd197234	-0.03746243
117	0x3cfa553a	0.030558217
118	0xbc2be2dd	-0.0104911
119	0xbd2d44dd	-0.042302
120	0x3d8f833a	0.07007451
121	0xbcb826d9	-0.022479462
122	0xbb7b57f5	-0.0038351987
123	0x3d603155	0.054734547
124	0x3cfc9661	0.030833425
125	0xbdb51869	-0.088425465
126	0xbc3bc382	-0.011460187
127	0x3cab907f	0.020942925
128	0x3b20f307	0.0024558918
129	0x3d0db767	0.034598734
130	0x3bdbf18f	0.0067121456
131	0xbd0654df	-0.032795783
132	0xbd1abc63	-0.037777316
133	0xbcb7798f	-0.02239683
134	0xbceabcc0	-0.028654456
135	0x3b2c03a3	0.0026247285
136	0xbd97f594	-0.07419887
137	0x3bd6bf10	0.006553538
138	0x3c4884a8	0.012238659
139	0x3d380a6c	0.044931814
140	0x3d2060dc	0.039154872
141	0x3bbd8add	0.005784376
142	0x3d879351	0.06619895
143	0x3bf5fc9e	0.007506921
144	0xbd58b067	-0.052902605
145	0x3d686b7a	0.056743123
146	0x3be1f5ae	0.0068957424
147	0xbdbb1f28	-0.09136802
148	0xbc0dd810	-0.00865747
149	0x3ca17149	0.019707339
150	0xbcf71131	-0.030159565
151	0x3d635347	0.05549934
152	0xbd101251	-0.035173718
153	0x3bef0110	0.007293828
154	0x3cfb83ab	0.030702433
155	0xbc764078	-0.015030019
156	0xbc5261cf	-0.012840702
157	0x3cb6a559	0.02229564
158	0xbb347d5b	-0.0027540538
159	0xbd7035fe	-0.05864524
160	0xba667ff4	-0.000879287
161	0x3ba64ef6	0.005075331
162	0xbdc75248	-0.09732491
163	0x3d0c7253	0.034288716
164	0xbcff864e	-0.031191971
165	0x3d094ef0	0.033522546
166	0xbcd908a4	-0.026493378
167	0x3d4cb088	0.04997304
168	0xbd9cb247	-0.07651191
169	0xbd362fad	-0.04447906
170	0xbc9a751a	-0.018854667
171	0x3d1cfae2	0.038325198
172	0x3d486ab2	0.048929878
173	0x3d269497	0.04066905
174	0xbd8f26be	-0.06989811
175	0x3c187083	0.009304169
176	0xbbf6cb4d	-0.0075315596
177	0x3d948c70	0.07253349
178	0x3bb39b33	0.0054811477
179	0x3c8ff85b	0.01757448
180	0x3d602497	0.054722395
181	0xbcdb2434	-0.026750661
182	0xbd224c62	-0.039623626
183	0x3d64ace5	0.055828948
184	0x3c5c00dd	0.01342794
185	0xbb49a3df	-0.003076784
186	0x3c1f6226	0.00972799
187	0xbcb37b2c	-0.021909319
188	0x3b9b14f5	0.004732723
189	0xbc90d2ad	-0.017678583
190	0xbdb108e7	-0.08644276
191	0x3d4ed7e1	0.050498847
192	0x3c9371f4	0.017998673
193	0x3cb61053	0.02222458
194	0xbb9c0215	-0.0047609904
195	0xbcfd9667	-0.030955506
196	0x3d1a1fe3	0.037628066
197	0x3c1a248e	0.009408129
198	0xbd45383b	-0.04814933
199	0xbb001ce6	-0.0019548475
200	0xbc786f2f	-0.015163227
201	0x3c76327d	0.015026686
202	0x3d65de2e	0.05612009
203	0xbbafd356	-0.0053657694
204	0x3d41af86	0.047286533
205	0x3c5fe7ea	0.013666132
206	0xbbd3820b	-0.0064547113
207	0xbc94fc12	-0.018186603
208	0x3d6029d7	0.0547274
209	0x3c6bf69b	0.014402057
210	0x3d896a6c	0.067097515
211	0x3c9cc0bb	0.01913487
212	0xbd4df002	-0.050277717
213	0x3d81e213	0.06341948
214	0x3c8d55c8	0.017252818
215	0xbbdd9d89	-0.0067631644
216	0xbc9f3cff	-0.019438265
217	0x3da72a9f	0.08162426
218	0xbb2aff28	-0.0026092026
219	0x3d27be05	0.0409527
220	0xbcc3e63d	-0.023913497
221	0xbc192c76	-0.009348979
222	0xbd0860a9	-0.033295307
223	0xbc4cda36	-0.012503197
224	0x3c78505b	0.015155877
225	0xb9531c1c	-0.00020133
226	0x3d351410	0.044208586
227	0xbd859bbb	-0.06523844
228	0xbd113545	-0.035451192
229	0x3c499cca	0.012305448
230	0x3ce4d89b	0.027935317
231	0xbd21d948	-0.039513856
232	0xbc2048ea	-0.009783009
233	0x3d6baea3	0.057539593
234	0x3bdbf1fe	0.0067121973
235	0xbd2a71d5	-0.041612465
236	0xbc8309bb	-0.01599585
237	0xbcf045fe	-0.02933025
238	0xbcfc8554	-0.030825295
239	0xbbfd3dcd	-0.0077283145
240	0xbd826d82	-0.06368543
241	0xbd35dcfc	-0.0444002
242	0xbce17ccc	-0.027525328
243	0xbc864d3e	-0.016394254
244	0x3d534d96	0.051587664
245	0xbd9b807c	-0.07592866
246	0xbcd6289e	-0.026142415
247	0xbcd2b804	-0.025722511
248	0x3da0ee63	0.07857969
249	0x3d1b9d11	0.037991587
250	0x390fbfc6	0.00013708984
251	0x3d4a37da	0.04936967
252	0xbb3cc364	-0.0028802985
253	0xbd8bec64	-0.06832197
254	0x3cb69ca0	0.022291481
255	0xbdd192f3	-0.102331065

conv_1.bias f4 [64]
0	0x3cf415ff	0.029795645
1	0x3bbbba6d	0.005729011
2	0x3c97fd2d	0.01855334
3	0xbcb87ec2	-0.02252138
4	0x3c08c5b9	0.008347922
5	0x3d63b763	0.055594813
6	0xbcdc0a5e	-0.026860412
7	0x3ce9a8ad	0.028522814
8	0x3bedb3dc	0.007254107
9	0xba70c468	-0.000918454
10	0x3b9337bc	0.004492728
11	0xbc9a6878	-0.018848643
12	0xbc4e310f	-0.012584939
13	0x3cbed90b	0.023296854
14	0x3d5a02a2	0.053225167
15	0xbc9be6cd	-0.019030953
16	0xbc8c757b	-0.017145863
17	0x3d728b32	0.05921478
18	0xbdc688f3	-0.0969409
19	0xbc416783	-0.011804464
20	0xbb4b39c3	-0.003100977
21	0x3cb917b6	0.022594314
22	0xbc053c59	-0.008132064
23	0xbca848da	-0.02054255
24	0xbd153e04	-0.036436096
25	0x3c6d229e	0.014473585
26	0xbd044b77	-0.03229853
27	0x3cc3f098	0.023918435
28	0xba6c65f0	-0.00090178754
29	0x3ccdbdec	0.025114976
30	0xbd20a2d0	-0.03921777
31	0xbc8477c3	-0.016170388
32	0xb8bdd7e1	-9.052433e-05
33	0xbcd3c3cf	-0.025850205
34	0x3d9e0e7e	0.07717608
35	0xbd8b643d	-0.06806228
36	0xbc58049e	-0.013184695
37	0xbcf88773	-0.030338025
38	0x3b915eb0	0.0044363365
39	0x3d9c3165	0.07626609
40	0x3c0451f4	0.00807618
41	0x3c70943f	0.014683782
42	0x3bcd84e9	0.0062719476
43	0x3c8f1b84	0.017469175
44	0x3ce0dd8a	0.027449388
45	0x3baafe1b	0.00521828
46	0x3d90dddf	0.070735686
47	0x3c09eda1	0.008418472
48	0xbd4e3bca	-0.050349988
49	0xbd2cb99e	-0.042169206
50	0x3c1288e7	0.008943773
51	0xbbd53bef	-0.006507389
52	0x3c3e1500	0.0116016865
53	0x3cbc2528	0.022966936
54	0x3cf73a71	0.030179234
55	0x3d0143b7	0.03155872
56	0xbd377eab	-0.044798534
57	0xbd2cb4c5	-0.042164583
58	0x3d629d8a	0.055326022
59	0xbc5e1d46	-0.013556784
60	0xbda50ff4	-0.080596834
61	0xbcb2c743	-0.021823531
62	0x3c9fa7e6	0.01948924
63	0x3c8d93a8	0.017282322

fc.weight f4 [10, 1600]
0	0x3d725294	0.059160784
1	0xbb40d31f	-0.0029422713
2	0x3c88914a	0.016670842
3	0x3c75e0c1	0.015007199
4	0xbd511549	-0.05104569
5	0x3caf9478	0.0214331
6	0xbd7e24e3	-0.062046897
7	0x3d1d9627	0.038473275
8	0x3ca3be41	0.019988181
9	0x3d0d33da	0.034473278
10	0xbbad677e	-0.0052918782
11	0x3c4b245c	0.0123988055
12	0x3d58e578	0.052953213
13	0x3c5e404c	0.013565134
14	0x3cb846aa	0.022494633
15	0xbc28fe22	-0.010314496
16	0x3a2f474c	0.0006686344
17	0x3d441499	0.047871206
18	0xbda95db5	-0.08269826
19	0x3d7b3878	0.06133315
20	0x3c846560	0.01616162
21	0x3dae1bb9	0.085013814
22	0xbd279072	-0.04090924
23	0x3c0cce9c	0.008594181
24	0xbd375557	-0.04475912
25	0x3c8f0c43	0.017461902
26	0x37502fce	1.24088965e-05
27	0x3c83bb38	0.016080484
28	0xbd3d8dff	-0.046277996
29	0x3c7b6af6	0.015345326
30	0xbdaa25a3	-0.0830796
31	0x3b70eecd	0.003676343
32	0x3d325dff	0.043546673
33	0x3d2a48b2	0.041573234
34	0xbcc7cc1e	-0.024389323
35	0xbc2caee9	-0.010539749
36	0x3cd26964	0.02568502
37	0x3db47965	0.08812217
38	0x3d366d4e	0.044537835
39	0xbcedb0a5	-0.029014895
40	0x3d1e50db	0.03865133
41	0x3ced9b4c	0.029004715
42	0x3c187024	0.00930408
43	0xbba5a16e	-0.0050546443
44	0xbd904d1c	-0.070459574
45	0x3bd835a3	0.006598191
46	0xbd65a185	-0.05606224
47	0xb91d2dfc	-0.00014989817
48	0xbb716159	-0.0036831705
49	0xbd20e708	-0.03928283
50	0x3cd2a265	0.025712201
51	0x3d5254de	0.051350467
52	0x3d826f66	0.06368904
53	0xbc9b5fff	-0.018966673
54	0xbc0b2c55	-0.008494456
55	0x3cf40c66	0.029791068
56	0xbae3ec6d	-0.0017389186
57	0x3cdf09d8	0.027226374
58	0x3d0797b0	0.033103645
59	0xbd9439d6	-0.07237594
60	0xbd706f64	-0.05869998
61	0x3d00bb51	0.03142864
62	0x3b7e018c	0.0038758246
63	0x3cbc1cc9	0.022962945
64	0x3d1a3bc4	0.037654653
65	0x3b5320a5	0.0032215503
66	0x3c5d7772	0.0135172475
67	0x3cddff4b	0.027099272
68	0x3c79e05b	0.015251244
69	0xbce27b81	-0.027646782
70	0xbb5e8698	-0.0033954736
71	0x3baf4363	0.0053486093
72	0xbcd62d31	-0.026144596
73	0xbb955fb3	-0.0045585274
74	0x3c5f71af	0.013637944
75	0xbd4b6369	-0.04965535
76	0xbd77f1bc	-0.06053327
77	0x3c5ee00a	0.01360322
78	0xbcc40594	-0.023928441
79	0xbd96f61e	-0.07371162
80	0xbc53dedf	-0.012931555
81	0xbd0e911b	-0.034806352
82	0x3cde5365	0.027139375
83	0xbcf5c841	-0.030002715
84	0xbca4c6b2	-0.020114277
85	0x3b4f0275	0.0031587158
86	0xbbcbc866	-0.0062189577
87	0xbd5d2305	-0.053988475
88	0x3c359691	0.011083261
89	0xbccbfb36	-0.02490006
90	0xbd111108	-0.035416633
91	0xbdb94efe	-0.0904827
92	0xbcf937c9	-0.030422108
93	0xbd92e4ae	-0.071725234
94	0xbd508a28	-0.050913006
95	0x3b8021ff	0.0039103027
96	0x3cee83f4	0.029115655
97	0x3cbe9bd6	0.023267668
98	0xbbc99f9c	-0.00615306
99	0x3d2e8865	0.042610545
100	0x3d34397c	0.044000134
101	0xbc9de379	-0.019273506
102	0xbcc69556	-0.02424113
103	0x3aacadbf	0.0013174339
104	0xbc2a1222	-0.0103803
105	0xbd0f1d2e	-0.034939937
106	0xbd96de18	-0.0736658
107	0xbbce6071	-0.006298118
108	0xbd88bedf	-0.06677031
109	0x3cef0688	0.029177919
110	0xbc80719e	-0.015679177
111	0x3d78f020	0.060775876
112	0x3c029a89	0.007971414
113	0x3b9883d6	0.004654388
114	0x3d5a8a63	0.053354632
115	0xbd38b035	-0.04508992
116	0xbd06eee7	-0.03294268
117	0x3d2ab544	0.041676775
118	0xbcdef2a0	-0.027215302
119	0xb829bb00	-4.0466897e-05
120	0x3da64997	0.08119505
121	0xbd01e0e4	-0.031708613
122	0xbce4eff7	-0.027946455
123	0xbc327cc6	-0.010894006
124	0x3ccd9f57	0.025100393
125	0xbcd83609	-0.026392953
126	0xbd277fcf	-0.040893372
127	0x3d220212	0.039552756
128	0x3ca7e088	0.020492807
129	0xbbfcae45	-0.0077112042
130	0xbc978580	-0.018496275
131	0xbd6cfdb9	-0.057859156
132	0x3b9bf834	0.0047598127
133	0x3d8fb268	0.0701645
134	0xbd86885b	-0.065689765
135	0xbd2a1cf5	-0.04153152
136	0x3aa5ea02	0.0012658241
137	0xbc9bee41	-0.019034507
138	0x3ada3904	0.0016649072
139	0x3cfaa374	0.030595519
140	0xbd3941e2	-0.045228846
141	0xbd815131	-0.06314314
142	0xbcabc637	-0.02096854
143	0x3cf32ad2	0.029683504
144	0x3d8d2458	0.06891698
145	0xbc6a0e63	-0.014285657
146	0xbd2d7ef9	-0.04235742
147	0x3d638bd8	0.055553287
148	0xbd60d8fa	-0.054894425
149	0xbcc4c0d0	-0.024017721
150	0x3ce18a56	0.027531784
151	0x39a991ee	0.00032342918
152	0x3d4b21d8	0.049592823
153	0xbd403add	-0.046931136
154	0xbd074368	-0.033023268
155	0x3c8abf6e	0.016936984
156	0x3b29dc65	0.002591872
157	0x3b8cbfce	0.004295326
158	0xbc0eb75c	-0.0087107085
159	0x3c9d691c	0.01921516
160	0x3b77131a	0.0037700594
161	0x3ce93f2b	0.028472504
162	0xbd55577c	-0.052085385
163	0xbd2a3798	-0.041556925
164	0x3cd3feec	0.025878392
165	0xbbde600f	-0.0067863534
166	0x3d8bac3f	0.06819963
167	0xbce66d41	-0.028128268
168	0xb8e99006	-0.00011137132
169	0x3ca28934	0.019840814
170	0x3ba6f437	0.0050950306
171	0x3db8990c	0.090135664
172	0x3c960d38	0.01831685
173	0xbdaa7aea	-0.08324225
174	0xbcecddff	-0.02891445
175	0xbcbcca45	-0.023045668
176	0xbd51d056	-0.051224075
177	0xbd866a6e	-0.065632686
178	0x3caf00ea	0.02136274
179	0x3c972c99	0.018453883
180	0xbc0c26f8	-0.008554213
181	0x3d7f5c96	0.062344156
182	0x3d38db19	0.045130823
183	0x3d086e09	0.033308063
184	0x3d40276a	0.04691259
185	0x3c5fd290	0.013661042
186	0x3d4a2820	0.049354672
187	0x3c353779	0.011060589
188	0x3ca8db35	0.020612339
189	0x3cff627c	0.03117489
190	0x3d33f356	0.043933235
191	0x3c32ab24	0.010905061
192	0x3bd1d4d4	0.006403545
193	0xbd6abecd	-0.057310868
194	0x3c94647e	0.018114325
195	0xbaa814e1	-0.0012823605
196	0x3ca3268b	0.01991584
197	0xbc252ab6	-0.010080984
198	0x3bd619c1	0.006533832
199	0x3d382458	0.044956535
200	0x3ca63ce7	0.020292712
201	0x3b44119f	0.002991773
202	0xbd517e64	-0.051145926
203	0x3d34d17f	0.044145104
204	0xbcd64ad6	-0.026158731
205	0xbc757110	-0.0149805695
206	0x3b88f2e8	0.0041793473
207	0x3d0b077f	0.033942696
208	0x3b6bfbd0	0.0036008246
209	0x3c0677fe	0.008207319
210	0x3d126d22	0.03574861
211	0xbdbbf8fc	-0.091783494
212	0xba0ab166	-0.00052907167
213	0xbd2f2e8a	-0.042768992
214	0xbbb88c6f	-0.0056319754
215	0x3ce086ed	0.027408088
216	0xbda928fe	-0.08259772
217	0xbc8d0bf5	-0.017217616
218	0xbd3d3723	-0.04619516
219	0x3cd63709	0.02614929
220	0xbc97524b	-0.018471858
221	0xbc99dd95	-0.018782416
222	0x3c6137dd	0.013746229
223	0x3cc92062	0.024551574
224	0x3c87e843	0.016590243
225	0x3d041da6	0.032254837
226	0xbc84ad7b	-0.016196003
227	0x3c0ff187	0.008785612
228	0xbc1ef0f9	-0.009701007
229	0xbd4889e5	-0.04895963
230	0x3d2a8196	0.04162749
231	0x3a04128c	0.0005038164
232	0x3c2bdcc6	0.010489648
233	0xbccc2308	-0.024919048
234	0xbc0135bb	-0.0078863455
235	0x3d0b2e30	0.033979595
236	0xbd28ba40	-0.041193247
237	0xbd3d26f8	-0.04617974
238	0xbd024c4f	-0.031811055
239	0xbc6ef40c	-0.0145845525
240	0xbd555014	-0.05207832
241	0xbc734d80	-0.01485002
242	0xbd482d22	-0.048871167
243	0xbc9c6a15	-0.019093553
244	0xbc953bad	-0.018216932
245	0xbd082256	-0.03323587
246	0x3d019b37	0.031642165
247	0x3cc14abc	0.023595206
248	0x3ced7ed1	0.028991135
249	0xb97a311c	-0.00023860153
250	0xbda327bf	-0.07966565
251	0xbd2b92c6	-0.04188802
252	0xbd2fa97e	-0.04288625
253	0x3d4bacbb	0.049725275
254	0xbd6245d2	-0.055242367
255	0xbd2f5f9c	-0.04281579

fc.bias f4 [10]
0	0xbcda9a2c	-0.026684843
1	0x3da3769b	0.079816066
2	0xbad4840d	-0.0016213671
3	0x3cd34e54	0.025794186
4	0x3ccede2c	0.025252424
5	0x3d72c4c9	0.0592697
6	0xbca77d4b	-0.020445487
7	0xbd989667	-0.07450562
8	0x3b91f500	0.004454255
9	0x3d02f4ad	0.031971622
