notebooks/models/long_cnn_laplace_0.001/model.pth (torch, 216215 bytes, 6 tensors)

conv_0.weight f4 [64, 1, 3, 3]
0	0xb2e9f0bb	-2.7234242e-08
1	0x3b530c7c	0.0032203486
2	0x34c1961d	3.6058273e-07
3	0xbd1a62e7	-0.037691977
4	0xb50d1e05	-5.257028e-07
5	0x3dcb53c4	0.099280864
6	0xbdff3a14	-0.124622494
7	0x3585ec86	9.97811e-07
8	0x3d252656	0.040319763
9	0x3de1ac91	0.110192426
10	0xb4cac313	-3.7767367e-07
11	0xbd38d0f8	-0.045121163
12	0x349a8798	2.8783393e-07
13	0xbd8538c1	-0.065049656
14	0x34bea756	3.551201e-07
15	0xb539bd93	-6.919374e-07
16	0x3487f66f	2.5325014e-07
17	0x341f4a6b	1.4835102e-07
18	0xbd2ba75f	-0.041907664
19	0x3e2fe379	0.17176618
20	0x3e80967b	0.25114807
21	0xbeb00dc6	-0.34385508
22	0xb65033e2	-3.1024615e-06
23	0x3e50594f	0.20346569
24	0xbe227a82	-0.15867046
25	0xb4aac190	-3.1805803e-07
26	0x3c9f3f26	0.019439291
27	0x3d9736c9	0.07383496
28	0x3c0eeb8f	0.008723154
29	0xb3f6048c	-1.1456095e-07
30	0x3e23ea34	0.1600731
31	0x3d83b076	0.06430142
32	0x3c83d052	0.016090546
33	0x3cb890c4	0.022529967
34	0x3d2e27f9	0.04251859
35	0x3d525634	0.05135174
36	0x3dfd5ad8	0.12370843
37	0x3ea8672a	0.32891208
38	0x3d8489a4	0.06471565
39	0x3cbfd535	0.023417095
40	0xb4f9e6b8	-4.6547734e-07
41	0xb57f65a0	-9.5142786e-07
42	0xb49717ad	-2.8143168e-07
43	0xbd82cc61	-0.063866384
44	0xbe19d4cd	-0.15022583
45	0x356ee6be	8.8997683e-07
46	0x3e81ca1d	0.25349513
47	0x3e0611f3	0.13092785
48	0x3e9aff35	0.30272833
49	0x3de538cd	0.111924745
50	0xb486324d	-2.4996044e-07
51	0x3dd96eda	0.106168464
52	0xb57eca4a	-9.4916743e-07
53	0xbe350489	-0.17677511
54	0x3daf315f	0.08554339
55	0x3eb18f87	0.34679815
56	0x3ead335c	0.33828247
57	0x3c4c7dcc	0.012481164
58	0x3c8f1348	0.017465249
59	0x3d7cabca	0.06168727
60	0xbd00ceb8	-0.031447142
61	0xb3addd6d	-8.0962174e-08
62	0xb58060cc	-9.564915e-07
63	0x3763af4b	1.3571068e-05
64	0x3f1901fe	0.59768665
65	0x3f2b1674	0.66831136
66	0x3eb6b386	0.3568384
67	0x3f75b55b	0.9597985
68	0x3f3895d1	0.721036
69	0x3f0c0c1a	0.54705966
70	0x3f8132ca	1.0093625
71	0x3f16af8d	0.5886162
72	0x3d85660b	0.06513604
73	0x3cd19cca	0.025587458
74	0xb4be6701	-3.5465203e-07
75	0xb50d876e	-5.272367e-07
76	0xb50bca59	-5.207599e-07
77	0xb4dd18e2	-4.1182562e-07
78	0xbd8cff22	-0.068846
79	0xb519c263	-5.727981e-07
80	0xb4c12cd2	-3.5981662e-07
81	0x3d8359f6	0.06413643
82	0x3d5a0fbb	0.053237658
83	0x3c4ad270	0.012379274
84	0x34b787d3	3.418523e-07
85	0x3e98b491	0.2982526
86	0x3e81a874	0.25323832
87	0x3def6274	0.116887
88	0x35237d5d	6.090466e-07
89	0xb3ac7dcf	-8.0322586e-08
90	0xbe4c2378	-0.19935405
91	0xbeac2dde	-0.33628744
92	0xbe96c14d	-0.29444352
93	0xbddd4dd3	-0.108058594
94	0xbd855276	-0.06509869
95	0xb6fdcf12	-7.5640937e-06
96	0x3efa4d9d	0.4888734
97	0x3ebf35c2	0.373457
98	0x3e9b641f	0.30349824
99	0x3d870091	0.06591905
100	0x3e95c122	0.2924891
101	0x3dff2c7e	0.12459658
102	0xb6386618	-2.7477563e-06
103	0xb5b7b2a7	-1.3686557e-06
104	0xb60fac7d	-2.1409062e-06
105	0xbe0f8a25	-0.14017542
106	0xbe0b9ea5	-0.13634737
107	0xb6909e3b	-4.309955e-06
108	0x3c99e693	0.018786704
109	0xb49d1ca4	-2.9264368e-07
110	0xb4037a72	-1.2244871e-07
111	0x32815ed7	1.5060705e-08
112	0xbbe1d76f	-0.0068921368
113	0x342965cf	1.5776389e-07
114	0x34e3958c	4.2390855e-07
115	0xb3555cd1	-4.9677343e-08
116	0xb45a845f	-2.0350988e-07
117	0x348821e2	2.5356627e-07
118	0xb41437a1	-1.3803812e-07
119	0xb4da697a	-4.0682409e-07
120	0x3429969f	1.5794147e-07
121	0xb560c8ee	-8.3738894e-07
122	0xb4f0ebfc	-4.4875185e-07
123	0xb55e1090	-8.2725546e-07
124	0xb5a98b91	-1.26321e-06
125	0x3482c8c2	2.4360457e-07
126	0x34960579	2.794366e-07
127	0x34a6a8ee	3.1042822e-07
128	0x349e6d00	2.95091e-07
129	0x355ff1af	8.342567e-07
130	0x34b44c2e	3.358304e-07
131	0x34c68d09	3.698299e-07
132	0x34839dd4	2.4515487e-07
133	0xb45741a6	-2.0047318e-07
134	0x342844aa	1.5671199e-07
135	0xb5b68919	-1.3599957e-06
136	0xb46ea391	-2.2224982e-07
137	0x3d873bdb	0.066032134
138	0xb54159eb	-7.202895e-07
139	0xb5453464	-7.346446e-07
140	0x3d4cd8f0	0.050011575
141	0xb4991e20	-2.852039e-07
142	0xb54e395c	-7.682445e-07
143	0xb483dcb0	-2.4561223e-07
144	0xb58da557	-1.0553439e-06
145	0xbd3bef3f	-0.04588246
146	0xb5a616ff	-1.2374657e-06
147	0xb5dccb85	-1.6450509e-06
148	0xb60bb19f	-2.0816003e-06
149	0x3b844f30	0.00403776
150	0xbd680887	-0.056648757
151	0xb5865d76	-1.0010979e-06
152	0x3de31a7b	0.11089035
153	0x3e0e204d	0.1387951
154	0x3e0641e9	0.1311108
155	0x3de6cf70	0.11270034
156	0xb6cb86ec	-6.0655784e-06
157	0x36399082	2.7651263e-06
158	0xbd7fbbc5	-0.06243493
159	0xbe132b8c	-0.1437208
160	0xbdfb7240	-0.12277651
161	0x35ad2b82	1.2902167e-06
162	0xb5196ff8	-5.715988e-07
163	0x3eaa0de9	0.33213738
164	0x362f191b	2.6091645e-06
165	0x3db95b5c	0.090506285
166	0x360f083f	2.131346e-06
167	0xbd8565fd	-0.06513593
168	0x3d480021	0.048828248
169	0x355eed8d	8.3047127e-07
170	0xbd6eca22	-0.058298238
171	0xb5a78f8b	-1.2484246e-06
172	0xb6376c2c	-2.733209e-06
173	0x3dc48189	0.09595019
174	0xb5adfd14	-1.296316e-06
175	0xb623ba53	-2.4397348e-06
176	0xb5d25f28	-1.5673913e-06
177	0xb4f781ca	-4.610177e-07
178	0xb5a6c77e	-1.2426024e-06
179	0xb5a23478	-1.2085211e-06
180	0xbcd98d5e	-0.026556667
181	0x35693616	8.687797e-07
182	0x3daeedad	0.08541427
183	0x346b07fb	2.1888984e-07
184	0x3c942833	0.018085575
185	0x3d37448b	0.044743102
186	0x363331d6	2.6702087e-06
187	0x3d62323c	0.05522369
188	0x35af31f8	1.3053059e-06
189	0xbed9b826	-0.42523307
190	0xbe533cdc	-0.20628685
191	0x3ed34bed	0.41268864
192	0xbf2301b1	-0.63674456
193	0xb80429f2	-3.1510317e-05
194	0x3f2ba5ff	0.67050165
195	0xbebe9ee9	-0.37230614
196	0x3e6d96f0	0.2320211
197	0x3f216795	0.6304868
198	0xb5d6e782	-1.601162e-06
199	0xb4baa701	-3.476671e-07
200	0xb5898fe7	-1.0249177e-06
201	0xb587711f	-1.0091206e-06
202	0xb5985608	-1.1349921e-06
203	0xb599a29b	-1.1446713e-06
204	0x342358a3	1.5212804e-07
205	0xb3e334cd	-1.05801156e-07
206	0x32c1ce04	2.2561842e-08
207	0xb4e9ea22	-4.3569986e-07
208	0x3db21cb0	0.08696878
209	0x3e8b5a68	0.27217412
210	0x35f9cebe	1.8612116e-06
211	0x3d74e586	0.059789203
212	0x3db2c3d3	0.08728757
213	0x3aca4c80	0.0015434176
214	0x3e0d7092	0.13812473
215	0x3d30e554	0.043187454
216	0xb4c148c2	-3.600199e-07
217	0xb43fdc4e	-1.7868408e-07
218	0xb493ddf9	-2.754239e-07
219	0xb4b6eebd	-3.4073847e-07
220	0xb48997ec	-2.5628776e-07
221	0xb4edc7ed	-4.4290155e-07
222	0xb5064685	-5.002151e-07
223	0xb494547e	-2.7628624e-07
224	0xb43871d6	-1.7177749e-07
225	0xb5b50edd	-1.3489877e-06
226	0xb541abfe	-7.2148384e-07
227	0xbd32d04b	-0.043655675
228	0x3d87865b	0.06617423
229	0xb5906382	-1.0757797e-06
230	0xbd357329	-0.04429928
231	0xb5cb5e23	-1.5152076e-06
232	0x3e0c51bc	0.13703054
233	0xb40cffee	-1.3131623e-07
234	0xb7bd7fd3	-2.2590079e-05
235	0xbeee2002	-0.46508795
236	0xbf0d9211	-0.55301005
237	0x3d89fa72	0.06737222
238	0xb8a3204b	-7.778461e-05
239	0xb81fbc45	-3.8083894e-05
240	0x3f23e870	0.64026546
241	0x3f085bb9	0.5326496
242	0x3f10c39b	0.5654847
243	0x3464c2d7	2.1305037e-07
244	0x3d600ab6	0.054697715
245	0xb575ff8c	-9.164148e-07
246	0xb32b682f	-3.9908794e-08
247	0xb524f5be	-6.1452363e-07
248	0xb64c121c	-3.040891e-06
249	0xb4108aa8	-1.3461488e-07
250	0xb5543c16	-7.906359e-07
251	0xb590acdd	-1.0779146e-06
252	0xb2234241	-9.502913e-09
253	0x337fe12f	5.9576617e-08
254	0x342d5e29	1.6146136e-07
255	0x317c7a48	3.6740335e-09

conv_0.bias f4 [64]
0	0x343bc4e9	1.7487368e-07
1	0xb458652f	-2.0153378e-07
2	0xb5aa935a	-1.2708872e-06
3	0x35643172	8.500857e-07
4	0x3cc81efc	0.024428837
5	0x3c90f67b	0.017695656
6	0x3d04163f	0.032247778
7	0x3e8564cd	0.26053467
8	0xb4887023	-2.5413564e-07
9	0x3d5bcc9e	0.053661935
10	0xb57bf236	-9.385725e-07
11	0x342d7333	1.615379e-07
12	0xb42fbf81	-1.6367814e-07
13	0xb439a180	-1.7288221e-07
14	0x3492c2c5	2.7336333e-07
15	0xb4842985	-2.4617125e-07
16	0xb479ff67	-2.3282847e-07
17	0x347fe384	2.3831495e-07
18	0x33c2156c	9.0377256e-08
19	0xb481f80b	-2.4208597e-07
20	0x343539a9	1.6877915e-07
21	0x3bd12250	0.006382264
22	0x349f6750	2.9691228e-07
23	0x3d373f76	0.044738255
24	0x35245c44	6.1229025e-07
25	0xb5323709	-6.6390254e-07
26	0x3dd6d83f	0.104904644
27	0x3473af22	2.2694852e-07
28	0xb437cd42	-1.7117875e-07
29	0x347d97c4	2.3617673e-07
30	0xb3f66ebc	-1.147541e-07
31	0xb3adcb27	-8.0928935e-08
32	0x33f6c029	1.14902214e-07
33	0xb6888430	-4.0685045e-06
34	0xb59ca6d3	-1.1671458e-06
35	0x32e12ee8	2.6214778e-08
36	0x382c3c44	4.1064122e-05
37	0xb384c8ad	-6.183232e-08
38	0x3dccdc88	0.100030005
39	0x358e8872	1.0619535e-06
40	0x32f006a2	2.7942693e-08
41	0xb3f14d52	-1.12365015e-07
42	0x348d2450	2.6289717e-07
43	0x34f1e85d	4.5058815e-07
44	0x3557e711	8.042999e-07
45	0x360c11a0	2.0871885e-06
46	0x37346fe6	1.0754889e-05
47	0x3ddb6e94	0.107144505
48	0xb50722b8	-5.034194e-07
49	0x340567b9	1.2424324e-07
50	0x3117d624	2.2095117e-09
51	0x36484205	2.984075e-06
52	0x34a95f39	3.1547987e-07
53	0x35d35d4a	1.5747876e-06
54	0xb5b18979	-1.3227537e-06
55	0x3db1f177	0.08688634
56	0xb5ba8733	-1.3897428e-06
57	0x32691ed2	1.3569393e-08
58	0x35dacf93	1.6302678e-06
59	0xb4a11d07	-3.0009707e-07
60	0x3e053aee	0.13010761
61	0x34e3583a	4.2346238e-07
62	0x3431acdc	1.6547295e-07
63	0x3d97d4bc	0.07413623

conv_1.weight f4 [64, 64, 3, 3]
0	0x348bfe16	2.607564e-07
1	0xb41c6286	-1.4564475e-07
2	0x32e5f09d	2.6768527e-08
3	0x3380a10b	5.989758e-08
4	0xb4b79bb4	-3.4199695e-07
5	0xb497b2a1	-2.825591e-07
6	0xb495fdd4	-2.7938097e-07
7	0xb4cf9e83	-3.8672087e-07
8	0x33abb349	7.99542e-08
9	0xb3e4efd0	-1.0660699e-07
10	0xbdc5c68b	-0.0965701
11	0xb47c4660	-2.3494931e-07
12	0x34d2c8cb	3.9261644e-07
13	0xb421fba8	-1.5085845e-07
14	0xb356db5f	-5.0025275e-08
15	0xb488c31d	-2.5473938e-07
16	0xb3ce06f6	-9.593889e-08
17	0xb463bce2	-2.1209738e-07
18	0xb50ec543	-5.3186176e-07
19	0xb4cbf0b4	-3.798683e-07
20	0x3478cadc	2.31706e-07
21	0xb4c76ba3	-3.7144954e-07
22	0x34958f7d	2.7857814e-07
23	0xb44fec4f	-1.9364346e-07
24	0xb499a242	-2.861653e-07
25	0xb4a523f9	-3.0759819e-07
26	0x33d76e79	1.00318125e-07
27	0xb40e985e	-1.3280211e-07
28	0xb502d210	-4.8734455e-07
29	0xb50e6b36	-5.3055135e-07
30	0x343ca930	1.7570414e-07
31	0x345e69f3	2.0713905e-07
32	0x3484d845	2.4744273e-07
33	0x34bf1feb	3.5599746e-07
34	0xb2246276	-9.568444e-09
35	0xb465a63a	-2.138776e-07
36	0x3d7fe073	0.06246991
37	0xb3f5fe2e	-1.14549366e-07
38	0xb4391a16	-1.7238958e-07
39	0x347d08a6	2.3565607e-07
40	0x3317c632	3.5337685e-08
41	0xbd33b5ac	-0.043874428
42	0xb4e4d809	-4.2625496e-07
43	0x346e13f9	2.2172743e-07
44	0xb4672064	-2.1525335e-07
45	0xb584a7f7	-9.883651e-07
46	0xb4367921	-1.6994137e-07
47	0xb4912a86	-2.7039295e-07
48	0xb565bb4a	-8.558169e-07
49	0xb51930d9	-5.7068024e-07
50	0xb08324b7	-9.54194e-10
51	0xb521013b	-5.9978964e-07
52	0x34849cdf	2.4701055e-07
53	0xb4c3a556	-3.6441878e-07
54	0x3d8ba320	0.06818223
55	0xb3bdb11b	-8.8332136e-08
56	0x33bc694a	8.773584e-08
57	0x3b8190b1	0.003954016
58	0x316a7b8c	3.412171e-09
59	0xbce3b103	-0.027794367
60	0xb44f0db7	-1.9283367e-07
61	0xb52aa639	-6.357182e-07
62	0xb58f00fb	-1.0654616e-06
63	0x3d0a2f01	0.033736233
64	0xb6a9a797	-5.0561025e-06
65	0xbd6e5897	-0.058189955
66	0xb4affebb	-3.278163e-07
67	0xb5e12158	-1.6773511e-06
68	0xbc70a5d7	-0.014687977
69	0x380035e6	3.0567775e-05
70	0x37debaab	2.6551386e-05
71	0xb7823841	-1.5523403e-05
72	0xb3a3e3b3	-7.631697e-08
73	0xb405b613	-1.2452828e-07
74	0x349aa7b9	2.880677e-07
75	0xb3308dd9	-4.1107203e-08
76	0xb478b4fd	-2.3162643e-07
77	0x3da8b3b9	0.082374044
78	0x33d00e9b	9.6884115e-08
79	0x34067bf1	1.2524812e-07
80	0x349574ef	2.7838493e-07
81	0xb4c27b20	-3.62249e-07
82	0xb433ba7f	-1.6738521e-07
83	0xb4a6b9cb	-3.1055092e-07
84	0xb3230868	-3.795904e-08
85	0xb4cd2462	-3.8210698e-07
86	0xb49bab2e	-2.899555e-07
87	0x327e2667	1.47934776e-08
88	0x34788e9a	2.3148678e-07
89	0xb3e428f5	-1.06245274e-07
90	0xb436c0d3	-1.702022e-07
91	0xb4afa5de	-3.2716974e-07
92	0x3416bc0e	1.4038253e-07
93	0xb49f5a57	-2.968179e-07
94	0xb5a455b5	-1.2243896e-06
95	0xb5c3bfe6	-1.4584482e-06
96	0xb477d882	-2.3082433e-07
97	0xb4960465	-2.7942875e-07
98	0x34b64c1b	3.3955516e-07
99	0xb489e430	-2.5684267e-07
100	0xb4686e38	-2.1646781e-07
101	0x33672509	5.3817562e-08
102	0xb425e497	-1.5449983e-07
103	0xb504df41	-4.949871e-07
104	0x32af4efa	2.0408596e-08
105	0xb4cd956c	-3.8292944e-07
106	0xb3cd9b89	-9.574348e-08
107	0x32616fc3	1.3122135e-08
108	0xb47f4bd4	-2.3776312e-07
109	0x348de156	2.642725e-07
110	0x34b014f1	3.2797792e-07
111	0xb3b8491d	-8.581467e-08
112	0xb4ca9ee5	-3.7741043e-07
113	0xb4aa4d5a	-3.1721248e-07
114	0xb4d8a196	-4.0350704e-07
115	0x33b697cc	8.502647e-08
116	0xb4bdb098	-3.5332482e-07
117	0x347d00ac	2.3562706e-07
118	0xb3565e21	-4.9911367e-08
119	0xb4816ef4	-2.4108851e-07
120	0xb4d30fa0	-3.931318e-07
121	0xb4b109ba	-3.2975896e-07
122	0xb30ba782	-3.2515807e-08
123	0x340c3330	1.3057138e-07
124	0x33e2850c	1.0548146e-07
125	0xb424ccba	-1.534817e-07
126	0x34d07f2a	3.8835543e-07
127	0x33f0fe54	1.1222133e-07
128	0xb3fba832	-1.1718693e-07
129	0x34ce73d5	3.845477e-07
130	0x349145a3	2.7059022e-07
131	0xbe1a342a	-0.15058962
132	0x3445dd5a	1.8427582e-07
133	0x33649670	5.322221e-08
134	0xb494c432	-2.77099e-07
135	0x343adfe1	1.7404047e-07
136	0xb4c7f5e9	-3.7245562e-07
137	0xb41611b4	-1.3976279e-07
138	0xb4b35753	-3.3404885e-07
139	0x33cb9333	9.4796995e-08
140	0xb4d7e022	-4.020995e-07
141	0xb3a13062	-7.5059475e-08
142	0x342f9477	1.6352156e-07
143	0xb4dcffe5	-4.116438e-07
144	0xb44d3861	-1.9112623e-07
145	0xb0d77f2c	-1.5679453e-09
146	0x3399338b	7.133993e-08
147	0xb3f29caf	-1.1297504e-07
148	0x34920c11	2.72034e-07
149	0xb44e8393	-1.9233111e-07
150	0x34be0d73	3.5400043e-07
151	0xb3bc677d	-8.7732566e-08
152	0xb426269a	-1.5473998e-07
153	0x3c2d23a8	0.010567583
154	0x33c7078f	9.2680345e-08
155	0x335f865f	5.2043443e-08
156	0xb3aaf2d1	-7.96041e-08
157	0xb511d844	-5.433142e-07
158	0x33d0de35	9.726174e-08
159	0xb304e027	-3.093751e-08
160	0xb3cbc49a	-9.488686e-08
161	0xb48d9701	-2.6373166e-07
162	0xb4a98a51	-3.1579341e-07
163	0xb503d9ba	-4.9118137e-07
164	0xb4934774	-2.7432873e-07
165	0x347a8b31	2.3333702e-07
166	0xb50c46bd	-5.2257e-07
167	0x33d0720c	9.7065e-08
168	0x3486b9ab	2.5094536e-07
169	0xb4181ab7	-1.4165822e-07
170	0xb37f25fc	-5.940636e-08
171	0xb4b1443b	-3.3018463e-07
172	0x345c5281	2.0519111e-07
173	0x347c8e42	2.3521082e-07
174	0xb45ace71	-2.0377935e-07
175	0xb4707373	-2.2393742e-07
176	0xb4ccc451	-3.81408e-07
177	0xb303e054	-3.070484e-08
178	0xb2ab22b4	-1.9922801e-08
179	0xb4c73256	-3.7103263e-07
180	0xb4cbce96	-3.7962008e-07
181	0xb467d85f	-2.1592267e-07
182	0xb29d8d73	-1.834153e-08
183	0xb4554160	-1.9860954e-07
184	0xb49f2947	-2.964609e-07
185	0xb3e1b54e	-1.0510358e-07
186	0xb4a60b1b	-3.092799e-07
187	0xb4b9ec0d	-3.4630685e-07
188	0x3491b674	2.7141107e-07
189	0xb6aabecf	-5.088608e-06
190	0x351ba37f	5.797992e-07
191	0xb451a76b	-1.9525548e-07
192	0xb5967d54	-1.1212346e-06
193	0xb497d873	-2.828343e-07
194	0xb5961506	-1.118199e-06
195	0x34a766c4	3.1180946e-07
196	0xb4cba04e	-3.7928334e-07
197	0xb48ef0d7	-2.6624795e-07
198	0xbc95f442	-0.018304948
199	0xb47ce00c	-2.3550837e-07
200	0x33fd91d5	1.1807757e-07
201	0xb477e621	-2.3087388e-07
202	0x33fdd91d	1.1820723e-07
203	0x341cc2a5	1.4599443e-07
204	0xb3f8e2b2	-1.15896356e-07
205	0x34ae6e18	3.249013e-07
206	0xb464c564	-2.1305965e-07
207	0x33acaab9	8.0404284e-08
208	0xb4a8f276	-3.1468852e-07
209	0x33a1b671	7.5303326e-08
210	0xb413bb3c	-1.3758557e-07
211	0xb3a8711e	-7.8436855e-08
212	0xb4eaf5e8	-4.3764817e-07
213	0x3380a167	5.9898234e-08
214	0xb4bc06b4	-3.5022606e-07
215	0xb50d2863	-5.2585364e-07
216	0x3323a268	3.8099103e-08
217	0x34c9fbfe	3.7622516e-07
218	0x34cd08f8	3.819075e-07
219	0xb467174a	-2.1522024e-07
220	0xb3ca5f30	-9.4236725e-08
221	0xb4bfdcb5	-3.5737108e-07
222	0x341b9876	1.4490965e-07
223	0x3488b8f4	2.5466545e-07
224	0xb3b72d15	-8.529802e-08
225	0x3c47e59c	0.012200739
226	0x340f93e7	1.337172e-07
227	0xb49312d3	-2.739458e-07
228	0x34b7ed1d	3.425893e-07
229	0x34734328	2.265557e-07
230	0x3340f2c2	4.492427e-08
231	0x34cc4ce7	3.8053915e-07
232	0xb3478d71	-4.646194e-08
233	0x34a2458c	3.0225453e-07
234	0xb59408da	-1.1029435e-06
235	0xbce4d5cd	-0.02793398
236	0xb54a896e	-7.545085e-07
237	0xb4d7369d	-4.0086607e-07
238	0x3cec7f6e	0.028869357
239	0xb6f9830f	-7.4360355e-06
240	0xb3ea737c	-1.09174806e-07
241	0x3761f946	1.3469084e-05
242	0xb5da41d4	-1.6261424e-06
243	0x3458f89f	2.0207015e-07
244	0x3cce1166	0.02515478
245	0xb498ddb6	-2.8473522e-07
246	0x348275f8	2.430022e-07
247	0x34a57d4f	3.082482e-07
248	0xb30ccb3f	-3.278114e-08
249	0xb4c7f7f0	-3.7247037e-07
250	0xb4d806ca	-4.0238075e-07
251	0x348732c7	2.5182655e-07
252	0xb385727a	-6.214118e-08
253	0x346f0319	2.2259736e-07
254	0xb4892336	-2.5543858e-07
255	0xb4aba6e6	-3.1972667e-07

conv_1.bias f4 [64]
0	0x3494acb9	2.769282e-07
1	0xb5cce3f4	-1.5265528e-06
2	0xb64f24cc	-3.0866822e-06
3	0xb5ef55e3	-1.7831884e-06
4	0xb2916f17	-1.693074e-08
5	0x3467a501	2.157358e-07
6	0x369b8434	4.6347504e-06
7	0x3529f03e	6.3307004e-07
8	0x34858df2	2.487646e-07
9	0x3679763e	3.7172717e-06
10	0xb60bf5fa	-2.0855791e-06
11	0xbb7da9ab	-0.0038705866
12	0x3571ef8e	9.0128094e-07
13	0xb6ad8c78	-5.1721545e-06
14	0x35f5400e	1.8272565e-06
15	0xb60b7602	-2.0781304e-06
16	0x32946442	1.727506e-08
17	0x35978b32	1.1290888e-06
18	0x34b471c0	3.3610377e-07
19	0x36e4e2a9	6.821316e-06
20	0xb68b0ee4	-4.1442563e-06
21	0x371f8d2e	9.5100095e-06
22	0x35ec431b	1.76029e-06
23	0x36d787c3	6.423304e-06
24	0x33b902c2	8.6152355e-08
25	0xb461f0de	-2.1042385e-07
26	0x33424bbb	4.523802e-08
27	0xb3de5922	-1.0353894e-07
28	0x34c15d9b	3.6017158e-07
29	0x37167418	8.967727e-06
30	0xb6bdc196	-5.6551753e-06
31	0xb656328f	-3.1917914e-06
32	0xb38f880e	-6.6837046e-08
33	0x3588aa1d	1.0182299e-06
34	0xb2d9c70e	-2.5352644e-08
35	0xb539d225	-6.922367e-07
36	0xb62a9ef3	-2.5424495e-06
37	0xb4874179	-2.5193347e-07
38	0x3417ba70	1.4130796e-07
39	0xb660d581	-3.3502877e-06
40	0x346c2c10	2.1995243e-07
41	0xb6d7b743	-6.428834e-06
42	0xb703dd7c	-7.859777e-06
43	0x3780c777	1.5351672e-05
44	0xb72953c4	-1.0092688e-05
45	0xb65c9731	-3.287056e-06
46	0x355f8aeb	8.3276126e-07
47	0xb5e57cb3	-1.7098122e-06
48	0xb559d9b8	-8.115562e-07
49	0xb42106fc	-1.4996834e-07
50	0x34865e71	2.502816e-07
51	0x347f9b94	2.3805325e-07
52	0xb63b729c	-2.7931883e-06
53	0x33ab04e3	7.963697e-08
54	0x3756faf6	1.2813825e-05
55	0x3718e81c	9.113948e-06
56	0xb6325163	-2.657144e-06
57	0x35f2eec7	1.8099898e-06
58	0xb68ddfea	-4.2281945e-06
59	0xb5dfca65	-1.6673699e-06
60	0xb41d401e	-1.464509e-07
61	0x34688297	2.1654192e-07
62	0x37000ba0	7.632101e-06
63	0x34a63c48	3.096377e-07

fc.weight f4 [10, 1600]
0	0xb30f5098	-3.336808e-08
1	0x344668bd	1.847829e-07
2	0xb451adc3	-1.9527856e-07
3	0xb6b1a349	-5.29402e-06
4	0xb5d4513b	-1.5818872e-06
5	0x33b47e01	8.404823e-08
6	0xb2584e88	-1.2590711e-08
7	0xb7309bd8	-1.0526703e-05
8	0xb7328d9a	-1.0642596e-05
9	0xb2228d45	-9.461762e-09
10	0xb463fdcf	-2.1233357e-07
11	0x3409efcc	1.2846357e-07
12	0xb5ec741f	-1.7617166e-06
13	0xb5f7426e	-1.8422268e-06
14	0xb6cd276b	-6.114065e-06
15	0xb40e77cc	-1.3268362e-07
16	0x3463d5b5	2.1218769e-07
17	0xb74d6122	-1.2241568e-05
18	0xb5bbbce7	-1.3987564e-06
19	0x337cfe79	5.8904764e-08
20	0xb4d38292	-3.9396815e-07
21	0x3dc29aab	0.09502157
22	0xb78fd96e	-1.7148177e-05
23	0xb71b557d	-9.258624e-06
24	0xb551e86b	-7.819678e-07
25	0xb4a42e68	-3.0581145e-07
26	0xb70cd53a	-8.394296e-06
27	0xb82d8271	-4.1367897e-05
28	0xb7b608e0	-2.1700223e-05
29	0xbd15f0e8	-0.0366067
30	0x3356c3a8	5.0003706e-08
31	0x364d5e40	3.0602241e-06
32	0xb71f60fd	-9.49972e-06
33	0x383e5908	4.5382447e-05
34	0x36c388b3	5.8273667e-06
35	0x384a9ad2	4.830474e-05
36	0x3c8265e5	0.015917728
37	0x3dfda0e8	0.12384206
38	0x3d02797d	0.03185414
39	0xb7132470	-8.770367e-06
40	0x38aa997a	8.134819e-05
41	0x34f345b4	4.5312993e-07
42	0xb63ee609	-2.8446104e-06
43	0x3d05691e	0.03257095
44	0xb8131bb3	-3.5073328e-05
45	0x37054cc9	7.945296e-06
46	0xb73a0a7b	-1.1088904e-05
47	0xb6a3b708	-4.879086e-06
48	0xb5f7c783	-1.8461e-06
49	0x34ebd314	4.392574e-07
50	0xb4008256	-1.1968345e-07
51	0x3d6d9fe6	0.05801382
52	0xb7647f53	-1.3619504e-05
53	0xb6e29b9f	-6.7534415e-06
54	0xb42135cd	-1.5013866e-07
55	0x3ba9c0c5	0.0051804506
56	0x343d1728	1.7610421e-07
57	0x3ceceba5	0.028920958
58	0xb6866f7a	-4.006489e-06
59	0x3c981714	0.018565692
60	0xb4588445	-2.0164687e-07
61	0xb66f5ee6	-3.5669013e-06
62	0xb71bc8e5	-9.285494e-06
63	0xb6f64948	-7.3399024e-06
64	0x34c78b3b	3.7167942e-07
65	0xb5ed2cca	-1.7670911e-06
66	0xb6b0520a	-5.2547593e-06
67	0x3d1cff45	0.03832938
68	0xb513d016	-5.506457e-07
69	0xbce91838	-0.028453931
70	0x34b51a46	3.3732994e-07
71	0xb65793e3	-3.2123578e-06
72	0x3e1ee5f9	0.15517415
73	0xb4e61144	-4.28534e-07
74	0xb36f62bd	-5.5736326e-08
75	0xb6e0505f	-6.6850766e-06
76	0xbcd84880	-0.026401758
77	0xb811a3d3	-3.4723267e-05
78	0xb5cceede	-1.5268704e-06
79	0x3bd3139b	0.006441546
80	0xb7700100	-1.4305348e-05
81	0xb88aeb0f	-6.624136e-05
82	0x382c3f15	4.1066745e-05
83	0x3d749ed8	0.059721798
84	0x3e53185c	0.20614761
85	0xb7ab53ba	-2.0423777e-05
86	0xba9e611e	-0.0012083387
87	0xb77ea75a	-1.5178544e-05
88	0xb7ef1888	-2.8502443e-05
89	0x350a8ad3	5.161102e-07
90	0x38ae1042	8.299995e-05
91	0xb92cc9c6	-0.00016478365
92	0xb8340e16	-4.2928463e-05
93	0xb8e2bc0b	-0.000108115455
94	0x37fb8c9d	2.998701e-05
95	0x364b7add	3.0320873e-06
96	0x3d571c67	0.05251732
97	0xb780b07c	-1.5340971e-05
98	0xb9034896	-0.00012520174
99	0xb80562a5	-3.180154e-05
100	0xb730ca5a	-1.0537531e-05
101	0xb76a96f8	-1.3982637e-05
102	0xbd5043cd	-0.05084591
103	0xb82672a1	-3.968424e-05
104	0x3d066891	0.032814566
105	0x37120519	8.703465e-06
106	0x369879ad	4.544118e-06
107	0x36b137d3	5.28151e-06
108	0x3871972c	5.7599667e-05
109	0xb78e6d81	-1.697871e-05
110	0x3ce2b440	0.02767384
111	0x3d86b01f	0.06576561
112	0x36b03757	5.251651e-06
113	0x36e02169	6.6796097e-06
114	0x360cb38d	2.0966138e-06
115	0x38d75b8a	0.000102690494
116	0xb6d4d18f	-6.342488e-06
117	0xb85f8d46	-5.3298914e-05
118	0x372ba3be	1.02305185e-05
119	0xb7a63d26	-1.9817217e-05
120	0x37ad9888	2.0694235e-05
121	0xbb9a208d	-0.0047035874
122	0xb8ad1a08	-8.2541315e-05
123	0xbce0ac6a	-0.027425963
124	0xbb4a2d0c	-0.0030849604
125	0x3480c29b	2.3983452e-07
126	0xbceb63da	-0.028734136
127	0x32185d4f	8.86878e-09
128	0xb6a4867f	-4.9032383e-06
129	0xb65edb69	-3.3208291e-06
130	0xbd015900	-0.031579018
131	0xb58136e6	-9.627227e-07
132	0xb61fad25	-2.379363e-06
133	0x3cf8fb9c	0.030393414
134	0xb585b665	-9.962356e-07
135	0x34cbbdf9	3.794992e-07
136	0x34c1638b	3.6021478e-07
137	0x348bf339	2.6067735e-07
138	0x346ee2e2	2.2248017e-07
139	0x3db0c98c	0.08632192
140	0xb4fc4f3c	-4.6996308e-07
141	0xb3f8ca95	-1.15852494e-07
142	0x3353b1e0	4.9289042e-08
143	0xb6af58c2	-5.225739e-06
144	0x3e3391b6	0.17536053
145	0xb5624dbb	-8.4304673e-07
146	0xb37679c9	-5.73871e-08
147	0xb5217e8d	-6.016133e-07
148	0xb4e2a4a9	-4.2215586e-07
149	0xb65878c8	-3.2256812e-06
150	0x346fd8ef	2.233753e-07
151	0x3376aa65	5.743131e-08
152	0x37b64d1b	2.1731996e-05
153	0x350268ea	4.8581444e-07
154	0x36488b9b	2.9883583e-06
155	0x34b4d082	3.3679322e-07
156	0xb723244f	-9.724011e-06
157	0xb6349d2a	-2.6913572e-06
158	0x36d04e38	6.207989e-06
159	0x3d9743bd	0.07385967
160	0x34861f84	2.4982376e-07
161	0xbd48b4c8	-0.04900053
162	0xb6dcdd34	-6.5822624e-06
163	0xb767f2c9	-1.3825201e-05
164	0xb7014219	-7.704389e-06
165	0xb83c558b	-4.490236e-05
166	0xbdba7ddc	-0.09106037
167	0xb70e06fb	-8.465485e-06
168	0xb64fb9e6	-3.095361e-06
169	0xb3eb3f70	-1.09545795e-07
170	0xbc2866b4	-0.010278393
171	0xb690a85f	-4.3111354e-06
172	0x364b7264	3.0315941e-06
173	0x3d1a1260	0.03761518
174	0x341ce842	1.4613127e-07
175	0x345621e4	1.9942632e-07
176	0xb28187bc	-1.5079301e-08
177	0x3420e85e	1.4985696e-07
178	0xbdd2cbcd	-0.10292778
179	0xb4a9b8a4	-3.1613047e-07
180	0x32dcef61	2.5720228e-08
181	0x3422422f	1.5111503e-07
182	0x33b25814	8.304792e-08
183	0xb4bb7dd4	-3.4923016e-07
184	0xb2c1dc32	-2.256829e-08
185	0x3463dcab	2.1221301e-07
186	0xb4858a19	-2.487366e-07
187	0xb42f7a75	-1.6342695e-07
188	0xb42ff857	-1.638849e-07
189	0xb46a2115	-2.1804983e-07
190	0x34c171d8	3.6031884e-07
191	0x33c77b41	9.2890794e-08
192	0xb4c3930a	-3.6428565e-07
193	0x3221b1e3	9.41188e-09
194	0xb37fbbc4	-5.9542586e-08
195	0xb3a9f41f	-7.914081e-08
196	0xb259f58c	-1.2686893e-08
197	0x33cfa001	9.668293e-08
198	0xb489f37a	-2.569539e-07
199	0x341e5b17	1.4748035e-07
200	0xb453e264	-1.9733267e-07
201	0xb699bcfe	-4.581757e-06
202	0xb72ba509	-1.02308195e-05
203	0xb71eaedf	-9.458249e-06
204	0x362ead19	2.6028777e-06
205	0xbcfbb2f6	-0.030724984
206	0xbc7b9dbf	-0.015357434
207	0x360987bc	2.0493599e-06
208	0x37a41d90	1.956409e-05
209	0x37982ba5	1.8140136e-05
210	0xb6458e02	-2.9437947e-06
211	0xb65ac437	-3.2598743e-06
212	0xb73efe07	-1.1384028e-05
213	0xb729f120	-1.0129326e-05
214	0x3d1d9112	0.038468428
215	0x35d05ddf	1.5524528e-06
216	0xb6a1d6f6	-4.8231987e-06
217	0xb77c1cf6	-1.50271135e-05
218	0xb6db97e4	-6.544391e-06
219	0xb66f6017	-3.5669707e-06
220	0x3743588b	1.1643521e-05
221	0x35476baa	7.428995e-07
222	0xb6a6392c	-4.953841e-06
223	0xb6be8c1b	-5.6787517e-06
224	0x3b4e0de3	0.0031441383
225	0x32c50aa2	2.2938654e-08
226	0xb63a1ae0	-2.7731803e-06
227	0xb4252251	-1.5379307e-07
228	0xb599326e	-1.1414065e-06
229	0xb42ea7e5	-1.6266092e-07
230	0x34e46b6a	4.2546463e-07
231	0xb63c6891	-2.8075049e-06
232	0xb6402d84	-2.8636723e-06
233	0xb5b1f29b	-1.3258135e-06
234	0x3469b936	2.1767195e-07
235	0x3b186bc4	0.0023257593
236	0xb5cd5bc9	-1.5300403e-06
237	0xb45e9cfc	-2.0732472e-07
238	0xb4c263da	-3.6207967e-07
239	0xb466702a	-2.1461224e-07
240	0xb66953d1	-3.4768493e-06
241	0xb5f6f951	-1.8400989e-06
242	0xb5444f13	-7.313076e-07
243	0xb622e21e	-2.4271499e-06
244	0x34ae818e	3.250429e-07
245	0x340c0dd1	1.3043542e-07
246	0xb49cbd33	-2.9194925e-07
247	0xb3848fd1	-6.172889e-08
248	0xb29d9693	-1.8345679e-08
249	0xb49a200d	-2.8708055e-07
250	0x349b47f5	2.8923355e-07
251	0xb48a5f17	-2.577369e-07
252	0x3c5426df	0.012948721
253	0xb6cd58e4	-6.1198243e-06
254	0xb6a18fe6	-4.814926e-06
255	0xb45a833d	-2.0350576e-07

fc.bias f4 [10]
0	0xb610c0d9	-2.1569924e-06
1	0x371e8963	9.449522e-06
2	0xb5ecd4a2	-1.7645255e-06
3	0x36c3f2f5	5.839737e-06
4	0x3715056e	8.882356e-06
5	0x3714e6ca	8.875222e-06
6	0xb6e6ccc2	-6.878371e-06
7	0x34505894	1.9403734e-07
8	0xb76e4eb3	-1.4204229e-05
9	0xb65a1681	-3.249763e-06
