notebooks/models/linear_laplace_1/model.pth (torch, 360471 bytes, 6 tensors)

fc_0.weight f4 [100, 784]
00000000: eec0 dd3d d7e6 7db4 ca04 85bd f46a bf3d
00000010: f140 1d3d b172 90bc 27cd 22bd cd50 d43c
00000020: 1304 a43d 0c02 79bb 436a d6bc d81c 54bd
00000030: f5e9 0bb4 7782 383c 7c4f cbb4 e64e 08b5
00000040: 752b 173d 0267 2134 9b77 ee3c ec9e f2b4
00000050: 63bd 603a 147a 70b3 770d 45bc 4c8c 8ab4
00000060: 2925 9ab2 aa5f 7334 d20a 3bbd c2e7 3d34
00000070: ecb0 88bc 52d3 02b2 da62 03be 2901 95b2
00000080: ba5b aa3d 34a4 d133 1a4b babb aee7 4632
00000090: d0c9 9cbd 3376 a63d e503 853a d747 cb3b
000000a0: c4e1 81b4 b4cc 693c fe54 a7bd e805 6abc
000000b0: 2836 a2bd 2c1e fc3c 867b 0b3c 501a b7b4
000000c0: 7343 acbd 51fb 863b 1d97 cf3d a881 9cbc
000000d0: 70b2 93bd 0a94 bb3d edd6 0e3d 25c1 8234
000000e0: c230 1a34 1ec3 8dbc 3d56 ad3b ed15 ca3b
000000f0: 0dc3 a4bc ca0f f1b3 9fb0 efbc aad9 8fb3
00000100: 2999 0cbd f471 fdbc 79e4 e63c 38b4 abbc
00000110: b7be 0e3d 54c8 283d fffa c7bb 707f c9bd
00000120: 6c2a 923d 499f 183d d876 1d3e 575e 8cbc
00000130: ba47 93bd bc07 0fbd b7f1 cc3c f220 3b34
00000140: 64a4 cbb4 0587 58b4 d545 b5bc 4cac 99bc
00000150: 6c30 093d ad8e f9bc ae5c 713e 12e2 4034
00000160: 605f ba3b 122f 063d ae15 3dba 89c5 453d
00000170: 10d3 18be 4621 36b4 8bb8 103c a44b fbb4
00000180: d08e 08b6 2622 3bb6 5239 c13b 1728 afbd
00000190: 4386 85bc 11b6 e73d ff65 8035 b407 74bc
000001a0: 1933 84bc e8b5 763e 0aef d2bd cf97 873b
000001b0: 8df7 be3d d169 89bc f745 d03c 34e2 aabc
000001c0: adec 52bc 909b a3b4 0add 9db3 2eb2 86bd
000001d0: 4ce2 e53b 6405 52ba 0906 153e 084b 39be
000001e0: 343c f73c 321e 033c 9696 f4bc c6a4 a93d
000001f0: 8f0b c23c 3fba da3c d342 91bd 8254 663d
00000200: dc8d 803a 4812 97bd 0a26 29bc d9bd 3abd
00000210: b6c6 9dbc 8521 b4bc 6878 0d3d 5699 a5bc
00000220: 984d bdb4 19aa 253d 8dc6 fd3d 9295 1d34
00000230: 29ae e6b2 90b4 98b4 7385 adbd 0f74 743d
00000240: 684b 813c 84b8 b9b4 c6de b5bc d6cd 2e34
00000250: 6164 143d d555 533c 5df8 3d3d 8625 feb4
00000260: 317e 24b7 e8c9 01ba bdf3 4ab7 cdec c9bc
00000270: 9cef 6636 b00a 8d36 5826 b63c a3ad 96bc
00000280: d800 90bb 65dc 45bc f568 913d 22d8 22bc
00000290: 7f80 f7b4 f4cc 35bc d464 ab3d 5a78 7634
000002a0: 85e2 a63d fb0d 3cbb a48e 83bc 5335 efbc
000002b0: fc51 e0bc c42a bfbc 20c4 a2be 44e3 83bd
000002c0: 4fab f2bd 145c 62bc acc8 f5b4 a7e6 0abe
000002d0: b658 f13d 1857 fcb7 c25b 83b5 e083 a0bd
000002e0: bbb7 e4bd 740b f1bc 31a7 31bd 0e38 4abd
000002f0: 5c1e 3fbb ff9e 4dbd adf9 13bd ff78 a4bc
00000300: 36cd cbbc 6007 c8bb 4047 50bc bf00 8d3d
00000310: a25f ac3d c311 e3bb cafe 0eb5 0317 ad3a
00000320: 4a5c 16bd 5d0b 9933 b4d9 0ebd 54d6 08be
00000330: 4f38 f73b 6dd6 d13c 54d6 d1bd 5a62 1bbd
00000340: ad29 d2bd 8a67 e935 35a2 80bd 618b 39bd
00000350: 3603 f0bc c5c2 a63e bae4 a63c e834 eabc
00000360: 9009 d1bc 8ade 34bd b64f 263d 4c8f 9735
00000370: ad80 0abb 1ba5 1d3c eeca 4e3d 3df8 a53d
00000380: 98d3 eabc 4e09 07b5 3667 0cbc ce49 9d3d
00000390: eb15 1d3d 1380 7832 324f dcb4 99d3 e23b
000003a0: 5a0a 8cbd 8927 b9b5 b126 e2bd bfc4 89bd
000003b0: 01e3 ca3d 4673 1d37 0fe6 6f37 fe1a 9736
000003c0: d88c 7fbc 7b43 53bd a3b2 2bb6 88de 56bc
000003d0: d6a3 0737 6d29 50bc 8a56 4abc b96a a03d
000003e0: 89b4 cb35 0bcc 993b 8d14 be33 426f dcbd
000003f0: 5ec2 acbd 45c7 193d 681b 6bbe 0e0d 5dbc
0.10827814 -2.364644e-07 -0.06495054 0.093465716 0.03839201 -0.017632814 -0.03974643 0.025917435
0.080085896 -0.0037995605 -0.026173716 -0.05178532 -1.3030497e-07 0.011261574 -3.786953e-07 -5.077876e-07
0.03690668 1.5031767e-07 0.029109767 -4.5191643e-07 0.00085731427 -5.5990384e-08 -0.012027136 -2.5806582e-07
-1.7944858e-08 2.2665941e-07 -0.045664616 1.768631e-07 -0.016685925 -7.615045e-09 -0.12830678 -1.734641e-08
0.08318277 9.762189e-08 -0.0056852223 1.1577795e-08 -0.0765568 0.081280135 0.0010148255 0.0062036323
-2.4192389e-07 0.014269996 -0.08170508 -0.014283635 -0.07920486 0.030776106 0.008513337 -3.410555e-07
-0.084113024 0.0041193147 0.101362444 -0.019104794 -0.072117686 0.091590956 0.034872938 2.4354918e-07
1.4360106e-07 -0.017304953 0.0052898214 0.0061671645 -0.020112539 -1.1225309e-07 -0.029259024 -6.698549e-08
-0.034325752 -0.030938126 0.028185116 -0.020959958 0.03484985 0.041206673 -0.006102919 -0.0983876
0.071369976 0.03726128 0.15377367 -0.017134828 -0.07191415 -0.034919485 0.025017602 1.7427718e-07
-3.7931306e-07 -2.0165687e-07 -0.022128025 -0.018758915 0.033493444 -0.03046354 0.2357051 1.7963637e-07
0.005687639 0.032759733 -0.00072130084 0.048284087 -0.14924264 -1.6962176e-07 0.008833061 -4.680743e-07
-2.0348707e-06 -2.7885048e-06 0.0058967257 -0.085525684 -0.016299373 0.11314023 9.566428e-07 -0.014894415
-0.016137647 0.24092829 -0.10299499 0.00413797 0.0932456 -0.01677409 0.025423987 -0.020859815
-0.012873811 -3.0474303e-07 -7.351089e-08 -0.06576954 0.007015502 -0.00080116675 0.14553083 -0.18095028
0.030180074 0.008002805 -0.029856961 0.08283381 0.023687152 0.026700137 -0.07092824 0.056232937
0.0009807902 -0.07376534 -0.010324011 -0.04559121 -0.019259792 -0.02198864 0.034538656 -0.020214718
-3.526045e-07 0.04044542 0.12391386 1.4676178e-07 -2.6854723e-08 -2.8443583e-07 -0.08472719 0.059680995
0.015783027 -3.4593188e-07 -0.022200953 1.6279895e-07 0.03622854 0.012898882 0.046379436 -4.733849e-07
-9.804543e-06 -0.0004951046 -1.2096888e-05 -0.024649048 3.4412142e-06 4.2033716e-06 0.02223508 -0.018393343
-0.004394632 -0.012076472 0.07100097 -0.009939225 -4.6100828e-07 -0.011096228 0.08368841 2.2954319e-07
0.08148674 -0.0028694856 -0.016059227 -0.029200232 -0.027382843 -0.023335822 -0.31790257 -0.06439832
-0.11849081 -0.013815898 -4.5780814e-07 -0.1356455 0.117844984 -3.0081297e-05 -9.786966e-07 -0.07837653
-0.11167856 -0.029424407 -0.043372337 -0.049369864 -0.0029162383 -0.05020046 -0.03612678 -0.020077227
-0.024878126 -0.006104395 -0.0127123 0.06884908 0.08416678 -0.0069296076 -5.326989e-07 0.001320571
-0.036709107 7.126685e-08 -0.034875587 -0.1336301 0.0075445543 0.025614941 -0.10245958 -0.037935592
-0.10261855 1.7389987e-06 -0.062809385 -0.045298938 -0.029298406 0.32570472 0.020372737 -0.02858968
-0.025517255 -0.044157542 0.040603362 1.1292082e-06 -0.0021133826 0.009621884 0.050486498 0.08103988
-0.028665349 -5.030496e-07 -0.008569529 0.07680093 0.03835098 1.4464621e-08 -4.1035815e-07 0.006922197
-0.06837912 -1.379508e-06 -0.11042536 -0.067269795 0.09906579 9.384768e-06 1.4299075e-05 4.503293e-06
-0.015597545 -0.051578026 -2.5584966e-06 -0.013114579 8.084773e-06 -0.012705189 -0.012349734 0.07832856
1.5177221e-06 0.0046935133 8.8513026e-08 -0.10763408 -0.0843551 0.037543554 -0.22959673 -0.013491882

fc_0.bias f4 [100]
00000000: 0a9e adbd 0d8b 673c a96d a7bd b806 24b6
00000010: e810 d2b6 58bb d4bd 3539 613d 20a5 a0bc
00000020: e25c 6636 ff08 49bd 0c95 2f3b 937e 1f36
00000030: 685a 83bc 60a6 dcbc d074 0a36 76d7 8436
00000040: 9e75 f83d 33bc 13bc 7988 78bd 3bd6 28be
00000050: f943 253c 9d03 ca3c 9eb7 e335 4678 80bd
00000060: 327b d2bc c492 dfb5 f075 3a3d 03e5 d13d
00000070: f0d4 9a3c 787b dabd 9832 983d 8de0 5d3b
00000080: 5b3a 02b6 9e33 bb3d 36a8 2e3d 0ed2 bb3d
00000090: bc79 c7bd ee3c 313e 41aa 2036 9c90 16be
000000a0: b0b2 1c3d 3e3e 453e f3d0 8ab2 06eb b436
000000b0: 110c c5bb b868 01bd 3882 ab3d 4acf 2c3d
000000c0: 315c f437 87fe 80bd e974 7ebc b15d 0c36
000000d0: d7da 803d 5083 56b6 f6ba 953d 4d08 6ebc
000000e0: 3817 df3b c2aa ca3d 3014 8c3d dd0a 11bc
000000f0: 5758 123b 8fdd c73b dc05 cc37 0901 61bd
00000100: bb1f bb36 19e1 90b4 82ea b1bb 91c9 e23c
00000110: cebd e335 9220 4bb5 2184 b0b6 39df d7bc
00000120: c497 6c3c 82e7 3034 1152 0736 ecd5 acbc
00000130: d181 1c35 4ce0 dd3d 288a 3635 ce71 c03d
00000140: 8d9c cabc 10a8 913c 54ea f1b6 ed07 de3c
00000150: 0a74 ee35 8685 67b5 17e1 ae37 c27b 0abb
00000160: 6f04 8d3c 7308 8237 6aa7 4e3b d7a3 a3bd
00000170: d0ce 8735 cb5d d4bd 8c67 0b3d fd0c bd39
00000180: 5f32 0837 75e6 213c 737e 653d 0832 6e36
-0.08477409 0.014132273 -0.08175213 -2.4441815e-06 -6.260456e-06 -0.103872955 0.054986198 -0.019609988
3.4326736e-06 -0.049080845 0.002679172 2.3766522e-06 -0.01603432 -0.026934803 2.0631596e-06 3.9589895e-06
0.12131809 -0.009017038 -0.060677025 -0.16487972 0.010087007 0.024659926 1.6966258e-06 -0.0627294
-0.02569351 -1.6657509e-06 0.04552263 0.10248759 0.018900365 -0.10668081 0.07431525 0.0033855767
-1.9405477e-06 0.091407046 0.042640887 0.09170924 -0.09740016 0.17308399 2.3940959e-06 -0.14703602
0.038256347 0.19262025 -1.6160334e-08 5.3917784e-06 -0.0060134013 -0.03159401 0.08374447 0.042189874
2.9129997e-05 -0.06298547 -0.015530803 2.0916161e-06 0.062917404 -3.196492e-06 0.073110506 -0.014528346
0.006808188 0.09895851 0.06839788 -0.008852688 0.0022330487 0.00609941 2.4321424e-05 -0.054932628
5.576728e-06 -2.698587e-07 -0.005429567 0.027684005 1.6968058e-06 -7.567079e-07 -5.2605906e-06 -0.026351558
0.014440481 1.64755e-07 2.0164337e-06 -0.0210981 5.8303436e-07 0.10833797 6.800133e-07 0.093967065
-0.024732852 0.017780334 -7.209639e-06 0.027103389 1.7766154e-06 -8.624851e-07 2.0847232e-05 -0.0021130894
0.017214028 1.5501142e-05 0.0031532892 -0.07990234 1.0118474e-06 -0.10369452 0.034034297 0.00036058566
8.11796e-06 0.009881605 0.056028794 3.5493886e-06

fc_1.weight f4 [100, 100]
00000000: 739b c236 18d9 dd3c f296 2c3e 5daa d53c
00000010: f937 4cbb 7759 a6bd 162e 393e 277e b3ba
00000020: ec26 7735 54ac 61b7 23e6 3037 adb9 a33c
00000030: 513a 8337 7ec1 fdbb bf81 513c 4b07 bb36
00000040: 0749 4c37 3724 763d b1b7 ce39 83a1 f5bd
00000050: e9b6 a537 f006 91b7 320c 9bb8 b81a ccb6
00000060: ef8a fb3c 1790 23bd 32c4 7abd 49d8 68bd
00000070: 8907 893c 1602 b1bb 48ae 89bd b065 a33c
00000080: 39b7 f83d 016b f835 a371 e63d c885 39bd
00000090: 5229 c0b3 771a 603d f816 e53d 8a1d 923d
000000a0: cba2 253e 4ab5 423c f644 f2bc aa2f 7736
000000b0: 4b38 0ebe 5e18 b43c 09be cb3d 17b2 6534
000000c0: 2d63 6fbd f3b2 1f36 4c03 a63c 315d aab7
000000d0: dab3 293d 85ef 30bc c3ad 0537 4372 d8bd
000000e0: 0d98 d5bd b94a 083d 9144 163d 009e a536
000000f0: 2da4 28bd 19d2 3ebb c89c 90bd c36c f736
00000100: 5da4 ee3d 1e9a c236 774c 573d 9421 0e3d
00000110: 7ef8 8f3b 60ed 893d 7ea2 edba 6a95 a33c
00000120: f36b 05be f401 86bd c0df 9e36 4a87 c9bb
00000130: 008e cb38 0a06 8cbd dfc1 27bc 213d 7237
00000140: 65fd 9e3d ab39 8b3d 92e8 0838 c68b c236
00000150: 62b6 a7bd b083 b53c 32e9 233d a44e c9b7
00000160: 5f3b 093d c0eb 903c 8bb9 edbc 46e5 8c3b
00000170: a4dd 9c3d f4c2 19bc 9195 b43c 70d1 5dbd
00000180: 2ecc ceb7 9795 23bd e2d9 85bd 601e f63c
00000190: 5bde 293c 5a81 cc3b 1293 7d3d 66be 4fbd
000001a0: 918f ecbd f7cd 5c3d 6eb5 7bbd ce83 3c3d
000001b0: 671e c13c 124c 893d 0015 e7bd 1e2f 11bd
000001c0: 9642 fe3d 9cc4 d03d a3f8 473e 83b5 bc3d
000001d0: 4b12 633c 4e50 b7bd c593 8cbd aaad f23d
000001e0: 8658 0a36 04cd 0e3d 18f4 b73d f828 663d
000001f0: 1b0c a23c 8006 ffbd 4f5a 3637 faa9 823b
00000200: d452 293c 2795 cf3c 8088 53ba 7968 203d
00000210: ba25 37be 4741 53bd c4c3 d13d 1cef 6cba
00000220: e9d9 e0bc cc2f 82bc a1d7 9b37 f993 963c
00000230: c445 c23d c323 a43b ae0a 473b d6ef 283d
00000240: 70c7 93bd ccf2 ab3d d4dd aabd 2b80 b93c
00000250: 7a97 bbbc ead7 073e ccc9 f0bc a681 063d
00000260: a3b9 023c b2fe a73b 8bf8 483d a17f 083a
00000270: c64b bbbc 3c24 7a3c c0ca 8637 bf23 043d
00000280: 33f2 d93c 01ea 06bd eeff 063e 9c55 0fbe
00000290: 81d0 af3a 1c70 313d 51f1 e73b b310 843c
000002a0: fdfd 4bbd 6716 f43c fbc1 1a3d fe95 813d
000002b0: 56c4 8f3d 12dc 78be 85e5 36b7 e4c8 833d
000002c0: 5402 ddbc 34a5 ef3d 5b88 95bd 4b76 66bd
000002d0: d0d0 8cbd d9fa 81bd d5ac 333e 68b1 c83c
000002e0: 3f83 a03e 1fba 3538 38e2 173d 08a1 363c
000002f0: bcef 293c 3258 003c f801 0c37 fece eb35
00000300: 2b76 9d3c b17c 0b3d e685 6abc 9237 1f3d
00000310: 76a3 6338 e1d9 91bc df96 23bd 4d41 9bbc
00000320: 4ab9 863d b5b9 d3bc f884 1237 873f 8f3b
00000330: 427e 5cbc 5e1c 29be 8e47 63bc 67b4 9a3e
00000340: b2e8 d634 c41c 9a3d 9f01 c435 6409 85bc
00000350: f828 2c3d d204 d2ba 7c93 fb36 7a25 4dbd
00000360: ab3e 0fbd 7e6c 20bd 24b1 d635 683f 1dbe
00000370: 72f1 913c 4804 813b 4097 4bbe 18a1 0e3c
00000380: b168 7435 88db de3c 4394 fd3b 1bd9 68ba
00000390: 391c c13b a309 033c 5a94 6b34 b727 323d
000003a0: 4774 d7bd e9a1 cfbc f03e e23c e885 063d
000003b0: 6bc2 05bc 1f74 703d dd70 ce36 98df fbbd
000003c0: f95c 013d 5805 6e37 f218 8d3e f267 4cbc
000003d0: c670 de35 b704 093c 02e2 b535 c29d 0a3d
000003e0: 99c8 8abb 10cf 8f37 d199 16be b928 a63c
000003f0: a643 793c f733 0835 1708 a235 adef a03d
5.799747e-06 0.027081057 0.16854456 0.026082212 -0.0031161292 -0.08122533 0.18083987 -0.0013694213
9.207131e-07 -1.3451168e-05 1.0544e-05 0.019985998 1.5643573e-05 -0.0077440133 0.012787282 5.5738833e-06
1.21763505e-05 0.06009313 0.00039428243 -0.119936965 1.9754707e-05 -1.7288578e-05 -7.3932475e-05 -6.0827842e-06
0.030705897 -0.039932337 -0.061222263 -0.05684689 0.016727226 -0.00540186 -0.06722695 0.01994595
0.12144322 1.8508582e-06 0.11252143 -0.0452936 -8.948213e-08 0.05471274 0.111860216 0.071345404
0.16175382 0.011884043 -0.029573899 3.6833612e-06 -0.13888662 0.021984275 0.09948356 2.1392076e-07
-0.05844419 2.3797008e-06 0.020265244 -2.0308975e-05 0.041431285 -0.010799293 7.967875e-06 -0.10568669
-0.10429392 0.033274386 0.036686484 4.935777e-06 -0.041172195 -0.0029116927 -0.07061154 7.373835e-06
0.116524436 5.799592e-06 0.052563157 0.03469999 0.0043936362 0.06734729 -0.0018130091 0.019968707
-0.1302946 -0.06543341 4.734815e-06 -0.006150161 9.706244e-05 -0.06837089 -0.010239094 1.4438557e-05
0.07763175 0.06798109 3.2641525e-05 5.7979223e-06 -0.08189084 0.02215752 0.040017314 -2.3997687e-05
0.033503886 0.01769054 -0.029019138 0.0042997925 0.07659462 -0.009384859 0.022043975 -0.054154813
-2.4652192e-05 -0.039937582 -0.065356985 0.03004378 0.010367955 0.006241006 0.061907835 -0.050718687
-0.115508206 0.05390736 -0.06145232 0.046024136 0.023574067 0.067039624 -0.11283302 -0.035445325
0.12415044 0.1019375 0.19528441 0.09214308 0.013859342 -0.08950864 -0.06864122 0.1184953
2.061513e-06 0.034863487 0.08982104 0.056191415 0.019781163 -0.12452412 1.0869072e-05 0.003987548
0.010334689 0.025339676 -0.00080693513 0.039162133 -0.17885485 -0.051575925 0.102424175 -0.00090383156
-0.027447658 -0.015891932 1.857785e-05 0.018381106 0.09485963 0.005009146 0.0030371356 0.04124435
-0.07215774 0.08395919 -0.083430916 0.022644123 -0.022899378 0.13265958 -0.0293931 0.032838486
0.00797883 0.0051267976 0.049065154 0.00052070065 -0.02286328 0.015267428 1.6068458e-05 0.032260653
0.026604747 -0.032938007 0.13183567 -0.13997501 0.001341358 0.043319806 0.0070783277 0.016121244
-0.04980277 0.029795839 0.03778265 0.06327437 0.0701987 -0.243027 -1.09014845e-05 0.06434801
-0.02697865 0.11701432 -0.07301398 -0.056265157 -0.06875765 -0.063466735 0.17546399 0.024498656
0.31350133 4.33271e-05 0.037080973 0.011146791 0.010372099 0.007833527 8.345109e-06 1.7569107e-06
0.019221386 0.034054462 -0.01431415 0.038871355 5.4273252e-05 -0.017804088 -0.039938804 -0.018952036
0.0657831 -0.025845388 8.733237e-06 0.0043715867 -0.013457837 -0.16514727 -0.01387204 0.3021576
4.0029914e-07 0.07525018 1.460361e-06 -0.01623983 0.04203126 -0.0016023165 7.4975524e-06 -0.05008457
-0.034971874 -0.039165966 1.5995797e-06 -0.15356219 0.017815325 0.003937278 -0.19881916 0.0087054
9.104943e-07 0.02720429 0.0077386214 -0.0008882449 0.005893257 0.007997903 2.194005e-07 0.043494906
-0.10520225 -0.02534576 0.027617902 0.032842547 -0.008164029 0.05870449 6.1524174e-06 -0.122985065
0.031582806 1.418715e-05 0.27558094 -0.012475954 1.657311e-06 0.0083629405 1.3551328e-06 0.033841856
-0.004235339 1.714335e-05 -0.14707114 0.02028309 0.015213883 5.0739567e-07 1.2072295e-06 0.078582145

fc_1.bias f4 [100]
00000000: 41c8 0d3d 6996 1ebd f7fe 72ba 7564 df3c
00000010: eb1e c534 a38e b3bd 9719 a33d e06f 9737
00000020: 2df3 1f3d 4845 c3bc 9957 c6bb 1406 783d
00000030: 6a63 ddbc 893d 2ebd 4e4c 293d 9fb6 82b7
00000040: 60a8 88bd 9e48 23b6 ddd1 a7ba 191b c2bc
00000050: 0570 4bb7 ae52 ae3c 952d c137 7d51 45bb
00000060: 4a8f 0a3b 695e 01bc 2410 7fbb 96f5 d23c
00000070: 5318 303d b7f5 693d 4613 e9bc d4b1 c736
00000080: 3cca 6bbc d5e7 1bb7 9c4d 1e3d 232d 90bc
00000090: 472c 0635 4c07 6f3d c38f dfbc 0240 8d3d
000000a0: a1b5 2a3e d359 713d 26fb 0dbd 6885 c43a
000000b0: dd44 813d acfe cb3c f607 7b3d 0891 803d
000000c0: 0116 71b3 a3ad 0d3c 2173 c634 7c74 433d
000000d0: 577a 3f3e df3a 1dbc 3ef2 0d37 8284 dbbb
000000e0: 5562 49bd b71b 303d f2a5 1a3d b607 103d
000000f0: 2727 58bd 8f4c 5d3d e0e0 f8bc dd3e 5abc
00000100: d6fb 54bd 73c8 9cbd 287a 73bc ea9a e03d
00000110: 1b0b 11bd 72b0 1f3d c3b6 103d 6c10 15bd
00000120: e35c 14b7 f15d 3f36 428b dd3a 08d0 7bb7
00000130: 0449 0137 5c89 633d 3401 1a3d 3e4d 0c3d
00000140: f783 bb36 3939 03bc 6fc2 8d3c bca0 7cbd
00000150: c6a8 de35 919f 00b7 a3ef b2bc 9ca7 3837
00000160: 8a5a 95bd 3857 37b6 cc2b 12bc 5730 b8b3
00000170: eba2 86bb c565 373e b46d 0f3c 29af 013e
00000180: 4233 2d37 c1a7 bf36 a4d5 233d 6868 acbd
0.034614805 -0.03871766 -0.000926956 0.027269581 3.6716605e-07 -0.0876744 0.07963865 1.8052699e-05
0.03905027 -0.023836747 -0.006052923 0.06055267 -0.027024943 -0.042539153 0.041332535 -1.5582247e-05
-0.0667274 -2.4331162e-06 -0.0012803633 -0.023694562 -1.21258245e-05 0.02127966 2.3028619e-05 -0.0030108385
0.0021142536 -0.007896044 -0.0038919533 0.02575187 0.042991947 0.057119098 -0.028451573 5.951364e-06
-0.014391478 -9.2926975e-06 0.038648233 -0.017599648 4.998332e-07 0.05835657 -0.02729023 0.06896974
0.16670848 0.058923554 -0.034663342 0.0014993371 0.06311963 0.02490171 0.06128689 0.062776625
-5.6132198e-08 0.008647355 3.696414e-07 0.04771851 0.18699013 -0.0095965555 8.460656e-06 -0.006699146
-0.049166042 0.04299518 0.037755914 0.035163604 -0.052771714 0.05402809 -0.030380666 -0.013320652
-0.051997982 -0.0765542 -0.014860667 0.109670475 -0.03541098 0.03898663 0.035330545 -0.036392614
-8.843114e-06 2.85159e-06 0.0016902464 -1.5009202e-05 7.705999e-06 0.055550918 0.037598804 0.03425335
5.588397e-06 -0.008009248 0.017304627 -0.061676726 1.6589408e-06 -7.6665465e-06 -0.021842783 1.1006279e-05
-0.072926596 -2.7319893e-06 -0.008921575 -8.576961e-08 -0.004108777 0.17909916 0.008754183 0.12664475
1.0323538e-05 5.7117727e-06 0.039998665 -0.084183514

fc_2.weight f4 [10, 100]
00000000: 0e68 73bd 193a 553d f775 55b8 30bc 61bb
00000010: 1eb8 0b3e efc1 e03d 2821 8a3e 2163 213d
00000020: 371c 7ebb 7439 4cbd 59cb 82bd 78fc 1abc
00000030: bb38 343e 5f5f 463e 411a 6c3c 304a 9abd
00000040: 0428 9f3d fd93 cbbe 9f50 c9bd df82 37bd
00000050: dcb1 733d b54b ce3d 552b 74bc de72 f9b4
00000060: 9290 bfb4 f2b0 8a3d 6252 aebd 619a e13d
00000070: 24ef 9cbc 5e38 4dbc a8f6 7038 9214 12bc
00000080: 224c 4ebe e42b 0abd a18a 71bd 0928 01bd
00000090: dab4 64bd a1a4 793d acca 1938 16cd 473d
000000a0: 47e2 3cbd c8df 8e3d 5cb0 12be b2ae 2e3e
000000b0: 43c2 a93b 5b5d c73d bab7 08be f862 3bbe
000000c0: 6647 8e3c 817c e3b9 a0a2 be3d 9555 a3be
000000d0: 6696 4bbd fcc7 1cbc 39f0 81be f80d 5db7
000000e0: 2a54 c4bc b3ea 72bb d6aa cf3d dc86 ae3e
000000f0: 29e1 ef3d de46 9abb a934 29bb 13ea 793e
00000100: f993 903d 5c91 a73e 687c 4abd 4bd8 9e3d
00000110: 9690 e53d 0b0b 83b4 1c86 6a3c d0f5 58bc
00000120: 23e4 2cba 0def dabd 8281 a9bc 1c4d cebc
00000130: d93a 10bb 857d 253d b900 a0bd 3ed7 96bd
00000140: 2eb9 d53d 2a62 883b 42bf 7c3d 6f6c 353c
00000150: aaa3 af38 141c 4c3e 6b3f 1434 0b4e 6b3c
00000160: 0366 14be be3a 2dbc f299 893d dcb3 813d
00000170: 8146 8cb7 1fa9 23bd 4cc3 d8bd a5d6 e1bb
00000180: 20c0 15bd 7636 703d 9382 973b 41ea de3d
00000190: ffb0 61bd ed91 2dbe 7bbc 06b5 3982 34bd
000001a0: f7c7 c336 ba88 883d 765d 42bd 81e8 2ebe
000001b0: f30d 303d 89ad e23c 0558 f53d 95c6 943e
000001c0: 938f 1abe 1404 afbd 2d38 cebb 7e56 d83d
000001d0: 9e16 89bd 1cd9 8bbd 64a2 813e ac42 4f3e
000001e0: 2724 bf3e a5a0 07bd d0c9 6ebe d967 b2bd
000001f0: 8ca7 3ebc 6739 b03d a54d 9abd b23f 343e
00000200: 1461 843b 2cf3 09bd 390d 17be 089a 943d
00000210: cdda 173d 2659 a2bc 64a9 02be 3acf 4c3d
00000220: e473 213e fc83 0d3d f4e1 1eb5 c3df 293e
00000230: af9d cebb 502e 303c 8e92 86bb 74e1 81bb
00000240: 1ef7 ebbd dab9 24bc 41d2 57bc f040 df36
00000250: 1bcc 3e3c cfc9 673d 4486 17bd 0761 b43d
00000260: 5ec4 be3a 76e5 99bc 0ebd 3d3c de65 95bb
00000270: f866 183e 3a3b 9f3d 3e8b 87be 794f 92bb
00000280: 0b95 0ebd 8a30 a03d 452a cebc d70e e4bd
00000290: 6974 c4bc b490 0338 8215 ce3e e1b8 46bb
000002a0: 6411 09be 41af 7ab3 d80c 21bd 3c75 a63b
000002b0: 87db f0ba 6c51 cfbc 7dd1 533c 1fcc 613d
000002c0: 5d71 34bd 93b5 b33d fad6 a83c cded 2abe
000002d0: e236 53be ba60 24bd 82fe 8cbd 3295 79b5
000002e0: fe5d c93c 05d0 1c3e 629d 0ebd eef4 98bd
000002f0: e1a0 cc3d 7340 3ebe 8f9c e5bc 138c ccbd
00000300: d230 c5bd 310b c1bd 1746 f8bc eafd 81bd
00000310: dcf6 4ebe 2567 20bd f136 b7bd 60ff c73b
00000320: 1060 bf3c 1198 9bbe e1df dcbc 9a15 dfbd
00000330: b4e0 eb3c 9e27 cbb4 8284 16b9 3bf7 9f3d
00000340: 029a cb3d edb4 44bd afca d6bc 5d0d d23d
00000350: 7c60 d53c 0fdb 70be fd45 0c3e dc49 d83d
00000360: d8e5 f23d a513 75bd 159f 38bd 9c62 eabc
00000370: 51ed 5e3d c045 e73c 909b 23bc 5870 a3b6
00000380: 5e16 ad35 ce47 d4bc 9f0f 8b3e 8958 253d
00000390: f464 50bc fa32 1c3d de10 89be 558e 4cb8
000003a0: 170c 583d ce4a dfbd 932a 463e 8e9e 61be
000003b0: cd0a 6bbe 6191 c63d 940e a83c 89ae 9f3e
000003c0: d754 013e 2a4a 2bbe 58bf 48b8 4935 abbc
000003d0: ebd5 cc3c 988d ae3c e1a4 083e cd70 013d
000003e0: 1019 bdb4 09ea 44b8 0992 76bd 732e 20be
000003f0: f1e9 a3bd b9c8 043d a58e 8f3d c301 20bd
-0.059425406 0.05205736 -5.089302e-05 -0.0034444444 0.13644454 0.1097449 0.2697842 0.039401177
-0.0038774142 -0.04985948 -0.06386442 -0.009459607 0.17599766 0.19372319 0.014410556 -0.075336814
0.07771304 -0.39761344 -0.098298304 -0.044802543 0.05949579 0.10073034 -0.014902909 -4.646344e-07
-3.568171e-07 0.06772031 -0.08511807 0.110157736 -0.019157 -0.012525646 5.7450176e-05 -0.008916037
-0.2014623 -0.033733264 -0.058970097 -0.03153232 -0.055836536 0.060948018 3.6666795e-05 0.04877957
-0.046114232 0.06976277 -0.14325088 0.17058828 0.0051806285 0.09734603 -0.13351336 -0.18299472
0.01736803 -0.00043389577 0.09308362 -0.3190123 -0.049703978 -0.009569164 -0.25378588 -1.3175879e-05
-0.023965914 -0.0037066161 0.10140006 0.34087265 0.11712868 -0.004708155 -0.0025818741 0.24405698
0.070594735 0.32728088 -0.04943505 0.07756098 0.11209218 -2.4408686e-07 0.014314201 -0.0132422
-0.00065952743 -0.106901266 -0.020691637 -0.025183253 -0.0022007732 0.040402908 -0.07812638 -0.07365273
0.10435711 0.0041620927 0.061705835 0.011073216 8.375135e-05 0.19932586 1.3806645e-07 0.014361869
-0.1449204 -0.010573087 0.06718816 0.063331336 -1.6722131e-05 -0.03995621 -0.10584125 -0.0068920427
-0.036560178 0.058645688 0.00462372 0.10884524 -0.055100437 -0.16950198 -5.0193165e-07 -0.044069503
5.834732e-06 0.066667035 -0.047452413 -0.1708088 0.042982053 0.027670639 0.11979679 0.29057756
-0.15093832 -0.085457 -0.006293318 0.10563372 -0.06693767 -0.0682852 0.25319207 0.20240277
0.3733227 -0.033112187 -0.23319173 -0.087112136 -0.011636626 0.08604699 -0.07534341 0.17602423
0.004039893 -0.033679172 -0.14751138 0.07255942 0.0370739 -0.0198179 -0.1275993 0.050002314
0.15766865 0.0345497 -5.918839e-07 0.16589265 -0.0063054184 0.010753229 -0.004106826 -0.0039636437
-0.11521743 -0.010054076 -0.013172687 6.6534776e-06 0.011645342 0.056588944 -0.03699328 0.08807569
0.0014554372 -0.018786173 0.011580719 -0.0045592627 0.1488303 0.077749684 -0.2647342 -0.0044650403
-0.034810107 0.07821758 -0.02516664 -0.11135643 -0.02398129 3.13676e-05 0.40250784 -0.0030322599
-0.1338554 -5.8367053e-08 -0.03931889 0.0050798934 -0.0018375971 -0.02530738 0.012928364 0.055126306
-0.044053424 0.08774867 0.020610321 -0.16692276 -0.20626405 -0.04013131 -0.06884481 -9.2976836e-07
0.024580952 0.15313728 -0.03481806 -0.07468592 0.09991623 -0.18579273 -0.028028755 -0.099876545
-0.09628452 -0.09425963 -0.030306859 -0.063472584 -0.20211357 -0.039160866 -0.08946026 0.006103441
0.023361236 -0.30389455 -0.026962223 -0.10892792 0.02879367 -3.7840522e-07 -0.00014354478 0.07810827
0.09941484 -0.048024107 -0.026219694 0.10256455 0.026046984 -0.23521064 0.13698573 0.105609626
0.118602455 -0.059833188 -0.045073587 -0.028611474 0.05442554 0.028231502 -0.009985819 -4.870857e-06
1.2896014e-06 -0.025913145 0.27160355 0.040367637 -0.012719382 0.038134553 -0.2677068 -4.8769947e-05
0.052745905 -0.1090294 0.19352178 -0.2203314 -0.22953339 0.096956976 0.020514764 0.31187847
0.1263002 -0.1672751 -4.786192e-05 -0.020899432 0.025004348 0.021307752 0.13344146 0.031601716
-3.522223e-07 -4.6948004e-05 -0.060197864 -0.15642719 -0.08003605 0.032417987 0.07009629 -0.03906418

fc_2.bias f4 [10]
00000000: 5778 793d fc8b 20bd 2a89 873c c064 353e
00000010: 6e01 273d 0552 313e e7bb 133d 35e2 973c
00000020: f73d 1239 f422 803d
0.06090578 -0.039196 0.016544897 0.17714214 0.040772848 0.17316444 0.03606787 0.018540481
0.00013946729 0.06256667
