bnn/models/fashion_fcnn_laplace_0.050/model.pth (torch, 360471 bytes, 6 tensors)

fc_0.weight f4 [100, 784]
-0.012821275 0.005213698 0.010457345 -0.011421871 0.017807951 0.012374037 0.004175511 -0.012805273
0.0059665097 -0.000838999 0.016696077 0.003386695 -0.009415773 0.0039988295 0.004761457 -0.0016383113
-0.0076389974 0.016637653 -0.005059115 -0.015588625 -0.018512413 0.0108227115 0.0023612296 -0.01729104
-0.004592888 -0.010884708 -0.002991928 0.00026395597 -0.004888934 0.0052695917 0.0048453812 -0.0017460505
0.013866624 -0.0019028388 0.013467888 0.014846054 0.0006022778 0.0011556263 -0.01830335 0.002770518
0.004915051 -0.0022822611 -0.019728646 -0.008125093 0.012953352 0.01177089 0.010519031 -0.0005034952
-0.0019418135 -0.0073762536 -0.015086228 0.00557286 0.0072935466 -0.019883202 0.012853199 -0.016844204
0.0026449428 -0.013433879 0.00075163663 -0.015911555 -0.0046080956 0.016383184 -0.010554588 -0.003264394
0.011333785 0.00912701 0.011984012 0.015789934 -0.0012201571 -0.014932456 -0.008436049 -0.015665479
-0.005695011 -0.0063225767 -0.004538844 -0.0020496934 0.010972225 -0.009404712 0.0063249664 -0.0045543504
0.0040233 0.0042123916 0.01836143 0.014278385 0.012752611 -0.014318954 0.018424092 -0.0169623
-0.01892804 0.004034289 -0.018816333 -0.010162266 0.012742462 0.0064554764 -0.009312262 1.976822e-05
0.0038381694 -0.018310072 -0.0018250932 -0.0075402893 -0.015131606 0.0026452837 -0.002748873 0.017316487
-0.0058502597 -0.006138854 -0.0016106905 0.01927892 0.014574641 0.0003318498 0.0043629585 0.019400345
-0.017264305 -0.006607258 0.017113302 -0.0037047204 -0.017238682 -0.01571113 0.0011592694 -0.0043031177
-0.0042132945 0.0024410563 -0.010446763 0.005079961 0.0041933237 0.0031392714 0.016539328 0.0046927813
0.010516973 0.017464664 -0.0037764637 0.008339623 -0.018778231 -0.0026130688 0.005340875 0.007446273
0.015053133 0.013353169 0.013469606 0.01765418 0.0021350123 -0.005896766 -0.0007690701 0.012559566
-0.00060610415 -0.013803917 -0.002167314 0.008899047 -0.0016385871 -0.001171122 0.0073579056 -0.013794052
0.0036389695 0.00059088593 -0.0031870217 0.0049837218 -0.015513443 0.00930793 -0.0037247622 0.016921517
-0.0053463895 0.0037965188 0.009636153 0.01908553 -0.0078054783 -0.0054978356 -0.015833572 0.01148376
-0.0068529453 -0.0065146172 0.011864237 0.008410144 -0.0080487095 -0.011286861 0.015419387 -0.004790334
0.007295707 -0.015449606 -0.00039986026 0.017894965 0.006282008 -0.015664626 0.009334972 -0.0017266478
0.008177439 0.006812509 -0.012634628 0.01421585 0.0015958882 -0.014554873 0.008919797 0.015474518
-0.015080585 -0.0033373556 0.004111745 -0.016452188 0.018759994 0.0035813188 0.017717876 -0.014817432
-0.010531284 0.011734034 0.009350887 -0.015216797 0.0068027666 0.007536517 0.017515438 0.0027953195
0.019600645 0.010750688 -0.0016389498 -0.01216817 -0.015147941 -0.004833792 0.008965852 0.0018348309
-0.010829527 0.01822204 0.007905546 0.012355966 -0.015772885 -0.013281535 -0.016138228 0.0029299317
0.017567897 -0.005146202 0.013654769 0.0031130796 -0.012221913 0.014711513 -0.01158127 -0.017273843
-0.0022917348 0.010436588 -0.019692387 -0.01021044 -0.0033083241 -0.01904065 0.0016887266 0.01977414
0.0065070014 -0.008002037 -0.005700142 0.018788204 -0.013538506 -0.011854769 -0.012968261 -0.008751916
0.0020161702 -0.016237231 -0.016524246 -0.0070367814 -0.013520989 0.0025005038 0.002485565 0.0004307505
00000000: 5310 52bc abd7 aa3b 4955 2b3c cd22 3bbc
00000010: fbe1 913c 79bc 4a3c bad2 883b 35cd 51bc
00000020: b682 c33b 45f0 5bba 36c6 883c 50f3 5d3b
00000030: 9d44 1abc 9d08 833b ff05 9c3b 9bbc d6ba
00000040: 8e50 fabb b04b 883c efc6 a5bb 6f67 7fbc
00000050: 58a7 97bc be51 313c dcbe 1a3b f0a5 8dbc
00000060: f07f 96bb c655 32bc 3914 44bb 9263 8a39
00000070: 5a33 a0bb 8aac ac3b 01c6 9e3b bcdb e4ba
00000080: d630 633c ad68 f9ba 6ba8 5c3c dd3c 733c
00000090: 2ee2 1d3a 6278 973a e8f0 95bc 9491 353b
000000a0: 700e a13b fd91 15bb f89d a1bc 1c1f 05bc
000000b0: 4c3a 543c b1da 403c 0458 2c3c fefc 03ba
000000c0: 7384 feba 80b4 f1bb 3a2c 77bc 8a9c b63b
000000d0: b4fe ee3b 19e2 a2bc 3996 523c dbfc 89bc
000000e0: c756 2d3b c619 5cbc 7b09 453a f358 82bc
000000f0: 82ff 96bb 0736 863c 27ed 2cbc 71ef 55bb
00000100: 57b1 393c 7489 153c 9758 443c e459 813c
00000110: aeed 9fba 43a7 74bc 5b37 0abc e454 80bc
00000120: 379d babb 9e2d cfbb 95ba 94bb 2654 06bb
00000130: d9c4 333c 3916 1abc aa41 cf3b a93c 95bb
00000140: e3d5 833b 1a08 8a3b b66a 963c e3ef 693c
00000150: 54f0 503c 0c9a 6abc 1fee 963c 85f4 8abc
00000160: fa0e 9bbc 1232 843b b624 9abc a27f 26bc
00000170: c2c5 503c 7688 d33b 7592 18bc eed3 a537
00000180: cc89 7b3b 01ff 95bc f737 efba 8814 f7bb
00000190: 8eea 77bc 7f5c 2d3b 7026 34bb 4edb 8d3c
000001a0: 89b3 bfbb 7128 c9bb ce1d d3ba d3ee 9d3c
000001b0: 7aca 6e3c 20fc ad39 26f7 8e3b 79ed 9e3c
000001c0: df6d 8dbc b381 d8bb 3231 8c3c e5ca 72bb
000001d0: 2338 8dbc a1b4 80bc a0f2 973a 2b01 8dbb
000001e0: ad0f 8abb 21fa 1f3b e628 2bbc cd75 a63b
000001f0: 2668 893b 3cbc 4d3b 7c7d 873c e7c5 993b
00000200: 624f 2c3c 0e12 8f3c 8c7e 77bb eaa2 083c
00000210: ced4 99bc 0540 2bbb 8202 af3b deff f33b
00000220: 6aa1 763c 40c7 5a3c 9faf 5c3c 809f 903c
00000230: 90eb 0b3b a939 c1bb 6c9b 49ba a3c6 4d3c
00000240: f6e2 1eba d329 62bc 7f09 0ebb 4fcd 113c
00000250: dcc5 d6ba 5580 99ba 961a f13b 7300 62bc
00000260: c77b 6e3b afe5 1a3a 5add 50bb 7d4e a33b
00000270: 192c 7ebc 4a80 183c 241b 74bb fe9e 8a3c
00000280: c430 afbb 04cf 783b f4e0 1d3c 4259 9c3c
00000290: 19c5 ffbb 3027 b4bb 68b5 81bc 6126 3c3c
000002a0: ac8e e0bb 9278 d5bb 3762 423c b3ca 093c
000002b0: bcde 03bc 87ec 38bc 99a1 7c3c 3cf8 9cbb
000002c0: d310 ef3b 5820 7dbc 56a4 d1b9 7698 923c
000002d0: 4dd9 cd3b 1a53 80bc b6f1 183c b050 e2ba
000002e0: aafa 053c 783b df3b 7901 4fbc 99e9 683c
000002f0: 1f2d d13a 9077 6ebc 5724 123c d588 7d3c
00000300: 8f14 77bc 89b7 5abb d1bb 863b bdc6 86bc
00000310: 8fae 993c 8fb4 6a3b 1425 913c d0c4 72bc
00000320: 688b 2cbc 1b40 403c 7634 193c df4f 79bc
00000330: bee9 de3b e3f4 f63b 897c 8f3c ae31 373b
00000340: 8891 a03c a723 303c 08d2 d6ba 015d 47bc
00000350: 122f 78bc c964 9ebb 82e5 123c b57e f03a
00000360: 546e 31bc 6346 953c 4386 013c ad70 4a3c
00000370: 2336 81bc cc9a 59bc 5134 84bc 1904 403b
00000380: 8dea 8f3c 79a1 a8bb 41b8 5f3c cf04 4c3b
00000390: 6b3e 48bc 8f08 713c 5ebf 3dbc e081 8dbc
000003a0: ee30 16bb 39fe 2a3c ee51 a1bc b049 27bc
000003b0: 78d0 58bb 23fb 9bbc 4358 dd3a 61fd a13c
000003c0: af38 d53b fa1a 03bc 42c8 babb b8e9 993c
000003d0: 9cd0 5dbc 813a 42bc d478 54bc 3264 0fbc
000003e0: b921 043b f103 85bc db5d 87bc cd94 e6bb
000003f0: 2387 5dbc 7edf 233b dce4 223b 5ad6 e139

fc_0.bias f4 [100]
-0.015611178 -0.0153110605 0.017803105 -0.009315188 -0.006507523 0.012302427 -0.017265176 -0.01359623
-0.0034287642 0.007991192 -0.0053277295 -0.011618263 -0.0031989228 0.009785773 -0.00985114 -0.009365321
-0.013058337 0.0142431045 0.016189938 -0.002691564 -0.017812707 0.014223977 -0.014961353 0.0029768965
-0.012656193 0.013593659 0.0005964224 -0.019234087 0.011326879 0.01912677 -0.0063351337 0.008028701
-0.009830285 -0.00795393 -0.018997833 0.009330605 0.0037576298 -0.012409947 -0.009639604 -0.011486653
-0.0064498545 0.004056335 0.015377262 0.009728371 0.008799122 -0.0066885366 -4.2119173e-05 -0.014625001
-0.005650111 0.013050959 0.010541347 0.013470261 -0.0020172067 0.0077651544 -0.002011156 0.008626839
0.005649324 0.018645527 -0.011615445 0.017574783 -0.01942853 -0.007548694 -0.0063251955 -0.0173995
0.016912432 0.012562546 0.012536268 -0.011829891 -0.010936832 -0.00023912334 0.016509429 -0.0039131204
-0.009267421 -0.019853106 0.0115361195 -0.006246231 0.013327817 0.008192816 0.010261454 -0.018317584
-0.0041784714 -0.0045361333 -0.012600896 0.0041624056 -0.012929239 -0.017919859 -0.0018051483 0.015410813
-0.0055593736 -0.0051839934 0.010509181 0.01752266 -0.01402316 0.010562099 -0.015259495 0.019018507
0.0114449235 -0.011570428 0.018964704 0.010804207
00000000: 07c6 7fbc 3edb 7abc d1d7 913c bb9e 18bc
00000010: 0f3d d5bb 1e90 493c b36f 8dbc b9c2 5ebc
00000020: 1eb5 60bb 7ded 023c 3c94 aebb 875a 3ebc
00000030: 05a5 51bb 8254 203c ad66 21bc 0171 19bc
00000040: a3f2 55bc e95b 693c c3a0 843c f364 30bb
00000050: f4eb 91bc af0b 693c 7620 75bc 0918 433b
00000060: ec5b 4fbc f0b7 5e3c 3b59 1c3a ce90 9dbc
00000070: 6094 393c beaf 9c3c f496 cfbb d08a 033c
00000080: 340f 21bc 3351 02bc 58a1 9bbc 65df 183c
00000090: 9142 763b 1753 4bbc 6eef 1dbc 8432 3cbc
000000a0: 4d59 d3bb 01eb 843b e9f0 7b3c bf63 1f3c
000000b0: 312a 103c 832b dbbb 1ea9 30b8 b39d 6fbc
000000c0: 9124 b9bb b1d3 553c 9db5 2c3c 5fb2 5c3c
000000d0: 1d33 04bb d672 fe3b 99cd 03bb 9657 0d3c
000000e0: f71d b93b 81be 983c b54e 3ebc fef8 8f3c
000000f0: 9528 9fbc 095b f7bb 9643 cfbb 6589 8ebc
00000100: f18b 8a3c 23d3 4d3c eb64 4d3c 29d2 41bc
00000110: 6630 33bc 2fbd 7ab9 c83e 873c a239 80bb
00000120: 62d6 17bc fba2 a2bc fe01 3d3c 2fad ccbb
00000130: eb5c 5a3c 293b 063c a81f 283c c20e 96bc
00000140: 8feb 88bb d8a3 94bb fd73 4ebc ca64 883b
00000150: 29d5 53bc abcc 92bc ba9a ecba a27d 7c3c
00000160: 682b b6bb 7dde a9bb b32e 2c3c ae8b 8f3c
00000170: 65c1 65bc a70c 2d3c f602 7abc b3cc 9b3c
00000180: 7d83 3b3c e491 3dbc de5b 9b3c 2104 313c

fc_1.weight f4 [100, 100]
0.011854248 -0.019298853 -0.009824164 -0.0111373 0.017055351 0.0062782913 0.019048566 -0.018921357
0.006572687 0.002434449 -0.017188426 -0.016799236 0.004904971 -0.002573165 0.004320309 -0.017205792
0.008349079 -0.007210976 0.007247043 0.005653141 0.013560959 -0.01873847 -0.016448595 -0.009816214
0.01796343 0.013715179 0.018574085 -0.0029074575 0.010469042 -0.018781539 -0.004520723 0.00308927
-0.0091042025 0.01150803 -0.016559737 0.01597584 -0.0077562644 -0.011856451 0.004931282 0.018469945
-0.0028848995 0.0049444255 0.0033192572 0.011443729 0.0038563448 -0.013345976 -0.003453368 0.01796344
0.0031360777 -0.017293062 -0.018119488 0.0135415755 -0.015779221 0.014653409 -0.01831304 0.011472561
0.007373458 0.004659753 -0.006508007 -0.010636112 -0.00070234225 0.014666985 0.004544496 -0.010561157
-0.014589687 0.0013543006 -0.008916841 0.011407189 0.017103514 0.006961894 -0.011956168 -0.019839734
-0.016320074 0.00915209 -0.00011793452 -0.014832628 -0.0075695487 -0.0013412134 0.0047242 -0.0037859217
-0.012921666 -0.018050019 -0.004181296 -0.01892107 0.0026599288 0.008783063 -0.0010351753 0.018237658
0.007129956 0.01062295 0.0012996721 -0.0042855088 -0.011823733 -0.0011355646 -0.0010797929 -0.01914684
-0.007619096 0.011255979 -0.0044500623 0.00020168853 0.010796115 0.011470346 0.0030506733 0.005883516
0.018288534 0.00037462707 0.006295612 0.004625784 -0.0070081013 -0.0012597335 0.008864304 -0.018828312
-0.011215044 0.008218079 0.002901295 0.002315895 -0.020002367 0.0058925925 -0.014330527 -0.019866876
-0.009456119 0.019624926 0.0021161526 -0.012966325 -0.005851512 0.018031703 -0.015226498 -0.017903628
0.0027748372 0.00040856053 -0.015963582 0.016027836 0.0144476965 0.011195477 0.0011349982 0.01522113
-0.011569461 0.007673151 0.015176911 -0.0041133263 0.004349624 -0.0030759757 -0.0067755147 0.019590434
0.0039623515 -0.015142959 -0.011016815 -0.006984653 -0.014922 -0.009966167 0.01654309 -0.013862389
-0.0041822656 -0.017146895 -0.014394985 -0.0063247257 -0.017063916 -0.01774393 0.008357711 -0.018846482
-0.008899616 0.01213262 0.019993346 0.015728004 -0.013016818 0.015636604 -0.014673776 -0.009716425
-0.016459813 0.004578903 0.0015287518 -0.014776 0.0018051169 0.0032015303 0.011280955 0.008912455
-0.012502856 -0.01937476 0.002509591 0.015525964 0.0054121027 -0.006814487 0.008839969 0.0026049034
0.010079647 0.014484764 -0.0039261025 -0.018531917 -0.0018326911 -0.018047102 0.011519784 -0.016044654
0.0029522418 -0.0018832093 -0.0061017806 -0.008857618 0.006983414 -0.01033384 -0.008391033 -0.019891141
0.008727338 0.015581331 0.012387573 -0.00085737824 0.0061557847 0.01583587 0.002235998 0.008337329
-0.01803509 -0.009027668 -0.0031304513 -0.0016816787 -0.0046963384 0.01507097 -0.014044072 0.015951954
0.014265079 0.0030081011 0.0027896464 -0.018358218 -0.0080204895 0.017508099 0.011148761 0.013997802
0.00776504 0.018169127 -0.003418111 0.00026507454 -0.0102263875 0.019752916 0.012396333 0.0069827884
-0.0001534389 -0.016862262 -0.003334225 0.014921797 0.019447891 0.008198465 0.01186471 0.009161143
0.0052609853 0.018399412 -0.015016785 0.0027282278 0.010461944 0.017555548 0.015656948 0.0035717092
0.01782402 0.010437452 0.012527462 0.015860556 0.014756738 -0.01931152 0.014187383 -0.010287329
00000000: 5238 423c a118 9ebc 88f5 20bc 3979 36bc
00000010: aab7 8b3c 20ba cd3b bd0b 9c3c f600 9bbc
00000020: b25f d73b 478b 1f3b bece 8cbc 8d9e 89bc
00000030: e1b9 a03b 8ca2 28bb 6191 8d3b 29f3 8cbc
00000040: 93ca 083c 0d4a ecbb 9a78 ed3b fc3d b93b
00000050: c92e 5e3c 6b81 99bc 34bf 86bc 30d4 20bc
00000060: 0b28 933c a1b5 603c ae28 983c 0b8b 3ebb
00000070: 5886 2b3c bedb 99bc 9322 94bb 5a75 4a3b
00000080: cb29 15bc 2d8c 3c3c 49a8 87bc c4df 823c
00000090: 4328 febb 8f41 42bc 9796 a13b 484e 973c
000000a0: 9510 3dbb d904 a23b e587 593b 7a7e 3b3c
000000b0: bbba 7c3b 15a9 5abc e751 62bb 1028 933c
000000c0: a786 4d3b 2eaa 8dbc 526f 94bc 7cdd 5d3c
000000d0: 6d43 81bc da14 703c 3a05 96bc 69f7 3b3c
000000e0: 0c9d f13b d7b0 983b 1f41 d5bb 1643 2ebc
000000f0: 641d 38ba cb4d 703c ffe9 943b b408 2dbc
00000100: 9509 6fbc ca82 b13a f117 12bc 38e5 3a3c
00000110: ab1c 8c3c 9a20 e43b cee3 43bc f086 a2bc
00000120: adb1 85bc a6f2 153c 9d53 f7b8 8d04 73bc
00000130: fa09 f8bb a7cb afba 76cd 9a3b 3a1d 78bb
00000140: 65b5 53bc a2dd 93bc 4103 89bb 5c00 9bbc
00000150: 3352 2e3b d6e6 0f3c b8ae 87ba 2467 953c
00000160: 68a2 e93b e20b 2e3c c259 aa3a 746d 8cbb
00000170: 55b8 41bc 3ad7 94ba d687 8dba d5d9 9cbc
00000180: 9ca9 f9bb ff6a 383c d4d1 91bb 5a7c 5339
00000190: 30e2 303c 1eee 3b3c ceed 473b 82ca c03b
000001a0: d6d1 953c 9869 c439 6c4b ce3b e393 973b
000001b0: 37a4 e5bb a41d a5ba 963b 113c d53d 9abc
000001c0: 4ebf 37bc 1fa5 063c a723 3e3b 45c6 173b
000001d0: 01dc a3bc a616 c13b 96ca 6abc dcbf a2bc
000001e0: d6ed 1abc 74c4 a03c 26af 0a3b b570 54bc
000001f0: 0abe bfbb 39b7 933c 9078 79bc a1aa 92bc
00000200: 0bda 353b 1134 d639 0fc6 82bc cf4c 833c
00000210: 08b6 6c3c 3c6d 373c 38c4 943a 0c62 793c
00000220: d68d 3dbc 0e6f fb3b 94a8 783c 15c9 86bb
00000230: 4a87 8e3b 4f96 49bb 2305 debb 1e7c a03c
00000240: 9dd6 813b 2c1a 78bc df7f 34bc 84df e4bb
00000250: 677b 74bc 2249 23bc 6085 873c 131f 63bc
00000260: 630b 89bb a577 8cbc f1d8 6bbc a53f cfbb
00000270: a0c9 8bbc b85b 91bc c8ee 083c f063 9abc
00000280: b2cf 11bc e6c7 463c 16c9 a33c 04d8 803c
00000290: 7e44 55bc 5618 803c 476a 70bc a431 1fbc
000002a0: bbd6 86bc 9f0a 963b 6660 c83a 0917 72bc
000002b0: ac99 ec3a c4d0 513b c1d3 383c 8c05 123c
000002c0: c7d8 4cbc d1b7 9ebc f377 243b 9d60 7e3c
000002d0: 0258 b13b 0f4c dfbb 84d5 103c 07b7 2a3b
000002e0: 1b25 253c 8151 6d3c 89a6 80bb 3fd0 97bc
000002f0: e936 f0ba 84d7 93bc 7abd 3c3c 1470 83bc
00000300: 667a 413b 05d6 f6ba 72f1 c7bb 8b1f 11bc
00000310: 1fd5 e43b 444f 29bc 8b7a 09bc bff2 a2bc
00000320: 1cfd 0e3c d748 7f3c 3ff5 4a3c aec1 60ba
00000330: 77b6 c93b 3aba 813c d289 123b 4b99 083c
00000340: 53be 93bc c9e8 13bc 4228 4dbb c66b dcba
00000350: bee3 99bb 3bec 763c 1b19 66bc acad 823c
00000360: 14b8 693c 9023 453b 80d2 363b f963 96bc
00000370: 5f68 03bc 256d 8f3c 4ba9 363c 0957 653c
00000380: e071 fe3b 6cd7 943c 6302 60bb b4f9 8a39
00000390: 948c 27bc ded0 a13c fd19 4b3c e0cf e43b
000003a0: 71e4 20b9 ba22 8abc 0383 5abb 8e7a 743c
000003b0: 2f51 9f3c db52 063c 3364 423c 9e18 163c
000003c0: 5864 ac3b 5dba 963c f608 76bc 11cc 323b
000003d0: 9368 2b3c a7d0 8f3c 0043 803c 5613 6a3b
000003e0: ae03 923c d901 2b3c fc3f 4d3c ffed 813c
000003f0: 3fc6 713c 3133 9ebc 3372 683c 2f8c 28bc

fc_1.bias f4 [100]
-0.0050232606 -0.0033806006 -0.0005712083 0.011560225 0.015647855 -0.018450854 -0.01726159 0.0048679025
-0.010640309 0.0017354095 0.009408152 0.011082861 0.017757198 -0.013569596 0.012847822 0.018258864
-0.010875613 0.013807211 0.0064569977 -0.007284362 0.005301687 -0.017093906 -0.0027288029 0.0024398512
-0.016522389 -0.016415061 -0.019737149 0.0013281798 -0.015669392 0.00050074916 -0.0042017535 0.009436824
0.0072677587 0.01570411 -0.0012096979 -0.006055584 0.016700082 0.019392243 -0.004298759 0.009824328
0.0029459384 -0.018128563 0.013632426 -0.0061521474 -0.01892856 0.016710574 0.0025749793 0.012243542
-0.01817307 -0.017885169 0.019704545 -0.010067244 0.0038195981 -0.0076372703 0.011503286 0.011491167
-0.014567842 -0.019920927 -0.008813613 -0.007888515 0.00051004713 -0.010635114 0.014157465 -0.017624222
-0.005316724 -0.0028175327 -0.0030107305 0.008145515 -0.012609365 -0.010445828 0.003146179 0.0016470103
0.010513563 -0.016242009 -0.0012208809 -0.0052996427 0.0021250334 0.007485747 -0.00049740286 -0.017660988
0.004773516 -0.005807633 -0.0052929968 -0.0016904684 -0.0008002542 -0.00041447257 -0.0019533068 -0.0171184
-0.012804107 -0.012805551 -0.01054009 -0.017732864 -0.0020332637 0.011711007 0.0013866287 0.01601787
0.014983152 -0.0007068445 -0.015251777 -0.011906951
00000000: 2a9a a4bb 118d 5dbb 24bd 15ba 1967 3d3c
00000010: ee2f 803c 3f26 97bc 2e68 8dbc ed82 9f3b
00000020: b154 2ebc ae76 e33a a624 1a3c e394 353c
00000030: 8b77 913c 0353 5ebc ac7f 523c 9d93 953c
00000040: a12f 32bc a437 623c 3995 d33b a8b1 eebb
00000050: c6b9 ad3b 8508 8cbc b7d5 32bb e9e5 1f3b
00000060: f659 87bc e178 86bc cdaf a1bc 5216 ae3a
00000070: 195d 80bc b544 033a ddae 89bb e99c 1a3c
00000080: 6126 ee3b e8a5 803c ba8e 9eba ec6d c6bb
00000090: 9cce 883c 7bdc 9e3c 9bdc 8cbb 38f6 203c
000000a0: a510 413b 5a82 94bc 8a5a 5f3c f497 c9bb
000000b0: 1110 9bbc 9de4 883c fcc0 283b 2399 483c
000000c0: b1df 94bc eb83 92bc 6d6b a13c 15f1 24bc
000000d0: 3952 7a3b 1142 fabb 4778 3c3c 7345 3c3c
000000e0: f5ad 6ebc 3631 a3bc f966 10bc d43e 01bc
000000f0: afb4 053a e73e 2ebc b6f4 673c ac60 90bc
00000100: ea37 aebb 5ba6 38bb ad4f 45bb c474 053c
00000110: 8397 4ebc fa24 2bbc 2030 4e3b 7fe0 d73a
00000120: 1441 2c3c f60d 85bc f705 a0ba a0a8 adbb
00000130: 2544 0b3b ff4a f53b 2464 02ba c7ad 90bc
00000140: 286b 9c3b f54d bebb e070 adbb b592 ddba
00000150: 26c8 51ba 914d d9b9 0d03 00bb e33b 8cbc
00000160: 51c8 51bc 60ce 51bc 57b0 2cbc 8344 91bc
00000170: 8140 05bb 86df 3f3c 8abf b53a e837 833c
00000180: e57b 753c 884b 39ba 97e2 79bc 5f15 43bc

fc_2.weight f4 [10, 100]
-0.0063956412 -0.007909308 -0.014457767 0.017426306 -0.018008552 0.012920446 -0.0048118625 -0.019730458
-0.008728331 0.006390842 -0.00016264145 -0.016817285 0.011668221 0.013547331 -0.01371293 0.00978746
-0.010757787 -0.01553327 0.010181598 -0.018486401 0.0067969305 0.01943308 0.0045344895 0.009042094
-0.01882991 0.013500118 0.015178942 0.0071021463 0.0012318983 0.0006447815 -0.0105890855 0.00875692
0.01319083 0.0075786687 0.003424465 0.0021996014 -0.014609267 -0.013396726 0.003999759 0.01990133
0.019841695 0.007521527 -0.0077303625 0.010624472 0.017795052 -0.009290315 0.010869596 -0.013287209
-0.011943439 -0.016661186 -0.0014726405 -0.019708974 0.0013729098 0.008734432 -0.019889578 0.017286075
-0.014760739 0.017936181 -0.00521598 0.008243303 0.009651467 0.0065634223 0.006087765 -0.008951268
-0.004891331 -0.0102086915 0.0091153 -0.007183927 -0.016051967 0.002215675 -0.0012149179 0.01141937
-0.008922234 0.008240557 -0.015250853 -0.012631925 -0.0066845766 0.007796598 -0.00585596 0.012586118
-0.0076251053 -0.012556762 0.019233536 0.008834507 -0.002851357 -0.019711945 0.003288074 0.0050491933
-0.005787307 0.008168633 -0.016861849 -0.017803319 -0.001454279 -0.018274013 -0.01637383 8.724694e-05
-0.013437062 0.019315297 -0.017934483 0.01908779 -0.00035213708 -0.011310438 -0.015994994 0.017259156
-0.012321307 0.0034852661 0.016113423 0.0023363365 0.006715834 -0.008195175 -0.012955195 0.0018900146
-0.014996395 -0.0050930055 -0.008816252 0.00070138066 0.01998682 0.019083316 -0.0073989592 -0.017106745
-0.016359469 0.0028794582 -0.014677209 -0.0062331827 0.009361515 0.019419003 0.0106384745 -0.0017754252
0.013950743 -0.0010848597 0.0039651734 -0.0028980377 0.012760402 0.010224609 -0.0024673585 0.013726139
0.0007405649 -0.018465731 0.018799873 -0.015710134 0.008334116 -0.0007184307 0.015474525 0.019053344
0.013643479 0.002490451 -0.0028527486 0.013104947 -0.019062443 -0.012883632 0.0015581017 0.009130949
0.014986997 0.019646505 0.005409312 -0.01547194 -0.012265839 -0.018874487 -0.017965639 -0.0104365125
-0.0031223595 0.001547252 0.014866274 -0.0022089984 -0.01393552 -0.0013545443 0.0031162556 -0.01274951
0.00046126262 0.00036090825 0.00059386896 -0.0072840746 -0.013349134 0.002737024 -0.017464848 -6.8746354e-05
-0.007196567 0.0026589883 -0.00893122 -0.012391816 0.009364581 0.00752748 0.009077968 -0.0149002345
0.0020967762 0.0021459756 -0.002405237 0.017561033 -0.010364851 0.013263385 -0.014728852 -0.016215328
-0.0059204465 -0.015540661 0.003936345 -0.0108969705 -0.0006333094 -0.013627552 -0.017579544 -0.0017206626
-0.017345263 -0.011118202 0.0059384867 -0.0068290383 0.010557643 -0.0027503588 0.0055657197 -0.0015803
0.008234052 -0.008182189 0.0033883024 -0.016928809 0.0152969 0.0070631783 -0.006060468 -0.016131766
0.0029866218 -0.012933565 -0.014934447 -0.015676463 -0.0008062873 0.002704547 0.015280494 0.010155574
0.015563088 0.008024073 0.0002308635 0.0030790295 -0.012434845 -0.0021493146 -0.018867105 -0.0056613716
-0.01990923 -0.008759763 0.0105653405 0.013136636 0.0002031753 -0.0082388995 -0.0046458207 -0.015255668
0.002163321 -0.019107558 -0.015836654 -0.0058273813 -0.01749463 -0.0088255685 -0.0028887729 0.012360503
-0.0135151185 0.0005695283 0.015372612 0.0125701735 0.012044782 -0.0050904024 0.012619769 -0.0059979386
00000000: 8792 d1bb 0b96 01bc 45e0 6cbc 9dc1 8e3c
00000010: ac86 93bc 47b0 533c d4ac 9dbb c5a1 a1bc
00000020: 4601 0fbc 456a d13b bb8a 2ab9 67c4 89bc
00000030: 112c 3f3c a0f5 5d3c 32ac 60bc 955b 203c
00000040: 6e41 30bc 427f 7ebc b8d0 263c cb70 97bc
00000050: c9b8 de3b 1f32 9f3c 0e96 943b 4b25 143c
00000060: 2f41 9abc 992f 5d3c 19b1 783c 1fb9 e83b
00000070: a677 a13a 8e06 293a d87d 2dbc 2f79 0f3c
00000080: 5a1e 583c 7b56 f83b fd6c 603b 3027 103b
00000090: b55b 6fbc f17d 5bbc 6910 833b 1d08 a33c
000000a0: 0d8b a23c 2477 f63b fb4e fdbb 4412 2e3c
000000b0: eec6 913c 6836 18bc 6416 323c 98b2 59bc
000000c0: 6aae 43bc 0a7d 88bc 9e05 c1ba b774 a1bc
000000d0: 35f3 b33a dd1a 0f3c 78ef a2bc 879b 8d3c
000000e0: 07d7 71bc e6ee 923c d0ea aabb eb0e 073c
000000f0: 3021 1e3c fa11 d73b e07b c73b 57a8 12bc
00000100: 7547 a0bb 5b42 27bc 5758 153c 2667 ebbb
00000110: 6a7f 83bc dc34 113b e13d 9fba 4f18 3b3c
00000120: 902e 12bc 6703 073c b7de 79bc 22f6 4ebc
00000130: 4b0a dbbb 9b7a ff3b 5ae3 bfbb 0136 4e3c
00000140: 05dc f9bb e1ba 4dbc a68f 9d3c 9cbe 103c
00000150: d5dd 3abb f27a a1bc ba7c 573b b473 a53b
00000160: 73a3 bdbb bbd5 053c dc21 8abc 44d8 91bc
00000170: 819d beba 62b3 95bc 6922 86bc 58f8 b638
00000180: 1f27 5cbc 1d3b 9e3c 56eb 92bc ff5d 9c3c
00000190: 0a9f b8b9 6a4f 39bc ef07 83bc 1363 8d3c
000001a0: 4fdf 49bc 1069 643b 4c00 843c 391d 193b
000001b0: 8010 dc3b 0e45 06bc 0742 54bc 5eba f73a
000001c0: 71b3 75bc 3ae3 a6bb 0b72 10bc dcdc 373a
000001d0: 66bb a33c 9d54 9c3c f872 f2bb 7223 8cbc
000001e0: 4b04 86bc 4bb5 3c3b ad78 70bc ba3f ccbb
000001f0: 0a61 193c 9a14 9f3c ff4c 2e3c 62b5 e8ba
00000200: a891 643c da31 8eba 49ee 813b 01ed 3dbb
00000210: 0111 513c 1e85 273c 68b3 21bb 9ae3 603c
00000220: 7822 423a 7245 97bc 3102 9a3c 8ab2 80bc
00000230: d18b 083c 1155 3cba dd88 7d3c c215 9c3c
00000240: e688 5f3c d636 233b 2ef5 3abb 22b6 563c
00000250: d728 9cbc df15 53bc 3839 cc3a fa99 153c
00000260: 058c 753c b5f1 a03c 9940 b13b 057e 7dbc
00000270: a8f6 48bc ab9e 9abc ad2c 93bc e8fd 2abc
00000280: 80a0 4cbb 29cd ca3a ac91 733c d8c4 10bb
00000290: cf51 64bc f78a b1ba 183a 4c3b 52e3 50bc
000002a0: 9fd5 f139 4938 bd39 dfad 1b3a 3faf eebb
000002b0: 53b6 5abc a55f 333b 7112 8fbc eb2b 90b8
000002c0: 2ed1 ebbb 6c42 2e3b 4054 12bc 0b07 4bbc
000002d0: e66d 193c 14a9 f63b c2bb 143c 1d20 74bc
000002e0: 116a 093b 7fa3 0c3b 2ea1 1dbb 28dc 8f3c
000002f0: 56d1 29bc ab4e 593c 4851 71bc 02d6 84bc
00000300: 4e00 c2bb 429e 7ebc 75fc 803b 3589 32bc
00000310: ad04 26ba 1946 5fbc fa02 90bc db87 e1ba
00000320: a717 8ebc 1e29 36bc a397 c23b 20c6 dfbb
00000330: f7f9 2c3c 5d3f 34bb a460 b63b 1222 cfba
00000340: 1ee8 063c 970e 06bc 480e 5e3b 49ae 8abc
00000350: d99f 7a3c 3c72 e73b e496 c6bb c426 84bc
00000360: 33bb 433b 4ee7 53bc 9caf 74bc ed6b 80bc
00000370: 065d 53ba c53e 313b 095b 7a3c 9163 263c
00000380: 52fc 7e3c 6777 033c f313 7239 8bc9 493b
00000390: 85bb 4bbc 84db 0cbb 308f 9abc 0783 b9bb
000003a0: ae18 a3bc 1c85 0fbc 401a 2d3c 0b3b 573c
000003b0: 740b 5539 73fc 06bc f83b 98bb e9f2 79bc
000003c0: 81c6 0d3b 7487 9cbc dfbb 81bc 9ef3 bebb
000003d0: e650 8fbc 1e99 10bc 9151 3dbb b583 4a3c
000003e0: 846e 5dbc 664c 153a 68dd 7b3c 21f3 4d3c
000003f0: 7a57 453c 64cd a6bb 26c3 4e3c 5b8a c4bb

fc_2.bias f4 [10]
-0.015718909 0.0044360785 0.005110173 -0.015363355 0.0060526975 0.0051146233 -0.013613509 0.004567915
-0.013892555 0.005655676
00000000: f1c4 80bc 865c 913b 3d73 a73b 95b6 7bbc
00000010: b555 c63b 9298 a73b 320b 5fbc 73ae 953b
00000020: 999d 63bc 4053 b93b
