notebooks/models/long_cnn_normal_0.500/model.pth (torch, 216215 bytes, 6 tensors)

conv_0.weight f4 [64, 1, 3, 3]
000000 7c cd 6a 3d e9 78 0b 3d af 4e 52 bd df 88 8f 3d
       0.05732487 0.034050856 -0.05134457 0.07008528
000010 03 01 0a 3c 7b 7b 8d bd b9 86 9c 3d d1 6a ed 3b
       0.008423093 -0.06908318 0.07642884 0.0072453995
000020 dd 4a 36 bd 6d f9 93 3d 9d cf de 3d 70 28 40 3d
       -0.04450499 0.072253086 0.10879443 0.046913564
000030 e8 19 f2 3d 7f 4c b8 3d 0f 18 c1 bc 0e 54 d8 3d
       0.118213475 0.089989655 -0.023571042 0.10562907
000040 1c 4b e7 3c 0e bd 5b bd ad 70 ab 3d b3 45 a1 3d
       0.028234057 -0.053647093 0.083711006 0.07874622
000050 d3 d0 27 3d c3 65 ac 3d b8 10 77 3d 0f 50 b6 3c
       0.040970635 0.08417847 0.06031868 0.022254972
000060 77 99 df 3c 34 ea b0 bb 98 90 cf bc 27 65 94 3d
       0.027294857 -0.005399013 -0.025337502 0.07245856
000070 d7 ec 2c 3c 74 31 2e bd 5a dd a2 3d 10 fb 4d 3d
       0.010554514 -0.04252763 0.07952376 0.05028826
000080 42 86 b8 3b a4 8c 4f 3d 6a e1 69 3d 80 5a 3a 3d
       0.005631239 0.050671235 0.057099737 0.045496464
000090 7a ab 28 3c fc 24 9b 3d b6 0b 88 3d 46 63 23 3d
       0.010294789 0.075754136 0.06642859 0.039889596
0000a0 3a 0e c3 3d 60 f6 9d 3d 75 23 07 3d c6 b1 94 3d
       0.09524198 0.07713008 0.0329928 0.0726047
0000b0 b4 ad 60 3d 99 7c f4 3d cf f0 08 3e a9 73 a3 3d
       0.054853156 0.119378276 0.13373111 0.07981045
0000c0 4e ff e1 3d ca 43 63 3e 80 aa 5d 3e 1a a9 63 3c
       0.11035024 0.22193828 0.21647072 0.013895297
0000d0 a5 88 38 3e e5 f3 74 3e 03 e4 38 3b 2a d1 94 bb
       0.18020876 0.23921163 0.0028212077 -0.004541536
0000e0 91 09 2a bc 2a b4 0f 3c a3 c3 08 bc 1a 8b c3 bb
       -0.010378257 0.008770982 -0.008347425 -0.00596751
0000f0 92 c0 15 bc 2a 55 30 bc b0 59 09 bc b9 77 c0 3c
       -0.009140151 -0.010762492 -0.0083832 0.023494588
000100 d8 e7 95 3d 75 43 a0 3d 0a a2 b1 3d e6 75 e9 3d
       0.07319611 0.078253664 0.086734846 0.113994405
000110 bd 4e 89 3d c9 c5 c9 3d 17 58 ab 3d 96 3b 90 3c
       0.06704471 0.09852178 0.08366411 0.017606538
000120 d9 26 27 3e a5 00 83 3e 10 6c 44 3e de 11 6d 3e
       0.16323413 0.2558643 0.19181848 0.23151347
000130 b3 59 93 3e e3 04 1a 3e 2a 70 3f 3e e1 f4 32 3e
       0.28779373 0.15040927 0.18695131 0.17476226
000140 d0 7b 81 3d 96 ed 49 3e 6d a9 76 3e 94 d9 1d 3e
       0.063224435 0.19719538 0.24088068 0.1541503
000150 d8 24 af 3e 26 b3 e1 3e 8b dd 94 3e 55 fa 9b 3e
       0.34207797 0.44081992 0.29075274 0.30464426
000160 a1 65 c3 3e 7b b1 78 3e b8 27 ba bb e6 3a d2 bb
       0.38163474 0.24286453 -0.0056810044 -0.0064157126
000170 c5 66 ae bb a7 03 6a 3b cd 37 84 bb 53 fe 42 bb
       -0.0053223097 0.0035707743 -0.0040349723 -0.002975364
000180 18 c0 36 3c da 85 50 3b 0c 77 ae b9 56 da 28 3e
       0.011154197 0.0031818063 -0.00033276563 0.16489539
000190 aa 1c 3a 3e c1 f2 c5 3d 4a eb 3a 3e 02 e5 2f 3e
       0.18174997 0.09665442 0.18253818 0.17177203
0001a0 54 83 73 3d dd 71 ba 3d 64 4d 8e 3d c7 76 a5 ba
       0.059451416 0.09103749 0.06948355 -0.0012623899
0001b0 13 66 ff 3d db 27 4e 3e a9 91 2b 3e bf f1 46 3e
       0.12470641 0.20132391 0.16754784 0.19428156
0001c0 3c 5d 9b 3e 92 40 62 3e b6 15 1c 3e 60 0d 64 3e
       0.3034457 0.22094944 0.15242657 0.22270727
0001d0 fe fa 21 3e a5 3b 83 3d 38 34 e6 3c c4 3e 50 bd
       0.15818402 0.06407861 0.028101072 -0.050841108
0001e0 b9 3b a6 3d fd 71 96 b8 9d 52 8c bd 99 c3 ad 3d
       0.0811686 -7.173789e-05 -0.06851695 0.08484573
0001f0 84 1e 86 3b 4f 16 51 bd b1 ba 9f bb 3d 08 05 bc
       0.004092993 -0.051046666 -0.0048745503 -0.00811964
000200 68 dc f3 bb a9 79 00 bc 5b 02 e5 bb 4d b5 14 bc
       -0.007442046 -0.007841506 -0.006988806 -0.009076429
000210 a9 5a 03 bc ee d5 5b bb c9 2f 8f ba 71 93 f4 3b
       -0.008017221 -0.003354426 -0.0010924275 0.0074638654
000220 47 c8 88 3c 78 57 a7 3c 50 07 47 bc 9b 2b 8b bc
       0.016697062 0.02042745 -0.0121477395 -0.016988566
000230 86 9a a8 bb b1 29 41 b4 9c 0e c3 bb a5 22 00 bc
       -0.0051453738 -1.7989693e-07 -0.0059526693 -0.00782076
000240 d1 44 09 3e 30 6a fe 3d c0 54 80 3d 86 f3 8f 3d
       0.13405158 0.124225974 0.06266165 0.0702887
000250 b7 47 d5 3d 50 68 d5 3d 78 c8 97 bd 81 d2 0f bc
       0.10414069 0.10420287 -0.07411283 -0.008778215
000260 37 77 82 3d 2f 70 a6 bb 24 7c 1b 3a 0e d0 11 bb
       0.06370395 -0.0050792913 0.0005931279 -0.0022249254
000270 81 d7 39 3b 1f db 04 3a 5a 93 00 bb d3 6a 0b bb
       0.002835721 0.0005068052 -0.0019619078 -0.002127339
000280 d7 17 f4 ba 97 c3 20 3b 75 0f a1 3b 51 5b 0c 3e
       -0.0018622827 0.0024530643 0.0049151727 0.1370671
000290 e5 a4 49 3e e0 6f 99 3d 2c ac 5c 3e 39 6d 63 3e
       0.19691809 0.074920416 0.21550053 0.22209634
0002a0 d6 af cb 3d c4 a3 44 3e fe c6 0f 3e 84 60 e7 bc
       0.099456474 0.19203097 0.14040753 -0.028244264
0002b0 0c b0 d2 bc 99 c3 40 3c 2a cd f8 bc 21 c7 17 3c
       -0.025718711 0.011765384 -0.030371267 0.009263785
0002c0 c5 37 23 3d 9c f6 5c 3c 83 bf 27 3d 91 9e 1c 3d
       0.039848108 0.013486531 0.040954124 0.03823716
0002d0 1e e8 11 bd b9 56 d7 3d 28 e8 2d 3e 29 81 ab 3d
       -0.035621755 0.10514588 0.16983092 0.08374245
0002e0 89 27 84 3e 73 00 88 3e b5 7d 26 3e 64 e0 8a 3e
       0.25811413 0.26562843 0.16258891 0.2712432
0002f0 8e 20 58 3e 04 9f 85 bb 68 01 18 bb 40 9b df ba
       0.21106169 -0.004077794 -0.0023194198 -0.0017059818
000300 aa c9 75 bb 4e 34 8d bb 44 88 f9 ba e2 2b f2 ba
       -0.0037504234 -0.0043092137 -0.0019037803 -0.0018476213
000310 62 92 00 bb 66 6e a5 bb 14 84 64 3d 86 92 4f 3d
       -0.00196185 -0.005048561 0.055790022 0.050676845
000320 f9 af 54 bc ba a5 25 3d 09 fc 5b 3d 4e c6 b7 ba
       -0.012981408 0.040441252 0.053707156 -0.0014020891
000330 ef b8 9b bb f8 8b fe 3c 4e c9 c1 3c 14 cd 59 bd
       -0.0047522704 0.031072602 0.02365556 -0.053174093
000340 f6 01 b9 bd dc 07 4e bd 67 5b 72 3c 37 81 a4 3c
       -0.09033577 -0.050300464 0.0147923 0.020081146
000350 17 aa 80 3d 1a c3 f5 3d d3 da 00 3e 0e 4c c6 3d
       0.06282442 0.12000103 0.12583475 0.09682475
000360 6b 87 74 bc 30 db 4d bc bb c4 41 3c 05 4a a1 bc
       -0.014924864 -0.012564465 0.011826689 -0.019688616
000370 79 24 20 bc fd d5 e6 3c f4 a9 78 bc cb 88 37 3c
       -0.009774321 0.02817821 -0.015177239 0.011202048
000380 e7 97 0c 3d b7 68 e4 3d 28 50 06 3e 74 b2 61 3d
       0.034324553 0.11152785 0.13116515 0.055101827
000390 bb 84 1f 3e 4c 41 04 3e 05 f1 70 3b 74 b6 f6 3d
       0.15577976 0.12915534 0.0036764753 0.12046519
0003a0 2e 49 8d 3d da 9f 0d bd 80 4f af bc 9e c8 c4 3c
       0.068987235 -0.034576274 -0.021400213 0.024021443
0003b0 38 13 62 3d 28 7f 27 3d 3f f6 e9 3d fd 0d 04 3e
       0.05519411 0.04089275 0.11423921 0.12895961
0003c0 08 06 ca 3d 53 cd 1f 3e f0 8c 0a 3e 59 88 29 3d
       0.098644316 0.15605669 0.13530326 0.041389797
0003d0 f3 38 58 3d f0 81 3e 3d 6a 1e 2c 3b 3a 7b 91 3c
       0.052788686 0.046510637 0.0026263245 0.017758954
0003e0 06 9a 10 3d 8f 20 63 bd 5a 94 38 bd a1 9c be bb
       0.03530314 -0.055450972 -0.045063354 -0.0058170115
0003f0 79 21 05 bc d4 83 b7 bc e0 b8 97 bc 2d 59 a2 bc
       -0.008125656 -0.022401728 -0.018520772 -0.019817913

conv_0.bias f4 [64]
000000 06 3b 2a 3c 18 b8 fe 3c a5 5b 11 3d df 77 9f 3c
       0.010390049 0.031093642 0.03548779 0.019466339
000010 fe 7e 07 3d ad 76 ad 3d 1e 72 59 3c 67 87 18 3d
       0.033080094 0.08469901 0.013271837 0.037238505
000020 81 24 b9 3d 7b ad 1e 3e 9c 40 7e 3b 8b 0a 7d 3d
       0.09040166 0.15495865 0.0038795834 0.061777633
000030 92 27 d1 3d 37 d2 60 3c 1d f2 8d 3c a5 a2 ce 3b
       0.102126256 0.013721994 0.017327363 0.00630601
000040 db 8d 0d 3d c8 e6 a8 bb 95 85 a3 3d bf 68 2d 3c
       0.034559112 -0.0051544644 0.07984463 0.010584055
000050 89 9b c2 3d 45 b7 92 3b 2a 6c 38 3c e0 e3 45 3d
       0.09502322 0.004477414 0.011256257 0.04831302
000060 ee 55 a8 3b 9f f7 4b 3d de 7f 55 3d 59 47 7b 3c
       0.0051371967 0.049796697 0.052123897 0.015336835
000070 dd ae ad 3b 21 b9 8b 3d 3c d6 1c 3d e0 48 93 3d
       0.0053003863 0.0682242 0.038290247 0.07191634
000080 9c ea a2 3c 17 c5 e7 3d bb 1f a5 3c 52 ef 18 3d
       0.019887261 0.11316889 0.020156732 0.03733761
000090 24 60 e1 3c 53 73 02 3c d6 ff 80 3d ef 5c 4f 3b
       0.027511664 0.007962066 0.06298797 0.0031641086
0000a0 e5 c1 9a 3d 8b 42 c6 39 6a 4c c1 3b 59 34 eb 3b
       0.07556514 0.0003781508 0.005899002 0.007177871
0000b0 5b 95 e4 3d a3 77 31 3c 12 76 f6 3c f3 31 c1 3c
       0.111613 0.010831746 0.030085597 0.023583388
0000c0 51 1a 5e 3d 6a d4 19 3d 6d f6 21 3c 30 4c af 3d
       0.054224316 0.03755609 0.009885413 0.085594535
0000d0 a8 37 57 3d 11 0c d3 3d 9a 7e cf 3a eb 59 57 3c
       0.052543312 0.10305036 0.0015830577 0.013143997
0000e0 f6 f3 0c 3b 4c f3 4e 3c c2 06 fa 3c fb 01 f4 3b
       0.0021507717 0.012631249 0.0305208 0.007446525
0000f0 dd 76 45 3c 3a ad 00 3c 11 d6 d2 3c 33 ef 00 3d
       0.012052265 0.0078538 0.02573684 0.03147812

conv_1.weight f4 [64, 64, 3, 3]
000000 a6 a0 ac ba 94 28 d7 3a 5a 17 ff ba 19 c3 62 bb
       -0.0013170436 0.0016415291 -0.0019461915 -0.003460115
000010 0b 4e 8a b9 c7 48 81 bb be bb 2e 3b 75 a1 91 ba
       -0.00026379558 -0.0039454433 0.0026662196 -0.001111074
000020 7d ba a8 39 cd af bd 3a c6 f5 c8 3b 21 ea c8 3b
       0.00032182402 0.0014471948 0.006132814 0.006131426
000030 49 83 32 3b 5d 36 8e 3b 0d 61 86 3b c5 36 11 3c
       0.0027238897 0.0043399767 0.004100925 0.008863156
000040 56 5c a8 3b 27 87 7c 3b eb c8 7d 3b d1 63 5a 3b
       0.0051379604 0.0038532706 0.0038724493 0.0033323655
000050 2b d0 2c 39 ef 24 e2 39 b8 ee cb 3b d6 c8 cd 3b
       0.00016480747 0.00043133597 0.006223526 0.006280045
000060 f8 6f 91 3b 55 96 ed 3b 5e e8 ee 3a 3a 5b be 37
       0.0044383965 0.007250587 0.001822721 2.2692246e-05
000070 8f e5 cd 3b b0 22 1b 3b f4 a5 cb 3a 15 b8 3c 3b
       0.006283469 0.0023671798 0.0015537129 0.0028796245
000080 07 bd 60 3b 83 cd c4 3b 79 00 8a 39 1f 9c 34 3b
       0.0034292357 0.006005944 0.00026321763 0.0027558876
000090 96 d8 f7 3a 22 64 91 3a 51 09 00 3c db f8 30 ba
       0.0018909152 0.0011092464 0.007814721 -0.00067509495
0000a0 12 8f 85 3b 90 5e a9 3b d7 0f 18 3c 26 7a cb b9
       0.004075893 0.0051687434 0.00928112 -0.00038810185
0000b0 08 e2 86 3b a9 d7 86 3c d1 c1 82 3c 06 5f 9d 3c
       0.0041163005 0.016460257 0.01596156 0.01921035
0000c0 74 03 07 3c 4f 47 31 3c c8 bf 4c 3c db 19 67 3c
       0.008240569 0.010820224 0.012496896 0.0141052855
0000d0 c3 60 bf 3b ee d5 79 3c e5 38 ad 3a a3 67 15 3b
       0.0058403923 0.015248759 0.0013215808 0.0022797368
0000e0 d9 cc e4 b8 0e a0 e1 ba 1c 8e b8 ba fe bf 27 3b
       -0.00010910043 -0.0017213838 -0.0014080438 0.0025596614
0000f0 41 df 38 bb 26 5e 06 bb a7 fb 94 3b 82 b3 70 3a
       -0.0028209242 -0.0020502894 0.004546601 0.0009182022
000100 2d b3 03 3c 96 ee aa 3b df 2f ed 3a 6d d3 07 3c
       0.008038324 0.00521643 0.0018095932 0.008290154
000110 e8 db 13 3c d0 bf 14 3c a4 93 d5 3b 47 44 c9 3b
       0.009024598 0.009078935 0.0065178443 0.0061421725
000120 db b8 53 3c 19 34 66 3c fc f8 b0 3c e7 15 4d 3c
       0.012922491 0.014050507 0.0216031 0.012517429
000130 a0 4e 94 3c 27 de 8f 3c d0 e0 e7 3c c6 f6 57 3c
       0.018103898 0.017561985 0.028305441 0.013181394
000140 95 6c 80 3c 18 6b 8a 3c 68 79 e4 3c 45 ce ec 3c
       0.015676776 0.01689677 0.027889922 0.02890695
000150 56 60 82 3c 5f a9 a1 3c 33 60 91 3c 31 03 27 3d
       0.015915077 0.019734083 0.017746067 0.040774528
000160 a0 72 50 3c f1 df 8d 3c 1b 26 3e 3a 89 a2 0e 3b
       0.012722641 0.017318698 0.0007253603 0.002176436
000170 6d 41 47 39 73 54 4e 3b b2 7c 1e bb cb 26 17 3a
       0.00019002492 0.003148344 -0.002418321 0.00057659735
000180 bf 48 fd b8 18 c3 c2 3b a7 d9 3b bb 12 00 21 3c
       -0.0001207753 0.005943667 -0.0028663666 0.009826677
000190 84 1b 12 3c 65 c8 eb 3b 6b 42 86 3b 4d 31 f9 3b
       0.008917693 0.0071955197 0.004097273 0.007604754
0001a0 ad 61 f4 3b 7f 5b 36 3c bf a5 d6 3b 84 da cd 3b
       0.007457933 0.011130213 0.00655052 0.0062821526
0001b0 ef 13 93 3c 1e dd a0 3c db 5c b2 3c a7 bc 26 3c
       0.017953841 0.019636687 0.021772793 0.010176814
0001c0 8a 8c 35 3c 5d 6f 7f 3c 23 92 cd 3c 7b df 39 3c
       0.01108087 0.015590516 0.025094097 0.011344786
0001d0 b9 02 89 3c 1d f1 c1 3a 12 62 4d 3a eb 63 c5 3a
       0.016724931 0.0014796589 0.0007834743 0.0015059685
0001e0 ab 57 01 bb 96 94 c7 ba bf 06 dc 3a 09 5b 4e ba
       -0.0019736092 -0.0015226777 0.0016786678 -0.00078718417
0001f0 9d 9e fa 3a 12 0d c5 ba d8 52 1c b9 dd 3b 0c 3a
       0.0019120757 -0.0015033802 -0.00014908181 0.00053494965
000200 ca 95 84 ba 6c 24 65 bb 87 89 05 bb 28 f4 cc b9
       -0.0010115441 -0.0034964336 -0.0020376162 -0.00039091823
000210 34 4d 80 bb 50 14 d1 b8 ec 74 ec 37 8b 53 cd 38
       -0.0039154533 -9.96968e-05 2.8187838e-05 9.790723e-05
000220 74 81 c2 3a a5 f3 b0 3a 93 db 0e bb 63 1b af ba
       0.0014839605 0.0013500346 -0.0021798357 -0.0013359602
000230 e0 95 13 3b 3e bf 0e ba 99 09 df 3a 40 a9 1f 3b
       0.0022519752 -0.00054453674 0.001701641 0.0024362355
000240 74 f9 32 3c 7d 1e b1 3b a8 c7 00 3c e1 eb a4 3b
       0.010923732 0.005405246 0.007860102 0.005033002
000250 e4 e3 cb 3b 24 65 25 3c 4d f2 d2 3b c4 aa f8 3b
       0.006222235 0.010094915 0.006437576 0.007588716
000260 e0 1e 2c 3c d5 c9 f1 39 d1 7b 83 bb e7 85 06 3a
       0.010505408 0.0004611748 -0.004012563 0.00051316473
000270 2c d0 2c bb c9 71 6e bb da c9 23 3b 00 96 b6 3a
       -0.0026369197 -0.003638374 0.002499214 0.0013930202
000280 e8 d9 3a b8 d9 a2 09 bb d1 e2 3b 3c 50 c6 7f 3c
       -4.4548797e-05 -0.0021001606 0.011467651 0.015611246
000290 ce 02 94 3c 84 62 3f 3c 88 0c 8c 3b 3a 5e 36 3c
       0.018067744 0.011681203 0.004273955 0.011130864
0002a0 1d a6 bb 3c 73 35 22 3b 63 e5 4e 3c 07 5d 6b 3b
       0.022906357 0.0024751096 0.012627932 0.0035913603
0002b0 3b 32 97 bb 12 41 b2 ba a7 d8 32 3b ee d5 4d 3a
       -0.0046141422 -0.0013599715 0.002728978 0.00078520074
0002c0 76 9b 4b bb 8b 4c 9e 3b c2 0c 39 bb 5f 36 2a 3b
       -0.0031068004 0.004830902 -0.0028236364 0.002597235
0002d0 00 ac 5c 3c b0 90 71 3c ad b6 ac 3c c7 11 48 3c
       0.013468742 0.014743969 0.0210832 0.01221127
0002e0 8b 92 e9 3b fa 1e 49 3c c2 fe f5 3c 5a 66 af 3b
       0.007128065 0.012275452 0.030028705 0.0053527774
0002f0 fd 3a 38 3c c2 b7 a5 3a b7 e8 39 bb 8b 37 e8 b9
       0.011244533 0.0012643265 -0.0028367469 -0.0004429187
000300 b0 03 bf 3a 07 04 fd 37 a5 06 f7 ba b4 d0 3b b9
       0.0014573243 3.0161826e-05 -0.0018846585 -0.00017911458
000310 08 5c 51 3b 8e dd 68 bb 83 3b 34 ba ba 27 2f 3a
       0.0031945724 -0.0035532448 -0.0006875323 0.000668164
000320 7f b0 c3 3a d4 99 b3 b9 49 86 b0 b9 72 f5 79 3b
       0.0014929919 -0.0003425615 -0.00033669386 0.0038140682
000330 d1 ee 2a 3b d4 29 8a bb 0a 22 f7 3a a0 f3 5d 3c
       0.0026082287 -0.004216412 0.0018854749 0.013546854
000340 19 5b 07 3c a7 48 cb 3b 35 c5 d1 3a 8d 3a 13 3b
       0.0082614655 0.006203729 0.0016004207 0.002246532
000350 a7 60 8c 3b 19 75 59 3c 12 33 d6 3b df 24 4b bb
       0.004283983 0.013272547 0.00653685 -0.0030997319
000360 01 4b 90 bb 2e 55 7e bb c6 70 97 3a 1f de ee 3b
       -0.0044034724 -0.0038808095 0.0011553995 0.0072896625
000370 85 33 a4 3a ed fd f0 ba 8f 8c d8 ba 83 21 3e bb
       0.0012527561 -0.0018386223 -0.0016521382 -0.0029011674
000380 2d cc dd ba f5 83 c8 3b f0 c5 34 3c d6 d9 a7 3b
       -0.0016921811 0.006119246 0.01103352 0.0051224036
000390 8e 94 98 3b fc 4d b9 3b 8c 18 b6 3b 57 e1 53 3c
       0.004656381 0.0056550484 0.0055571254 0.012932143
0003a0 43 64 a2 3b ba d7 06 ba ef 58 0f 3c c4 de d0 3b
       0.0049558 -0.000514384 0.008749231 0.006374212
0003b0 81 cf 24 3c 65 83 0c 3c fe e6 f1 3a c8 2e cb 3b
       0.010059238 0.008576249 0.0018455682 0.006200645
0003c0 7f 95 70 3c 29 4b 06 bb 4d 65 d6 3b d1 09 90 3b
       0.01468408 -0.0020491576 0.0065428377 0.0043957015
0003d0 0f 6b 00 bb 9f a6 93 39 a5 23 ed ba c9 c4 38 bb
       -0.0019595062 0.00028162167 -0.0018092288 -0.0028193465
0003e0 4d 6d bd b9 40 64 1b ba ed 52 2f 3a df 98 9c 3a
       -0.00036130325 -0.0005927719 0.0006688077 0.0011947415
0003f0 19 53 86 ba 3c a3 e0 39 77 07 71 3b 5d 5e de b9
       -0.0010248154 0.00042846228 0.003677813 -0.00042413446

conv_1.bias f4 [64]
000000 5b 3d 80 3b 90 e6 bd bb 7e 71 0f bc 83 f2 66 3c
       0.003913564 -0.0057953075 -0.008755086 0.014095905
000010 6f 22 8a bb 6d af 98 3b 41 d2 88 ba ad d8 5e 3a
       -0.0042155306 0.0046595843 -0.0010438637 0.0008500915
000020 74 ca 86 ba a4 eb b1 3b d7 40 84 ba b4 89 5d 38
       -0.0010283724 0.005429702 -0.0010090125 5.2818752e-05
000030 70 f4 76 bc ff 99 06 3b 45 9b af 3c 56 ca a5 bb
       -0.015072927 0.0020538566 0.021436343 -0.0050595207
000040 22 1a 96 3b 06 3a fb 3b 0c c5 0f bb ab d1 c6 ba
       0.004580752 0.007666829 -0.0021937517 -0.0015168687
000050 f2 b0 89 ba 46 84 8e 3b 34 29 14 3b 4e 14 b4 3b
       -0.0010505004 0.0043492643 0.0022607567 0.0054955846
000060 1e 8b 4a bc 44 68 eb ba e4 c6 70 bc 61 f8 c4 3b
       -0.01236227 -0.0017960151 -0.014695857 0.0060110544
000070 40 cd f4 bb 30 93 1a 3c 6a c7 36 bc 1d 8f cd 3b
       -0.007470757 0.009434506 -0.011155942 0.006273164
000080 24 4f d7 bb 29 a9 8b bb cd 12 e9 bb ec be 27 bb
       -0.0065707136 -0.004262109 -0.007112837 -0.0025595976
000090 4c e7 5a 3c 8c 8f 24 3c 09 da 7c 3b 96 ec cb 3b
       0.01336081 0.01004399 0.0038582108 0.0062232716
0000a0 75 06 ec 37 9f 74 24 3a 24 ef 95 3b 5c ec 6c ba
       2.81364e-05 0.00062734814 0.004575627 -0.0009037906
0000b0 54 74 66 bb ab d7 be ba f7 94 47 38 c9 b9 f9 bb
       -0.0035164552 -0.0014560124 4.758403e-05 -0.0076210243
0000c0 ea 30 b4 ba 72 68 02 3c e3 fe e9 3b 07 32 f5 bb
       -0.0013747488 0.007959472 0.0071409806 -0.0074827704
0000d0 17 a7 e3 bb 3f 5f ce bb 99 c3 2d 3a 3e 8a a8 39
       -0.006947409 -0.0062979753 0.00066285726 0.00032146455
0000e0 24 7d 7a 3b 13 57 2a b7 81 f3 3b 3c 44 30 1c bc
       0.0038221562 -1.0153063e-05 0.01147163 -0.009532992
0000f0 49 7c 22 bb ee 0d f8 bb eb 26 7a 3b 39 af 1e bb
       -0.0024793318 -0.00757002 0.003817017 -0.0024213328

fc.weight f4 [10, 1600]
000000 23 63 df bb 5d e9 2e 3b 2b bd c1 bb 60 45 1a 3c
       -0.006817238 0.0026689388 -0.005912443 0.009415954
000010 ac ef 89 3c 0b 84 89 bb 9e 7d dd ba a0 ea 91 3c
       0.016837917 -0.004196649 -0.0016898399 0.017812073
000020 be cd b3 3c 9e b6 65 3c 39 ed f4 39 1d f5 94 3b
       0.021948691 0.01402059 0.0004671605 0.0045458213
000030 12 1b 60 bc df c2 b1 bc 0a 98 e2 3b 18 7a 49 3c
       -0.013678329 -0.021699367 0.006915097 0.012297176
000040 8f ad 7a 3b c6 02 93 bc 25 16 8f bc db 27 26 3c
       0.0038250422 -0.017945658 -0.017466614 0.010141338
000050 34 64 d9 3a 51 21 25 3c 0a 2f fc 3b d3 be c4 ba
       0.0016585649 0.010078744 0.007696037 -0.0015010483
000060 7d e1 1e bc 22 c4 ae bb 54 c7 ce ba ac ae 5a bc
       -0.009697315 -0.0053334394 -0.0015775957 -0.013347309
000070 69 89 d1 ba 84 c8 1e 3a 5a 08 f9 ba 1d 50 af ba
       -0.0015986386 0.0006057101 -0.0018999681 -0.0013375316
000080 d2 52 cb 3b 58 33 3e 3c 65 3e be 3c 42 c8 24 bc
       0.0062049413 0.011608921 0.023223111 -0.010057511
000090 b1 38 70 bc 73 31 df bc 50 22 dc 39 85 4d 85 3c
       -0.014661954 -0.027245259 0.00041987235 0.016272316
0000a0 07 86 69 3b bd 87 f8 bb 29 23 ee 3b 6e e6 bf bc
       0.0035632865 -0.0075845406 0.007267375 -0.023425307
0000b0 79 3d ca 3a c4 0c 1a 3c f8 fe 03 3c 38 88 0b 3d
       0.0015429697 0.009402458 0.008056395 0.034065455
0000c0 e9 f1 1f bb b8 85 8a ba 4b 89 fd ba d5 72 62 bc
       -0.0024405664 -0.0010568416 -0.0019343285 -0.013821323
0000d0 2d 54 00 3c da bd ae bc aa e4 8a bc 1f 5d 43 b9
       0.007832569 -0.021330763 -0.016954739 -0.0001863134
0000e0 73 24 21 3c ab b2 a9 bb 03 a0 2c 3c 4e 0b 02 3d
       0.00983535 -0.0051787696 0.010536197 0.031749062
0000f0 d7 36 a2 bc 31 5f ca bc 81 ea 45 bd c3 4e 35 bd
       -0.01980154 -0.024703594 -0.048319343 -0.044264566
000100 b4 f2 6f bc 0a ae 1a bd a6 ff 21 bd f0 00 9d bc
       -0.014645267 -0.037763633 -0.039550446 -0.019165486
000110 56 a8 c4 bc 9f 5b 17 bc ab 62 66 3b 49 f1 b8 bc
       -0.02400605 -0.009238153 0.0035154026 -0.022575991
000120 ab ab 2e 3d ea 92 3e bc ef e3 ee bc c5 c2 59 3a
       0.042644184 -0.011631707 -0.029161422 0.0008306916
000130 0d 50 1b bb c1 3c 13 3b c1 87 60 3b 77 5d 93 bb
       -0.0023698837 0.0022466632 0.0034260603 -0.004497226
000140 a6 a4 35 bb cc 14 40 ba 1c f5 ee 3b 5f 3a b4 3b
       -0.0027716546 -0.0007327318 0.007292403 0.0055001224
000150 d5 fd a6 bb 44 41 f7 bb 30 50 2f bc 74 d0 25 bc
       -0.005096177 -0.007545622 -0.0107002705 -0.0101205
000160 a0 17 33 bc 39 98 87 bc e4 b3 c6 bb 10 34 24 bc
       -0.010930926 -0.016552078 -0.006063925 -0.010022178
000170 8d a3 3a bc 57 df c7 bb 70 53 99 bb 99 60 19 bc
       -0.011391533 -0.006099622 -0.004679136 -0.00936141
000180 91 de 85 3b 44 73 7b 3c 60 7e c1 3b 3c 5f e6 3b
       0.00408537 0.015347306 0.0059049577 0.007030396
000190 f4 8b a8 bb 12 07 da bb e2 c7 0b bc 99 5e 04 3c
       -0.005143637 -0.006653675 -0.0085315425 0.008079194
0001a0 68 2d 2c 3c dd 96 07 bb de ea 7d bb 48 22 8f 3b
       0.010508873 -0.0020689287 -0.0038744728 0.0043681003
0001b0 86 ba 56 3c 3d 17 05 3d fb 8a 9c bb 56 3d 5a bc
       0.013105994 0.032492865 -0.00477731 -0.013320288
0001c0 f6 80 b9 3a c3 e0 60 3c 77 7b 2e 3d 0b 1e 38 3c
       0.0014152813 0.013725462 0.042598214 0.011237632
0001d0 df ba a1 3c 86 cf e4 bc 8a 6c 25 bb c4 9f bb 3c
       0.019742427 -0.027930986 -0.0025241696 0.02290333
0001e0 02 b0 03 bc 99 a9 c0 3c 47 54 a8 bc 71 3b 08 bd
       -0.008037569 0.02351837 -0.020548 -0.033259813
0001f0 b8 ee 72 bc 6a bb 2e 3a 2c 15 cb bb 5d ba b1 bb
       -0.014827423 0.00066655 -0.0061975922 -0.0054238276
000200 1b de e2 bb 8a 87 cb bb 6e 26 ee 39 80 db 2c 3b
       -0.0069234497 -0.006211226 0.0004542353 0.002637595
000210 ce ca 57 3c d8 d4 1d bc c5 fb 08 bb 85 73 ec 3b
       0.013170911 -0.009633265 -0.002090202 0.0072159194
000220 96 49 5f 3b df d4 04 3c 49 fd d2 3a a9 0e 12 3c
       0.003407096 0.008107393 0.0016097213 0.008914628
000230 32 d1 f2 bb d9 56 a9 3b a1 d9 1b 3c c6 5d 00 ba
       -0.007410192 0.0051678238 0.009512336 -0.0004896786
000240 75 1c 05 3c 56 bb c2 ba 41 0c e2 bb c0 31 fc 3a
       0.0081244605 -0.0014856856 -0.0068984334 0.0019240901
000250 bc cb e6 bb de f1 4e ba f8 56 11 bb 08 57 c0 bb
       -0.00704333 -0.00078943174 -0.0022177082 -0.00586975
000260 c4 d9 b8 3b 77 12 d8 bb 67 9a 85 3b e7 e6 d0 3a
       0.005641194 -0.006593998 0.004077244 0.0015937955
000270 04 dc 95 3b 7e 83 47 3b 8e 95 8b bb 5d c8 2a 3c
       0.004573347 0.0030443366 -0.0042597717 0.010423747
000280 33 0c 0e 3c 6b 6b 56 3c 2a f5 45 bc 3b fb 08 3c
       0.008669901 0.013087134 -0.012082377 0.008360679
000290 c0 22 13 3d 65 07 af ba c4 71 0f 3c c3 f9 5a bc
       0.035921812 -0.0013353644 0.008755151 -0.013365212
0002a0 d4 d7 a0 3b c0 c9 ae 3c 31 c9 4b bb a3 22 21 bc
       0.004908541 0.021336436 -0.0031095261 -0.009834918
0002b0 ad 7f c0 bc 77 d4 c0 bc 3f 2c c7 bb 4d 1f c0 ba
       -0.02349838 -0.023538811 -0.0060782726 -0.0014657766
0002c0 b0 f1 10 bc 05 d0 03 bc 66 02 d3 ba fb 9e ed bb
       -0.008846685 -0.008045201 -0.0016098737 -0.007251618
0002d0 35 7a 3e 3b c0 de 3e 3b 29 44 a4 bc ff c8 8c bc
       0.002906454 0.0029124469 -0.020052033 -0.017185686
0002e0 e8 b7 35 3b 00 4f a0 bb 71 5e b1 bc 86 60 a3 bc
       0.0027728025 -0.00489223 -0.021651478 -0.019943487
0002f0 66 90 57 bb 4e 8c 11 bc c6 ef 83 bc c9 51 93 bc
       -0.0032892465 -0.008883549 -0.016105544 -0.017983334
000300 f1 78 f6 bc 20 55 d4 bc 65 79 42 3c ec 8b 3f bc
       -0.030086966 -0.025919497 0.011869763 -0.011691075
000310 0b 6d 8d bc 89 ff 8a 3b 7e d5 de 39 22 d4 0b 3c
       -0.01726391 0.004241888 0.00042502204 0.008534463
000320 70 9c f6 3a 40 02 3f 3b b0 55 d8 37 a5 c3 06 3b
       0.0018814933 0.0029145628 2.5789108e-05 0.002056339
000330 c1 b8 db b8 c3 99 4e 3b 75 b5 94 ba 92 ae 9a 3b
       -0.00010477147 0.0031524755 -0.0011345582 0.0047205174
000340 62 54 d3 38 64 d9 64 3a 65 da 21 bb 9a fc d2 3a
       0.000100769816 0.00087299035 -0.0024696824 0.001609701
000350 30 a8 b4 3b 11 8a 09 3b e8 39 35 3b 75 d5 87 ba
       0.0055132136 0.0020986835 0.0027652923 -0.0010363298
000360 7b f9 b5 3b ca e5 c2 3b 46 33 1f 3b 08 21 83 37
       0.005553422 0.005947803 0.0024292036 1.5631798e-05
000370 df 76 12 bb e6 4d 0d 3b 20 0a c9 3a ac 2d d0 ba
       -0.0022348685 0.0021561324 0.00153381 -0.0015882752
000380 a2 68 61 bb 88 f9 96 bb f4 4a 09 bc 0d 8c a5 3a
       -0.0034394641 -0.004607383 -0.008379687 0.0012630239
000390 15 93 ae bc 17 56 93 bc 03 e1 5f b9 63 0d d7 3b
       -0.021310369 -0.017985387 -0.0002135076 0.006562875
0003a0 02 0b 56 3b 1f b1 8e bc 09 8c 67 bc 63 cd 28 bb
       0.003266037 -0.017418442 -0.014132508 -0.0025757186
0003b0 6e d7 1a 3c ae f4 89 b9 ce 38 8f bc 5e 95 c0 bb
       0.0094507765 -0.00026312977 -0.017483141 -0.005877181
0003c0 ea a2 c6 3a c1 c7 2b 3c a0 35 d6 3a 2b c2 e5 39
       0.0015154753 0.010484637 0.0016342886 0.0004382295
0003d0 78 b2 14 3c 59 9c 30 3c e8 da 37 b8 b1 89 69 bc
       0.009075753 0.010779464 -4.3834472e-05 -0.01425402
0003e0 0c 79 fc bb b7 b8 dc bb 18 f7 2a bb 78 84 1c bb
       -0.0077048596 -0.006735887 -0.002608722 -0.0023882668
0003f0 37 23 52 bc ea 5e c0 bc da cc 80 bc 6c cc ea 38
       -0.012825779 -0.023482759 -0.01572268 0.00011196066

fc.bias f4 [10]
000000 23 32 a3 3b 77 74 4b 3c 66 40 8c 3b cb f4 60 bc
       0.004980342 0.012417904 0.004280138 -0.013730238
000010 d4 11 e9 bb d4 0f 70 3c 85 83 09 ba 1b 8c 18 3b
       -0.007112721 0.014652211 -0.0005245733 0.0023276869
000020 da e1 53 bc c6 24 c1 bb
       -0.012932265 -0.0058942763
