notebooks/models/long_cnn_laplace_0.05/model.pth (torch, 216215 bytes, 6 tensors)

conv_0.weight f4 [64, 1, 3, 3]
000000 4b 4d 9a b4 42 eb 89 b4 04 95 69 b5 70 37 92 b5
       -2.8740973e-07 -2.568941e-07 -8.701611e-07 -1.0893982e-06
000010 c4 cc 30 b5 8b 45 a4 b4 ba 1d 88 b5 d9 c9 24 b4
       -6.586308e-07 -3.059798e-07 -1.0141441e-06 -1.5347122e-07
000020 14 c7 c5 34 8a cf b5 3d 75 e5 7e 3c 53 59 b7 b5
       3.6838958e-07 0.088774756 0.0155576365 -1.3660559e-06
000030 fd d1 14 3c eb ed 3d b6 f8 a9 9c bd 7f 03 b2 b6
       0.009083268 -2.8301681e-06 -0.076496065 -5.3052204e-06
000040 89 87 e4 3d 7a a8 f5 b6 97 8c 49 3b b9 98 46 36
       0.11158664 -7.3211822e-06 0.0030753964 2.9593195e-06
000050 0b 00 99 bd be 52 41 3d 00 94 8e 36 fd 2f e4 bd
       -0.07470711 0.04719805 4.2491592e-06 -0.111419655
000060 58 bf 70 36 ec 03 95 3e 11 87 8d 3d 45 2d 82 34
       3.5874164e-06 0.29104555 0.069105275 2.4247325e-07
000070 7c 1a 64 34 31 5b 20 35 db a0 8f 34 b2 7f 51 b3
       2.124379e-07 5.9737346e-07 2.6752863e-07 -4.8777743e-08
000080 97 c6 83 bd 7b 0d 68 b4 e1 20 ab 34 66 b7 f4 33
       -0.064343624 -2.1611588e-07 3.1875155e-07 1.13954954e-07
000090 80 80 04 3e d8 41 37 3d 0a 24 01 35 62 34 14 be
       0.12939644 0.044740528 4.810869e-07 -0.14473107
0000a0 c6 aa a7 b5 1c 13 8b b5 6b e2 f0 bc c9 78 c4 b5
       -1.2492171e-06 -1.0361869e-06 -0.02940484 -1.4638291e-06
0000b0 ec 98 8e b5 6c be 22 36 ae 5a 30 35 17 eb 28 35
       -1.0624331e-06 2.4250721e-06 6.5697066e-07 6.292698e-07
0000c0 e1 cc d8 35 4a 45 a0 b4 70 8d 65 b3 02 d4 68 35
       1.6152882e-06 -2.9852737e-07 -5.3446854e-08 8.6735247e-07
0000d0 74 4f bd bc 5c c6 11 35 40 03 bf 3b 65 44 c4 b4
       -0.023109175 5.430536e-07 0.005829245 -3.6557608e-07
0000e0 3f 87 26 b5 dd fa 8c b5 9c 46 63 33 49 6c 81 bd
       -6.203663e-07 -1.0503824e-06 5.2916775e-08 -0.06319482
0000f0 e2 66 fa b5 27 74 11 3c b3 8f 66 b3 da c2 3d bd
       -1.8656394e-06 0.0088777905 -5.368174e-08 -0.046328403
000100 c4 0a 37 b6 60 22 13 b6 c6 59 9c bc 83 6b 7a b6
       -2.7275391e-06 -2.1924716e-06 -0.019085776 -3.7315483e-06
000110 10 fc d6 3d d3 05 4b b6 68 76 85 b6 e1 50 5a b6
       0.10497296 -3.0252747e-06 -3.977493e-06 -3.253161e-06
000120 f5 3f 0a 3e 6c 77 77 3e 30 b0 54 3d 79 eb 2d be
       0.1350096 0.2416665 0.051925838 -0.16984357
000130 9b 9f 6b b6 48 d0 a4 3d d2 76 16 be b8 85 9a bd
       -3.5110631e-06 0.08047539 -0.14693764 -0.07545036
000140 50 3b b2 b7 10 1e 7a bc 4d df e7 b4 33 dc 5d b5
       -2.1246873e-05 -0.0152659565 -4.3189576e-07 -8.264935e-07
000150 16 1c c0 35 bb a0 91 b4 ef 79 8b b5 14 d0 0d 36
       1.4313289e-06 -2.7125301e-07 -1.0391794e-06 2.1131755e-06
000160 27 9a aa b3 b0 6b 20 b6 18 b3 4a b5 c9 b6 ae b5
       -7.944282e-08 -2.390454e-06 -7.551148e-07 -1.3017208e-06
000170 aa 5c 1c 35 1c 33 f4 b5 1a cf 9a bc aa b9 68 34
       5.824937e-07 -1.8194291e-06 -0.018897582 2.1674228e-07
000180 a4 aa 8e 3d a9 e7 d4 b5 0c 7c 54 b5 62 dc 78 3f
       0.06966141 -1.5862653e-06 -7.9156666e-07 0.9721128
000190 87 59 09 3f 61 95 a5 3c 85 cf 1b 3f 5c bf b5 3e
       0.5365223 0.020212831 0.60863525 0.35497558
0001a0 da c1 7c 3d 7e 00 95 3d ba 51 32 3b e6 2b 5e 3c
       0.06170831 0.072754845 0.0027209357 0.013560271
0001b0 b2 6c ef b5 41 a6 74 b6 37 53 9e 3c ec 33 20 36
       -1.7838522e-06 -3.6455606e-06 0.01932679 2.387208e-06
0001c0 d1 fa 8f 35 79 ef 30 3d 9e b5 a0 b6 83 da 55 b6
       1.0727327e-06 0.04319713 -4.7895146e-06 -3.1866664e-06
0001d0 d5 94 3d b6 32 fc 25 b5 95 8c d6 35 07 8f 4a 3d
       -2.8249826e-06 -6.183428e-07 1.5985157e-06 0.049452808
0001e0 2b aa a7 33 c7 33 aa 35 1b 49 ce 35 f4 f5 6a 3d
       7.807497e-08 1.2681056e-06 1.5369473e-06 0.057363465
0001f0 86 e7 dc 3a ab fd 05 34 fb 8c b2 3d e0 fa 63 3e
       0.0016853667 1.2478874e-07 0.08718296 0.2226367
000200 ab d1 b4 3d e7 d9 ff 3d 64 0c 89 3e d0 6b a8 b6
       0.088290535 0.124927334 0.26767266 -5.019341e-06
000210 94 e2 66 3c 03 b0 f1 b6 74 9f 9a b6 8a df c9 3d
       0.014092106 -7.20285e-06 -4.6081204e-06 0.0985709
000220 2d 2e 69 3e b7 40 92 b7 fe b1 c9 3e 96 99 ad 3e
       0.22771521 -1.7434691e-05 0.3939361 0.3390624
000230 f7 92 b7 bd 9f 4d 8e 3e 67 d2 8d 3e 22 59 1d b7
       -0.08963578 0.27793595 0.27699587 -9.378682e-06
000240 7f 34 29 b6 40 2c 42 b6 a4 1a ff b5 02 e9 1e b5
       -2.521352e-06 -2.893401e-06 -1.9006734e-06 -5.919866e-07
000250 29 cf c5 b5 77 14 81 b5 5d c1 01 34 d9 80 44 35
       -1.4737935e-06 -9.617205e-07 1.2084406e-07 7.320319e-07
000260 cf ad 7e 35 a2 ff a4 b6 fe 8a c4 bd f6 70 d0 b6
       9.48753e-07 -4.9173404e-06 -0.09596823 -6.2120334e-06
000270 58 c4 a8 b6 1a e0 b0 b6 29 a5 aa 3e 2e 98 ca b6
       -5.0296476e-06 -5.2712976e-06 0.33329132 -6.037785e-06
000280 5f 01 e3 3d ef e0 34 3e 14 ea 2c bb ab 4f 2b be
       0.11084246 0.1766393 -0.0026384639 -0.1672961
000290 ac 60 7e 36 36 a4 bd b5 e8 32 9d 3d dc 56 6c 3e
       3.790522e-06 -1.4129389e-06 0.07675725 0.23080009
0002a0 62 03 20 3e 1b 78 dc 3e 69 c9 24 3f 88 5d 27 37
       0.1562629 0.43060383 0.6436983 9.975753e-06
0002b0 57 23 7c 3d 46 f6 67 3e 27 c7 8a 3c a4 06 f6 3d
       0.06155714 0.2265254 0.016940666 0.12012985
0002c0 39 11 b8 3c 2b 59 28 3d ed b2 0d 37 75 69 eb 36
       0.02246915 0.041100662 8.445914e-06 7.0158226e-06
0002d0 3b d1 db b4 7a a5 92 b5 5e 97 5a b6 71 4d e3 b5
       -4.0944164e-07 -1.0926008e-06 -3.2572639e-06 -1.6935356e-06
0002e0 d8 3b 5c b6 f3 fa 88 b6 7d 8b 18 b5 25 50 9f b5
       -3.2817388e-06 -4.08233e-06 -5.6827395e-07 -1.1869748e-06
0002f0 e8 5e 10 b6 a9 f0 61 36 dc 0f 98 3c 6d 4d 59 3e
       -2.1512915e-06 3.3667695e-06 0.01856225 0.21220942
000300 1e cd 1c 36 82 4c 49 3e fa 9a 53 3e f1 7e 48 34
       2.3365205e-06 0.19658092 0.20664588 1.8672633e-07
000310 b4 be 9d 34 6f f8 dd 3d f9 99 b3 b6 9d 26 ae b6
       2.9382284e-07 0.108384006 -5.3525405e-06 -5.1900993e-06
000320 54 1d b4 3d 3a 8b 30 3e d9 f2 26 3e 06 43 af 3e
       0.087946564 0.1724061 0.16303577 0.34230822
000330 48 b2 bf 3e cd ce db b6 94 2f 39 bc 7c 37 37 3e
       0.37440705 -6.5507834e-06 -0.011302847 0.1789226
000340 aa b1 c1 3e 28 52 3f 3e 29 52 16 3e b9 27 9b 36
       0.3783086 0.18683684 0.14679779 4.6239843e-06
000350 99 82 57 35 8b cf c0 bc 87 e3 7a be c3 be 5b be
       8.0283786e-07 -0.023536464 -0.24500857 -0.21459489
000360 2b a7 ac bb b7 93 79 b5 74 7f d5 b3 24 85 6f b6
       -0.0052689514 -9.297468e-07 -9.941769e-08 -3.5691273e-06
000370 f3 4b 05 3d 7a eb 37 3c 7e d7 a5 b6 e6 45 b1 b6
       0.032543134 0.011225576 -4.94247e-06 -5.2831483e-06
000380 fc 86 64 bc 91 b6 03 34 f9 6e c2 35 3d df 41 3b
       -0.013948198 1.2266743e-07 1.4486424e-06 0.0029582523
000390 13 1c 08 b4 69 f3 94 35 19 a3 10 3b b7 26 15 35
       -1.26762e-07 1.1097701e-06 0.002206987 5.5563163e-07
0003a0 ba 67 16 36 31 d6 9d 35 6a 43 e5 bd 5b fb 2a be
       2.2412119e-06 1.175975e-06 -0.11194499 -0.16697447
0003b0 f9 54 0a be 38 40 3e b6 f4 dc 1d 36 36 fd 10 3e
       -0.13508977 -2.8349587e-06 2.3523435e-06 0.14159092
0003c0 1b 2a 15 3e 8b 12 3a 3e 52 cf 65 3d 94 36 91 b4
       0.14566843 0.18171136 0.05610592 -2.7048065e-07
0003d0 c0 dc 00 b4 e1 f3 0c 34 1f 10 54 33 85 d6 4c b4
       -1.2001237e-07 1.3127239e-07 4.937476e-08 -1.9077022e-07
0003e0 b8 37 6d 35 78 a6 be b4 bf d1 ab b3 a8 0a 44 b3
       8.837046e-07 -3.551138e-07 -8.0009606e-08 -4.5644498e-08
0003f0 8a 4f 30 34 a6 9c 57 bc 72 da 1c bd d4 56 fc b3
       1.6420213e-07 -0.0131599065 -0.038294263 -1.17504584e-07

conv_0.bias f4 [64]
000000 d3 d8 04 b6 a9 2f 96 b5 99 c2 97 b2 06 c1 89 b5
       -1.979574e-06 -1.1189742e-06 -1.7667206e-08 -1.0263473e-06
000010 1a 56 42 b5 cd 6b 8e 3c e6 2b 1d b5 b2 3f a1 b5
       -7.2395926e-07 0.017385388 -5.855094e-07 -1.2013973e-06
000020 52 a6 38 b6 91 92 03 35 a5 60 a8 b5 f8 a7 c9 3d
       -2.7514948e-06 4.9014585e-07 -1.2545103e-06 0.098464906
000030 78 87 72 b6 7c 1a bb b5 32 c2 cf b5 e4 90 6d 3a
       -3.6139663e-06 -1.3940294e-06 -1.547922e-06 0.0009062423
000040 33 52 c7 b5 de f7 98 3d 3e 6a 22 3e dc d2 c8 36
       -1.4850579e-06 0.07469152 0.1586084 5.9850117e-06
000050 5a 99 06 36 6c bb 42 3c 98 c7 2c b6 06 1a eb 3c
       2.0056818e-06 0.011885505 -2.5746176e-06 0.028698932
000060 c7 87 58 b6 b6 ab 41 35 a5 07 5c 36 ba 0b 8d b3
       -3.226554e-06 7.2147975e-07 3.2787004e-06 -6.567957e-08
000070 79 fc a5 35 aa f9 0f 3c d7 16 ab bc c3 65 f5 b4
       1.2366937e-06 0.008787552 -0.020884914 -4.5708848e-07
000080 0c f3 4f b6 92 a8 23 36 e8 a0 b0 3b bd b3 44 b6
       -3.0986876e-06 2.4387014e-06 0.0053902753 -2.9310897e-06
000090 73 99 0e 36 dc eb 2b b6 0f 4d c9 35 df 04 55 3e
       2.1248968e-06 -2.5618274e-06 1.4998094e-06 0.2080264
0000a0 f4 3c 88 b6 b7 a5 b9 3d 72 39 f8 b5 2d 02 19 b6
       -4.0602117e-06 0.09064811 -1.8494159e-06 -2.2800043e-06
0000b0 8e 32 ba b5 fe f6 ae 36 6a b9 d1 35 71 60 20 3d
       -1.3872793e-06 5.2143578e-06 1.5625676e-06 0.039154474
0000c0 cc d1 8f 3c a0 05 9c 34 51 32 82 b2 32 f2 5f 3c
       0.017556094 2.9061357e-07 -1.5156873e-08 0.013668584
0000d0 d0 f8 1c 3c 90 74 2d b7 05 a3 7d 35 30 d4 30 34
       0.009580806 -1.0338743e-05 9.448707e-07 1.646847e-07
0000e0 37 20 54 35 09 73 f9 b6 6c 67 fb 3d f3 47 41 34
       7.9023033e-07 -7.43417e-06 0.122755855 1.80007e-07
0000f0 1c 9f 2b 3e 3d d2 00 36 2e b9 e8 b4 10 9f 84 b6
       0.16759914 1.919586e-06 -4.3348103e-07 -3.952424e-06

conv_1.weight f4 [64, 64, 3, 3]
000000 bb 7a bf 34 37 71 b6 34 3c 49 98 b4 e4 6f 80 3d
       3.566582e-07 3.3982516e-07 -2.836549e-07 0.062713414
000010 cc 10 28 b4 42 ba 81 34 a8 b1 49 3d 02 29 71 3d
       -1.565233e-07 2.4163643e-07 0.04924169 0.058877
000020 54 49 9c 34 40 0d 7e 35 68 dc bc 35 2a 04 c3 34
       2.9110618e-07 9.4641655e-07 1.4071238e-06 3.632461e-07
000030 97 00 c1 34 72 e5 ed 35 b8 39 7e 35 81 76 1c 35
       3.594948e-07 1.7724653e-06 9.4706365e-07 5.8286975e-07
000040 ce 5f 7a 35 b1 32 4f 35 a6 db 5a 36 08 0e 6b 36
       9.327167e-07 7.7187275e-07 3.2612384e-06 3.5025896e-06
000050 41 67 21 35 ce 9a 16 36 c8 54 77 36 b4 a0 89 36
       6.012743e-07 2.244185e-06 3.6855217e-06 4.1016265e-06
000060 dc cc 90 36 74 bd 71 36 cd e5 3b 36 1d 89 da 34
       4.315383e-06 3.6022075e-06 2.7998933e-06 4.0705427e-07
000070 4c 81 36 b4 3f f2 9c 33 91 d1 ce 34 25 c6 aa b3
       -1.6997109e-07 7.3083804e-08 3.852297e-07 -7.952284e-08
000080 73 c4 3f b4 f0 e6 c6 33 3d bd 5a b4 6a cd a7 34
       -1.7859729e-07 9.262101e-08 -2.0371677e-07 3.1255632e-07
000090 a9 b9 b3 b1 72 59 61 b4 97 a2 94 35 ab 8c 6b b4
       -5.2306928e-09 -2.0987298e-07 1.1074179e-06 -2.1937255e-07
0000a0 e1 ba 84 35 f5 47 cf 34 e7 90 07 35 62 94 b8 34
       9.889155e-07 3.860911e-07 5.050228e-07 3.4380633e-07
0000b0 17 a8 61 34 ac c3 77 34 8a d8 a5 32 96 e6 81 34
       2.1015909e-07 2.3074853e-07 1.9306999e-08 2.4195896e-07
0000c0 3c 7c ec 33 33 ec 00 b4 00 67 ba 34 8b 38 af b4
       1.10122045e-07 -1.2006858e-07 3.4720142e-07 -3.263743e-07
0000d0 63 58 8d b4 ed 75 94 34 c5 9d d6 34 b1 72 73 34
       -2.6327606e-07 2.765295e-07 3.99754e-07 2.2672863e-07
0000e0 5c 64 8d b2 14 9e b7 bd 93 2a ca 34 12 57 ff 34
       -1.6460199e-08 -0.08965698 3.765641e-07 4.7560803e-07
0000f0 60 54 d8 b3 5c 09 19 b4 15 ed cc 34 f2 f9 77 35
       -1.00736315e-07 -1.425264e-07 3.817046e-07 9.237839e-07
000100 63 4b 80 35 3f a2 8c 33 aa 3f aa 35 6d e7 b1 33
       9.558684e-07 6.5487704e-08 1.2684516e-06 8.284301e-08
000110 43 f1 ce 34 0c e6 86 35 4f 27 5e 35 eb fc 43 35
       3.854603e-07 1.005073e-06 8.2758646e-07 7.3011205e-07
000120 ca 90 a4 36 a6 89 0f 35 e3 13 91 35 01 71 b0 36
       4.9044365e-06 5.3471956e-07 1.080913e-06 5.258364e-06
000130 68 17 92 36 ce 5d e8 b2 8b 89 fc 35 3b f0 02 36
       4.353864e-06 -2.7051012e-08 1.8815493e-06 1.9511342e-06
000140 6b c1 00 36 cc 65 a9 b4 ec b8 f2 b3 b3 98 95 b4
       1.918607e-06 -3.155277e-07 -1.130264e-07 -2.7864516e-07
000150 df c1 c4 34 aa 94 c8 b4 89 71 e9 33 ed 00 a1 34
       3.6648905e-07 -3.736107e-07 1.087056e-07 2.998926e-07
000160 a9 c4 51 b3 c4 cb 5a b4 a5 79 ac 32 30 f0 bf 34
       -4.8840466e-08 -2.0376962e-07 2.0078753e-08 3.5751282e-07
000170 45 b5 19 35 f3 58 00 35 5f aa a1 34 56 eb 06 34
       5.7260723e-07 4.7813154e-07 3.0112548e-07 1.2565337e-07
000180 4d 26 0d 3d 15 43 fc 34 8e 62 9c 34 44 0c 04 38
       0.034460355 4.6987466e-07 2.9128972e-07 3.1482676e-05
000190 84 dc 34 38 ff ff 04 38 24 1d 0b 38 9a 37 5e 38
       4.3120715e-05 3.1709667e-05 3.316732e-05 5.2980708e-05
0001a0 87 1b 73 38 22 90 e8 37 0e 72 61 38 02 2f c1 38
       5.796135e-05 2.7723672e-05 5.3750402e-05 9.211713e-05
0001b0 93 f7 fd 34 22 c4 9e 34 7d 8a f6 34 35 4d 17 35
       4.7305056e-07 2.95725e-07 4.5921834e-07 5.6364235e-07
0001c0 35 b3 68 34 6a b4 06 34 56 f3 21 34 e5 9c de 31
       2.1671879e-07 1.2545357e-07 1.5082819e-07 6.478887e-09
0001d0 d0 85 99 34 4f 87 65 bd 75 b7 73 35 ae 04 f3 34
       2.8595832e-07 -0.056037243 9.079152e-07 4.5265682e-07
0001e0 93 90 bb 34 0d 3f 9e 34 58 f8 50 3d d7 47 7d 34
       3.4936656e-07 2.947567e-07 0.05101809 2.3588596e-07
0001f0 ef 2f 5b 35 fd 2c 07 35 02 96 80 37 48 ed 77 37
       8.165361e-07 5.0356886e-07 1.5328642e-05 1.4777594e-05
000200 5f e5 8c 36 c9 b9 3c 37 55 75 3f 37 69 0f a2 36
       4.1990274e-06 1.124893e-05 1.1411806e-05 4.82977e-06
000210 43 b7 00 37 64 c5 54 37 13 18 57 37 71 24 df 37
       7.6720635e-06 1.2682143e-05 1.2820604e-05 2.6600641e-05
000220 ce a9 12 38 41 5b 4e 37 81 7b 82 37 a2 53 c2 37
       3.4967255e-05 1.22998035e-05 1.5554719e-05 2.3165547e-05
000230 fd 8e f0 37 9b 35 75 37 23 f6 2f 38 62 9e 2b 38
       2.8676814e-05 1.4615619e-05 4.1952484e-05 4.0917083e-05
000240 67 b4 3b b4 3c 78 82 32 c2 97 3e b4 84 2c cb b3
       -1.7481362e-07 1.5188668e-08 -1.7750338e-07 -9.4610215e-08
000250 93 1a c7 33 86 dd 48 34 91 8e 6a 34 d6 80 c8 b3
       9.2714934e-08 1.8707041e-07 2.1844814e-07 -9.336661e-08
000260 74 9c e1 32 c3 16 72 37 4f aa c2 36 e7 ea b8 b5
       2.6264594e-08 1.4429624e-05 5.801477e-06 -1.3777434e-06
000270 cf 49 8a 3d df e5 09 37 29 7c b4 36 d7 48 34 37
       0.06752359 8.219357e-06 5.378872e-06 1.0745795e-05
000280 73 81 4c 37 84 8c d9 36 46 39 04 38 29 d0 bd 37
       1.2189487e-05 6.483462e-06 3.1524592e-05 2.2627488e-05
000290 f0 d7 1f 36 74 39 58 37 5a 8b 00 38 30 d2 5e bd
       2.3818538e-06 1.288798e-05 3.064736e-05 -0.05439967
0002a0 61 fa fc 37 8c a2 59 38 cf 7d c9 37 f1 b0 0a 37
       3.0157333e-05 5.1888215e-05 2.4019651e-05 8.266638e-06
0002b0 0e e8 cb 36 75 6c 71 35 5f 05 f6 36 70 76 94 36
       6.076886e-06 8.993732e-07 7.3319966e-06 4.4245317e-06
0002c0 a3 29 08 35 b6 6a a6 36 49 b5 d1 36 28 ff b7 36
       5.072454e-07 4.9596083e-06 6.2497897e-06 5.483529e-06
0002d0 57 c0 0b b4 c4 83 8d 34 b1 72 5f b4 16 d5 43 33
       -1.3015357e-07 2.635917e-07 -2.0810218e-07 4.5595776e-08
0002e0 47 a8 a0 b4 35 ae 6b 3a 64 04 c4 34 94 12 8b 34
       -2.992476e-07 0.00089904974 3.651104e-07 2.5904285e-07
0002f0 9d a9 87 b4 b2 3e 89 37 b1 69 0d 37 77 89 a5 35
       -2.526912e-07 1.6360867e-05 8.428863e-06 1.2333466e-06
000300 22 e6 32 37 41 12 05 37 6b ae 91 36 89 6e 39 37
       1.0663209e-05 7.931668e-06 4.3416417e-06 1.1052595e-05
000310 fb 61 58 37 a6 ab 74 bd 3b 72 8c 37 64 6a a9 37
       1.2897416e-05 -0.05973401 1.6742493e-05 2.0195912e-05
000320 4b 68 8a 36 c9 c5 36 37 50 26 6e bc 0b 95 81 37
       4.124862e-06 1.0894096e-05 -0.014535502 1.5447402e-05
000330 18 2d 4d 37 d8 e4 8f 3c e6 8c b0 37 58 44 e3 3c
       1.2229451e-05 0.017565176 2.1046446e-05 0.02774255
000340 25 72 5b 37 92 08 ed 36 fe b6 3d 37 e7 25 44 37
       1.3079994e-05 7.064148e-06 1.1307884e-05 1.1691335e-05
000350 55 d7 c0 34 f3 0a 75 36 31 c6 ec 36 bd e9 4b 37
       3.5919462e-07 3.6514218e-06 7.0564206e-06 1.2154164e-05
000360 ed 67 d3 34 f1 42 1c 34 05 e1 e3 34 db 06 f7 b3
       3.937743e-07 1.4552985e-07 4.2445768e-07 -1.1503081e-07
000370 3a 8d f2 b3 28 94 d6 34 15 47 39 ba c3 99 e4 34
       -1.1294692e-07 3.9968404e-07 -0.0007067782 4.2580186e-07
000380 01 c3 9f 34 e4 ed 1d 33 fd e7 99 34 43 73 75 b4
       2.9757942e-07 3.677077e-08 2.8667264e-07 -2.2859335e-07
000390 6f 54 e4 b3 14 01 61 34 5b 48 ab bd 44 dc b9 34
       -1.0632436e-07 2.095515e-07 -0.0836341 3.46192e-07
0003a0 f5 a2 d4 34 08 75 6b b3 d5 43 27 36 8e 9c 2d 36
       3.9606644e-07 -5.482164e-08 2.4924423e-06 2.5870136e-06
0003b0 fe ef 37 b5 87 65 97 35 c6 df 8d 36 b8 0d 95 36
       -6.8522047e-07 1.1279925e-06 4.228178e-06 4.442143e-06
0003c0 2b bc b7 36 1d 16 f3 36 13 24 70 36 a3 58 88 34
       5.4757306e-06 7.2445387e-06 3.5783785e-06 2.5396466e-07
0003d0 6c 53 be 34 40 6a 23 b4 e5 e0 81 34 f1 ab ef 33
       3.5450955e-07 -1.5219211e-07 2.4191755e-07 1.1160581e-07
0003e0 1f 47 bd 34 ba ce b6 34 da dd 8f 34 b1 cc 86 b4
       3.525574e-07 3.4050555e-07 2.6797244e-07 -2.5108378e-07
0003f0 8f c2 40 35 aa 9d 69 bb 6f 24 79 3d 57 9b a2 35
       7.1808694e-07 -0.0035646954 0.06082576 1.211515e-06

conv_1.bias f4 [64]
000000 eb c3 73 37 48 37 21 34 7b 56 e2 36 e0 7b 00 b7
       1.4529544e-05 1.5014405e-07 6.7453925e-06 -7.658236e-06
000010 1c 14 7b 37 a3 82 e5 b5 4f b0 a2 36 30 41 9b b6
       1.4965448e-05 -1.709985e-06 4.8485012e-06 -4.626949e-06
000020 ff af ed 36 a2 68 8d b4 22 ba 1e b5 c0 2f b6 36
       7.083639e-06 -2.6339427e-07 -5.9130446e-07 5.4295815e-06
000030 6c e3 45 b6 7f 63 c6 35 5d bf dd 35 09 e9 99 b3
       -2.9487665e-06 1.4781107e-06 1.6521477e-06 -7.1670065e-08
000040 e1 15 10 b6 bc 56 90 bc 0c 80 c6 bc cc b2 89 36
       -2.1470407e-06 -0.017619483 -0.02423098 4.103733e-06
000050 f6 94 23 3d c6 0a b3 37 72 2f 39 35 15 b1 eb bc
       0.039936982 2.134348e-05 6.898691e-07 -0.028770963
000060 89 a5 5f b6 c9 de 5d 36 96 69 92 36 59 19 c2 b4
       -3.3325944e-06 3.3061244e-06 4.363431e-06 -3.615376e-07
000070 5e a8 95 b6 b5 5d 9e b7 a3 b2 14 37 05 f7 ee 3c
       -4.4601466e-06 -1.8878703e-05 8.8630795e-06 0.029170522
000080 5d c7 d2 36 c9 63 be b6 68 6f bb b7 7d 5b 0d b6
       6.2816966e-06 -5.674058e-06 -2.2344015e-05 -2.106389e-06
000090 53 d0 d3 35 de b9 5c 36 83 3a 8c b4 d6 f3 1c 3b
       1.5781355e-06 3.2890744e-06 -2.6119605e-07 0.0023949048
0000a0 3f fb 86 b6 14 62 da b5 05 ef e7 35 3e 82 a4 34
       -4.02276e-06 -1.627081e-06 1.7280405e-06 3.0642144e-07
0000b0 be 32 b2 37 66 dc d8 b5 7e 99 21 36 ef 8b 1a b6
       2.1242882e-05 -1.6157398e-06 2.4080214e-06 -2.302924e-06
0000c0 78 53 e4 36 55 a0 84 b7 d2 cf 1d 35 72 95 02 37
       6.8046465e-06 -1.5810287e-05 5.8789476e-07 7.783399e-06
0000d0 d6 40 2a 37 be 55 63 b6 ea f9 c2 35 1e ea a5 35
       1.0147885e-05 -3.3875544e-06 1.4526861e-06 1.2361595e-06
0000e0 fc f8 19 35 f1 bb 6c 3c 6f 40 3d b7 eb fb a1 35
       5.735926e-07 0.014449106 -1.128028e-05 1.2068753e-06
0000f0 bb 63 a0 34 7e be 4e 36 b3 96 33 35 e2 88 10 b7
       2.9874886e-07 3.0807273e-06 6.690199e-07 -8.614939e-06

fc.weight f4 [10, 1600]
000000 c4 ee b2 b4 35 db 8c 34 66 5a a4 b6 d8 b7 7a 33
       -3.3328809e-07 2.6236526e-07 -4.8981046e-06 5.8374866e-08
000010 8a b0 d4 b5 e9 79 b0 32 6e f0 d0 b5 fe d0 e8 b4
       -1.584661e-06 2.0544535e-08 -1.5567182e-06 -4.336543e-07
000020 49 53 9a 35 24 ad cb 3d 0d ad 8b b4 b7 96 0e b3
       1.1498133e-06 0.09945133 -2.601668e-07 -3.3199026e-08
000030 71 19 57 b6 6a a4 68 b6 39 d8 96 b5 da 0b 9e 34
       -3.2052305e-06 -3.4666396e-06 -1.12388e-06 2.9438417e-07
000040 3f 34 7b b4 30 66 e9 35 11 e4 ca 34 56 b4 1b 34
       -2.3395204e-07 1.7389593e-06 3.7791372e-07 1.4501106e-07
000050 8a 87 70 33 2e 03 0f b6 4b 54 ec b5 68 b3 42 35
       5.6002627e-08 -2.1310511e-06 -1.7607903e-06 7.25317e-07
000060 da 7c 21 b4 95 16 78 38 07 cd c9 b7 a7 0e 2c b8
       -1.5039714e-07 5.914884e-05 -2.405654e-05 -4.102164e-05
000070 02 a1 5f b8 58 48 93 b7 aa 6f 2e 38 c3 6f f9 b7
       -5.3317293e-05 -1.7557453e-05 4.1588828e-05 -2.9735156e-05
000080 55 91 c5 b7 0a c4 63 b8 2d 1d bb b7 f5 66 9d bd
       -2.3551906e-05 -5.4303593e-05 -2.2305723e-05 -0.07685653
000090 b8 e3 3d b8 11 62 b3 bb 8c 48 7b b7 7f 3b 32 3d
       -4.527319e-05 -0.005474337 -1.4977657e-05 0.04351377
0000a0 7d 60 e2 b8 1e 5e c4 37 91 40 8e b7 fc 84 e5 3c
       -0.00010794492 2.3408847e-05 -1.6957785e-05 0.028017513
0000b0 4d e6 2a 38 d3 e9 99 b8 02 54 10 38 4f 9c 66 bd
       4.0745643e-05 -7.339162e-05 3.4410514e-05 -0.05630141
0000c0 59 fe 35 b8 50 fa 6a 35 47 e7 4f b3 15 bd c4 34
       -4.3390643e-05 8.7536046e-07 -4.840629e-08 3.664542e-07
0000d0 de 00 a4 b5 24 ed 2e b6 e3 95 d0 b6 0d dd 97 b5
       -1.2219205e-06 -2.6066054e-06 -6.216332e-06 -1.1314711e-06
0000e0 ff a5 e5 b6 90 ee c9 b5 b2 02 72 b1 8b 09 8a b6
       -6.8440563e-06 -1.5045098e-06 -3.5217167e-09 -4.1138314e-06
0000f0 33 0f 35 b6 24 90 92 b4 6d df e7 34 30 27 26 b6
       -2.697995e-06 -2.7299495e-07 4.3189667e-07 -2.4758738e-06
000100 45 ca 05 b7 0f 90 b0 b6 c6 35 33 35 0d 00 15 b6
       -7.974512e-06 -5.2619794e-06 6.6760947e-07 -2.220276e-06
000110 f1 50 bf b6 47 96 87 34 42 b4 d8 b6 25 d7 68 36
       -5.7016664e-06 2.525505e-07 -6.4582864e-06 3.4695925e-06
000120 bf 7f 88 b5 06 10 0a b6 7e c9 03 33 4a 13 0b 33
       -1.0169969e-06 -2.057293e-06 3.068407e-08 3.2381003e-08
000130 a2 94 4d 3d 5d 9f aa 36 fd 23 11 b5 75 5f 2b 3b
       0.050190575 5.084947e-06 -5.406908e-07 0.0026149426
000140 28 fb 2b b5 ae 6b 33 35 89 59 b4 35 1d 7c 74 36
       -6.4067945e-07 6.683939e-07 1.3437103e-06 3.6431077e-06
000150 0f 0c a6 b6 25 a3 46 35 12 e1 03 b7 26 ba e7 35
       -4.9485893e-06 7.3998154e-07 -7.860612e-06 1.7265018e-06
000160 e0 db 47 36 6d 73 d7 b6 1b 68 c4 35 d9 c8 73 b7
       2.9781295e-06 -6.4209366e-06 1.4633437e-06 -1.4530692e-05
000170 eb 03 d2 3d 02 2e 27 36 9f 7f dc b6 a3 77 56 b6
       0.102546535 2.491172e-06 -6.571368e-06 -3.1958123e-06
000180 90 37 dd b7 f0 71 ba 36 f4 6e 5a 3c 9d 60 b1 35
       -2.6371126e-05 5.556496e-06 0.013332117 1.3215646e-06
000190 95 fc 19 b4 b6 f6 ca ba 77 5d cf b4 7c 78 5f b4
       -1.4341124e-07 -0.0015484903 -3.862476e-07 -2.0812325e-07
0001a0 fd 52 00 bd 9c 04 1d 37 04 8e 64 b8 65 f5 0f b9
       -0.031329144 9.359002e-06 -5.44917e-05 -0.0001372896
0001b0 10 a3 d1 bb 73 0a eb bb 34 36 74 b9 60 ec 86 bd
       -0.0063976124 -0.0071728765 -0.00023289846 -0.06588054
0001c0 20 ff 15 bd ce fe a3 bd 11 a1 20 bc 3f 89 40 bd
       -0.03662026 -0.080075845 -0.009804026 -0.047005888
0001d0 60 cc c4 bd 3b bc e9 bd 6c 74 a2 b8 0c ae 84 b8
       -0.09609294 -0.11412855 -7.746447e-05 -6.326669e-05
0001e0 9c 87 22 bd 83 69 00 bc a8 d1 56 3d d2 18 79 b9
       -0.03968011 -0.007837656 0.052446038 -0.00023755737
0001f0 77 5a 4a 3d fb c7 9a 34 ba 17 aa b3 bc a8 4d b3
       0.04940268 2.883024e-07 -7.920558e-08 -4.7883745e-08
000200 4f 65 c0 34 8c 6c 9b 33 6b 16 1f 34 2a 2c 23 33
       3.5836499e-07 7.2374945e-08 1.4816185e-07 3.7991562e-08
000210 26 17 92 b4 c1 de c1 34 33 00 c7 b4 86 bc 10 b5
       -2.7211462e-07 3.6111126e-07 -3.7066783e-07 -5.391852e-07
000220 9b ae 90 33 72 e6 21 b4 36 47 b9 34 19 22 14 b4
       6.737283e-08 -1.5078129e-07 3.4510748e-07 -1.3795979e-07
000230 14 ac 93 b4 97 c8 e4 34 09 1f 93 34 2a f2 75 b4
       -2.7506087e-07 4.2614258e-07 2.7403465e-07 -2.2905502e-07
000240 f3 33 0e 35 63 7f e3 34 79 b1 34 35 d2 06 b6 33
       5.297472e-07 4.237473e-07 6.731348e-07 8.476276e-08
000250 d9 ff 7f 33 89 ef f1 32 b6 9d 13 38 af 12 2b bd
       5.9604506e-08 2.816502e-08 3.519441e-05 -0.041765865
000260 4b b5 5f b8 ad c1 ad b7 6a 80 e5 b8 8a 2e 52 38
       -5.3336185e-05 -2.0713394e-05 -0.0001094349 5.0111244e-05
000270 38 98 62 37 5c dd 00 b7 ff b6 a4 38 15 76 9c b8
       1.3506091e-05 -7.680934e-06 7.854215e-05 -7.460654e-05
000280 9b 82 b0 bc 96 70 04 bd 3b 40 05 bc 93 cd 24 b9
       -0.021546653 -0.032333933 -0.0081329895 -0.00015716841
000290 4c 25 da bb c4 42 f7 b8 75 ec 6c bd 3e 01 8c bd
       -0.006657278 -0.00011790314 -0.05784269 -0.068361744
0002a0 3c 2e 10 b8 36 32 4d b8 eb af 9f b8 6c 0c 0b b9
       -3.4375335e-05 -4.892257e-05 -7.614478e-05 -0.000132607
0002b0 75 60 04 3c fd 9d be b6 f7 e7 35 38 68 df c3 35
       0.008079638 -5.6808335e-06 4.3369797e-05 1.4593652e-06
0002c0 70 07 fd b4 72 3f 3f b7 48 a1 21 b7 b0 42 ce b6
       -4.7130334e-07 -1.1399259e-05 -9.633899e-06 -6.147042e-06
0002d0 eb ec bf 36 e0 73 33 35 b8 55 be 36 71 6a 61 b7
       5.7198245e-06 6.6851317e-07 5.6724202e-06 -1.3435828e-05
0002e0 27 be a7 b7 34 bf 26 3d 74 f5 1d b6 59 f8 05 36
       -1.9996498e-05 0.04070969 -2.3537696e-06 1.9963102e-06
0002f0 55 2d 24 b7 9c 50 e6 b7 29 ff d9 b6 16 37 66 b7
       -9.785716e-06 -2.7455673e-05 -6.4968085e-06 -1.3721894e-05
000300 81 e3 77 b6 1b 0c 0b 37 3d 1f 1a b7 28 74 79 b7
       -3.6938293e-06 8.287864e-06 -9.1863885e-06 -1.4868601e-05
000310 f3 c5 20 b7 c8 7f 0e b6 a7 68 49 36 0f 24 01 37
       -9.582832e-06 -2.1234027e-06 3.001225e-06 7.697395e-06
000320 21 73 c5 37 2b f4 c8 35 4b 09 e3 b8 76 22 64 b8
       2.3537841e-05 1.4972223e-06 -0.000108259344 -5.439153e-05
000330 c0 b2 40 be c2 b3 b3 38 bc f2 5a b8 89 a2 59 b8
       -0.18818188 8.5688676e-05 -5.2201314e-05 -5.1888204e-05
000340 b8 e7 72 b8 a2 22 91 3d 11 6b d7 b7 2a 32 b5 bb
       -5.79131e-05 0.07086684 -2.5679854e-05 -0.0055296617
000350 c4 ca 60 bd 6f d9 71 3c 03 3a 02 3e b1 db 16 b9
       -0.054880872 0.014761313 0.12717442 -0.00014386956
000360 b2 c4 2a 38 68 06 e2 bd c2 74 48 b6 08 fe 8b 38
       4.0714345e-05 -0.11036378 -2.9870284e-06 6.6753535e-05
000370 6e dd 34 b9 7a 27 ea 3c 8d 65 83 b8 2e 7d f8 bc
       -0.00017248627 0.028583277 -6.265482e-05 -0.030333128
000380 f0 6b 03 33 bb b3 92 b4 b1 da b6 33 7e f8 84 3c
       3.0598983e-08 -2.732539e-07 8.514815e-08 0.016231772
000390 68 3b 7f 33 a1 dc 22 b4 6f b9 79 b4 6f d1 0c b6
       5.9425844e-08 -1.516769e-07 -2.3257392e-07 -2.0983532e-06
0003a0 d0 1f 3c 35 42 77 4a 35 8a 69 43 b5 a8 23 52 34
       7.008175e-07 7.5424407e-07 -7.279674e-07 1.9570746e-07
0003b0 9b dd e1 34 24 92 1d 34 4f 59 87 35 ad 60 a6 b5
       4.2070755e-07 1.467493e-07 1.0084276e-06 -1.23961e-06
0003c0 e2 e7 1d 34 f7 dc 86 ba 7c f4 dc 34 cd 44 72 32
       1.4706123e-07 -0.0010289241 4.115608e-07 1.4101897e-08
0003d0 26 39 b4 34 bd be 19 b5 37 4b 2b b5 ba 4a 59 31
       3.3569194e-07 -5.72745e-07 -6.3811916e-07 3.1620133e-09
0003e0 93 8d a3 b4 3d 9b 8d b4 1a 31 68 34 85 aa c4 35
       -3.0464125e-07 -2.6376247e-07 2.1624547e-07 1.4652766e-06
0003f0 67 3d aa 36 52 6a 55 ba 11 8c 6a bd ad ef 78 b4
       5.073543e-06 -0.0008141148 -0.057262484 -2.3183993e-07

fc.bias f4 [10]
000000 55 7a bd b5 ad ae d1 36 02 45 21 38 51 d2 68 37
       -1.4117201e-06 6.2490203e-06 3.844966e-05 1.3877246e-05
000010 4b 06 68 bd 87 a1 29 b6 14 83 e5 b5 7a 56 6a b7
       -0.056646626 -2.5276984e-06 -1.7099978e-06 -1.3967621e-05
000020 0d 30 b5 b7 12 60 bf b7
       -2.1599257e-05 -2.281371e-05
