notebooks/models/long_fcnn_normal_0.050/model.pth (torch, 360471 bytes, 6 tensors)

fc_0.weight f4 [100, 784]
-0.008164695 -0.0069784746 -0.009765385 -0.009221526 -0.0072400672 -0.0058519137 -0.004381214 -0.006024848
-0.008586693 -0.0102218175 -0.005182028 -0.007859779 -0.008054361 -0.009552474 -0.009420527 -0.0105070695
-0.005591003 -0.0085617835 -0.009272109 -0.008632751 -0.0020242264 -0.008220355 -0.010747262 -0.0069723483
-0.0039909054 -0.0055215387 -0.010213625 -0.007934184 -0.0062651066 -0.0073356726 -0.008216597 -0.007497192
-0.0082615875 -0.004745324 -0.0058291247 -0.0070765116 -0.006596866 -0.007478615 -0.007859758 -0.0038910578
-0.0047938433 -0.006003033 -0.00580297 -0.009350962 -0.010277864 -0.009650419 -0.005570092 -0.0072456463
-0.006547434 -0.002535536 -0.006298924 -0.0044714375 -0.005649041 -0.0031258778 -0.008951437 -0.0090834955
-0.0093165655 -0.0073815533 -0.009803415 -0.00393499 -0.008865212 -0.011327812 -0.007751728 -0.004019299
-0.0075594396 -0.0069257217 -0.006182969 -0.0062074624 -0.00046582526 0.0009976915 0.000465168 -0.0038413852
-0.0015717562 -0.0044397973 -0.0011887801 0.000693649 0.0014806822 -0.0010738539 -0.003931898 -0.0054361722
-0.007996437 -0.0037902435 -0.009273964 -0.008808613 -0.010418728 -0.010450449 -0.009073709 -0.007704946
-0.007098251 -0.007896283 -0.0064119725 -0.006193831 -0.005411356 -0.0046356185 -0.0038772125 -0.004302223
-0.007638761 -0.006086561 -0.008887148 -0.005864052 -0.008056108 -0.0036311203 0.0021971562 0.004671825
0.0012236305 0.005965181 0.001751539 -0.0029212965 -0.0055582123 -0.009224416 -0.005501509 -0.007952042
-0.008720674 -0.0060811727 -0.008619922 -0.007594078 -0.0056238654 -0.0056736693 -0.011024149 -0.010902328
-0.0035731548 -0.005064054 -0.0032807905 -0.009439278 -0.006702046 -0.002986567 -0.0019540465 0.00077333057
0.0074043884 0.009435569 0.005449157 0.008175419 0.0046801455 0.0083908355 0.0022001748 -0.004717989
-0.0064079594 -0.0080526415 -0.006400354 -0.007321267 -0.008092499 -0.0052477927 -0.007213262 -0.007122791
-0.008767939 -0.012472067 -0.013207053 -0.00844522 -0.0052297683 -0.00084755645 -0.0053385375 -0.0078820465
-0.0023666522 0.0006346528 0.0064021708 0.0031705045 0.0017608596 0.01734259 0.017594496 0.018642215
0.013577413 0.0058453768 -0.0025024186 -0.0024573938 0.0016385188 -0.009641411 -0.0102839805 -0.0057493304
-0.008951018 -0.012459961 -0.00980308 -0.007998505 -0.010498159 -0.004920754 -0.009015692 -0.0022243047
0.007236534 -0.003207479 -0.008183226 -0.0011134926 0.0023644818 -0.0067382837 -0.003324666 0.00706478
0.008349154 0.009990081 -0.0011622219 0.013433044 0.0066891685 0.0013948877 0.0076947673 0.0018848719
-0.0032128298 -0.0024104607 -0.006066062 -0.0038513166 -0.009734022 -0.0076112286 -0.007721699 -0.010913169
-0.012691704 -0.0058814134 -0.0052493997 0.0049070227 0.008563389 0.005884455 0.0042055272 -0.0014017996
-0.008273386 -0.0015669266 -0.009548033 0.01076688 0.0070710457 0.015921861 0.015315287 0.007902292
-0.0056315702 0.00090261275 0.0026237094 0.0057048406 0.0020878615 -0.0053679226 -0.0027374546 -0.008063829
-0.009277906 -0.0063378406 -0.008063147 -0.00983066 -0.007161142 -0.0041014734 -0.00069009315 0.0054329117
0.0046133082 0.011381037 0.0027351852 -1.867377e-05 0.008998411 0.007942103 -0.0003077915 0.0024003014
0.011244097 0.013380674 0.0036267424 0.0040698624 0.0039567086 -0.0028303838 -0.003998215 -0.0017061265
-0.0016221713 -0.0061544636 -0.010532138 -0.006005369 -0.009060085 -0.009597106 -0.006304338 -0.009353376
00000000: 37c5 05bc b0ab e4bb fefe 1fbc e215 17bc
00000010: 163e edbb 69c1 bfbb 4990 8fbb 176c c5bb
00000020: 33af 0cbc 6979 27bc 00ce a9bb 4dc6 00bc
00000030: 70f6 03bc fb81 1cbc 8e58 1abc d825 2cbc
00000040: bc34 b7bb b946 0cbc 0bea 17bc 6270 0dbc
00000050: e2a8 04bb abae 06bc 4915 30bc 4c78 e4bb
00000060: 24c6 82bb 06ee b4bb 0c57 27bc 61fe 01bc
00000070: 864b cdbb 1560 f0bb e89e 06bc 01ab f5bb
00000080: 9c5b 07bc aa7e 9bbb 3e02 bfbb 15e2 e7bb
00000090: 862a d8bb 2b0f f5bb 37c6 00bc 1e01 7fbb
000000a0: ac15 9dbb 17b5 c4bb d726 bebb c734 19bc
000000b0: 7c64 28bc ca1c 1ebc 5185 b6bb e36c edbb
000000c0: db8b d6bb 3c2b 26bb 3467 cebb 2385 92bb
000000d0: 971b b9bb 87db 4cbb 0ca9 12bc f1d2 14bc
000000e0: 82a4 18bc f5e0 f1bb 819e 20bc 17f1 80bb
000000f0: 653f 11bc 4a98 39bc 3502 febb 53b4 83bb
00000100: 2db5 f7bb 2af1 e2bb 819a cabb f867 cbbb
00000110: 023a f4b9 f9c4 823a cbe1 f339 c0bf 7bbb
00000120: 6303 ceba b87b 91bb d7d0 9bba ffd5 353a
00000130: 7313 c23a 8fc0 8cba 27d7 80bb eb21 b2bb
00000140: 7d03 03bc bc65 78bb d3f1 17bc 0052 10bc
00000150: 50b3 2abc 5c38 2bbc e5a9 14bc c679 fcbb
00000160: 7298 e8bb 695f 01bc 861b d2bb 9ff5 cabb
00000170: bf51 b1bb 63e6 97bb d518 7ebb aaf9 8cbb
00000180: 924e fabb c671 c7bb 679b 11bc 3c27 c0bb
00000190: c4fd 03bc 17f8 6dbb 2afe 0f3b 1c16 993b
000001a0: 3a62 a03a 9177 c33b e593 e53a 3973 3fbb
000001b0: aa21 b6bb 0122 17bc 0146 b4bb 4849 02bc
000001c0: 28e1 0ebc 9344 c7bb 933a 0dbc bed7 f8bb
000001d0: 6748 b8bb 30ea b9bb a29e 34bc ae9f 32bc
000001e0: 972b 6abb 5df0 a5bb 8802 57bb 34a7 1abc
000001f0: d69c dbbb 48ba 43bb 760f 00bb 56b9 4a3a
00000200: 83a0 f23b a597 1a3c d88e b23b 31f2 053c
00000210: e85b 993b b779 093c cf30 103b 5c99 9abb
00000220: dcf9 d1bb 3aef 03bc 10ba d1bb 3de7 efbb
00000230: 6796 04bc adf5 abbb 3a5d ecbb 4d66 e9bb
00000240: 67a7 0fbc a457 4cbc 6562 58bc d25d 0abc
00000250: 7a5e abbb 8d2e 5eba e6ee aebb b323 01bc
00000260: d619 1bbb d45e 263a 4dc9 d13b 3dc8 4f3b
00000270: a5cc e63a 0c12 8e3c 5522 903c 8fb7 983c
00000280: cc73 5e3c 938a bf3b 9eff 23bb 3a0c 21bb
00000290: 91c3 d63a 02f7 1dbc 247e 28bc e164 bcbb
000002a0: 4aa7 12bc dd24 4cbc 199d 20bc 290c 03bc
000002b0: 7800 2cbc 473e a1bb 8eb6 13bc a4c5 11bb
000002c0: 7220 ed3b 9134 52bb f012 06bc 9df2 91ba
000002d0: 6cf5 1a3b d2cc dcbb a4e2 59bb ac7f e73b
000002e0: e4ca 083c 70ad 233c b255 98ba 4516 5c3c
000002f0: d030 db3b aad4 b63a 6324 fc3b ce0d f73a
00000300: 578e 52bb d2f8 1dbb d1c5 c6bb 5f66 7cbb
00000310: 737b 1fbc 9d67 f9bb 4e06 fdbb 26cd 32bc
00000320: ddf0 4fbc dfb8 c0bb 2803 acbb 17cb a03b
00000330: 754d 0c3c 63d2 c03b 85ce 893b 97bc b7ba
00000340: 198d 07bc 5561 cdba 5a6f 1cbc 9167 303c
00000350: 3bb4 e73b 906e 823c f8ec 7a3c 9d78 013c
00000360: 0989 b8bb 519d 6c3a 8af2 2b3b acef ba3b
00000370: 81d4 083b 66e5 afbb de66 33bb 261e 04bc
00000380: 5c02 18bc a9ad cfbb 4a1b 04bc c710 21bc
00000390: 03a8 eabb a765 86bb 5ee7 34ba 9106 b23b
000003a0: 3c2b 973b 8777 3a3c cb40 333b 9ea5 9cb7
000003b0: 126e 133c 981f 023c 135f a1b9 604e 1d3b
000003c0: 2939 383c 9d3a 5b3c a4ae 6d3b 7b5c 853b
000003d0: 47a7 813b f67d 39bb 7503 83bb 1ba0 dfba
000003e0: 099f d4ba 62ab c9bb fd8e 2cbc b0c8 c4bb
000003f0: c070 14bc 2e3d 1dbc 9f94 cebb e73e 19bc

fc_0.bias f4 [100]
0.016256833 -0.013322274 0.02015476 0.0009903229 0.0026501198 0.0009654051 0.0052883867 0.00468554
-0.012584578 0.0024944607 -0.0026391572 0.0007650456 -0.00016260386 -0.0054741083 -0.0054432303 0.00014474748
0.00915174 0.007030086 0.0026401794 0.0017021311 -0.0026603146 0.012421192 0.01788007 -0.0028288935
0.0009647167 0.0016990445 0.0147412615 -0.005092785 0.0014107245 -0.0044611036 0.007458058 0.00548408
0.0036645997 0.007668244 -0.0004958564 0.0005703948 0.005659165 0.0021828993 0.020888222 0.02328995
0.015078788 0.02374522 -0.0039152745 5.756354e-05 0.00335683 0.0011194923 0.0033637444 0.011182016
0.01010211 -0.00062512275 -0.0007816218 0.005143131 0.0057804026 0.013813299 0.0018331999 -0.00017593984
0.013490861 -0.0012887174 0.0067871567 -0.0019918138 -0.0019972 0.0039244993 -0.00083127007 0.0043890635
-0.0026474174 1.1518141e-05 0.0027238543 0.0028039373 -0.00044297762 0.008891697 0.0037889078 0.007246323
0.007795241 0.0010619095 0.00926181 0.008643782 0.0052003604 0.00012043549 0.0064095454 0.002747212
-0.0009034424 0.00397042 0.004367025 0.0031093368 0.00076296215 0.0074273134 0.005415583 0.0034831446
0.0038511774 0.00074946583 0.0058433437 0.013740904 0.009022773 0.0023749282 0.0026573015 0.00095010403
0.006686189 0.0077453204 0.0017327237 -0.0001154447
00000000: 0d2d 853c ab45 5abc 981b a53c b9cd 813a
00000010: a2ad 2d3b 3d13 7d3a 344a ad3b 2989 993b
00000020: 8c2f 4ebc 1b7a 233b b6f5 2cbb 578d 483a
00000030: a480 2ab9 2660 b3bb 205d b2bb 5bc7 1739
00000040: 2ef1 153c a35c e63b dc06 2d3b 0b1a df3a
00000050: ac58 2ebb 4182 4b3c 3979 923c f564 39bb
00000060: 0be5 7c3a 79b2 de3a 5585 713c 61e1 a6bb
00000070: 0fe8 b83a 732e 92bb ba62 f43b ccb3 b33b
00000080: c829 703b e545 fb3b 5cfc 01ba 8c86 153a
00000090: 8470 b93b f90e 0f3b c71d ab3c 91ca be3c
000000a0: 050d 773c 5685 c23c b44b 80bb 6170 7138
000000b0: 43fe 5b3b eebb 923a 4472 5c3b c634 373c
000000c0: 5283 253c 47df 23ba c0e5 4cba b687 a83b
000000d0: 8869 bd3b 2d51 623c fb47 f03a 7e7c 38b9
000000e0: c608 5d3c 2eea a8ba cc66 de3b 1789 02bb
000000f0: 75e3 02bb 1699 803b 97e9 59ba 22d2 8f3b
00000100: 4b80 2dbb 0a3e 4137 b182 323b 43c2 373b
00000110: 733f e8b9 7bae 113c 534f 783b 9072 ed3b
00000120: 396f ff3b c52f 8b3a d9be 173c a69e 0d3c
00000130: c967 aa3b 5092 fc38 2a07 d23b 920a 343b
00000140: fed4 6cba 4c1a 823b 4319 8f3b 04c6 4b3b
00000150: 8601 483a d260 f33b 3475 b13b 7845 643b
00000160: 0964 7c3b cd77 443a 8579 bf3b 8721 613c
00000170: 41d4 133c afa4 1b3b 1f26 2e3b 6710 793a
00000180: d217 db3b 75cc fd3b 8f1c e33a e71a f2b8

fc_1.weight f4 [100, 100]
-0.009317349 -0.0549102 0.01663702 0.003315765 0.004135834 -0.02624254 -0.0011685676 0.043893673
-0.015203344 -0.042150963 0.013843891 -0.0038288294 0.00040468515 -0.041021 -0.023777008 -0.015003454
0.012477131 -0.026610112 0.041199446 -5.7961402e-05 0.033690665 0.022434866 0.034537476 -0.045976702
0.06134814 0.039290626 0.0020854287 0.08523154 -0.03557007 0.017760858 0.027401462 0.015423656
0.027200906 -0.01053458 0.058074526 0.015852058 -0.036802564 0.04058833 0.005741064 -0.0028894625
0.0032557233 0.020233283 0.034736946 0.004697201 -0.027258301 0.059613045 0.0306265 -0.0021011808
0.0037805021 0.0026008994 -0.04172171 0.007836484 0.015335735 0.026303677 0.015936531 0.018047111
-0.08866242 -0.035818893 0.023864387 0.007567324 -0.01226236 -0.00414212 0.008144681 -0.009507929
-0.01875827 0.017861333 0.022851445 -0.019119307 0.022779394 0.017325787 0.040533625 -0.031405926
-0.0023076823 0.03845213 0.0011501006 0.057105497 -0.009255541 -0.01770347 0.015392786 -0.0015631402
-0.0023958685 0.010124126 0.016329484 0.017944949 0.008727594 0.027718773 0.045095176 -0.03514617
0.034207143 -0.0026619134 -0.020128824 -0.018448556 -0.030572271 -0.05539819 0.016211309 0.052025687
0.0813182 -0.027691552 0.009263139 0.03465302 -0.011384309 0.091928616 -0.0024910874 -0.014528038
0.051625546 0.022143096 -0.027440783 -0.07869418 0.05444239 0.023744833 -0.023006426 -0.021155348
0.070307255 0.06374837 0.06263106 -0.02436887 -0.012243886 0.040395405 -0.03262718 0.004623951
-0.0072408374 -0.05776985 -0.01944984 0.008643075 -0.07515678 0.0092510525 0.0035094796 0.02076561
0.096507885 0.036589146 -0.055849187 0.057398073 -0.021287465 0.013469221 -0.0046904054 -0.0034629067
-0.03797048 -0.0028311242 -0.01866199 0.01902466 -0.010092591 0.008823942 0.042870086 -0.0035884785
0.05926486 -0.081017315 -0.015972551 0.02249617 0.02055274 0.004825499 0.01084382 -0.013251257
-0.01901281 -0.11340493 0.01033079 0.013128617 0.04183443 0.0036095092 0.053160895 -0.008986312
0.037484117 0.12029846 -0.041926887 0.034523714 -0.0065974533 -0.0058974833 -0.040137358 0.0066233655
-0.031824425 0.029369371 0.034340497 0.06204838 0.006359051 -0.024309656 0.0083284555 -0.0052772947
0.016530162 -0.0039059324 -0.05493894 -0.012453754 0.015468797 -0.022500224 -0.01024799 -0.017032111
-0.017231386 -0.01262312 0.020993369 -0.0200512 -0.010767502 -0.0031318169 -0.071982 -0.058098454
0.065726854 0.10072794 0.027665412 -0.03819992 -0.0045132134 0.021341342 0.025115734 0.018705761
0.049015786 0.064942285 0.051969696 -0.002393312 -0.058934044 0.043390397 -0.018898237 -0.0063924324
-0.02976026 0.001653774 -0.041761454 -0.010666187 0.03618618 0.0049652634 -0.0150351925 0.013368347
-0.015790416 0.042649575 -0.03693529 -0.0014518552 0.0048086494 0.011962203 0.030583693 0.076729916
0.024423527 -0.0038588468 0.03499623 -0.07713713 -0.0055790804 0.023005616 -0.04940846 -0.08709662
0.03168519 0.0086476365 -0.05029025 0.0024089345 0.044849094 -0.057330955 0.03989371 0.0105898045
-0.0089612035 0.06455651 0.03425412 0.0017374194 -0.054690063 -0.0036593054 -0.00092622486 -0.009324447
0.007449203 0.004563433 0.076222084 0.0075679123 -0.007542437 -0.02847845 -0.020503437 -0.016823048
00000000: cba7 18bc 85e9 60bd 5c4a 883c 4e4d 593b
00000010: e485 873b 98fa d6bc 9f2a 99ba dac9 333d
00000020: 7217 79bc 7da6 2cbd 7dd1 623c 19ed 7abb
00000030: ec2b d439 a305 28bd 00c8 c2bc 0cd1 75bc
00000040: e16c 4c3c 73fd d9bc c0c0 283d 951b 73b8
00000050: 39ff 093d 53c9 b73c 2b77 0d3d 1152 3cbd
00000060: 3048 7b3d 35ef 203d b0ab 083b e08d ae3d
00000070: ecb1 11bd 387f 913c 0879 e03c 81b3 7c3c
00000080: 6fd4 de3c 3b99 2cbc 8edf 6d3d 2ddc 813c
00000090: 49be 16bd f33f 263d 891f bc3b 235d 3dbb
000000a0: f95d 553b 45c0 a53c 5448 0e3d faea 993b
000000b0: cd4c dfbc cf2c 743d 6de4 fa3c f7b3 09bb
000000c0: 4dc2 773b da73 2a3b 62e4 2abd 9964 003c
000000d0: bc42 7b3c cf7a d73c 548d 823c 89d7 933c
000000e0: a594 b5bd d5b6 12bd 3f7f c33c 51f7 f73b
000000f0: 11e8 48bc 9fba 87bb 4571 053c 25c7 1bbc
00000100: f2aa 99bc ee51 923c f432 bb3c 18a0 9cbc
00000110: da9b ba3c cfee 8d3c 9606 263d 80a3 00bd
00000120: 7c3c 17bb fb7f 1d3d f9be 963a 74e7 693d
00000130: 8da4 17bc de06 91bc 0632 7c3c 48e2 ccba
00000140: 0104 1dbb aadf 253c 69c5 853c 4901 933c
00000150: 2ffe 0e3c 7b12 e33c b8b5 383d 6ef5 0fbd
00000160: ca1c 0c3d 7f73 2ebb 34e5 a4bc 6d21 97bc
00000170: b372 fabc 36e9 62bd 94cd 843c e318 553d
00000180: 288a a63d 65d9 e2bc 6cc4 173c 53f0 0d3d
00000190: 4185 3abc 1245 bc3d 8341 23bb 0207 6ebc
000001a0: 4f75 533d 7065 b53c 7ecb e0bc 6a2a a1bd
000001b0: fcfe 5e3d 8684 c23c f977 bcbc fb4d adbc
000001c0: 40fd 8f3d 818e 823d b744 803d 39a1 c7bc
000001d0: 949a 48bc a775 253d 14a4 05bd 8384 973b
000001e0: 8c44 edbb 14a0 6cbd 4555 9fbc af9b 0d3c
000001f0: cceb 99bd ba91 173c 4cff 653b a41c aa3c
00000200: eda5 c53d 80de 153d 1ec2 64bd 3e1a 6b3d
00000210: 0d63 aebc 02ae 5c3c f9b1 99bb eff1 62bb
00000220: ef86 1bbd 628a 39bb 08e1 98bc 9bd9 9b3c
00000230: 655b 25bc 4c92 103c 8b98 2f3d ae2c 6bbb
00000240: b6bf 723d 68ec a5bd ded8 82bc e349 b83c
00000250: 385e a83c 381f 9e3b 47aa 313c cd1b 59bc
00000260: c1c0 9bbc d840 e8bd 7942 293c 6919 573c
00000270: 945a 2b3d 848d 6c3b 3dbf 593d 533b 13bc
00000280: f288 193d 0a5f f63d 87bb 2bbd bd68 0d3d
00000290: 732f d8bb ad3f c1bb 1267 24bd d108 d93b
000002a0: 545a 02bd 0998 f03c 9fa8 0c3d 7126 7e3d
000002b0: 965f d03b 0b25 c7bc 1374 083c 28ed acbb
000002c0: 436a 873c acfa 7fbb a707 61bd d50a 4cbc
000002d0: d670 7d3c 6452 b8bc 2fe7 27bc ed86 8bbc
000002e0: d628 8dbc 34d1 4ebc 49fa ab3c 6a42 a4bc
000002f0: 2d6a 30bc 2b3f 4dbb 4c6b 93bd a5f8 6dbd
00000300: cd9b 863d 734a ce3d 93a2 e23c 8577 1cbd
00000310: 94e3 93bb 0ad4 ae3c 83bf cd3c d33c 993c
00000320: c7c4 483d 7600 853d 2dde 543d 1dd9 1cbb
00000330: d364 71bd 21ba 313d 7ad0 9abc 9c77 d1bb
00000340: cacb f3bc 72c3 d83a 0f0e 2bbd 3bc1 2ebc
00000350: f637 143d a6b3 a23b 2b56 76bc e906 5b3c
00000360: e75a 81bc 52b1 2e3d 7549 17bd 2d4c beba
00000370: e091 9d3b 1efd 433c a78a fa3c 9324 9d3d
00000380: d913 c83c b5e4 7cbb 3558 0f3d 12fa 9dbd
00000390: b8d0 b6bb 4676 bc3c 8660 4abd b65f b2bd
000003a0: 54c8 013d d1ae 0d3c 26fd 4dbd 37df 1d3b
000003b0: afb3 373d ddd3 6abd 9667 233d dc80 2d3c
000003c0: 03d2 12bc 3436 843d 0c4e 0c3d 1fba e33a
000003d0: b002 60bd f5d0 6fbb e6cd 72ba 91c5 18bc
000003e0: 7218 f43b da88 953b 531a 9c3d 40fc f73b
000003f0: 8c26 f7bb a34b e9bc d3f6 a7bc 7dd0 89bc

fc_1.bias f4 [100]
0.001889251 0.005590919 0.005522607 0.010466352 -0.0020060015 0.008535039 0.014361969 0.002907668
0.007105144 0.0039316625 0.008169539 0.0070630973 0.00049128005 0.003738708 0.012303017 0.011604597
0.005488988 0.0049300175 0.0044211824 0.0045264284 0.010039925 0.013829022 0.011555637 0.0028313978
0.008912755 0.00036690384 0.0053260713 0.009815009 0.0024641945 0.0063735284 0.015189479 0.00681125
0.015124494 0.009708512 0.011877555 0.0010548492 0.0045621134 0.003748717 0.002297734 0.002466333
0.0006007274 0.0069181123 0.008909445 0.0016239827 0.003497687 0.007680167 0.0013041712 0.0016362931
-0.000627143 0.008928063 0.002717396 0.0034686455 0.010909601 0.010260033 0.004922027 0.0028458775
0.00014993343 0.0126717985 -0.0022772318 0.0029288458 0.0011584108 0.0007334781 0.00013096021 0.019041842
0.02659126 0.010018542 0.0012196325 0.016209997 0.011053326 0.007480668 0.009028866 0.007405576
0.01585766 0.007397316 0.0019980427 0.00788164 0.0070453184 0.0020627913 0.013860154 0.0012058684
0.006147875 0.0020759958 0.009230472 -0.0035633186 0.007941362 0.0032517153 0.01991326 0.008756207
0.0035351121 0.02038107 0.002272846 0.014838594 0.006174212 -0.0022478977 0.006932848 0.0027741254
0.0074326377 0.0021611354 0.0052470374 0.0043015215
00000000: bfa0 f73a 0734 b73b fcf6 b43b 107b 2b3c
00000010: 1f77 03bb 8cd6 0b3c 774e 6b3c 938e 3e3b
00000020: 45d2 e83b 2dd5 803b 88d9 053c 8e71 e73b
00000030: 3fc9 003a 1d05 753b 9892 493c 3521 3e3c
00000040: f8dc b33b fc8b a13b 91df 903b 6f52 943b
00000050: 7f7e 243c 1f93 623c db53 3d3c f98e 393b
00000060: ce06 123c 005d c039 5386 ae3b 22cf 203c
00000070: 537e 213b 08d9 d03b 4bdd 783c e830 df3b
00000080: bacc 773c 7310 1f3c 149a 423c de42 8a3a
00000090: c87d 953b 09ad 753b 9495 163b 34a2 213b
000000a0: 227a 1d3a 55b1 e23b ecf8 113c d1db d43a
000000b0: 7339 653b e9a9 fb3b b9f0 aa3a e378 d63a
000000c0: db66 24ba 0347 123c 5716 323b 3752 633b
000000d0: 2fbe 323c b319 283c f448 a13b e781 3a3b
000000e0: 7337 1d39 609d 4f3c 9c3d 15bb e1f1 3f3b
000000f0: d1d5 973a e246 403a 5d52 0939 a3fd 9b3c
00000100: ead5 d93c d024 243c 13dc 9f3a d4ca 843c
00000110: 0219 353c 6420 f53b cfed 133c 79aa f23b
00000120: ece7 813c 2f65 f23b 98f1 023b ff21 013c
00000130: 6adc e63b e52f 073b b315 633c 3b0e 9e3a
00000140: 1d74 c93b 6e0d 083b 683b 173c 9186 69bb
00000150: 7d1c 023c bb1a 553b 2221 a33c 3276 0f3c
00000160: 57ad 673b 34f6 a63c 07f4 143b 931d 733c
00000170: 0b51 ca3b 7751 13bb f22c e33b 1ace 353b
00000180: 7c8d f33b d6a1 0d3b 57ef ab3b c7f3 8c3b

fc_2.weight f4 [10, 100]
-0.082943134 -0.031223465 -0.01606581 0.06342246 0.0009294081 -0.15135667 0.070039086 -0.01938468
-0.07625145 0.0030808279 -0.09212455 -0.10769927 -0.034189213 -0.045479268 0.035622045 -0.16096166
-0.06937313 -0.021153707 0.07388692 0.04559165 0.039215613 0.22034787 0.010224825 0.21702623
0.030562228 0.029332116 0.022175914 -0.056766443 0.12595691 0.21031211 0.1295558 -0.112650976
0.034099005 0.22953318 -0.06960557 0.00061775773 0.14104562 -0.026084613 0.02846181 -0.030220058
-0.0166356 0.1782248 -0.06231882 0.010099481 0.12369522 -0.09274993 0.001559605 0.00024037098
0.012799325 -0.074134745 0.023098733 -0.061237074 -0.004135079 0.059331845 -0.0026648086 -0.05741434
-0.00062406244 -0.20694317 0.015631344 -0.0004782027 -0.03753995 -0.008453943 -0.00045797328 0.043307096
-0.11790057 0.18867809 -0.15665814 0.045315646 -0.14704981 0.20078292 -0.06323485 0.2423542
0.16183047 0.022719005 0.0020599687 -0.11025171 -0.12610579 0.05714763 0.14491357 0.013238557
-0.09859619 -0.112179875 -0.14881931 -0.0036449686 -0.024981786 -0.02620657 0.01186536 0.12273381
-0.073578306 -0.28342834 0.016263949 -0.12905401 -0.0207633 -0.0016688979 0.09782963 -0.0025739137
-0.058042705 0.0014575223 -0.0022935309 0.2363485 -0.025710853 0.1419844 0.13754761 -0.12636457
0.08104389 0.18398286 -0.16396067 -0.006389711 0.10381529 0.040278897 -0.13730058 0.0012165831
-0.012456576 0.1557602 -0.09792966 0.0057218857 0.19799374 0.27728224 0.029784108 0.018759258
-0.06022161 -0.20610759 -0.13382998 -0.005961019 -0.032013014 0.003980412 -0.029316809 0.05049061
0.029886989 -0.11002907 -0.22279283 0.026613124 -0.124174885 -0.0829629 -0.06191249 0.00039499093
-0.11893264 0.100265495 -0.030552998 0.15430187 0.0106952 -0.020921852 -0.017309582 0.05954383
-0.020776443 0.0359949 0.021698896 0.001065532 -0.012111948 -0.059770454 -0.047159288 -0.06773872
-0.08944475 -0.15076649 -0.012335571 0.034665138 0.0020276033 0.3366126 0.030364694 -0.0024767825
0.07108996 -0.010245432 0.0018600256 -0.12239982 0.12150567 -0.14693502 -0.06919816 -0.18217725
0.031426854 -0.08244155 0.06556425 -0.020102829 -0.16703172 -0.109104946 -0.00063396787 -0.0021566872
0.1207759 -0.053830568 -0.17443173 0.010920419 0.049667537 0.4369958 0.14841726 0.00028656475
0.080569334 -0.04011806 0.055751465 -0.09958107 0.09369742 -0.0020582397 0.017017389 0.038155865
-0.042738743 -0.0005527223 0.055058386 -0.0065382128 -0.055474978 9.904299e-05 0.052312445 -0.00463287
0.054479312 -0.10708422 -0.054620553 0.19855493 -0.05131202 0.24965228 -0.025355441 0.04658533
0.11443968 -0.036376584 -0.104992025 -0.063662365 0.041851956 0.125922 -0.13077879 0.03142957
0.04432281 0.111828536 0.056985475 -0.14120544 0.10994356 -0.08708256 0.074965134 0.21391441
0.012972731 -0.009767735 -0.10369629 -0.17254198 0.07021789 -0.07086882 -0.062168453 0.08616536
-0.18167944 0.02868851 -0.3958498 -0.0029761363 0.1352262 -0.094511956 0.05978493 -0.21398929
-0.021077245 0.07104131 0.17848605 0.07187415 0.43973207 -0.10223469 -0.0059543224 -0.001808836
-0.020148413 -0.13288026 0.053008392 0.0011329731 0.033435702 -0.08008962 0.011154079 -0.061777677
00000000: 17de a9bd 5ac8 ffbc 729c 83bc a2e3 813d
00000010: 86a3 733a 3efd 1abe a770 8f3d 9fcc 9ebc
00000020: b829 9cbd b7e7 493b ccab bcbd 6f91 dcbd
00000030: fd09 0cbd 7848 3abd 6ce8 113d 22d3 24be
00000040: 8013 8ebd 8a4a adbc 0752 973d 4fbe 3a3d
00000050: 8da0 203d dfa2 613e 0686 273c 203c 5e3e
00000060: a35d fa3c e849 f03c 43aa b53c ee83 68bd
00000070: d9fa 003e 0f5c 573e 47aa 043e 8eb5 e6bd
00000080: 66ab 0b3d bf0a 6b3e 5d8d 8ebd 05f1 213a
00000090: 436e 103e 66af d5bc be28 e93c 0e90 f7bc
000000a0: 6247 88bc 9080 363e 0542 7fbd 4b78 253c
000000b0: eb53 fd3d adf3 bdbd a96b cc3a 180c 7c39
000000c0: 43b4 513c f5d3 97bd 8e39 bd3c bad3 7abd
000000d0: 8f7f 87bb f305 733d 12a4 2ebb 4d2b 6bbd
000000e0: 1f98 23ba e9e8 53be 4e0d 803c 48b7 fab9
000000f0: 7ec3 19bd 6882 0abc 221c f0b9 c862 313d
00000100: db75 f1bd d434 413e fe6a 20be e69c 393d
00000110: 3a94 16be 0a9a 4d3e 4681 81bd b32b 783e
00000120: e3b6 253e 351d ba3c 8a00 073b a6cb e1bd
00000130: e021 01be a213 6a3d 3964 143e 88e6 583c
00000140: cdec c9bd 90be e5bd 1764 18be 6de0 6ebb
00000150: 9aa6 ccbc 29af d6bc ed66 423c dd5b fb3d
00000160: 39b0 96bd 851d 91be f93b 853c bc26 04be
00000170: cc17 aabc ecbe daba e75a c83d 1baf 28bb
00000180: 30be 6dbd 550a bf3a 104f 16bb 5705 723e
00000190: 919f d2bc 5c64 113e 48d9 0c3e b765 01be
000001a0: 57fa a53d 0166 3c3e 4ee5 27be c860 d1bb
000001b0: 1c9d d43d 7cfb 243d 8698 0cbe c175 9f3a
000001c0: ab16 4cbc 9a7f 1f3e 588f c8bd a87e bb3b
000001d0: dfbe 4a3e f0f7 8d3e cdfd f33c 04ad 993c
000001e0: efaa 76bd de0d 53be ba0a 09be a754 c3bb
000001f0: 1420 03bd 1e6e 823b ce29 f0bc 3ecf 4e3d
00000200: 8fd5 f43c ec56 e1bd ce23 64be c403 da3c
00000210: 674f febd 74e8 a9bd f397 7dbd c916 cf39
00000220: f592 f3bd ff57 cd3d 484a fabc 4f01 1e3e
00000230: ec3a 2f3c 4e64 abbc d3cc 8dbc 3be4 733d
00000240: 5c33 aabc 636f 133d e2c1 b13c 52a9 8b3a
00000250: 3171 46bc ddd1 74bd 192a 41bd 99ba 8abd
00000260: cf2e b7bd 8862 1abe 231b 4abc 08fd 0d3d
00000270: 8ae1 043b 7d58 ac3e 61bf f83c 8451 22bb
00000280: 9d97 913d 75dc 27bc 1acc f33a c2ac fabd
00000290: f7d7 f83d 2276 16be c4b7 8dbd ac8c 3abe
000002a0: 72b9 003d 1ed7 a8bd 8d46 863d b0ae a4bc
000002b0: 5d0a 2bbe 6a72 dfbd dd30 26ba 3557 0dbb
000002c0: 5b59 f73d 717d 5cbd 3b9e 32be 8feb 323c
000002d0: 3070 4b3d eabd df3e b2fa 173e 123e 9639
000002e0: 8901 a53d d652 24bd a65b 643d 29f1 cbbd
000002f0: 6fe4 bf3d 88e3 06bb 0d68 8b3c 5349 1c3d
00000300: d20e 2fbd 91e4 10ba e784 613d 813e d6bb
00000310: bb39 63bd 4db5 cf38 9345 563d 55cf 97bb
00000320: b325 5f3d f94e dbbd cdb9 5fbd fc51 4b3e
00000330: 8d2c 52bd d9a4 7f3e 37b6 cfbc 42d0 3e3d
00000340: 5a5f ea3d 9dff 14bd 0f06 d7bd 6a61 82bd
00000350: f56c 2b3d b2f1 003e e0ea 05be 4bbc 003d
00000360: d68b 353d 5c06 e53d 9a69 693d 2998 10be
00000370: 172a e13d 5758 b2bd 5287 993d 610c 5b3e
00000380: 948b 543c da08 20bc b85e d4bd d8ae 30be
00000390: 66ce 8f3d ac23 91bd 59a4 7ebd 7777 b03d
000003a0: 2d0a 3abe 2b04 eb3c d3ac cabe 480b 43bb
000003b0: bd78 0a3e 7c8f c1bd 0be1 743d 0220 5bbe
000003c0: 30aa acbc 1b7e 913d 0cc5 363e c132 933d
000003d0: 9024 e13e 6c60 d1bd 7a1c c3bb 7716 edba
000003e0: 490e a5bc c311 08be 541f 593d 4580 943a
000003f0: e0f3 083d 0706 a4bd 99bf 363c 970a 7dbd

fc_2.bias f4 [10]
-0.006932873 -0.0035815297 0.010889563 -0.008996381 -0.0049075736 0.008354389 0.0045970646 -0.01586696
0.014006495 0.008673221
00000000: 272d e3bb 19b8 6abb 236a 323c 8f65 13bc
00000010: b6cf a0bb d9e0 083c f9a2 963b 6dfb 81bc
00000020: 7f7b 653c 201a 0e3c
