notebooks/models/linear_laplace_0.001/model.pth (torch, 360471 bytes, 6 tensors)

fc_0.weight f4 [100, 784]
0.10918514 -0.062843174 -0.0414549 0.068732634 0.108115494 -0.0015906524 0.12392711 -0.032133833
-0.053032182 -0.032305222 3.0107917e-06 0.06735951 3.2691432e-06 -0.0022751293 0.006974959 0.0010483769
2.794276e-06 3.2462026e-06 0.010168552 2.8400555e-06 -0.14865388 0.044175208 0.095440745 -0.0013399075
-0.0007810473 0.1063964 -0.032567967 3.0769183e-06 0.18918945 -0.029383088 -0.039470132 0.0012677601
-0.046467222 -0.12508678 3.6145095e-06 0.005898139 3.0515807e-06 -0.010014784 -0.024556044 2.9236217e-06
3.2809107e-06 -0.02484733 0.023847668 0.027014429 0.04946851 0.13923667 -0.038465787 2.996866e-06
0.011444955 3.1757409e-06 2.5976865e-06 0.011441302 0.061152324 -0.10251571 -0.014126906 2.6387752e-06
0.025333982 -0.019575696 2.824595e-06 3.1649633e-06 -0.022767711 0.058120105 -0.005012995 4.755098e-06
3.2165935e-06 -0.079238966 3.0413178e-06 -0.01349199 0.0013018019 -0.018852528 -0.06387601 -0.011012281
-0.038664747 0.054758295 0.07020819 0.03793368 -0.068757266 -0.015534603 -0.060485814 -0.06969415
0.030689321 -0.008314667 -0.05642073 0.000408863 0.122208744 -0.0048350245 -0.017389357 -0.035974346
-0.048531502 -0.007585312 -0.0053405175 -0.020684961 0.024823546 0.0441278 0.0215101 2.9502037e-06
0.17856619 0.0027853781 0.00934371 -0.051727735 0.044050172 -0.03795726 -0.060877245 -0.08010686
3.2129942e-06 2.466088e-06 0.116874054 2.1792157e-06 2.8614581e-06 2.689183e-06 3.0149859e-06 -0.040818937
-0.097176835 0.11255507 0.11911252 0.029882599 -0.012376144 -0.092875764 2.9754078e-06 0.0562212
-0.07348208 4.1180197e-06 -0.022091419 -0.0049977307 -0.0022663 0.0840217 -0.23323794 -0.12792937
-0.07509563 0.04919955 -0.033296145 0.0073568034 -1.5452603e-07 -0.026947074 0.03160003 -0.0039041159
-0.04043214 0.040428903 0.007782097 0.021114422 2.966607e-06 -0.12121426 3.1139452e-06 -0.019848747
0.07106293 2.323176e-06 6.068813e-07 -0.0060367095 -0.050194927 -0.0041366993 0.009898057 -0.019084008
-0.017013924 0.03517581 4.4469797e-07 0.049258985 -0.055194173 3.52063e-06 0.056625515 -1.10519e-06
-0.077955 0.023468912 -0.04476227 -0.033176564 0.048913024 2.6540195e-06 -0.008425425 2.8830295e-06
-0.058317408 0.0011279831 2.9858206e-06 -0.0038778975 -0.012065905 -0.06095279 0.011031443 0.014479247
0.04432594 -0.11730147 0.017919015 -4.916258e-05 -0.10426794 -0.009120842 0.0069495 -0.009907424
-0.0464108 -0.004932589 0.0016563947 -0.06702908 -0.007129381 4.6032487e-06 -0.07580291 6.1203336e-06
-7.289581e-05 0.017858958 3.1370641e-06 0.082668975 3.361722e-06 -0.012336165 0.09743496 -0.009711367
-0.035232883 -0.0057987818 -0.0133147 -0.007841929 -8.048238e-06 -0.026918806 -0.0008236155 -0.0014235417
0.039032005 -0.016990557 -0.001367255 -0.09559071 -0.00777829 -0.02158043 -1.3381131e-05 -0.015375045
-9.098716e-06 -4.1142466e-06 0.008068972 5.6812764e-06 0.012772879 -0.08738453 0.017153451 0.02975667
-0.07334964 -0.00788935 3.8968774e-06 7.797561e-06 1.3864945e-05 -0.0013364665 0.18401845 0.15387978
6.684331e-06 -0.041802987 -0.039521128 0.01339778 0.13562332 -3.8432965e-05 -0.022350121 -0.040806517
-0.02348414 0.008722075 6.282168e-05 -0.11825703 -0.01889606 0.087522514 4.1790204e-06 3.5844355e-06
3.3516628e-06 -0.048320286 2.6917842e-06 -0.04397143 -0.049780544 0.0043083476 -0.10255256 1.5473459e-05
00000000: 759c df3d ecb3 80bd 9dcc 29bd b2c3 8c3d
00000010: a86b dd3d 707d d0ba 7fcd fd3d c49e 03bd
00000020: 4638 59bd 7b52 04bd 020d 4a36 c8f3 893d
00000030: 7463 5b36 561a 15bb 328e e43b b169 893a
00000040: 4c85 3b36 56d9 5936 009a 263c c897 3e36
00000050: b938 18be 10f1 343d 7076 c33d d69f afba
00000060: 32bf 4cba 5be6 d93d fd65 05bd 0e7d 4e36
00000070: e1ba 413e cdb4 f0bc 6fab 21bd f82a a63a
00000080: 6a54 3ebd c016 00be cd90 7236 2d45 c13b
00000090: c2c9 4c36 0c15 24bc c229 c9bc 7033 4436
000000a0: 9e2d 5c36 a18c cbbc 2f5c c33c 5d4d dd3c
000000b0: 7e9f 4a3d 0f94 0e3e 4d8e 1dbd c41d 4936
000000c0: 9f83 3b3c d01e 5536 ea53 2e36 4c74 3b3c
000000d0: dc7a 7a3d c2f3 d1bd 8a74 67bc d015 3136
000000e0: 3689 cf3c 365d a0bc 2c8e 3d36 a865 5436
000000f0: 5a83 babc 590f 6e3d 0d44 a4bb fb8d 9f36
00000100: a8dc 5736 0a48 a2bd 7119 4c36 820d 5dbc
00000110: 39a1 aa3a 9e70 9abc 6dd1 82bd db6c 34bc
00000120: ed5e 1ebd 3c4a 603d 50c9 8f3d 5960 1b3d
00000130: 9cd0 8cbd d984 7ebc f9bf 77bd cebb 8ebd
00000140: 2c68 fb3c 3e3a 08bc 6c19 67bd aa5c d639
00000150: 9448 fa3d 206f 9ebb 2074 8ebc d659 13bd
00000160: f8c8 46bd 358e f8bb 82ff aebb 8273 a9bc
00000170: c05a cb3c 5abf 343d f335 b03c 1dfc 4536
00000180: 0eda 363e e48a 363b 5c16 193c 76e0 53bd
00000190: f46d 343d 1279 1bbd 6b5a 79bd 110f a4bd
000001a0: d29e 5736 127f 2536 aa5b ef3d a43e 1236
000001b0: 7a07 4036 d077 3436 1055 4a36 c231 27bd
000001c0: a604 c7bd 4683 e63d 44f1 f33d 5acc f43c
000001d0: 4fc5 4abc a635 bebd 1ead 4736 3348 663d
000001e0: c67d 96bd 852d 8a36 10f9 b4bc 01c4 a3bb
000001f0: 3486 14bb 9213 ac3d edd5 6ebe ebff 02be
00000200: bdcb 99bd 7885 493d 8a61 08bd 5711 f13b
00000210: cbeb 25b4 1cc0 dcbc 086f 013d 32dc 7fbb
00000220: 2c9c 25bd c798 253d f600 ff3b 27f8 ac3c
00000230: ec15 4736 2f3f f8bd 2cf9 5036 d799 a2bc
00000240: 7189 913d dce7 1b36 91e8 2235 97cf c5bb
00000250: 3299 4dbd 268d 87bb 762b 223c 1156 9cbc
00000260: c960 8bbc 8314 103d d3be ee34 cac3 493d
00000270: 4913 62bd f643 6c36 28f0 673d 0a56 94b5
00000280: dfa6 9fbd e041 c03c a458 37bd 26e4 07bd
00000290: 0659 483d b51b 3236 cb0a 0abc 127a 4136
000002a0: 3cde 6ebd d5d8 933a 0260 4836 5324 7ebb
000002b0: 13b0 45bc a2a9 79bd 3abd 343c 5d3a 6d3c
000002c0: 1e8f 353d c13b f0bd e6ca 923c eb33 4eb8
000002d0: 6e8a d5bd 966f 15bc a2b8 e33b c052 22bc
000002e0: 4019 3ebd 8ea1 a1bb 621b d93a 8b46 89bd
000002f0: 959d e9bb 9b75 9a36 8e3e 9bbd 445d cd36
00000300: a4df 98b8 f34c 923c 5a86 5236 5a4e a93d
00000310: f299 6136 a01d 4abc fb8b c73d 6d1c 1fbc
00000320: 5b50 10bd b503 bebb e625 5abc 6f7b 00bc
00000330: eb06 07b7 d484 dcbc e7e7 57ba 2296 baba
00000340: 06e0 1f3d c82f 8bbc 7735 b3ba 10c5 c3bd
00000350: 07e1 febb 71c9 b0bc 857f 60b7 9de7 7bbc
00000360: b0a6 18b7 1c0d 8ab6 b933 043c cba1 be36
00000370: 5645 513c a9f6 b2bd 6585 8c3c 43c4 f33c
00000380: 5638 96bd 5542 01bc ecc1 8236 45d2 0237
00000390: 7c9d 6837 602c afba 556f 3c3e a992 1d3e
000003a0: f749 e036 9c39 2bbd e8e0 21bd 5d82 5b3c
000003b0: d7e0 0a3e 1533 21b8 9a17 b7bc bc24 27bd
000003c0: d061 c0bc 09e7 0e3c 22bf 8338 be30 f2bd
000003d0: e9cb 9abc 013f b33d 8339 8c36 228c 7036
000003e0: 21ed 6036 7eeb 45bd 80a4 3436 631b 34bd
000003f0: afe6 4bbd 0a2d 8d3b 1407 d2bd 00cd 8137

fc_0.bias f4 [100]
-1.5182593e-05 0.11300165 0.086930364 -7.049924e-06 -0.11359991 -5.5213513e-07 -8.3002857e-07 -0.027490497
1.9406174e-08 -0.024634004 0.022073131 0.036439218 -1.471028e-05 -0.013275999 -2.551954e-06 0.0025941955
0.01461014 0.06544077 -0.12421383 -0.067428045 0.05248829 0.07093587 -0.103438966 -0.0019839462
-0.017555293 -0.004560205 -0.0710682 0.15956879 0.004666261 0.12292378 0.026023624 -5.4486787e-05
0.031358454 -0.031618547 -1.3509482e-05 0.013277133 -0.015484723 0.011948555 4.8089523e-06 -0.010644162
-0.014507888 0.064172015 0.043568246 2.5186138e-08 -0.15518758 -3.93313e-06 0.07805266 0.008074928
-0.020786276 -0.00041066547 -0.018219136 -1.1751223e-06 0.013722188 -0.03388779 0.06239678 0.08433999
-0.090307824 -7.1694794e-06 0.0024713948 0.0780141 -0.08185544 2.3233926e-07 0.07711622 0.06623607
2.00083e-05 -0.043590702 7.33238e-06 2.4610902e-06 -2.1522992e-06 -0.06528825 1.0185407e-05 -0.049581822
0.06969724 -6.4569795e-06 -1.3967046e-05 -1.7412373e-07 0.050264068 4.721403e-06 -0.027174879 -8.4014815e-08
-0.071239054 0.047236715 0.13636014 0.1014967 0.009952369 0.04914476 3.8013292e-07 0.032199543
1.1074667e-06 -0.08227202 7.444257e-06 -0.03910789 -3.9658528e-07 2.05302e-05 0.1382529 -0.08838737
0.0067062685 0.1186173 0.016769623 0.008400637
00000000: beb8 7eb7 696d e73d 8c08 b23d 638e ecb6
00000010: 12a7 e8bd 7036 14b5 21cf 5eb5 c033 e1bc
00000020: a1b2 a632 40cd c9bc b6d2 b43c 4a41 153d
00000030: 2ccc 76b7 9383 59bc 3c42 2bb6 6103 2a3b
00000040: 5e5f 6f3c cf05 863d d263 febd b717 8abd
00000050: f6fd 563d d346 913d cfd7 d3bd 1805 02bb
00000060: 1ed0 8fbc c66d 95bb 348c 91bd 0066 233e
00000070: 6fe7 983b 76bf fb3d 7f2f d53c be88 64b8
00000080: b971 003d 7382 01bd c9a6 62b7 5588 593c
00000090: a3b3 7dbc dfc3 433c 965c a136 da64 2ebc
000000a0: 7eb2 6dbc 9e6c 833d 9e74 323d e758 d832
000000b0: 7ee9 1ebe 54f9 83b6 13da 9f3d b44c 043c
000000c0: fb47 aabc 964e d7b9 4c40 95bc e5b8 9db5
000000d0: 07d3 603c eccd 0abd c493 7f3d 72ba ac3d
000000e0: 4ff3 b8bd 5c91 f0b6 20f7 213b dbc5 9f3d
000000f0: d3a3 a7bd ee78 7934 1cef 9d3d c7a6 873d
00000100: 7fd7 a737 2a8c 32bd aa08 f636 3529 2536
00000110: 3870 10b6 d9b5 85bd fde1 2a37 4f16 4bbd
00000120: 6dbd 8e3d 08a9 d8b6 0154 6ab7 c4f6 3ab4
00000130: b2e1 4d3d 8b6c 9e36 da9d debc a26b b4b3
00000140: c8e5 91bd 497b 413d fea1 0b3e 80dd cf3d
00000150: 430f 233c 044c 493d 1215 cc34 abe3 033d
00000160: 44a4 9435 3c7e a8bd aec9 f936 982f 20bd
00000170: 44ea d4b4 4538 ac37 2b92 0d3e 7004 b5bd
00000180: 42c0 db3b a1ed f23d 7360 893c d3a2 093c

fc_1.weight f4 [100, 100]
0.06614912 7.648592e-05 0.074522264 5.477749e-05 -0.018146908 0.017487744 -0.024432462 -0.15167336
0.098837815 0.06451791 0.053667802 0.05481565 2.7233864e-05 -0.11880433 0.021564096 0.010512208
-0.104102775 -0.046189867 0.039357163 0.04853801 -0.0037974317 0.057497855 2.784492e-05 0.10468065
0.04783985 2.5295494e-06 0.005136387 0.05652187 0.16577107 -0.000105694024 0.012179554 -0.020189373
0.18704173 -0.019458877 0.013505404 0.003609735 0.031152768 0.059020285 3.8572576e-05 0.000120677214
0.09234789 -0.1638286 0.031214476 -0.0143856285 -0.015397419 -0.026062295 0.009580458 0.14385438
-0.022689475 0.03203481 -0.31557834 0.00012631601 0.011172323 0.037443776 0.07647368 -0.0053116903
0.064461775 -0.016785644 -9.734898e-06 0.07644132 0.01572888 -0.045921393 0.008870574 -0.015793512
0.08103983 0.09725202 0.045156814 -0.10643177 -0.021302216 -1.893647e-08 0.028800419 -2.2962545e-06
0.019946422 0.08653886 0.025697071 4.9583898e-05 0.05874643 0.04962608 -0.070698366 0.051043004
0.046808667 0.039425697 1.4775402e-05 -0.052467223 0.099454015 0.10148112 -0.09094442 4.214412e-05
-0.0094731 5.6435092e-05 0.12123383 -1.7678121e-05 3.4184726e-05 0.096156456 -5.7235604e-07 1.2736483e-06
1.3652686e-05 0.029821293 0.008575871 2.6329893e-05 -0.012395559 0.053201754 0.043974884 -0.00012035015
-0.014825371 -0.020895492 0.045226704 0.014984547 1.8795849e-05 -0.02338771 -0.00021306334 -0.015002869
-0.008404938 -4.3470598e-05 0.0010323637 0.0742951 0.0062040933 0.01464988 0.03421354 -0.09583042
8.865181e-05 -0.08702253 0.041223735 0.0072939624 0.02243437 0.0974096 -0.07680837 -0.03481725
-0.048294626 0.038872503 0.06613647 0.024331557 -0.037553877 0.032412894 0.057076 -0.008236308
-0.012247759 -1.1551813e-05 -0.0049677165 0.010760822 -0.03350978 0.04656015 0.013398866 0.00044872653
0.10152902 0.13073215 4.98099e-05 -0.010816256 0.06739398 -0.018859051 -0.060072742 0.045748774
0.036861904 -1.7293538e-06 -0.14058845 0.015135573 -0.062345956 0.005171428 0.031026805 -0.32199135
-3.991467e-06 0.08706409 3.540078e-05 -0.07110884 0.11213778 -0.07626192 0.07990367 0.064071015
0.046617165 0.0036235268 -0.15449369 0.018020714 0.05620177 -0.009651354 0.047931172 0.0037603325
0.06472112 0.037702158 0.056582548 -0.012649986 -0.02628829 0.18390766 -0.14336808 -0.040734258
0.028708339 -0.009166728 0.21545044 -0.01797946 7.35514e-05 0.0029420243 0.17996888 -0.04402125
8.842043e-05 -0.1599004 -0.052879043 -1.3730705e-06 0.038082782 0.03940902 0.1265257 0.012284107
0.28521517 1.5078367e-05 0.017647492 -0.115551114 9.511892e-05 0.098622784 0.028586917 0.17662835
0.23377557 0.024658546 0.0019199591 -0.015942035 -0.051129315 0.040306967 4.9935472e-05 0.032151192
0.019792926 0.0007997598 0.013494431 -0.030659042 -0.067464724 0.0025016596 -0.008576388 0.009290199
0.050512645 -3.8296917e-06 -0.28014252 0.035124436 0.02984657 -0.06797949 -0.013616853 -0.003925605
-0.097791135 2.1781247e-05 -0.01565847 0.095890634 0.02419071 0.021483421 1.3524242e-05 5.4100612e-05
-3.6805782e-06 -0.054110095 7.4734875e-05 0.0010751635 -0.08115254 0.034772813 0.00025708377 0.030296758
-0.016061533 0.02982149 -0.024896745 -0.04400183 0.03645053 -0.005910709 -0.02286095 8.038721e-06
00000000: 3179 873d 1167 a038 219f 983d e2c0 6538
00000010: d3a8 94bc 7542 8f3c 9626 c8bc 4350 1bbe
00000020: 7b6b ca3d f721 843d c5d2 5b3d 6086 603d
00000030: 4774 e437 af4f f3bd 30a7 b03c 653b 2c3c
00000040: d633 d5bd 9631 3dbd fa34 213d cbcf 463d
00000050: 55de 78bb df82 6b3d 8394 e937 cf62 d63d
00000060: b8f3 433d 54c1 2936 234f a83b 7a83 673d
00000070: e4bf 293e 0ca8 ddb8 c18c 473c 2f64 a5bc
00000080: de87 3f3e 3968 9fbc c545 5d3c 4e91 6c3b
00000090: 1734 ff3c 41bf 713d fdc8 2138 1614 fd38
000000a0: e420 bd3d afc2 27be 80b5 ff3c b3b1 6bbc
000000b0: 7545 7cbc 9880 d5bc 5af7 1c3c 904e 133e
000000c0: 47df b9bc ef36 033d 7c93 a1be b273 0439
000000d0: 1e0c 373c a55e 193d 3c9e 9c3d b00d aebb
000000e0: 8904 843d 0c82 89bc 1253 23b7 448d 9c3d
000000f0: dad9 803c 1218 3cbd e255 113c 6561 81bc
00000100: 36f8 a53d 112c c73d 5af6 383d e6f8 d9bd
00000110: fc81 aebc bda9 a2b2 dbee eb3c 5a19 1ab6
00000120: ae66 a33c 493b b13d aa82 d23c 4ef8 4f38
00000130: 19a0 703d b744 4b3d 4eca 90bd 7812 513d
00000140: 72ba 3f3d d77c 213d dee3 7737 dfe7 56bd
00000150: 8cae cb3d 55d5 cf3d 1141 babd e7c3 3038
00000160: 1035 1bbc b8b4 6c38 7149 f83d 7a4b 94b7
00000170: 9261 0f38 aded c43d 02a4 19b5 39f2 aa35
00000180: d70d 6537 c94b f43c cf81 0c3c 04df dc37
00000190: be16 4bbc 15ea 593d 021f 343d 7f64 fcb8
000001a0: 1de6 72bc 062d abbc a33f 393d bf81 753c
000001b0: c7ab 9d37 9597 bfbc c169 5fb9 98ce 75bc
000001c0: ddb4 09bc 3354 36b8 6150 873a 0828 983d
000001d0: b54b cb3b 0d06 703c 7f23 0c3d bd42 c4bd
000001e0: 94ea b938 de38 b2bd 38da 283d 3102 ef3b
000001f0: 49c8 b73c af7e c73d b54d 9dbd 889c 0ebd
00000200: 96d0 45bd c638 1f3d 8f72 873d f952 c73c
00000210: 18d2 19bd 62c3 043d 86c8 693d 94f1 06bc
00000220: d3aa 48bc a9ce 41b7 3ac8 a2bb 294e 303c
00000230: 8d41 09bd dbb5 3e3d eb86 5b3c 0e43 eb39
00000240: 72ee cf3d a6de 053e f9ea 5038 aa36 31bc
00000250: db05 8a3d 4c7e 9abc d60e 76bd 1163 3b3d
00000260: 82fc 163d 251c e8b5 6bf6 0fbe 32fb 773c
00000270: 795e 7fbd 1575 a93b ed2b fe3c 0ddc a4be
00000280: 71ee 85b6 a84e b23d 4c7b 1438 83a1 91bd
00000290: 7ea8 e53d 362f 9cbd 89a4 a33d aa37 833d
000002a0: a4f1 3e3d b178 6d3b 9833 1ebe 2da0 933c
000002b0: d433 663d b620 1ebc 7a53 443d e96f 763b
000002c0: 828c 843d 946d 1a3d 1ac3 673d e341 4fbc
000002d0: 8a5a d7bc 4a52 3c3e 15cf 12be f7d8 26bd
000002e0: c02d eb3c 0b30 16bc 0a9f 5c3e a949 93bc
000002f0: 9b3f 9a38 face 403b c349 383e a04f 34bd
00000300: 5b6e b938 eebc 23be b297 58bd 584a b8b5
00000310: b1fc 1b3d 5a6b 213d f48f 013e 4743 493c
00000320: b907 923e 18f9 7c37 7991 903c 10a6 ecbd
00000330: 957a c738 befa c93d 1c2f ea3c 10de 343e
00000340: dd62 6f3e b800 ca3c 23a7 fb3a df98 82bc
00000350: f96c 51bd eb18 253d ce71 5138 f8b0 033d
00000360: c624 a23c f9a6 513a bf17 5d3c ac28 fbbc
00000370: f22a 8abd e2f2 233b fa83 0cbc eb35 183c
00000380: 59e6 4e3d cd80 80b6 d76e 8fbe a4de 0f3d
00000390: cb80 f43c d538 8bbd 3919 5fbc 5da2 80bb
000003a0: b846 c8bd dfb6 b637 3146 80bc 4f62 c43d
000003b0: 992b c63c 00fe af3c 2de6 6237 17ea 6238
000003c0: daff 76b6 8ca2 5dbd fbba 9c38 80ec 8c3a
000003d0: 4e33 a6bd f06d 0e3d 33c9 8639 e830 f83c
000003e0: 7a93 83bc 334c f43c 42f4 cbbc 433b 34bd
000003f0: 274d 153d 9fae c1bb e346 bbbc 0bde 0637

fc_1.bias f4 [100]
2.4042034e-05 -0.030718578 1.2355493e-05 -3.196688e-05 3.6470014e-06 4.064884e-06 0.03099647 -6.0123085e-07
-0.10724413 -1.7702725e-07 -1.1281646e-06 0.012928982 -0.0505535 0.056254316 0.03338717 -0.14858657
-0.049405266 0.007561295 0.021714767 -0.09767554 -1.3826242e-06 0.04550918 -0.0866693 -0.1016716
0.025631309 -0.09136421 0.013322939 0.067097925 7.436873e-06 -0.0030310848 6.1542705e-06 -0.04869943
0.09123155 0.045428764 -1.7429355e-05 0.11968523 -0.052961275 2.5741308e-06 -0.03215613 -0.033245783
0.037593316 2.770215e-06 2.2842041e-05 0.18845816 0.06341591 -0.000585248 0.028573558 0.0021765337
-8.699123e-06 1.11926106e-07 -0.0009575142 0.002560361 0.05625212 -0.067343734 0.041977696 0.06036572
3.2683e-08 0.0019306883 -0.03570337 9.885432e-06 0.015983468 2.6594867e-06 0.041181847 0.03132618
0.09734175 0.011061468 0.057114106 0.05109556 1.0035608e-06 0.025624366 0.07629516 0.12661473
1.0080748e-06 0.013666238 3.1598154e-07 -0.0037176125 -0.009121525 0.009151796 -0.01066629 3.3875983e-06
0.043193456 0.021758564 0.09315141 -0.079799026 -0.022765238 0.11698844 -0.03982434 -0.0049389508
0.055591695 -0.032197792 0.027597357 -6.129871e-07 -0.06411921 0.06400755 0.03810487 -0.006850356
0.0019747866 -1.4433974e-05 1.740203e-06 0.004163574
00000000: e0ad c937 87a5 fbbc 704a 4f37 2d14 06b8
00000010: 02bf 7436 1665 8836 4fec fd3c 4564 21b5
00000020: cfa2 dbbd e114 3eb4 716b 97b5 15d4 533c
00000030: 3011 4fbd ed6a 663d fcc0 083d 1427 18be
00000040: 2d5d 4abd bdc4 f73b 2be3 b13c 1d0a c8bd
00000050: 9b92 b9b5 d567 3a3d ad7f b1bd 3339 d0bd
00000060: c0f8 d13c 291d bbbd 7548 5a3c a36a 893d
00000070: 418a f936 2aa5 46bb c880 ce36 0e79 47bd
00000080: 9bd7 ba3d 8313 3a3d 4135 92b7 881d f53d
00000090: eced 58bd 3bbf 2c36 25b6 03bd bb2c 08bd
000000a0: 73fb 193d eee7 3936 e99c bf37 2dfb 403e
000000b0: 33e0 813d 546b 19ba 1813 ea3c 2da4 0e3b
000000c0: 73f2 11b7 075c f033 b101 7bba bbcb 273b
000000d0: 9f68 663d 83eb 89bd cef0 2b3d 0c42 773d
000000e0: 575f 0c33 260f fd3a b23d 12bd 9bd9 2537
000000f0: c3ef 823c a279 3236 4cae 283d e14f 003d
00000100: 1d5b c73d 293b 353c 7bf0 693d 9449 513d
00000110: 16b2 8635 31ea d13c a340 9c3d 4ba7 013e
00000120: 304d 8735 5be8 5f3c 2ca4 a934 30a3 73bb
00000130: 7372 15bc 6af1 153c aac1 2ebc 7f56 6336
00000140: 9feb 303d 043f b23c 2bc6 be3d ac6d a3bd
00000150: 2a7e babc a397 ef3d d91e 23bd ecd6 a1bb
00000160: 1eb4 633d d5e1 03bd da13 e23c 278c 24b5
00000170: ef50 83bd 6416 833d da13 1c3d f378 e0bb
00000180: 6c6b 013b 7229 72b7 eb90 e935 976e 883b

fc_2.weight f4 [10, 100]
0.04897449 -0.05399168 0.007658456 0.002423735 -6.3457223e-06 -0.14846793 -0.107747935 -0.00026758976
0.039099764 0.007816504 -0.14880307 0.053718157 -0.09550691 0.023010327 -0.070309974 -0.12383779
-6.0693003e-07 -0.07126013 -0.22993726 0.024338026 -0.17796995 -0.06941271 -2.1644224e-08 -0.11320493
0.018326955 -0.16541684 2.1714573e-07 -0.05961823 0.019966222 -0.0095929885 0.08065231 -0.05544103
-0.3610041 -0.07776457 -0.15298781 0.09683258 -0.057894427 -0.22236751 -5.003391e-07 0.30150193
-0.012785369 -0.090542704 -0.05325351 -0.11356852 2.9118735e-07 0.011102312 0.05185127 0.12069698
0.36190417 0.077504046 0.10694824 0.28384453 -0.048056137 -0.039579365 0.15809435 0.04415892
0.003024294 0.067591 -0.011744755 -0.04980813 -0.15618569 -0.12659964 -0.0838592 0.055925872
-1.9556576e-07 -2.4662623e-07 -0.16862696 0.11059823 -3.2509126e-06 -0.021013394 2.2724567e-05 -0.05410828
0.11758047 0.061903667 5.5259846e-09 0.05077513 -0.11274153 0.04491035 -0.07435086 0.22463056
-0.006963987 -0.055985875 2.8166864e-05 -0.17394415 0.23079647 0.046418075 -0.07022708 0.28769848
-0.008075232 -0.07538526 -0.043242406 0.0038885053 0.17675896 0.057516832 -0.15901835 0.018795714
-3.5351825e-06 -0.114543214 0.10914946 -0.2423612 -0.14382195 0.045873556 0.12436827 0.000103128434
-0.049396597 0.03684283 0.106136315 0.179231 -0.07416172 -0.0962001 0.096402764 -0.08482966
0.0096810935 -0.1395001 -0.050695516 -0.039099697 0.0208217 0.1174588 0.092567444 -2.4555675e-06
0.06486887 9.3522585e-06 -0.011059591 0.061945602 -0.023423912 -0.06692957 0.048325595 0.023444096
0.29032522 -0.0017708472 -0.02335094 -3.3815438e-06 -0.19464388 0.17705306 -0.27705082 -0.031258322
-0.14787942 0.15100168 -0.028548226 -0.07685209 -0.0014877643 0.2354476 -0.016860237 0.018421846
-1.0296676e-06 -0.049793415 -0.07226334 -0.06329367 -0.018359035 0.040964343 -0.046098102 0.15782247
0.04441507 -0.17779648 0.023288798 -0.1530052 0.049971193 -4.5908072e-07 -0.11775403 0.12229229
-0.07333135 0.013649871 0.12200192 -0.07986427 -1.4668876e-07 -0.034644026 -0.061699808 -4.352358e-06
4.5021177e-05 0.0008279792 -0.12038378 0.43526518 0.039599504 -0.17929354 -1.9261527e-08 -0.13525939
-0.033758327 -0.05243457 -0.013699406 -0.1472789 0.0016231978 0.07986421 -0.05450891 0.1940889
-0.116484106 0.015255607 0.02333084 -0.0039122 -0.15900785 0.24506207 4.97587e-06 -0.048160095
-0.05890942 -0.02064603 0.148498 -0.06545602 3.3604927e-06 -0.047566023 -0.026313622 -0.10888492
0.0622318 -0.006766943 0.103903085 -0.09100324 0.08233544 0.33639002 -0.22592424 -0.024800569
-2.0161756e-06 0.09137627 -0.090646535 -8.5242275e-05 0.029292565 0.14382114 -0.046006233 8.454792e-07
-0.014449384 -0.17328025 0.17800924 -0.009936629 -0.031510938 0.0936393 -0.029211955 -0.038536396
-2.581713e-06 0.0031867812 5.288908e-08 0.029014196 0.033444162 0.12628733 -0.018854255 0.034313228
-0.2977362 0.031429928 -0.00063320063 0.03272636 0.13425562 -0.2466022 0.08538208 -3.96109e-05
-0.005406338 -0.055068865 -0.04330458 0.08908228 -2.0280588e-05 -0.087287165 0.035014268 -0.089087516
0.0012760945 -0.06554604 0.01318971 0.078171775 -0.10052498 0.031654082 -0.046750028 -7.36294e-05
00000000: 7a99 483d 6126 5dbd c9f3 fa3b 87d7 1e3b
00000010: 57ed d4b6 fa07 18be f3aa dcbd 4a4b 8cb9
00000020: 1327 203d cb10 003c d55f 18be 9207 5c3d
00000030: 2099 c3bd 2780 bc3c adfe 8fbd ab9e fdbd
00000040: eaeb 22b5 d5f0 91bd ac74 6bbe 8a60 c73c
00000050: c13d 36be 4028 8ebd 27ec b9b2 fdd7 e7bd
00000060: 6922 963c 0863 29be 9028 6934 3f32 74bd
00000070: 3490 a33c e92b 1dbc 0a2d a53d 2216 63bd
00000080: 88d5 b8be 0843 9fbd d6a8 1cbe 2950 c63d
00000090: b522 6dbd 4fb4 63be 0b4f 06b5 765e 9a3e
000000a0: b979 51bc 746e b9bd 5a20 5abd 9d96 e8bd
000000b0: 7c54 9c34 79e6 353c ff61 543d fa2f f73d
000000c0: 814b b93e 71ba 9e3d ae07 db3d 1254 913e
000000d0: 83d6 44bd f91d 22bd 7ce3 213e fcdf 343d
000000e0: 3c33 463b 266d 8a3d 136d 40bc 9c03 4cbd
000000f0: 24ef 1fbe 56a3 01be 5fbe abbd 8712 653d
00000100: b5fc 51b4 0d68 84b4 8cac 2cbe 5381 e23d
00000110: 412a 5ab6 4824 acbc a3a0 be37 a5a0 5dbd
00000120: 08ce f03d b38e 7d3d 13df bd31 95f9 4f3d
00000130: 08e5 e6bd eaf3 373d 4445 98bd 8e05 663e
00000140: 2832 e4bb 7251 65bd e147 ec37 6a1e 32be
00000150: e955 6c3e e120 3e3d 37d3 8fbd 374d 933e
00000160: fa4d 04bc 9663 9abd f31e 31bd 4bd6 7e3b
00000170: 4d00 353e c596 6b3d b5d5 22be 78f9 993c
00000180: f93d 6db6 a295 eabd c189 df3d 892d 78be
00000190: 1046 13be e9e5 3b3d cbb4 fe3d a846 d838
000001a0: 1654 4abd 82e8 163d ff5d d93d 5588 373e
000001b0: 1ae2 97bd 8f04 c5bd d06e c53d 2cbb adbd
000001c0: 739d 1e3c 1dd9 0ebe 1aa6 4fbd 0127 20bd
000001d0: 4592 aa3c 3d8e f03d 0094 bd3d 54ca 24b6
000001e0: f8d9 843d a5e7 1c37 4933 35bc acba 7d3d
000001f0: 81e3 bfbc 5f12 89bd 0ff1 453d d50d c03c
00000200: 82a5 943e c61b e8ba 784a bfbc 7bee 62b6
00000210: ba50 47be 664d 353e 9bd9 8dbe ba08 00bd
00000220: b46d 17be 2fa0 1a3e f8dd e9bc a164 9dbd
00000230: 1601 c3ba 2d19 713e 7b1e 8abc 69e9 963c
00000240: 1c33 8ab5 2ef4 4bbd cdfe 93bd 1da0 81bd
00000250: b065 96bc 3aca 273d 5dd1 3cbd 379c 213e
00000260: 94ec 353d 4810 36be 26c8 be3c 65ad 1cbe
00000270: 98ae 4c3d 9377 f6b4 0629 f1bd 6174 fa3d
00000280: bf2e 96bd b5a3 5f3c 25dc f93d e18f a3bd
00000290: 8081 1db4 e5e6 0dbd f0b8 7cbd 780a 92b6
000002a0: 1fd5 3c38 be0c 593a c58b f6bd 14db de3e
000002b0: 1733 223d ba98 37be 8c74 a5b2 7081 0abe
000002c0: 2c46 0abd a2c5 56bd 7973 60bc 48d0 16be
000002d0: 7bc1 d43a d98f a33d bc44 5fbd 3ebf 463e
000002e0: 388f eebd a7f2 793c 5120 bf3c ea31 80bb
000002f0: f4d2 22be 8df1 7a3e 66f6 a636 8543 45bd
00000300: 014b 71bd dd21 a9bc dc0f 183e ce0d 86bd
00000310: d384 6136 97d4 42bd aa8f d7bc 0fff debd
00000320: c6e6 7e3d 3bbd ddbb 24cb d43d e85f babd
00000330: 7c9f a83d 503b ac3e af58 67be 902a cbbc
00000340: a24d 07b6 7b23 bb3d e4a4 b9bd 19c4 b2b8
00000350: f6f6 ef3c d945 133e 0871 3cbd e3f4 6235
00000360: 1cbd 6cbc 6170 31be 0e48 363e 3ecd 22bc
00000370: 9d11 01bd f6c5 bf3d e94d efbc 57d8 1dbd
00000380: 7e41 2db6 51d9 503b 2928 6333 2eaf ed3c
00000390: bffc 083d 7751 013e 3d74 9abc 078c 0c3d
000003a0: e170 98be abbc 003d 60fd 25ba 130c 063d
000003b0: 4e7a 093e 4a85 7cbe cddc ae3d e123 26b8
000003c0: a627 b1bb e48f 61bd 2560 31bd c570 b63d
000003d0: 3b20 aab7 9dc3 b2bd 1f6b 0f3d 8473 b6bd
000003e0: a042 a73a 013d 86bd a719 583c 8618 a03d
000003f0: 0ae0 cdbd b6a7 013d f57c 3fbd 7c69 9ab8

fc_2.bias f4 [10]
0.10500376 -0.048398215 2.784569e-05 0.08523986 0.01476263 0.00944019 -0.027955798 -0.008814231
-0.012031415 0.0014955696
00000000: 360c d73d 353d 46bd 2a96 e937 3c92 ae3d
00000010: f5de 713c 07ab 1a3c 8f03 e5bc 9069 10bc
00000020: 691f 45bc fd06 c43a
