notebooks/models/fcnn_normal_0.005/model.pth (torch, 360471 bytes, 6 tensors)

fc_0.weight f4 [100, 784]
000000 98 eb e5 bb b7 f9 64 bd 18 3c fb bc 09 dc 85 bc
       -0.0070166104 -0.05590221 -0.030668303 -0.016340273
000010 59 23 74 3c 79 fd a6 bb ae 2e ec 3c bd ca 18 3d
       0.014901006 -0.0050961343 0.028830852 0.03730272
000020 63 6b 65 3d 84 e2 ea bb 68 dd 77 3d 3c b3 0b bd
       0.056010615 -0.007168116 0.060513884 -0.034106478
000030 40 d3 8a 3d 69 c8 7c bc c0 7a 64 3d 05 73 92 bc
       0.06778574 -0.015428641 0.055781126 -0.017877111
000040 c2 5d 32 3c 42 ce 3d bd 95 41 65 bc 01 a6 16 bd
       0.010886611 -0.04633928 -0.013992687 -0.036779407
000050 18 01 0c bc 43 fa 3d bd a4 a4 6e bd a0 68 e3 bb
       -0.008545183 -0.046381246 -0.058262482 -0.0069399625
000060 c5 83 33 3d 24 38 2e bc e0 af 8b 3c 4b d8 ad 3b
       0.043826837 -0.010633502 0.017051637 0.005305325
000070 93 fa ac 3c 0f 9a 39 bb cc 8a fb bb 21 b4 45 3d
       0.021115577 -0.0028320586 -0.007676458 0.048267487
000080 9d 9b 03 bc 02 94 82 bc f1 14 0f bd 58 ba 61 3c
       -0.008032707 -0.015939716 -0.03493208 0.013777338
000090 b6 bd 72 3d e5 12 a1 3b 40 6b ee 3c c0 32 83 bd
       0.059262954 0.0049155825 0.029103875 -0.06406164
0000a0 42 f6 c0 3b a8 23 b1 ba c1 f9 88 3c 4f be 46 bc
       0.005888731 -0.0013514655 0.016720654 -0.012130334
0000b0 07 85 b0 bc 98 a8 43 bc 54 7a 7c 3d d5 c2 83 bd
       -0.021547807 -0.011942051 0.0616401 -0.06433646
0000c0 ec c4 57 3d 17 01 7d 3c 30 d0 b0 bd 12 1e 90 bd
       0.052678034 0.015442154 -0.086334586 -0.070369855
0000d0 0a c8 96 bc 17 51 81 3c f0 28 7e 3a 46 7e 3f bc
       -0.018405933 0.015785737 0.0009695431 -0.011687821
0000e0 92 2f 6d 3d 44 9c b4 3b d7 51 5c 3c 56 e0 5a 3a
       0.057906695 0.0055117924 0.0134472465 0.00083494687
0000f0 22 7d 07 3d 18 98 46 bc 06 10 12 3d d2 4e 2d 3d
       0.03307832 -0.012121223 0.035659812 0.042311497
000100 da e2 8e 3d df f5 f7 bb 55 73 2f 3c 7f 57 d3 3c
       0.06976862 -0.007567152 0.01070865 0.025798557
000110 e5 96 06 bc 22 ec de bb 15 4a be bc 8a 2c 88 3c
       -0.008214687 -0.0068030516 -0.023228684 0.0166228
000120 f1 cf 45 3d a6 4d 8a bd f9 29 8d 3d b6 5b 01 bc
       0.04829401 -0.067530915 0.06892771 -0.007895401
000130 8e 33 5b bc c8 c1 01 3d 60 04 ce bc a0 62 e0 3c
       -0.013378991 0.031678945 -0.02514857 0.027390778
000140 04 16 e2 ba e9 1e 7c bc 4e 1c 7e 3d 14 42 c4 bb
       -0.0017248993 -0.015388229 0.062038712 -0.0059893224
000150 5b a6 f1 3b ef e0 93 3c c7 bb 2c bd 77 b5 a9 bc
       0.0073745674 0.018051593 -0.042171266 -0.020716412
000160 ef 6e ff 3c ad 69 36 3d 6f 8f d9 bb 95 c1 25 3d
       0.031180827 0.044534374 -0.006639413 0.040467817
000170 8c 7d b3 bb 20 4a d3 3c ca 55 1c bc 51 b2 e3 bc
       -0.005477613 0.025792181 -0.009541938 -0.027794989
000180 e6 3a 45 3d 7a 57 15 3c 84 a0 31 3d 60 67 a2 3d
       0.048151873 0.009115094 0.04336597 0.079298735
000190 0f df df bc f6 15 ba 3b 48 85 5d 3c 89 a3 18 3d
       -0.027328042 0.0056788875 0.013520546 0.037265334
0001a0 6c 34 21 3c 37 a1 72 bd 52 45 5e 3d 95 d8 b8 3d
       0.0098391585 -0.059235778 0.054265328 0.09025685
0001b0 ff c8 51 3c 9d 32 41 bd f3 2e 05 bc 7b a2 ce 3c
       0.012804269 -0.04716741 -0.008128869 0.025223961
0001c0 2f 90 f3 bc 21 7c ba 3b 26 b8 c1 3c a3 25 f3 3c
       -0.029731838 0.005691067 0.02364738 0.029681033
0001d0 fb 23 96 3d 85 89 d8 3c d3 7f 6a 39 c7 0e c7 3c
       0.073310815 0.026432762 0.00022363597 0.024299039
0001e0 d1 d3 85 bb ec 0c 56 3d 5d 95 e9 3c 5f 08 02 bd
       -0.0040840884 0.052258417 0.028513605 -0.031746265
0001f0 e3 e7 10 3d 7e 2f 88 3b f3 74 ce 3b 22 d8 b1 bc
       0.035377394 0.004156052 0.0063005625 -0.021709505
000200 d0 41 12 3c f0 1b 81 bd 65 33 82 bd 83 01 53 bc
       0.008926824 -0.06304157 -0.06357459 -0.012878778
000210 0a ee 4e bd 6b 52 4b bd 92 ea 61 3d a5 8b e6 3a
       -0.05051998 -0.049639147 0.055155344 0.0017589225
000220 f7 0c 63 3d d4 fd 6e bc 3f 39 bc 3c 90 47 01 bd
       0.055432286 -0.0145868845 0.022976516 -0.031562388
000230 15 75 46 3c 5c cb 0e bd 08 cc e1 3b e5 80 1e bd
       0.0121128755 -0.034861907 0.0068907775 -0.038697142
000240 57 c0 bf bd f4 77 ee bc 94 be b3 bb 2e f7 31 3d
       -0.09362858 -0.029109932 -0.005485365 0.04344862
000250 b6 ca 4b bd ac c1 fd bc 0e 1c d4 3d 81 c6 17 bd
       -0.049753867 -0.030976139 0.103569135 -0.037054542
000260 7b 5a 87 3d 52 cb 04 3d 26 2e 8b 3c 68 39 d8 3c
       0.06609055 0.032420464 0.016989779 0.026394561
000270 22 eb 7d 3d 11 60 27 3d f5 2d 78 3d 02 01 bb bb
       0.06199182 0.0408631 0.060590703 -0.0057069072
000280 a3 26 8e 3d e3 b9 7d 3c 82 8d a0 bc dc 0e 13 bc
       0.06940963 0.015486213 -0.019598726 -0.008975711
000290 d2 26 d0 3c 45 d5 fb bb 2f 5f 6c bd 17 c2 32 bc
       0.025409136 -0.007685336 -0.05770796 -0.010910532
0002a0 90 8e 02 bc ad 90 2c 3c 0c 53 33 3d 55 53 aa 3b
       -0.00796856 0.01053254 0.04378037 0.0051979222
0002b0 1d fe 2a 3d 1c 81 ac bc 4c d1 31 3d f8 1c c0 bc
       0.041746248 -0.021057658 0.04341249 -0.023451313
0002c0 74 5d 3b 3c b1 79 0d 3d 04 dd 93 bc 0c cf 23 3d
       0.011435855 0.034539882 -0.018049724 0.039992377
0002d0 b0 ab 4e 3d 41 6c 26 b9 cb e1 43 bd a1 fb 53 3c
       0.050456703 -0.00015871321 -0.047822755 0.012938411
0002e0 5b ad 4f 3d 55 3a ce bd 26 7a 94 3c d4 c9 0d 3c
       0.050702434 -0.1006972 0.018124651 0.008654077
0002f0 65 6e ac 3c 22 67 f1 3c d1 c6 c8 3c 26 f5 ff 3c
       0.021048734 0.029468123 0.024508866 0.031244826
000300 56 7b be bc 07 40 8b 3c 26 3a 07 bc ec 86 0b bc
       -0.02325217 0.016998304 -0.00825361 -0.008516055
000310 d8 28 46 3c 0f 21 04 3d 6f 40 f0 3c f0 dc 37 3c
       0.012094699 0.03225809 0.0293276 0.011222109
000320 6a db bb bc a2 4e 19 3c d7 e6 9a bc 4d 1c 30 3c
       -0.022931773 0.009357126 -0.018908901 0.010748935
000330 44 3a 17 3d a1 45 32 3c 0f a2 3a bc 61 a3 f0 bc
       0.0369208 0.010880859 -0.011391177 -0.02937478
000340 0e cb 57 bd 58 d5 98 bd b6 21 b4 3b ad b2 2b 3c
       -0.052683882 -0.07462567 0.0054971827 0.010479611
000350 af 6e 0e bd 13 df 83 3d 85 72 c9 bb 38 7d 3c bc
       -0.034773525 0.064390324 -0.006147685 -0.011504464
000360 24 33 2c 3d b5 0a 78 3c eb 38 37 bd 99 35 3c 3a
       0.04204096 0.0151392715 -0.044732016 0.00071796175
000370 a5 a8 c3 3a ef ac 21 bd 28 f9 01 3d 51 a4 a0 3d
       0.0014927579 -0.039471563 0.031731755 0.07843841
000380 b7 f2 2d bc 58 30 d9 3b 04 e6 94 3d 20 44 4e 3c
       -0.01061695 0.0066280775 0.072704345 0.012589484
000390 97 70 c4 bb 68 66 e5 bb 31 0d bf 3c d7 7f cb bc
       -0.005994867 -0.007000733 0.02332172 -0.024841232
0003a0 1e 05 c9 bb ce 5e a5 bc d0 69 9b bb 7d 89 aa 38
       -0.006134643 -0.020186808 -0.0047428384 8.131841e-05
0003b0 1d 31 06 bc c9 6a 59 bb cc 63 a3 bb e2 e6 05 bd
       -0.00819042 -0.0033175221 -0.004986262 -0.03269089
0003c0 53 b7 be 3b 82 e5 4d bd d6 95 7a bc 82 63 cd bb
       0.005820194 -0.050267704 -0.015294513 -0.006267966
0003d0 34 a9 cd bc 8d 56 80 bc 6e d5 e5 3c c8 f6 f0 bc
       -0.025105096 -0.01566627 0.028055873 -0.02941455
0003e0 92 4b 2f bd 5b 56 d8 3c 89 ba fe 3c 83 af 30 3d
       -0.04279668 0.026408365 0.031094806 0.04313613
0003f0 8a 02 4e 3d d6 09 a6 bb e9 d6 31 bd 3f 8f 36 3c
       0.05029539 -0.0050670905 -0.043417845 0.011142551

fc_0.bias f4 [100]
000000 c1 fd 58 3d 1e b7 90 bc 83 96 6f bc 2c 61 08 3c
       0.052976374 -0.017665442 -0.014623287 0.008323949
000010 83 a2 aa 3d c4 d0 36 3d e4 6a 93 3d 30 37 e7 ba
       0.08331778 0.04463269 0.07198122 -0.0017640349
000020 90 67 01 bd 69 3e 5c 3c 0e 90 f1 bb e0 cd 1b bd
       -0.031592906 0.013442614 -0.007371909 -0.038038135
000030 c5 00 84 3c 1e ce ed 3c 1d e2 a8 bc e6 d7 a7 bc
       0.016113648 0.029028948 -0.020615632 -0.02048869
000040 bc 8c 76 3d ee ea 03 3d 43 83 04 bc 4b b2 26 bd
       0.06019281 0.03220647 -0.008087936 -0.040697377
000050 fa e6 e1 bd df ee 09 bc 2c 43 5f 3d 20 a3 41 bd
       -0.110303834 -0.008418768 0.05450742 -0.04727471
000060 66 02 32 3d 4a fb c9 b9 fd 90 06 3d 39 c4 4e ba
       0.04345932 -0.00038524932 0.032853115 -0.0007887516
000070 56 52 bf bc 01 49 b4 3d 5d 31 2a 3d 3d 63 9a bc
       -0.02335469 0.08802987 0.041550983 -0.018846149
000080 ae f5 c0 bb c2 8e 96 bc f1 11 f2 b8 e3 63 87 bc
       -0.0058886623 -0.01837862 -0.00011542801 -0.016527122
000090 57 3c a0 bc 1f 1a 85 bc 7f 50 ca 3c 1a 17 5d 3d
       -0.019560022 -0.016247807 0.024696587 0.05397711
0000a0 bb fc 82 3d 50 41 10 bd 06 8a d2 3c 8c df 28 bd
       0.06395861 -0.035218537 0.02570058 -0.041228816
0000b0 b2 2c 0c bd 2e 38 7a 3c d5 d5 bc bc ac 0a cd 3c
       -0.034222312 0.015272183 -0.023051182 0.025029503
0000c0 8b 88 3f 3d 6a 15 94 ba 9e df 10 bd a6 7a 46 3d
       0.046761077 -0.0011297886 -0.035369508 0.04845681
0000d0 80 ac ad bc 85 c5 0b bd be 43 f2 bc 29 9a 1c 3d
       -0.021200418 -0.034123916 -0.029573318 0.038232956
0000e0 89 d1 42 3c c8 63 8e bd 3b 06 04 bc 4c cf 9f bb
       0.011890777 -0.069526255 -0.008058126 -0.0048770066
0000f0 9b 4c 69 3b 25 6d 12 3c 25 e6 69 bd 10 80 02 bd
       0.003559864 0.008937155 -0.05710425 -0.03186041
000100 89 f3 da 3b 79 1a bb 3c 36 d0 1d 3d 96 67 00 3d
       0.0066818637 0.022839772 0.038528644 0.031348787
000110 0d 30 a8 bc 3c d5 d8 3c a2 c7 aa bd f7 c5 3c bd
       -0.020530725 0.026468866 -0.08338858 -0.04608723
000120 9d be e8 bc f7 41 e0 bb d6 ac b4 bc 37 52 8d bc
       -0.028411204 -0.006843801 -0.02205507 -0.017251117
000130 5f 96 85 3d a8 fc 00 3d 97 e9 5c bc b6 92 9d 3d
       0.06522822 0.03149095 -0.0134834265 0.076939985
000140 dd 89 0d bb 5f 58 a3 bd 9c a7 a2 3c f6 41 39 3d
       -0.0021597065 -0.0797584 0.019855313 0.04522892
000150 3e 23 f7 bb ad db e7 3c 55 87 13 3d ba 9e af b9
       -0.007542043 0.028302992 0.036017735 -0.00033496862
000160 23 4a e7 bb 59 26 a4 3d fc fe 66 bc 44 10 76 3c
       -0.0070583983 0.08015127 -0.014098879 0.015018526
000170 d4 aa 84 3c 36 84 f1 3c 70 2b 2f bd ee 65 4d bc
       0.016194738 0.029481988 -0.042766035 -0.012536509
000180 5a e4 40 3d ab 70 13 bd 9a b5 aa bc 75 3e cf 3c
       0.047092773 -0.03599612 -0.020838547 0.025298337

fc_1.weight f4 [100, 100]
000000 c2 d5 5a bc 01 88 01 3d 44 80 aa 3d 71 85 71 3e
       -0.013356628 0.031623844 0.08325246 0.2358606
000010 88 c6 c0 3d d3 8e 7b 3d d0 6c ba 3c 31 a7 fa 3d
       0.09412867 0.061415505 0.022756964 0.122389205
000020 73 f8 3f 3c bc 08 8b 3d 53 65 81 bc 76 88 53 3d
       0.01171695 0.06788775 -0.015795385 0.05164381
000030 a3 e4 86 3d e6 2d 82 3d b8 97 e7 3c d4 31 99 bd
       0.06586578 0.06356411 0.028270587 -0.07480207
000040 9f 71 7c 3c a1 88 4b ba 72 da c1 3c cc d0 00 3d
       0.015407949 -0.0007764195 0.023663733 0.031449124
000050 f6 84 98 bd c0 2d e2 bd 65 da 4f 3d 17 c9 12 3e
       -0.07447235 -0.11043882 0.050745387 0.14334522
000060 a2 92 53 3d e3 f0 c9 3b f5 dc 73 bd 62 5f 08 bc
       0.05165351 0.006162749 -0.059536893 -0.008323522
000070 0f e6 c6 bd f0 fa 88 bd b1 ee a7 bd 27 52 e0 3d
       -0.09711849 -0.066884875 -0.08199824 0.10953169
000080 c4 7c 1d bc 8a f2 85 bc 63 32 c7 3c 48 88 60 bc
       -0.009612266 -0.016351003 0.024316018 -0.013704367
000090 88 64 f8 3b 4d 17 21 3d af 6d 9c 3d 27 c2 94 3d
       0.0075803436 0.039328862 0.07638108 0.07263594
0000a0 06 31 26 3c 93 d3 9b 3c b2 59 c3 3d da fe 5f 3d
       0.010143524 0.019021785 0.095385924 0.054686405
0000b0 14 e8 83 3b cf 31 0e 3c 6e 21 30 bc e2 7f 56 3d
       0.0040254686 0.0086788675 -0.010750158 0.052368052
0000c0 a5 11 27 3a 9c c7 2f 3e b4 86 b7 bd 79 73 f3 bc
       0.00063731737 0.17165989 -0.089612395 -0.029718148
0000d0 1e b9 0b 3d 9b e0 da bc 42 26 2f be 54 03 9f 3c
       0.03411209 -0.026718428 -0.17104438 0.019410767
0000e0 a7 84 9a 3b f9 26 40 bd b2 4b 84 3d 6e c3 b1 3d
       0.0047155204 -0.046912167 0.0645975 0.086798534
0000f0 1c 50 d2 3b b1 48 69 bd 5b a5 11 bc 71 fe 72 bd
       0.006418241 -0.05695409 -0.0088895215 -0.059324685
000100 2d 67 bf 3c c1 0b 14 bd 9f 9e 4b bd 5f 27 fa bc
       0.023364628 -0.036144022 -0.04971182 -0.030536352
000110 05 65 8b bc 24 37 fb 3c 4e e1 75 bb 9e 53 8a 3c
       -0.017015943 0.030665942 -0.0037518325 0.016885575
000120 b8 36 c7 3c 35 c2 a6 bd 2a f2 fc bc 21 15 ee 3d
       0.024318084 -0.08142511 -0.030877192 0.11625124
000130 48 36 ac 3c 11 51 ca bc b3 e0 4e bd 90 d9 af 3d
       0.021021977 -0.024696859 -0.05050726 0.08586419
000140 1d 2e 9f 3c 69 a9 07 ba 49 4b 5c 3d e1 76 65 bc
       0.019431168 -0.00051750854 0.053782735 -0.014005394
000150 de 40 6c 3d 41 3c b3 bc 2e 7c 11 bc 7b 2a 9b 3d
       0.05767905 -0.021879317 -0.008879704 0.07576462
000160 d2 03 a4 bc dc dd 14 3e d6 d5 70 3d 1d cf f9 bc
       -0.020021353 0.14537758 0.05879768 -0.030494267
000170 24 d4 45 3d 70 4b 51 bd eb 79 ad 3c 22 e2 af bb
       0.048298016 -0.051097333 0.0211763 -0.0053675333
000180 0e f9 b4 3d 17 19 80 3d 25 3a f0 bc be 13 9b bb
       0.08836566 0.062547855 -0.0293246 -0.004732578
000190 49 13 c8 3c 23 aa 6d bd 12 ba 54 bd 76 34 9d 3d
       0.024423258 -0.058023583 -0.051935263 0.07676022
0001a0 f6 4c 97 bd d4 4e f0 bc 0d 3d 45 bd 7d 42 14 3c
       -0.07387726 -0.029334463 -0.048153926 0.009049055
0001b0 97 3b d0 bc f8 e6 aa 3c 50 82 fc 3c 09 20 9f 3c
       -0.02541904 0.020862088 0.030823857 0.019424455
0001c0 c5 67 18 3c 46 83 be 3d b2 e6 29 3b 87 c9 0b bd
       0.009302084 0.09302382 0.0025924859 -0.03412774
0001d0 2a 67 b0 bd 36 c1 fd bb 23 e3 8f 3d d3 6b dd bc
       -0.08613427 -0.00774398 0.07025745 -0.027028954
0001e0 0d e4 b2 bc 84 f6 86 bd 40 33 76 3d 1a d6 45 3d
       -0.021837259 -0.06589988 0.06010747 0.048299886
0001f0 6e a9 05 bd de c6 26 bd d6 79 07 bd 1c 00 70 3c
       -0.032632284 -0.040717 -0.033075176 0.014648464
000200 b3 95 b8 3c f3 cb 03 3c a0 d5 94 bd a7 23 86 3d
       0.02253232 0.008044231 -0.07267308 0.06549769
000210 53 4e c7 3c 8e a8 43 bb af c6 96 bd d4 89 52 bc
       0.02432934 -0.0029855105 -0.07362115 -0.012850244
000220 f1 57 63 3d 80 68 73 3d c8 8c 01 bd b8 0c aa 3d
       0.05550379 0.05942583 -0.0316284 0.08303207
000230 77 01 86 3c e9 83 d1 3d 18 0d c0 3c 55 d3 4e bd
       0.01635812 0.10230238 0.023443744 -0.05049451
000240 68 ea ff 3c 26 f6 1a 3d 3f d4 50 bc bb c0 11 3c
       0.031239703 0.0378324 -0.012745916 0.008896048
000250 39 db 9b bd cf 77 82 3d 1b 74 30 3d f3 e4 aa 3c
       -0.07610173 0.06370508 0.043079477 0.020861125
000260 30 65 e6 bc f3 a6 4e 3d d0 b0 69 3d 41 b5 70 bd
       -0.028124422 0.050452184 0.057053387 -0.058766607
000270 82 33 1c bd e7 e3 4c bc 81 5e 68 bb 6e f7 77 bd
       -0.03813506 -0.012505508 -0.003545672 -0.0605387
000280 11 15 07 bd 3d 6b f5 3d 79 9c a8 3c e9 92 0b 3e
       -0.032979075 0.11983345 0.020582424 0.1363026
000290 69 96 21 bc 9b c2 3a bc 0c b8 f9 3c b7 5d 92 bd
       -0.009862521 -0.011398937 0.030483268 -0.07146781
0002a0 ce 1e 27 3d 09 62 61 3d 33 c3 98 bd e6 b7 19 bc
       0.040800862 0.055025134 -0.07459106 -0.009382224
0002b0 9d 29 b6 3b ea 3d e3 3c df 3b fe 3c 1b cb b4 bc
       0.00555916 0.027739484 0.031034408 -0.022069504
0002c0 4e 44 b1 bd e9 07 85 3c 8b b7 67 bc 5a 5b 25 3d
       -0.08655606 0.016239123 -0.014142881 0.040370323
0002d0 e5 5b e8 ba 62 05 60 3d e8 b0 27 3e 13 fd 47 bd
       -0.0017727582 0.054692633 0.16376078 -0.048825335
0002e0 12 df 38 bb 92 b9 6b 3c 91 a6 27 bd 61 50 06 bd
       -0.0028209132 0.014387505 -0.040930334 -0.0327915
0002f0 22 05 7b bd 15 c0 b3 bd 7d 0a 1a 3d 42 2e 11 3d
       -0.061284192 -0.08776871 0.03760766 0.035444506
000300 80 1b 1b bb 7f 8e a4 3b d6 56 b9 bb 3a 72 e2 bc
       -0.0023667514 0.0050218697 -0.0056561036 -0.027642358
000310 a5 27 81 bd b6 8b 79 3d 9c dc 34 3c a5 b4 ea 3c
       -0.0630639 0.060924254 0.0110389255 0.028650591
000320 ea b3 35 bd 87 0b 8f 3d af 41 8a 3c 2f 96 03 3e
       -0.044361033 0.069846205 0.016877024 0.12850259
000330 5a c0 f0 bc ae bc 00 3d 39 92 a3 3d d6 49 c2 bc
       -0.029388595 0.03142994 0.07986874 -0.023716848
000340 85 36 0d 3d 66 23 18 bb 68 dd 81 3d b4 39 92 bd
       0.034475822 -0.0023214458 0.06341058 -0.07139912
000350 2f f7 d8 3d 6a df 80 3c 25 73 7a bb 80 64 ed 3c
       0.105940215 0.015731532 -0.0038215604 0.028978586
000360 3b 12 90 bd dd b7 8c 3c 32 c8 8f bc 9e f2 53 3c
       -0.07034727 0.017177517 -0.017551515 0.012936262
000370 6f 61 00 bd 8b 73 b0 bd 4f ac 37 bd 83 42 d4 3d
       -0.03134292 -0.08615788 -0.04484206 0.103642486
000380 5a 24 5d bd 1c ff 99 3c 69 1f 20 3d 43 97 c4 3c
       -0.053989746 0.018798403 0.039092455 0.023997908
000390 39 88 6c bd 8f 46 70 3d 51 1b 8e bc e0 9b 8e 3d
       -0.0577471 0.05866104 -0.01734701 0.069633245
0003a0 0f 34 2e 3d 97 eb 22 3d a6 af 60 bc be f6 5e 3c
       0.042530116 0.039775457 -0.013713753 0.013608633
0003b0 4a 12 bd 3c 38 f5 dd bc 5e cd b8 bc 88 ef 2b bc
       0.02308001 -0.027094468 -0.022558864 -0.01049412
0003c0 5b b7 dc 3d 8f 3a 35 bd b9 ca f7 3d e8 07 45 3d
       0.1077716 -0.0442453 0.12099213 0.048103243
0003d0 5c 0c 54 bd 22 6f 60 3c 5d b1 be 3c 5c 88 f3 3c
       -0.0517696 0.013698371 0.023277933 0.029728107
0003e0 b4 85 8c 3d 7b ce ab 3b 5a 94 83 bd fe b3 08 3d
       0.06861439 0.0052431202 -0.0642478 0.03337478
0003f0 8b 20 21 bc 86 69 d0 3c 16 c2 7f bd 00 28 61 3d
       -0.009834419 0.025440942 -0.062440954 0.054969788

fc_1.bias f4 [100]
000000 11 12 03 3d 03 3c 26 3d ee 4b b1 bc 45 8e 4f bc
       0.03199965 0.040584575 -0.021642651 -0.012668197
000010 8f 35 5d 3d 33 d2 c3 3a 2a d1 a0 bd d5 a2 75 bc
       0.054006156 0.0014939964 -0.07852395 -0.014992435
000020 61 cb fb 3c a6 46 fd bb 8f a3 e9 3c 74 4e 14 3d
       0.030736627 -0.007729369 0.028520374 0.03620763
000030 13 0b 2c bd b5 a3 35 bc 6d 4e 9c 3d 57 97 ae b8
       -0.04200275 -0.011086394 0.07632146 -8.325156e-05
000040 31 f1 64 bd 43 a2 b5 3b e7 65 64 3d e0 1b 78 bd
       -0.05589408 0.0055430247 0.055761244 -0.06057346
000050 9d 4e ac bb fb 29 e3 b8 5d 56 10 bd 23 16 62 bd
       -0.005258395 -0.00010832023 -0.035238612 -0.055196892
000060 9c 5e b4 bc 22 c7 04 bd 8a 71 07 3d 60 ad 59 3d
       -0.02201777 -0.03241647 0.033067264 0.05314386
000070 03 08 22 bb 41 a2 84 bc 63 76 f6 3c ba eb 33 bd
       -0.0024724014 -0.01619065 0.030085748 -0.04392598
000080 67 c9 3d 3b 9a 1a 6e bd 99 a2 5e bd a5 a1 7f bd
       0.0028959156 -0.058130838 -0.054354284 -0.062410016
000090 5b 17 af bd a2 5e 84 3d a0 ef 08 bd d1 0f 01 bd
       -0.085493766 0.06463362 -0.03343165 -0.031509224
0000a0 a3 05 67 b9 5c 4a b0 3c 84 e4 70 3d 20 86 49 bd
       -0.00022031977 0.021519832 0.05881168 -0.049200177
0000b0 59 e4 c9 bb 38 68 21 3d 07 a2 5c 3c 90 1b 03 3d
       -0.0061612544 0.03940603 0.013466365 0.032008708
0000c0 3a fd 9f 3d ca 15 6e 3d 5b 97 ad 3b ba e2 cb bb
       0.07811971 0.05812625 0.005297584 -0.0062220963
0000d0 11 de 6e 3d 0e ea e2 bc f0 a1 75 3c 00 d0 a5 3b
       0.058317248 -0.027699497 0.014992222 0.005060196
0000e0 e2 68 95 3c 1d 66 52 3d 58 24 9b bd ab a9 8e bc
       0.018238489 0.051366914 -0.075752914 -0.017414888
0000f0 66 8c 09 bd e3 3d 11 3d 52 71 4d bd 34 4a 60 3d
       -0.03358116 0.03545941 -0.0501569 0.054758266
000100 0f fb 94 bc e4 61 88 bc 2c 7f 3e bd eb 3a b1 3c
       -0.01818612 -0.01664824 -0.046508 0.02163454
000110 75 34 00 3d a4 02 1d bd 22 c5 dd bc fc 1b ac bc
       0.031300027 -0.038332596 -0.02707154 -0.021009438
000120 5a 7c 30 3d 7f c9 1e bd f9 a6 88 3d b5 36 e1 3c
       0.04308734 -0.03876638 0.066724725 0.027491907
000130 40 ce cd bc ca 64 f4 bc f0 bc a2 3c b3 7b 81 bd
       -0.025122762 -0.029833216 0.019865483 -0.06322422
000140 1c be a1 3c f6 eb e1 bc cb 2d 9d 3c de 47 96 bd
       0.019743972 -0.027578335 0.019186875 -0.07337926
000150 44 0e 22 bb 89 35 a3 bc 65 1e 22 bb 7c 37 82 bd
       -0.0024727741 -0.019922988 -0.0024737355 -0.06358239
000160 dd 9e b9 3b 8b af 3a bd 35 ce 26 bd 47 26 ca bc
       0.00566469 -0.045577567 -0.040723998 -0.024676455
000170 af ae 43 bd c5 e5 c1 3c 2a 91 93 bc e0 34 4d 3d
       -0.047774013 0.023669133 -0.018013556 0.050099254
000180 a6 54 4a 3c 79 d3 b3 bc c1 4c a9 3c 89 64 83 3c
       0.012349283 -0.021951424 0.020666482 0.01603915

fc_2.weight f4 [10, 100]
000000 2e 44 cc bd 5b 5e 85 3c 73 9c 09 bd e6 22 11 3d
       -0.09973942 0.016280344 -0.033596467 0.035433672
000010 95 d6 4c bd ac a6 89 3c 61 bb dd bd 02 34 76 bd
       -0.05000933 0.016803108 -0.10826755 -0.060108192
000020 d7 a9 47 3d 75 98 07 bd 86 cc 73 3e 9f b3 f1 3c
       0.048745956 -0.03310438 0.23808488 0.029504595
000030 e6 c6 38 3e 28 48 03 be 17 20 4a bd 56 ba 11 3e
       0.18044624 -0.12820494 -0.04934701 0.14231238
000040 73 c1 cb bc 2b 7e bc 3d de e4 03 be f4 9c 3f bd
       -0.024872517 0.09203752 -0.12880275 -0.04678054
000050 1e 48 ad bc 2b 23 06 be 16 17 67 bd 68 35 ea 3d
       -0.021152552 -0.13099353 -0.0564185 0.11435968
000060 32 97 0f 3e bf 09 14 bd 69 8e 60 bc 0f c5 82 bd
       0.1402252 -0.036142107 -0.013705828 -0.06385242
000070 cc 0e 58 3e 8f ca 5c bd c1 15 d9 bd db 16 95 bd
       0.21099395 -0.053904112 -0.10599852 -0.0727975
000080 fa d8 45 bd 54 54 b2 3c 64 91 31 be 74 49 45 3e
       -0.048302628 0.021768726 -0.17340618 0.19266301
000090 4f 87 1b 3d ae 46 92 bc 70 08 33 bd db cb 66 bd
       0.037970837 -0.017855968 -0.04370922 -0.056346755
0000a0 67 3a 3a be 3f 23 56 bc 45 60 e4 bc 90 10 30 bc
       -0.18186341 -0.013069927 -0.027877936 -0.010746136
0000b0 e3 3d 8f be a6 51 93 bd af 1c 1e 3d 0e 4f 16 be
       -0.27976903 -0.071933076 0.038601574 -0.14678594
0000c0 c2 5c ad 3d 8b e0 d1 bc 90 ec 96 bd 10 02 21 3e
       0.08464958 -0.025619766 -0.073693395 0.15723443
0000d0 f7 c5 f2 bd 12 87 aa 3c bd 12 c9 3c 8f bb be 3c
       -0.11854165 0.02081636 0.024545068 0.023282794
0000e0 51 c5 af 3d 8c b3 3c 3e 04 34 0f 3d 9e fd c3 3d
       0.08582557 0.18427867 0.034961715 0.09569858
0000f0 03 8c 3f 3a 89 0a 69 3d d8 2f 81 bc 6e 8e f3 bd
       0.0007306935 0.056894813 -0.015769884 -0.11892401
000100 01 37 3e 3d 4e df 95 bc 30 8e b2 bb bc 99 44 3d
       0.046439175 -0.018294957 -0.005449079 0.047998175
000110 de 17 ea bb 2e 79 16 3e 8c e6 04 bc 99 53 f8 3d
       -0.0071439585 0.14694664 -0.008111607 0.1212532
000120 d6 a6 2a be 92 01 8d 3a a4 d0 15 be a6 87 15 3e
       -0.16665205 0.0010757914 -0.14630371 0.14602527
000130 68 8e 90 bd 98 4a 83 3e 33 bf af bd ce 8f 34 3d
       -0.07058412 0.25642848 -0.0858139 0.044082455
000140 b5 9b c2 bd 9a 4e eb 3c 4a 8c 24 bd f2 9b 2a bd
       -0.09502355 0.028724004 -0.040172853 -0.041652627
000150 7b 5d 81 bc 70 1c c4 3d 57 8e 75 bd 90 0a 10 be
       -0.015791645 0.095757365 -0.0599502 -0.1406653
000160 f8 38 f0 3c 2d c8 4d bd 41 9f b1 bb b2 0f 06 3e
       0.02932404 -0.05023973 -0.005420596 0.13091925
000170 4d 9f 32 bb f5 ac d3 3d ad 95 98 3d b3 3c 03 bd
       -0.0027255595 0.10335723 0.074504234 -0.03204031
000180 96 b2 f6 bd 8b 19 03 3d e2 14 25 bd d5 95 b7 bc
       -0.12045781 0.03200678 -0.04030312 -0.022410313
000190 38 4a 5b be f8 ea cc bd d5 a9 8e bd 89 1b 3d 3d
       -0.21415031 -0.10005754 -0.06965987 0.046168838
0001a0 4e 16 4d bd 34 a5 5a 3e 71 fb ec bd a3 d3 bc 3d
       -0.0500701 0.21352082 -0.11571396 0.09220054
0001b0 a9 fa 05 bd 97 ac 62 3d 7b 80 0c bd 98 53 8d 3c
       -0.03270975 0.055340376 -0.034302216 0.017251775
0001c0 7f a9 d3 3c 83 a7 1b 3e 23 96 f8 bc fa 12 62 bd
       0.025837658 0.1520062 -0.030345028 -0.05519388
0001d0 37 40 ce 3c d8 ff db bd 59 80 13 3e f7 76 41 bd
       0.025177104 -0.10742158 0.1440443 -0.047232594
0001e0 81 13 bc bd df 95 3a 3e 7f 44 49 3d 35 2a 12 bd
       -0.091834076 0.18221234 0.04913759 -0.035684783
0001f0 96 00 d6 bc 0c e9 af 3b 05 8e 54 bc ae e2 3b 3b
       -0.026123326 0.0053683575 -0.012973313 0.0028669047
000200 1e 91 09 be e3 db f5 3d 5e 85 34 bd e6 6f 0e 3d
       -0.13434264 0.12004831 -0.0440725 0.034774683
000210 8a 8d 0c 3e 81 7c 58 bd dd 42 82 3c 8e 05 85 bc
       0.13725868 -0.05285311 0.015901024 -0.016238
000220 ab 4f 76 bd 14 1b 77 3d b7 34 8d 3d 3d b4 b4 bc
       -0.06013457 0.060328558 0.0689482 -0.0220586
000230 2a de a8 bc 77 77 03 be bb 52 06 bd 9b 84 87 bd
       -0.020613749 -0.12838541 -0.03279374 -0.06617089
000240 e4 2d 00 3e 6f 49 9d bd c1 c6 af bd 00 f1 9e 3e
       0.12517506 -0.07680022 -0.08582831 0.31043243
000250 1a 16 e9 bd f1 51 aa bd b6 d3 90 3d 76 15 46 be
       -0.11381169 -0.0831641 0.07071631 -0.19344124
000260 47 92 2d 3e f3 a7 b5 bc c9 64 67 3d 1d bf ff bd
       0.16950332 -0.022174811 0.0564926 -0.12487624
000270 59 7a 2a be ee ca 48 bd 4a 01 60 bd 4c 03 94 bd
       -0.16648234 -0.049021654 -0.05468873 -0.07227191
000280 89 f3 2b 3d 85 4c fc bc 23 d2 a9 3d 5a 8b e9 3d
       0.0419803 -0.030798206 0.082920335 0.11403532
000290 9b 74 60 bd f2 08 ee 3c 86 40 a8 bb 58 ea 5b 3d
       -0.054798704 0.029057 -0.005134645 0.053690284
0002a0 b0 59 27 3d c7 f3 83 bd 40 04 56 be f5 21 11 be
       0.040857017 -0.06442981 -0.20900059 -0.1417311
0002b0 0a ae fa bc 98 15 1e bc 4f f3 81 bd 61 43 eb 3b
       -0.030600566 -0.009648703 -0.063452356 0.007179663
0002c0 bd f6 e3 bb 26 5b c1 bc 5b 6c 85 3e 74 7e b4 3b
       -0.0069569037 -0.023603033 0.2605923 0.0055082384
0002d0 b4 e4 04 bd 0f 8b 09 3e b9 88 02 3e 14 fe 23 3c
       -0.03244467 0.13431953 0.12747468 0.010009307
0002e0 36 fa 9c bd 76 af 6b bd c3 f8 30 bd c1 e4 1d 3e
       -0.076649114 -0.05754038 -0.043205988 0.15419294
0002f0 46 b6 de bb da 32 27 3e 3f ae 2e 3d 90 26 16 be
       -0.006796631 0.16327992 0.042646643 -0.14663148
000300 08 a0 33 3d c8 fb 73 bd 84 5b 64 bd 84 c6 28 bb
       0.04385379 -0.05956629 -0.05575134 -0.002575309
000310 f2 1a 15 3d e9 28 af 3d 04 18 44 bc f4 e8 e7 3c
       0.03640265 0.08552725 -0.011968616 0.028309323
000320 2e ae f5 3d 71 81 c7 3c 8d 0e cf bd 14 17 6d bd
       0.11996113 0.024353715 -0.10110197 -0.057883337
000330 71 c9 f2 bd 1e f6 29 3d b9 62 06 be ae 5a 6c bd
       -0.11854828 0.04149448 -0.13123597 -0.057703666
000340 df ec a7 3c 7d 30 82 3c b7 1a 15 be 30 28 21 bc
       0.020498691 0.015892262 -0.14560972 -0.009836242
000350 96 54 a1 3b 05 bf 42 bd fb 49 d7 3d 5b 5b 1d 3e
       0.0049234135 -0.04754545 0.105121575 0.1536688
000360 0b fe 78 bd 6a 8d b5 bd 92 5e b2 bd c3 7e c6 bd
       -0.06078915 -0.08864863 -0.08709444 -0.09692147
000370 7d 4a c4 bd 76 a3 2a bb 89 e8 da 3d 93 5e 06 bd
       -0.0958452 -0.0026037372 0.10688884 -0.032805037
000380 51 a3 dd 3d 88 2a 4c 3e 6e ae 85 3d 9c e8 99 3d
       0.10822166 0.199381 0.065274104 0.0751507
000390 e7 e7 75 3d 0e c9 1a 3e 2a ad bd bc 0f 82 9d bd
       0.060035612 0.15115759 -0.02315386 -0.07690822
0003a0 a1 4e 16 3c 3d 5d 36 bc 82 8a de bd 8c fb 43 bc
       0.00917402 -0.011130628 -0.10866262 -0.011961829
0003b0 6c 02 cd bc 11 1f 32 bd 74 42 a5 3c 2a 84 ac 3c
       -0.025025569 -0.04348666 0.020173289 0.021059114
0003c0 3f 0f 0e bd a0 f2 1e 3e b8 44 6c 3d 04 9d 87 3d
       -0.03468251 0.15522242 0.057682723 0.06621745
0003d0 c4 d7 4e be 51 d2 0b ba 71 fa 03 be 25 a7 a3 bc
       -0.20199496 -0.0005333769 -0.12888505 -0.019977162
0003e0 fd 4c 2b 3e 60 85 7c 3e 6c bb 86 bd f5 3a af 3d
       0.16728587 0.24660254 -0.06578717 0.08556167
0003f0 05 bc 6d 3e 43 53 ad 3d aa e6 42 3d d6 22 b7 3d
       0.23216255 0.084631465 0.04758326 0.08942191

fc_2.bias f4 [10]
000000 f0 2c ba 3c ed 52 5e bb 9e c4 d0 bc c7 e7 4a bd
       0.022726506 -0.003392394 -0.02548438 -0.049537446
000010 ae 4f de 3c 7d bc bf 3c 54 5e 75 3d c3 bc ab bc
       0.027137604 0.023405308 0.05990441 -0.020964032
000020 8c 1a 99 bd 97 eb 14 bd
       -0.074757665 -0.03635749
