notebooks/models/long_fcnn_normal_0.001/model.pth (torch, 360471 bytes, 6 tensors)

fc_0.weight f4 [100, 784]
0	0xbbe983d9	-0.007126313
1	0xbba9d1b4	-0.0051824693
2	0xbbb63398	-0.0055603497
3	0xbbcd07c0	-0.0062570274
4	0xbab02ca0	-0.0013441034
5	0xbb398fc4	-0.002831445
6	0xbbdcfd0c	-0.0067440327
7	0xbbd2a614	-0.0064284895
8	0xbb230d2c	-0.0024879677
9	0xbbf48b72	-0.0074629122
10	0xbaed9d4a	-0.0018128541
11	0xbb5a2b31	-0.0033289904
12	0xbc0ce90e	-0.008600486
13	0xbbc7d7c2	-0.0060987184
14	0xbb9e3058	-0.0048275404
15	0xbb1f1276	-0.0024272478
16	0xbba64b6a	-0.005074908
17	0xbc02792b	-0.007963459
18	0xbb4fedbc	-0.0031727394
19	0xbbfd9750	-0.007738985
20	0xbbfd26ab	-0.007725557
21	0xbbe09858	-0.0068540983
22	0xbb8b3912	-0.0042487467
23	0xbba9a7a0	-0.005177453
24	0xbbc3c7a2	-0.005974726
25	0xbb8be193	-0.004268834
26	0xbb7352ee	-0.0037128287
27	0xbbd7524e	-0.006571091
28	0xbbc1abff	-0.005910396
29	0xbc07d14f	-0.008289649
30	0xbaa7373c	-0.001275755
31	0xbbea373f	-0.007147699
32	0xbb57c170	-0.0032921694
33	0xbc150dce	-0.00909753
34	0xbb43a1ed	-0.0029851154
35	0xbaf230ed	-0.0018477716
36	0xbc11a172	-0.008888589
37	0xbbb31589	-0.0054652137
38	0xbb20c3d8	-0.0024530794
39	0xbba9ab09	-0.0051778597
40	0xbc1671b9	-0.009182387
41	0xbb8fb408	-0.004385475
42	0xbb519aea	-0.0031983205
43	0xbc1958dc	-0.009359565
44	0x39022cd9	0.00012414473
45	0xbaf7fb26	-0.0018919453
46	0xb95ac942	-0.00020865074
47	0xbbd80245	-0.0065920674
48	0xbbcdd594	-0.006281564
49	0x39a68e27	0.000317679
50	0xbc222136	-0.009895613
51	0xbb70677e	-0.003668278
52	0xbbcb8318	-0.006210696
53	0xbb5a36b7	-0.0033296773
54	0xbbd59c4d	-0.0065188766
55	0xbb9a139d	-0.004702045
56	0xbc11b400	-0.008893013
57	0xbb02c793	-0.0019955381
58	0xbbc61849	-0.0060453755
59	0xbb2e32ff	-0.002658069
60	0xbbb8eab3	-0.0056432127
61	0xbbd81821	-0.0065946733
62	0xb9c9fdf7	-0.00038526926
63	0xbb7519b6	-0.0037399358
64	0xbb696c6e	-0.0035617608
65	0xbafebb54	-0.001943449
66	0xbb5f0369	-0.0034029132
67	0xbba989f6	-0.005173917
68	0xbbd29d3a	-0.0064274343
69	0xbb24aee5	-0.002512866
70	0xbb06ec46	-0.0020587607
71	0x3890f02c	6.9111906e-05
72	0xbb62f231	-0.003462922
73	0xbb2ee402	-0.0026686196
74	0xbb301a83	-0.002687127
75	0x3a276f15	0.0006387097
76	0x39dacf9f	0.0004173489
77	0xbb9482af	-0.0045321803
78	0xbb84ab81	-0.004048765
79	0xbb925793	-0.004466006
80	0xbbb4a252	-0.005512514
81	0xbb096ec5	-0.0020970565
82	0xbbabc943	-0.005242498
83	0xbb641d3e	-0.0034807469
84	0xbb9a4f9d	-0.0047091977
85	0xbb57d3ea	-0.0032932707
86	0xbbba66fb	-0.0056885458
87	0xbbb664af	-0.0055662016
88	0xbb830fa8	-0.003999669
89	0xbb7ef475	-0.0038903032
90	0xbb500faa	-0.0031747618
91	0xbb950331	-0.0045474996
92	0x3b0f2382	0.0021841233
93	0xbb969def	-0.004596464
94	0xbb68a000	-0.0035495758
95	0xbb47fee3	-0.0030516915
96	0xbb3a8f7e	-0.0028466876
97	0xbb745e71	-0.0037287737
98	0xbb5e2bfb	-0.0033900726
99	0xbb1099ae	-0.0022064256
100	0xbb9d690a	-0.0048037814
101	0xbba3912e	-0.004991672
102	0x3b0a965e	0.0021146755
103	0x3a405620	0.00073370524
104	0xbaba21da	-0.0014200762
105	0x3ab4f4e2	0.0013805891
106	0x39e6d466	0.00044027268
107	0xbb9bc299	-0.0047534225
108	0xbb84c478	-0.004051741
109	0xbbfa9b08	-0.0076478757
110	0xbba31c1c	-0.004977716
111	0xba093069	-0.0005233349
112	0xbba5435b	-0.00504343
113	0xbbd46341	-0.0064815586
114	0xbbf9c477	-0.0076222974
115	0xbb55bc98	-0.0032613631
116	0xbbbdc837	-0.0057916897
117	0xbb7b1fc0	-0.0038318485
118	0xba302578	-0.00067194505
119	0x3ad3a08b	0.0016145868
120	0xbb4a8829	-0.0030903912
121	0xbb8fda89	-0.004390065
122	0xbb557c11	-0.003257517
123	0xbb790bdc	-0.0038001454
124	0xb987d2c3	-0.00025906236
125	0x3b7e2dc7	0.003878461
126	0xb9dbcd2f	-0.0004192381
127	0xbbe9391d	-0.007117404
128	0xba3e9e71	-0.00072715344
129	0xbb207673	-0.0024484664
130	0xbb195d9f	-0.002340175
131	0x3bbd704f	0.0057812105
132	0x3bc9f9fe	0.0061638346
133	0xbb4bf27b	-0.0031119871
134	0x3b356855	0.0027680595
135	0x3a3ef7d4	0.0007284854
136	0xbb925ded	-0.004466763
137	0xbbd0325e	-0.0063536605
138	0xbb983c67	-0.0046458724
139	0xbbfd9823	-0.0077390834
140	0xbba4064f	-0.005005635
141	0xbbebaca3	-0.0071922108
142	0xbb868677	-0.004105385
143	0xbad211bb	-0.0016027013
144	0xbb6ae326	-0.0035840957
145	0xb8b7bf6c	-8.761775e-05
146	0xbab368d8	-0.0013687862
147	0x3b99cc8e	0.0046935743
148	0xba7216e6	-0.00092349795
149	0x3aca21a7	0.0015421406
150	0x3b64bf39	0.0034904017
151	0x3bd10e14	0.006379852
152	0x3c272047	0.010200567
153	0x3bd1b43d	0.00639966
154	0x3c09454e	0.00837834
155	0x3b50ba78	0.0031849425
156	0x3b4acef4	0.0030946108
157	0x399a0b09	0.0002938139
158	0xbb54a8cb	-0.0032449241
159	0x3bde9f22	0.0067938725
160	0x3abbe3d4	0.0014334866
161	0xbbb10546	-0.00540224
162	0xbb5e2ffa	-0.0033903108
163	0x39296f84	0.00016158639
164	0xbb259a90	-0.0025269128
165	0xb98e627e	-0.00027157733
166	0xbb1386bd	-0.002251073
167	0xbc12e71e	-0.008966235
168	0xbb522182	-0.003206343
169	0xbb9cdb30	-0.0047868714
170	0xbb63a9fa	-0.0034738765
171	0xbb8eea7f	-0.00436145
172	0xba814b0c	-0.0009864285
173	0xbb1cbd3d	-0.0023916506
174	0xb9e5e343	-0.00043847607
175	0x3b793a8a	0.0038029277
176	0x3ad9cf28	0.0016617524
177	0x3c1a9c2c	0.009436648
178	0x3b6c79c4	0.003608332
179	0x3c0378c0	0.0080243945
180	0x3c4e43f3	0.012589443
181	0x3c366aec	0.011133891
182	0x3c44d2b0	0.012013122
183	0x3ca594de	0.020212587
184	0x3c0f2e14	0.008739013
185	0x3be0a51a	0.006855619
186	0x3badae54	0.0053003225
187	0xb9499aac	-0.00019226474
188	0xbb044877	-0.0020184794
189	0xbc876b11	-0.016530545
190	0xbc580aed	-0.013186199
191	0xbb82d042	-0.0039921114
192	0xbb0542af	-0.0020333936
193	0xb9ed9139	-0.00045312362
194	0xba44136e	-0.0007479702
195	0xbb3c0fb0	-0.0028695874
196	0xbbb2b727	-0.0054539624
197	0xbb40f080	-0.0029440224
198	0xbb8202b6	-0.0039676083
199	0xbc065dad	-0.008201045
200	0xbb9d8b35	-0.0048078545
201	0xbb151592	-0.0022748453
202	0x3921a0a1	0.00015413995
203	0xbabab189	-0.0014243583
204	0xba346fae	-0.00068830966
205	0x3b505a7d	0.0031792216
206	0x3ab00334	0.0013428689
207	0x3bd8d784	0.0066174883
208	0x3c0b7067	0.0085106855
209	0x3bd82959	0.006596726
210	0x3bc52506	0.0060163764
211	0x3c79bb44	0.0152424015
212	0x3a559aac	0.0008148353
213	0x3a51356b	0.0007980677
214	0xbb87c530	-0.0041433796
215	0xbaeb15cd	-0.0017935574
216	0xbc1b7ccb	-0.009490202
217	0xbc2738e1	-0.010206432
218	0xbc822b44	-0.015889771
219	0xbc175104	-0.009235624
220	0xbba4cf0a	-0.005029564
221	0xbb5d798a	-0.0033794367
222	0xbb4d0a78	-0.0031286757
223	0xbb4bb0e5	-0.003108078
224	0xbb7e23ea	-0.003877873
225	0xbb30f85a	-0.0027003498
226	0xbbd028ba	-0.0063525112
227	0xbba26083	-0.0049553527
228	0xbbc5c308	-0.0060352124
229	0x3af45121	0.0018639901
230	0xbab7f477	-0.0014034648
231	0x3b25da7a	0.0025307224
232	0x39eb9d10	0.00044939714
233	0x3b95c55b	0.0045706457
234	0x3b7494c0	0.0037320107
235	0x3bb1e430	0.0054288134
236	0x3adff649	0.0017086949
237	0x3bf592b8	0.007494297
238	0xbc030abf	-0.007998168
239	0xbc01dc50	-0.007926062
240	0xbc75fa2f	-0.015013262
241	0xbc8d4b32	-0.01724777
242	0xbc0ed73b	-0.008718307
243	0xbbd8ed33	-0.006620073
244	0xbc0c0af7	-0.008547536
245	0xbb636244	-0.0034696022
246	0xbc3cbb54	-0.011519272
247	0xbc7c6ea2	-0.015407236
248	0xbc00a3b4	-0.00785153
249	0xbb8f40a1	-0.004371718
250	0xb9abe0e2	-0.00032783212
251	0xbbeae01f	-0.0071678306
252	0xbb95aca7	-0.004567701
253	0xbbbfdbd0	-0.005855061
254	0xbba6db00	-0.005092025
255	0xbbc59bcf	-0.0060305367

fc_0.bias f4 [100]
0	0x3c3a214e	0.0113604795
1	0xbb648af2	-0.0034872857
2	0x3c01f2be	0.007931409
3	0x3c3439b5	0.011000087
4	0x3b6da54f	0.0036261862
5	0x3b9ccd5e	0.004785224
6	0xbbe15eba	-0.0068777474
7	0xbb611c82	-0.0034349267
8	0x3bca6e8e	0.00617773
9	0xbb5dd5f6	-0.0033849454
10	0xbb800e28	-0.0039079376
11	0x3beb55eb	0.007181873
12	0x3c8a66c2	0.016894702
13	0x3c0570c9	0.008144566
14	0x3aba24ca	0.0014201638
15	0x3c5df710	0.013547674
16	0x3c77ef73	0.015132773
17	0x3c92c6d5	0.017917076
18	0xbbd74eba	-0.0065706642
19	0x3b929630	0.00447347
20	0xbaf8fc80	-0.0018996149
21	0xbaf3ee35	-0.001861042
22	0x3ba42472	0.0050092274
23	0xbbeb2e49	-0.0071771485
24	0x3bed3841	0.007239372
25	0x3bc3a238	0.0059702657
26	0x3b283395	0.002566551
27	0x3c3f6dd1	0.011683897
28	0x3c10bbd9	0.008833849
29	0x3b628cef	0.0034568866
30	0x3b9b8751	0.0047463556
31	0x3bb3401b	0.0054702885
32	0x3b39a422	0.002832659
33	0x3c0e0428	0.008667983
34	0x3b1e4d6b	0.0024155031
35	0xb8e1b242	-0.00010762039
36	0x3caa97a2	0.020824257
37	0x3b6acdf1	0.0035828317
38	0x3c88d051	0.016700896
39	0x3b21a9a3	0.0024667762
40	0x3bd07337	0.006361391
41	0x3c53161d	0.01288369
42	0x3c3e8908	0.0116293505
43	0x3be1e8a8	0.00689419
44	0x3ba6c9a4	0.0050899554
45	0xbada8913	-0.0016672931
46	0x3a96557e	0.001146957
47	0x3c1e3c39	0.009657913
48	0x3a86b172	0.0010276271
49	0xb9e1be2e	-0.0004305704
50	0xbc2dbfdf	-0.010604828
51	0xbc23893e	-0.009981452
52	0x3b435a42	0.0029808437
53	0x3c34d365	0.0110367285
54	0xbaa6934d	-0.0012708694
55	0x3c5d88a9	0.013521352
56	0x3a18b8c8	0.00058258744
57	0x3b2f3986	0.0026737167
58	0xb9687e34	-0.00022172258
59	0xbc1ab546	-0.009442633
60	0x3c0e2bd7	0.008677444
61	0x3b8401a8	0.0040285178
62	0x3bd882d0	0.006607391
63	0xbbaf979a	-0.0053586485
64	0x3bd38421	0.00645496
65	0x3b0a39ae	0.0021091509
66	0x3b96ce93	0.0046022623
67	0x3c0a98bb	0.008459265
68	0x3c005a73	0.007834065
69	0x3b3f90a6	0.0029230504
70	0xbbd57cc4	-0.0065151174
71	0x3b475a66	0.0030418872
72	0x3be92b85	0.0071157836
73	0xba84a039	-0.0010118551
74	0x3b571926	0.0032821386
75	0x3c29944d	0.010350299
76	0x3afddfdd	0.0019369085
77	0x3b93c6a2	0.004509763
78	0xba68aaef	-0.0008875569
79	0x3c155e78	0.009116761
80	0x3b115cbb	0.0022180516
81	0x3c821634	0.015879728
82	0xbc47f168	-0.012203552
83	0x3b796e53	0.0038060143
84	0x3c244c22	0.010027917
85	0x3c42c33c	0.011887368
86	0x3bbfee1c	0.0058572423
87	0xbb93c1b4	-0.004509175
88	0xba8d3d0b	-0.0010775639
89	0x3ba66988	0.0050784983
90	0xbae94235	-0.001779622
91	0x3af73f21	0.0018863418
92	0x3c20a639	0.009805256
93	0xbacf8eb7	-0.0015835379
94	0x3bca4b32	0.0061735148
95	0x3b98740f	0.004652507
96	0x3b31b7a7	0.0027117522
97	0x3c463c2e	0.012099309
98	0xb87e32d5	-6.060566e-05
99	0x3b2b408a	0.0026130998

fc_1.weight f4 [100, 100]
0	0xbbd4bebc	-0.006492464
1	0xbbceb7b5	-0.0063085207
2	0x3b0071a2	0.001959898
3	0x3b3fd884	0.002927334
4	0x3b20d46d	0.0024540678
5	0x3cc9d0c0	0.024635673
6	0x3cc9aa97	0.024617476
7	0xbbbf2015	-0.005832682
8	0x3bb51c65	0.0055270665
9	0x3ca1876b	0.019717893
10	0x3b935fe0	0.004497513
11	0xbc0ef529	-0.008725443
12	0xbae11e10	-0.0017175097
13	0x3b3c0ace	0.0028692964
14	0x3c0db2f5	0.008648624
15	0x3c5bc3a9	0.013413348
16	0x3abe4c68	0.001451862
17	0x3abb4fed	0.0014290788
18	0x3b1305d5	0.0022433896
19	0x3c67a516	0.014138481
20	0x3c244511	0.010026232
21	0xba6834c4	-0.00088579603
22	0xbad56071	-0.0016279352
23	0x3ceec04d	0.02914443
24	0x3be7463a	0.007057932
25	0xbc956465	-0.018236348
26	0xbb5cc5b4	-0.0033687176
27	0xbbacfe89	-0.0052793664
28	0x3bf20a75	0.0073865005
29	0xbbf78023	-0.007553117
30	0x3baee0d5	0.0053368607
31	0xbc0767e5	-0.0082645165
32	0xbb1c4a7e	-0.0023848112
33	0x3bd4b6f6	0.006491537
34	0xbb8f0217	-0.004364263
35	0xbb94b6ba	-0.0045383843
36	0xbbadfa6d	-0.005309394
37	0xbc76c2ba	-0.015061075
38	0xbc42fa23	-0.011900458
39	0x3c94ecf6	0.018179398
40	0xbc012ee6	-0.007884717
41	0xbbe4a855	-0.0069780746
42	0xbc8c8f25	-0.0171581
43	0xbc685871	-0.014181242
44	0xbb8b82cc	-0.0042575356
45	0x3c06822a	0.0082097445
46	0xbb858e0d	-0.0040757717
47	0x3bb4152b	0.0054956875
48	0xbbe1f9fc	-0.0068962555
49	0x3aead169	0.0017915192
50	0x3b38a7de	0.0028176229
51	0x3c97e57e	0.018542048
52	0x3cc32075	0.023819188
53	0xbb4ee254	-0.0031568008
54	0xbb74aaa7	-0.0037333162
55	0x3bd91f52	0.006626048
56	0x3c476257	0.012169442
57	0xbc10e39f	-0.008843332
58	0x3bdecc4c	0.0067992564
59	0x3d144855	0.036201794
60	0x3ccb1dc5	0.024794469
61	0xbb424959	-0.002964577
62	0xbbef15da	-0.007296306
63	0xbc10f59a	-0.0088476185
64	0x3ca16040	0.019699216
65	0x3a395c26	0.0007070921
66	0xbc21c7e5	-0.009874319
67	0xbbac925c	-0.005266471
68	0x3bb87949	0.0056296927
69	0x3cc2e00c	0.023788475
70	0xbc892a0c	-0.016743682
71	0x3be272c6	0.0069106547
72	0x3c1f0825	0.009706532
73	0x3c881c49	0.01661505
74	0xbb99f2e4	-0.0046981443
75	0xbc3afa11	-0.01141216
76	0x3804e06c	3.168026e-05
77	0xbc5827cd	-0.013193083
78	0x3c0620ae	0.008186502
79	0xbb8e4453	-0.004341641
80	0x3c0e2e75	0.008678068
81	0x3c9d69fa	0.019215573
82	0x3cc411d0	0.023934275
83	0x3b458c8a	0.0030143582
84	0xbc670060	-0.0140992105
85	0xbc2afc01	-0.010436059
86	0xb9726684	-0.00023117109
87	0xbc720d0d	-0.014773619
88	0xb81fcee2	-3.810123e-05
89	0xbbe35890	-0.0069380477
90	0xbbc77a45	-0.0060875737
91	0xbc29bd70	-0.010360107
92	0xbc46e12d	-0.012138647
93	0xbb6f7c9d	-0.003654278
94	0x3cc7de4d	0.024397993
95	0x3b031e6d	0.002000715
96	0xba0e9a78	-0.0005439888
97	0xbc26b274	-0.0101743825
98	0xbb8de6d1	-0.004330494
99	0xbc09fbd3	-0.008421856
100	0x3d2722ac	0.04080455
101	0x3b56b137	0.0032759437
102	0x3cfe28bf	0.031025289
103	0x3ca7abca	0.020467658
104	0xbcaa1a58	-0.020764515
105	0x3d611938	0.05495569
106	0x3d3b3a07	0.045709636
107	0x3cbb6332	0.022874448
108	0x3e128d20	0.14311647
109	0x3d105e86	0.035246395
110	0x3d2490fc	0.04017733
111	0xbcf4e27d	-0.029893154
112	0x3c957768	0.018245414
113	0x3d4bdcd9	0.049771164
114	0x3c326d50	0.01089032
115	0xbc94b2cf	-0.018151669
116	0xbcb628bc	-0.02223622
117	0x3cf37aa6	0.02972157
118	0xbc47eae3	-0.012201997
119	0x3c748e68	0.01492653
120	0xbd6c6e43	-0.05772234
121	0x3d301ffa	0.042999245
122	0xbc91972d	-0.017772282
123	0x3c72b1d8	0.014812909
124	0xbc7c6473	-0.015404808
125	0x3da60148	0.08105713
126	0xbcd0d20a	-0.02549078
127	0x3cf82424	0.03029067
128	0x3c681683	0.014165523
129	0x3d04c31d	0.032412637
130	0x3cbed292	0.023293767
131	0xbb4c7644	-0.0031198421
132	0x3d62c015	0.055358965
133	0x3c08cc82	0.00834954
134	0x3ba9fe3f	0.005187779
135	0xbc1d4ecf	-0.009601309
136	0x3d1fdfa3	0.039031636
137	0x3d8b4e58	0.06802052
138	0x3c838a56	0.016057175
139	0xbc409ee5	-0.011756633
140	0x3c93021a	0.017945338
141	0x3def5656	0.11686389
142	0xbcecd9ae	-0.028912392
143	0xbc5b43cb	-0.013382862
144	0x3c8c7a63	0.017148202
145	0xbb61366c	-0.0034364713
146	0x3e419973	0.18906192
147	0xbd904c16	-0.07045762
148	0xbc914445	-0.017732749
149	0x3da35754	0.07975641
150	0x3d7c2a7e	0.06156396
151	0xbd70ed85	-0.058820266
152	0x3d150ee4	0.036391154
153	0xbc98b833	-0.01864252
154	0x3c35b297	0.011089942
155	0xbd6e0163	-0.05810679
156	0xbd27086c	-0.040779516
157	0x3c59daaa	0.0132967625
158	0x3c9674f1	0.018366309
159	0x3dc3ba03	0.09556963
160	0xbd358198	-0.044313043
161	0x3d72775b	0.059195857
162	0x3d39251d	0.04520141
163	0x3d6d2e00	0.057905197
164	0x3b52f45d	0.003218911
165	0xbd12561b	-0.035726648
166	0x3d604ca6	0.054760598
167	0xbd6c39b1	-0.057672206
168	0xbcc368ba	-0.023853648
169	0xbd733305	-0.059374828
170	0xbb56422d	-0.0032693252
171	0x3b7bf1db	0.0038443718
172	0xbc39709d	-0.011318353
173	0xbc83e11f	-0.016098557
174	0xbdb5bc1f	-0.08873772
175	0xbd0ba065	-0.03408851
176	0x3db596bc	0.08866641
177	0x3d797ad8	0.06090817
178	0xbc266459	-0.010155761
179	0x3d008bb6	0.03138324
180	0x3d06bcbd	0.03289484
181	0x3cc27e49	0.023741858
182	0xbd098db8	-0.03358242
183	0xbdab0772	-0.083510295
184	0xbcd3f815	-0.02587513
185	0x3d34725a	0.044054367
186	0x3d0901ea	0.03344909
187	0x3c639189	0.013889679
188	0xbba66b24	-0.00507869
189	0x3ce3e9b4	0.0278214
190	0x3b1cc306	0.0023919954
191	0x3d05c9c3	0.032663118
192	0xba88fb30	-0.0010450836
193	0x3d4fdc23	0.050747048
194	0x3c9dea50	0.019276768
195	0x3d1377f7	0.03600308
196	0xbc08da76	-0.008352866
197	0xbcaeabed	-0.021322215
198	0xbd089b32	-0.03335113
199	0x3ca1b1cf	0.019738106
200	0x3b4aa15c	0.0030918932
201	0x3ba77d7c	0.0051113945
202	0x3d075bb0	0.033046424
203	0x3c74d800	0.014944077
204	0x3ad58687	0.0016290703
205	0x3ba07ee6	0.00489794
206	0xbc94cf19	-0.018165158
207	0x3d138262	0.036013015
208	0xbd4a0488	-0.049320728
209	0x3c88bc5c	0.01669138
210	0xbcbf583a	-0.0233575
211	0x3b99dfbb	0.00469586
212	0x3cd12ed0	0.025535017
213	0x3ca94081	0.02066064
214	0x3cad5191	0.021157058
215	0x3c348a22	0.011019262
216	0x3c639d03	0.013892415
217	0x3baeb163	0.0053312047
218	0x3d0f1525	0.034932274
219	0xb9b98b54	-0.00035389757
220	0xbd04e7e1	-0.0324477
221	0x3c6da803	0.014505389
222	0x3ceadb04	0.028668888
223	0xbc942a04	-0.01808644
224	0x3d34c161	0.044129733
225	0x3a8634dc	0.0010239142
226	0xbaea290d	-0.0017865017
227	0x3cd796f5	0.0263171
228	0xbd8fecf5	-0.07027618
229	0x3c2e04bc	0.010621246
230	0x3bf8f6c8	0.007597778
231	0xbcf2aa04	-0.029622085
232	0x3bfdf1b3	0.00774976
233	0xbd15166a	-0.03639833
234	0xba24ce46	-0.00062868407
235	0xbbe9dc17	-0.0071368325
236	0x3c32ec02	0.010920526
237	0x3c76d418	0.0150652155
238	0xbcb8a31d	-0.022538716
239	0x3c5ee458	0.013604246
240	0x3c0b9b8b	0.008520971
241	0x3d950eda	0.07278223
242	0x3ca83e68	0.02053757
243	0x3c03eb03	0.008051637
244	0x3d403987	0.046929862
245	0x3b7e1f64	0.0038776034
246	0x3d6f42ce	0.05841332
247	0x3cdea209	0.027176874
248	0xbc2addea	-0.010428885
249	0xbac92781	-0.0015346856
250	0x3c2aa448	0.010415144
251	0xbca2fd13	-0.019896066
252	0xbd0dd386	-0.034625553
253	0x3d942476	0.07233517
254	0x3cc668ee	0.024219956
255	0xbce3771b	-0.027766755

fc_1.bias f4 [100]
0	0x3b0ba151	0.002130587
1	0x3c141bff	0.009039878
2	0x3b9caf8c	0.004781669
3	0x3b68ba4c	0.0035511432
4	0x3b418a75	0.002953199
5	0x3b737f48	0.0037154723
6	0x3b41fb30	0.0029599182
7	0x3bf69319	0.0075248596
8	0x3c468ffb	0.012119289
9	0x3b91e8e7	0.004452813
10	0x3be3fa55	0.006957332
11	0x3c53a25a	0.012917126
12	0x3be501bc	0.006988732
13	0x3c1cbe21	0.009566815
14	0x3c1e7215	0.009670754
15	0x39ece06d	0.00045180638
16	0x3b2c592e	0.0026298272
17	0x3cc2cf02	0.02378035
18	0x3c5e4063	0.013565156
19	0x3b409c35	0.0029389982
20	0x3bc29f63	0.0059394105
21	0xbb1e9728	-0.0024198983
22	0x3b96d03c	0.00460246
23	0x3c726ad2	0.014795976
24	0x3be94d29	0.007119794
25	0x3c537b78	0.012907855
26	0x3be5fe7b	0.007018862
27	0x3b8cac4a	0.0042929994
28	0x3bb4b9fd	0.0055153356
29	0x3acc3fdb	0.0015582995
30	0x3bf20cff	0.007386803
31	0x3ae710e7	0.0017628939
32	0x3b97ebaa	0.0046362476
33	0x3b1c3b12	0.002383892
34	0x3bed5408	0.0072426833
35	0x3b9e8b3d	0.004838376
36	0x3bb632ed	0.00556027
37	0x3a85519d	0.0010171417
38	0x3c8d1c18	0.01722531
39	0x3ca0196f	0.019543378
40	0x3c265ede	0.010154454
41	0x3c0d2055	0.008613666
42	0x3b4e5f02	0.0031489735
43	0x3bb3659d	0.0054747597
44	0x3c0e85e0	0.0086989105
45	0xba1e6bcd	-0.0006043285
46	0x3c3cb547	0.011517829
47	0x3c0834bf	0.008313357
48	0xbaba4e29	-0.0014213967
49	0x3c33bd38	0.010970406
50	0x3c5932f2	0.013256775
51	0x3c19c726	0.00938586
52	0x3c3691b1	0.011143134
53	0x3bd619b3	0.0065338253
54	0x3bea4e6b	0.0071504614
55	0x3bcf8ace	0.0063336855
56	0x3ca6c74e	0.020358708
57	0x3b3898cd	0.0028167248
58	0x3c21ecc2	0.009883108
59	0x3b083ba4	0.0020787502
60	0xbae6a800	-0.0017597675
61	0x3bf3074f	0.0074166427
62	0x3c495197	0.012287519
63	0x3c419d3d	0.011817274
64	0x3c195a40	0.009359896
65	0x3b9add78	0.004726108
66	0x3abbd63f	0.0014330818
67	0x3b9d84b8	0.004807081
68	0x3bc80900	0.0061045885
69	0x3c574df7	0.013141147
70	0x3c28f319	0.010311865
71	0x3b1e3a6c	0.002414371
72	0x3a1b9880	0.0005935505
73	0x3c62d82e	0.013845487
74	0x3c541331	0.012944029
75	0x3ae887e1	0.001774069
76	0x3b9862bb	0.0046504415
77	0xb90e435d	-0.0001356727
78	0x3c6c87dd	0.014436689
79	0x3b5f5129	0.0034075475
80	0xbace899d	-0.0015757565
81	0x3b65e292	0.0035077673
82	0x3c098a6f	0.008394822
83	0x395db11f	0.00021142185
84	0xbb0f1c38	-0.0021836888
85	0x3c043d68	0.008071281
86	0x3c4a253e	0.012337981
87	0x3c53441b	0.012894656
88	0x3bc99957	0.0061523127
89	0x3b440d3c	0.0029915115
90	0x3971f080	0.00023073144
91	0x3c06a149	0.008217164
92	0x3ad21831	0.0016028938
93	0xbb47bf8a	-0.0030479156
94	0x3c050321	0.008118422
95	0x3bcfca24	0.0063412357
96	0x3bf03349	0.0073303324
97	0x3ad272b0	0.0016055908
98	0x3901276c	0.00012317084
99	0x3b98e0dc	0.004665477

fc_2.weight f4 [10, 100]
0	0xbbc0eeda	-0.0058878483
1	0xbd7b3cb2	-0.06133718
2	0x3d354544	0.04425551
3	0x3dac8583	0.08423903
4	0xbdaec96c	-0.08534512
5	0xbd121569	-0.03566495
6	0x3da2b74b	0.079451166
7	0xbbe0cd72	-0.0068604285
8	0xbd5059a5	-0.05086674
9	0xbd28d691	-0.04122025
10	0xbb0e804f	-0.0021743958
11	0xbe1dc7e7	-0.15408288
12	0x3ddbbc20	0.10729241
13	0x3df09fef	0.11749255
14	0xbdebdef0	-0.11517131
15	0xbaea5c8f	-0.0017880368
16	0x3d25e769	0.040503893
17	0xbdca9d5e	-0.09893297
18	0x3dc8e73b	0.09809729
19	0xbd26751c	-0.040639028
20	0xbd237ff7	-0.03991696
21	0xbc0c2733	-0.008554268
22	0x3e287498	0.16450727
23	0xbe51c1a4	-0.20484024
24	0xbdf72d1c	-0.12069151
25	0x3e3b2ba8	0.18278372
26	0x3dc99635	0.09843103
27	0xbdb0f807	-0.086410575
28	0xbd006901	-0.03135014
29	0x3ce85122	0.028359
30	0xbdca3985	-0.09874252
31	0xb940086c	-0.00018313684
32	0xbd36d8f6	-0.044640504
33	0xbd643dc0	-0.055722952
34	0xbc9b6597	-0.01896934
35	0xbdfc5ec8	-0.123227656
36	0xbcc786ab	-0.024356207
37	0x3a9693de	0.001148816
38	0x3edece3c	0.4351672
39	0xbd6858e5	-0.0567254
40	0xbe103cef	-0.14085744
41	0x3d928cce	0.071557626
42	0xbab4cfd7	-0.0013794851
43	0xbd5e13a2	-0.054217942
44	0xbdc6ca87	-0.09706598
45	0xba00153c	-0.00048859767
46	0xbd346024	-0.044037
47	0xbd8479f3	-0.064685725
48	0xbc6b0561	-0.014344544
49	0xbdfbdea0	-0.12298322
50	0xbe1711dd	-0.14752908
51	0x3d14788a	0.036247768
52	0xbdf040ee	-0.11731134
53	0x3c3b7dc5	0.01144356
54	0x3d2d7015	0.042343218
55	0xbd9872fc	-0.074438065
56	0x3e41ea37	0.18937002
57	0xbda71ab1	-0.08159388
58	0xbd2d20b3	-0.042267513
59	0x3b3d826b	0.0028916846
60	0x3b61c6df	0.0034450812
61	0xbca90915	-0.020634213
62	0xbe2f3682	-0.17110637
63	0xbd03e984	-0.03220512
64	0x3e27e13a	0.16394511
65	0x3d495ce4	0.049160853
66	0x3d83bb63	0.064322256
67	0x3e10fa37	0.1415795
68	0xbd9d15cd	-0.07670174
69	0xbd68fd4f	-0.0568822
70	0x3d698e60	0.057020545
71	0xbc04eddf	-0.0081133535
72	0x3d4d09c9	0.05005816
73	0xbd44b08d	-0.048019934
74	0xbd8a53ec	-0.06754288
75	0xbdc4f0da	-0.09616251
76	0x3e0b4bdc	0.13603157
77	0x3e22197b	0.15830033
78	0xbe01669f	-0.12636803
79	0x39edae15	0.00045333864
80	0xbbc72d83	-0.0060784235
81	0xbc9fd100	-0.019508839
82	0xbd06f2b1	-0.032946292
83	0xbbc77f33	-0.0060881614
84	0xba9707c7	-0.0011522704
85	0x3e72df57	0.2371801
86	0xbddf4d42	-0.10903408
87	0x3db8a0bd	0.090150334
88	0xbd3962bc	-0.045260176
89	0x3c887a95	0.016660014
90	0xbcc13add	-0.023587639
91	0x3de490bf	0.111604206
92	0xbc84fa79	-0.016232716
93	0x3e0dd414	0.13850433
94	0xbd878892	-0.066178456
95	0xbcd463fc	-0.025926583
96	0x3debcf50	0.11514151
97	0x3e8f6ac8	0.28011155
98	0x3b2a1648	0.0025953222
99	0xbc7ea483	-0.015542152
100	0x3dc49463	0.09598615
101	0xbdb85a75	-0.09001628
102	0xbd748b2f	-0.05970305
103	0xbcec2f5f	-0.028831182
104	0x3cd6326d	0.026147092
105	0x3c534af9	0.012896293
106	0xbc00cab1	-0.007860825
107	0x3dde9aa3	0.10869338
108	0x3e1b7f76	0.15185341
109	0x3e1b8b55	0.1518987
110	0x3d8edbce	0.06975518
111	0x3ef24e55	0.47325388
112	0xbdc455c9	-0.09586675
113	0xbe05d58e	-0.13069746
114	0xbd874201	-0.06604386
115	0xbb47ed41	-0.0030506405
116	0xbdd61256	-0.10452716
117	0xbd2e023e	-0.042482607
118	0xbe3f4041	-0.18676855
119	0xbd6855b1	-0.056722347
120	0xbd8b5ee5	-0.06805209
121	0x3ccc5a00	0.02494526
122	0xbc331b92	-0.010931866
123	0xbdc9741d	-0.098366
124	0x3e3d407e	0.18481633
125	0xbe18be1b	-0.1491627
126	0xbd8ffb1b	-0.070303164
127	0x3dc566cd	0.09638748
128	0x3d715d79	0.058927033
129	0xbcd2f7e8	-0.025752977
130	0xbd7f0e9a	-0.062269785
131	0x3a906236	0.0011015597
132	0xbd424679	-0.04743049
133	0x3da01ee1	0.0781839
134	0x3d903b1c	0.07042524
135	0x3dd8e8f2	0.10591306
136	0xbd6c0773	-0.05762429
137	0xba9caaac	-0.001195272
138	0xbe21f130	-0.15814662
139	0xbc868f22	-0.016425673
140	0x3d31572e	0.04329603
141	0x3c77d176	0.015125623
142	0xbc5122b6	-0.012764623
143	0x3e914746	0.2837469
144	0x3ddfb310	0.10922825
145	0xba60bd27	-0.0008573108
146	0xbdf94c7a	-0.1217279
147	0xbd603677	-0.05473944
148	0xbc620df4	-0.013797272
149	0x3e201f4f	0.15636943
150	0xbe43a343	-0.19105248
151	0xbd7f1478	-0.06227538
152	0x3e047766	0.12936172
153	0xbd853f1a	-0.06506176
154	0xbe1f57c4	-0.15560824
155	0x3bf02f56	0.0073298616
156	0xbe710732	-0.23537901
157	0x3e1d035b	0.15333311
158	0x3d0f6dc5	0.035016794
159	0xb8fda81a	-0.000120952915
160	0xba930737	-0.001121736
161	0xbcae8d02	-0.021307472
162	0x3e25088c	0.16116542
163	0x3dcf4564	0.10120657
164	0xbe0994b4	-0.13435632
165	0xbdc9bf03	-0.09850886
166	0x3d630791	0.055427138
167	0xbc41d7ee	-0.011831267
168	0x3c86854e	0.016420987
169	0xbdde5fa8	-0.10858089
170	0x3dfc8a86	0.12331109
171	0x3ddcfb8a	0.10790165
172	0xbac2df4f	-0.0014867577
173	0x3aa8e09e	0.0012884324
174	0xbdb5b3fa	-0.088722184
175	0x3e172b5a	0.14762631
176	0xbd5a32ed	-0.053271223
177	0x3ab26abb	0.001361213
178	0xbd095133	-0.033524703
179	0xbae1a692	-0.001721578
180	0x3d09f4c3	0.03368069
181	0x3da06737	0.07832187
182	0x3d2f4a91	0.04279572
183	0xbc93d2d0	-0.01804486
184	0x3a4d2e70	0.0007827049
185	0xbc20026d	-0.009766203
186	0xbe2725c1	-0.16322996
187	0xbe432431	-0.19056775
188	0x3a8a8e89	0.0010571043
189	0x3dd5b1ec	0.104343265
190	0x3c2281ea	0.009918669
191	0xbc91600f	-0.017746
192	0xbd5ee001	-0.054412846
193	0xbc762c0a	-0.015025148
194	0x3cf82133	0.030289268
195	0x3e007ac2	0.12546828
196	0xbdfb7250	-0.12277663
197	0xbad1cff9	-0.0016007415
198	0x3d1dc77d	0.038520325
199	0xbc0bae0a	-0.008525381
200	0x3c193437	0.009350828
201	0x3e549875	0.20761283
202	0x3dcd22a9	0.100163765
203	0x3e687d80	0.22704124
204	0x3e963005	0.2933351
205	0xbd5d2e78	-0.053999394
206	0xbd5f5a4d	-0.054529477
207	0x3e2a2550	0.16615796
208	0xbd259a51	-0.04043037
209	0xbd63f6b3	-0.055655193
210	0x3dfa6d56	0.122278854
211	0x3d196fde	0.0374602
212	0xbc5a1711	-0.0133111635
213	0xbcadf4ea	-0.021234948
214	0x3e05b196	0.13056025
215	0xb8a45789	-7.836434e-05
216	0x3d048852	0.032356568
217	0xbe81a7d2	-0.2532335
218	0x3e6c40ff	0.23071669
219	0xbdeee656	-0.11665027
220	0x3d81531f	0.06314682
221	0xbc8fbe1e	-0.01754671
222	0x3e6aea6c	0.22940987
223	0x3eb5db5c	0.3551892
224	0xbe82e458	-0.25564837
225	0xbe24d793	-0.1609786
226	0x3bc8e870	0.0061312243
227	0xbdde2a43	-0.108479045
228	0x3d0e7cfe	0.03478717
229	0xbc2d0883	-0.010561111
230	0x3dd5bd7d	0.10436533
231	0x3b4694db	0.0030301127
232	0xbcfa6006	-0.030563366
233	0x3d1dbbb9	0.038509104
234	0x3e2327f0	0.15933204
235	0x3e961da5	0.29319492
236	0xbce027e0	-0.027362764
237	0xbaf4761c	-0.0018650922
238	0x3d7b614a	0.06137208
239	0x3e21e9d3	0.15811853
240	0xbd7c5f0a	-0.061614074
241	0xbde18dd6	-0.11013381
242	0xbabc9339	-0.0014387137
243	0xbd16fd2f	-0.03686255
244	0x3e937e8b	0.28807482
245	0x3847d565	4.7644036e-05
246	0x3cf1ff0d	0.029540563
247	0x3c144661	0.009049983
248	0xbbe06be5	-0.0068487995
249	0xbe09f406	-0.13471994
250	0xbdc38552	-0.09546913
251	0xbdb8fc04	-0.09032443
252	0xbe3021c6	-0.17200384
253	0xbd4058a3	-0.04695953
254	0xbe3ebb11	-0.18626048
255	0x3e864c81	0.26230243

fc_2.bias f4 [10]
0	0xbbc3b655	-0.0059726634
1	0x3b57e19b	0.0032940868
2	0x3bbd9a90	0.0057862476
3	0xbca375c8	-0.019953623
4	0x3b7c3421	0.003848322
5	0x3caf2d09	0.02138378
6	0xbc222b6f	-0.009898051
7	0xbbba51e9	-0.005686034
8	0x3bdb153a	0.00668588
9	0x3b031228	0.0019999836
