notebooks/models/cnn_normal_1.000/model.pth (torch, 216215 bytes, 6 tensors)

conv_0.weight f4 [64, 1, 3, 3]
00000000: 72e1 92bd ce10 abbb 04e5 1d3e 8d57 37be
00000010: 1658 173d dd98 3e3e 6941 d0bd 85e9 fd3d
00000020: 9f5d 493e 8794 963d 9a91 97bd 3171 8abc
00000030: e363 7dbb e21d 6fbc 2652 903c d54a 9cb9
00000040: 490d e13b 021b fabc be9b 7abd 0479 643c
00000050: bbd5 903b 9f0e e2bc b73c 513d f34a 063d
00000060: ac0d 983b aad6 ba3d 4ca5 d23d a4d1 b03b
00000070: c3f0 813d f151 48bc e5bd b63d a24a c33c
00000080: 9036 08bd 7a15 403c 73be 403d bc03 1dbb
00000090: 7f9f ab3d 9c0d 463e 628d e23d 9a37 163e
000000a0: ea0e 3f3e 28de 083d 14a2 063c ba85 693c
000000b0: da23 f2bc 9c16 d5bb bedb 20be a7c9 23be
000000c0: 4984 693b 8ac9 813b 7ede 953c e946 233e
000000d0: 8253 053e 8463 193e 2c30 4bbd 9b19 6dbd
000000e0: 399d 0ebd dac6 0bbc 8255 92bd a572 cebc
000000f0: 5b31 85bd 6875 21bd dfb6 4c3c 0416 383c
00000100: 291a f83d c377 233e ebd1 a63c 0870 bb3d
00000110: 9399 dc3d d807 cd3d d916 023e 3e17 1f3e
00000120: 810c 4e3d 3d4f 1e3e 55c0 f73d 6ee8 023e
00000130: b479 193e ea02 cf3d fd9c 543d 9cf2 043d
00000140: a9c7 2fbb f563 cb3d 6a6c ad3d c538 863c
00000150: 3b93 6b3e 60cd 153e c0df 063e 8cf3 623e
00000160: 9501 ae3d b1c7 173d 5dce 7ebc 73aa 903b
00000170: a96b 6bbd d87c b3bc 6975 83bd 3c10 0f3c
00000180: 83fb 883c e891 793d 5626 343d 6c58 f13b
00000190: 0011 b7bc 383f 5ebd 987b 293d 2f5f 2cbd
000001a0: 94d8 08bd 6d51 c7bc c093 ccbd c61f 563d
000001b0: 44a1 cd3d f963 0f3e f651 e13d 1420 8d3c
000001c0: 759c 35bd d98a c83c f19c 0dbe dfe9 9ebd
000001d0: d815 35bd f9ef 153a 8d0d da3b 5bc4 b4bb
000001e0: e78c 80bc ba03 c33c 9821 79bc e951 5fbd
000001f0: 1739 623c cbb4 833c 68f7 ea3c 6a49 683c
00000200: eca0 97bd 3cca efbb b27a 77bd 0411 c1bc
00000210: 279b a9bd 8978 95bc 24c1 1dbd e069 d93b
00000220: ddd9 c53d 713e 473d 30e5 bbbc 2989 973d
00000230: 92f0 603d f975 9ebd b249 4d3d 2872 833d
00000240: 507e c03d f2b1 ab3d fc80 603d cd46 adbb
00000250: 3a74 fbbc 867e a8bd 59dd 92bd f8ab 58bd
00000260: 9aba 25bd 9832 e13d 996f 2a3e bf93 273e
00000270: 4967 d53d db77 153e af12 253e d5e0 dd3d
00000280: 6ae3 c33d ef33 e93d e686 d83d e9d3 3b3d
00000290: e95c 283d 05e1 c63d 7010 77bc 4a50 00bd
000002a0: 08a6 96bb dd55 b4bd 3768 33bd c2d7 1fbd
000002b0: 82cc a23d 1548 b63d 5d7a 803d abc7 3e3e
000002c0: 9262 133e d87a 1d3e 4779 113e 2a99 683e
000002d0: 5546 f03d de7e 8abd 89b5 f4bd e659 503e
000002e0: 211a 92bc f898 f4bc d4e4 4f3e 0f94 9d3d
000002f0: 202f ec3d d7ea 9f3d 1678 2d3e 512d b33d
00000300: 5dc9 bd3d 76e5 483d 76fe b63d 7be7 9f3d
00000310: 4ed0 043d 87f5 e33b 5285 84bd 8d62 17bd
00000320: f164 cd3d c89f c4bd 706e a8bc a933 bb3d
00000330: 6a4e 88bc 2145 db3d 914c 883d dc30 a1bd
00000340: 0a14 403c 14df 513e c1c5 b2bd 28f0 883d
00000350: 15b6 8d3d 5fe4 91bd 08d0 433d 5c6a 9c3d
00000360: 1237 aa3b a490 4d3d 77ab 243d 72fc 89bd
00000370: fca3 51bd 7e63 e7bb 790f aabd d8fe 43bd
00000380: 6e67 afbd de5a 403c 319b b53d 1dfd 243e
00000390: 38d7 15bd c313 58bd f450 0a3d f298 73bd
000003a0: c46b c8bd 1571 3bbd ca33 b0bc ffbd 3b3c
000003b0: d080 4d3c 1969 4bbd 6244 a23b b02c 133e
000003c0: e4e9 693d dedd bf3d f534 543e be8b 31bd
000003d0: 4863 ad3b 816c 27bd 0988 abbc c9d1 c6bc
000003e0: b275 b83c 3f9c 3bbc 9927 3abd 5215 563d
000003f0: 3de3 043e e503 4a3e fec9 ee3d 920a ff3b
-0.071719065 -0.005220509 0.15419394 -0.17904492 0.03694924 0.18613 -0.10168726 0.12398056
0.1966462 0.07352548 -0.07400818 -0.016899677 -0.0038664273 -0.014594527 0.017617296 -0.00029810393
0.006868039 -0.030530456 -0.061183684 0.013944868 0.00442001 -0.027594863 0.051083293 0.03278632
0.0046403017 0.09122975 0.10285434 0.005396085 0.0634475 -0.012226568 0.08922938 0.023839299
-0.03325516 0.01172387 0.047056627 -0.0023958525 0.08380031 0.19341129 0.11062123 0.14669648
0.18658033 0.03341499 0.008217353 0.014253074 -0.029558111 -0.0065029394 -0.15708825 -0.15994893
0.0035631827 0.003960793 0.01829457 0.15945019 0.13020137 0.14979368 -0.049606487 -0.057885747
-0.034817908 -0.008531297 -0.071452156 -0.025201151 -0.065035544 -0.039418608 0.012494772 0.011235718
0.12114365 0.15963654 0.020363769 0.09152228 0.107714795 0.10011262 0.12704028 0.1553621
0.050304893 0.15459915 0.12097231 0.12783977 0.14987832 0.10107978 0.05190753 0.032457933
-0.0026821888 0.09931175 0.08467944 0.016384492 0.23005383 0.14629126 0.13171291 0.22163218
0.084963955 0.037055675 -0.0155521305 0.0044148504 -0.05747572 -0.021910116 -0.064188786 0.008731898
0.016721493 0.060930163 0.043981872 0.007365277 -0.022346973 -0.05425951 0.041377634 -0.04208296
-0.03340967 -0.024330819 -0.099891186 0.052276395 0.100405246 0.1400298 0.11001961 0.01722721
-0.044338662 0.02448027 -0.138294 -0.07759451 -0.044210285 0.00057196576 0.0066544474 -0.0055165715
-0.015692187 0.023805488 -0.015205763 -0.054521475 0.013807557 0.01607742 0.028682426 0.0141776595
-0.0740374 -0.0073178094 -0.060419746 -0.023567684 -0.08281546 -0.018245952 -0.03851427 0.0066349357
0.09660695 0.048643533 -0.022936434 0.07399208 0.054916926 -0.07737345 0.05011911 0.06418258
0.09399092 0.0838355 0.05481051 -0.005287981 -0.03069507 -0.082272574 -0.07171125 -0.052898377
-0.04046116 0.10995978 0.16644134 0.16364954 0.10420091 0.14596502 0.16120408 0.10833899
0.0956486 0.11386859 0.10572605 0.04585639 0.04110423 0.09710888 -0.015079603 -0.03132657
-0.004597429 -0.088054396 -0.04380056 -0.039024122 0.07949163 0.08900467 0.06273339 0.18630855
0.1439307 0.15378892 0.1420642 0.22714677 0.11732165 -0.06762479 -0.119486876 0.20346794
-0.017834725 -0.029858097 0.20302135 0.076942556 0.11532426 0.07808464 0.1694034 0.08748878
0.092669226 0.049046956 0.08935253 0.07807823 0.032425217 0.0069567594 -0.06470741 -0.03695922
0.10029019 -0.09600788 -0.020560473 0.09140713 -0.016638953 0.10706545 0.06655229 -0.07870647
0.011723528 0.20495254 -0.08729125 0.06686431 0.06919495 -0.071236365 0.047805816 0.07637474
0.005194553 0.05018677 0.040202584 -0.06737603 -0.05118178 -0.007061421 -0.083037324 -0.04785046
-0.085646495 0.011740414 0.08867491 0.1611218 -0.0365822 -0.05275322 0.03376861 -0.059472032
-0.0978618 -0.04576214 -0.02150907 0.011458873 0.012542918 -0.049660776 0.0049519995 0.14372516
0.05710782 0.0936849 0.20723327 -0.04334616 0.0052913763 -0.04087496 -0.02093889 -0.024269955
0.022517059 -0.011450826 -0.04544792 0.052266426 0.1297731 0.19728048 0.11659621 0.0077832425

conv_0.bias f4 [64]
00000000: f35d 06bd f7db aebc a9a9 663d 2452 c3bc
00000010: 0a1c 593d 3e18 0d3d 6d5d a83d b224 df3c
00000020: cb11 8d3d 650e af3d 6a87 803c a8f0 493d
00000030: fe7a 183d c14f 773c 80cf 623d f938 d43c
00000040: ecfb 443c 6795 a03d 32fc 393d 25c3 97bb
00000050: e161 e03d 0d93 a03d 0ced 9b3c 8afa 9d3a
00000060: 794c 313d d882 b1bc 28b0 b63d 2217 e7bc
00000070: e300 923d 07f3 253c 0586 92bc 66b2 183d
00000080: d903 95bc af59 7c3b 65fe 883d 2106 503c
00000090: 0592 1c3c bdf6 1abd 4ccb d03a 987d 25bc
000000a0: f5c0 84bc 64c7 623d 9943 083e 346d 963d
000000b0: 63a1 a2bc 1e43 da3d 7897 d33c 5503 3e3d
000000c0: 608e 143d f3b5 313b e0c7 8bbc 5191 d4bc
000000d0: 12db d73d 34f4 ac3c bb2f 783d 3cff 57bc
000000e0: 826d 953d 3a46 4d3d f742 7dbc 22ed 6d3c
000000f0: fb68 a73c 3164 003e 8635 efbc b37c 41bc
-0.03280444 -0.021345122 0.056314144 -0.023842879 0.053005256 0.034446947 0.082209446 0.027239177
0.06888159 0.085476674 0.01568957 0.049301773 0.03722667 0.015094698 0.05537367 0.025906073
0.0120229535 0.07840996 0.045406528 -0.0046314173 0.10956169 0.07840548 0.019033931 0.0012052816
0.04328582 -0.021668836 0.08920318 -0.028209273 0.071290754 0.010128743 -0.017886171 0.03727951
-0.018190311 0.0038505604 0.06689147 0.012696774 0.009556298 -0.037832964 0.0015929728 -0.010100745
-0.01620529 0.055365935 0.13307036 0.073450476 -0.019852346 0.10657333 0.025829062 0.046389896
0.036268592 0.0027116507 -0.017063081 -0.025948199 0.10539831 0.021112539 0.060592394 -0.013183411
0.072962776 0.0501158 -0.01545786 0.014521869 0.0204358 0.1253822 -0.029200327 -0.011809516

conv_1.weight f4 [64, 64, 3, 3]
00000000: 57dc 0bbd ce98 20bd 59bc 38bb cd67 95bc
00000010: 6aa6 b83c 8e85 fdbc d36c cabc 1b24 373c
00000020: d6a4 fb3c bba4 1dbd 33c9 423d 8ac6 2ebd
00000030: 1d96 923a 228c f0bc 8e3a d5bb 82f6 f7bc
00000040: 3676 39bc 4d3d e83c b40f 1b3d 98ca 63bd
00000050: 3116 0a3d 539c b8bc b089 193d 3f6b 463d
00000060: 04dd 4b3d 3843 ba3c a4c2 873d 6db5 f73d
00000070: 04e4 1dbd 42b6 03bc 986f 66bc 7c87 9c3b
00000080: 43fa 8e3b 86aa 8d3c 5a31 0a3d 6708 9c3a
00000090: cc5a 40bd 5bd3 63bc 6061 993d cb13 003c
000000a0: 6b12 ecbc 9d82 5cbc cc64 413c 4ab9 133d
000000b0: afc0 4a3d c08b 4a3d fd50 e63b c259 25bd
000000c0: 259e a03c ce81 0dbd 1e48 b2bc 755e 013d
000000d0: bc8a 8c3d f61d ffbc 67d2 fc3b 03a2 f43b
000000e0: 0c94 d6bc 7938 4f3c be72 66ba e29d de3c
000000f0: dc4d 9dbb 217c 45bd 3b01 20bb b7f8 a33c
00000100: a982 dcbb 0820 cabc 7bd0 5ebd e337 123a
00000110: 3c39 4fbd 6b4e fe3c f6f2 69bb 34d0 4d3a
00000120: 460d c53b 244f 3e3c afed 05bd 12b4 8bbd
00000130: 7523 0d3d cfc3 4b3d 66c3 e43c 4fba 383d
00000140: 2e81 2a3d f4dd ab3c 1735 7a3c 82a9 883a
00000150: 80f9 1cbd d818 f2bb 62b1 ddbc 83de 523d
00000160: 1643 b6bb 6cac 053d 86df 783c 2bc3 a6bc
00000170: 6711 35bb 2038 4cbc 156a 043d 8e58 a8bb
00000180: 8a41 01bd aee7 2a3b be66 163d e9e4 ed3c
00000190: 600b febc 2d72 3c3c ad18 393c 1dfc 673d
000001a0: ca59 a1bb d21b 6ebc 29da 1fbd 2b86 89bd
000001b0: f78d a13c 3c2a 26bb 0cfe 2b3d 086d 89bc
000001c0: 7527 5b3c 3351 98bc df75 e33c b812 d23c
000001d0: 9683 16bc 15e0 dcbb 4658 253d b9a8 2abb
000001e0: 080f be3c 71c9 a93b 350b aabc 6d1c 86bc
000001f0: 960b 4b3d 7278 18bd 6dc7 e43b 5093 bdbc
00000200: 4338 863d 3cee 313d 1ab4 78bd 38b8 633b
00000210: bf83 253d e72a 17bd 1c2c 76bd f5b2 7d3d
00000220: 15c1 823d 96a0 42bd f1ab b73c 6900 8abc
00000230: a815 a1bc c472 15bd 7fd8 0f3d 5d5a 02bc
00000240: a0c3 183d a289 3ebd ad9b a7bc 4f28 8fbd
00000250: 6b6a 653c 3cd3 09bc 50bd d7bc f97d aa3b
00000260: 1a7f acbd 581c 853c f20b 10bd 6e0f 36bd
00000270: 3669 c23b 4c56 5439 6242 0abd a7e0 7e3d
00000280: b7e3 9cbb 860d 5ebd e428 6c3d e1ff 09bd
00000290: 129f 2dbc ac41 713d a916 1c3d afb4 55bd
000002a0: 4ca3 d13c 5c99 163d 74d0 7b3c ed77 f9bc
000002b0: 39ef 743c 5e5e d43c e9a7 35bb cf50 30bc
000002c0: 3aed 57bd a858 313d 1208 16bc 697c 9dbd
000002d0: 62c3 413d 9ba1 4abd 4491 a13b bf1e 023d
000002e0: 7711 10bd 130e cabb 3dcf 9d3c 8401 46bd
000002f0: bb48 ceba d983 7cbd 244e 943c 3b6c 063c
00000300: e629 363c 7f3f 80bd 473a 9abc 1a45 2cbb
00000310: ed11 b9bc f8e8 293c 6b98 3ebd a46e 2d3d
00000320: b9f4 f9bc f957 ca3b 9fc4 283c 61f4 d6bc
00000330: 4310 a1bc 19be 4fbd 6670 78bd ad76 69bc
00000340: 03e5 973d 21e0 203d d87d e5bc ab69 2dbc
00000350: 38f3 763d b946 b5bc 223d 70bd acd3 46bb
00000360: 01b3 173d 7b69 45bd a12f f53c b99a b43c
00000370: 0ace ca3c 34ad 56bc cbba 92bd 8504 0a3d
00000380: b6ca 093d 1d34 0ebd 855c 163d 336a af3b
00000390: d003 e3bb d0fa ed3c a9c8 cf3c a745 183d
000003a0: 0652 b3ba 4d7b 94bc fbf9 123c 5e27 e23c
000003b0: ae33 80bd 525d b73c 94b3 06bd a13b 3b3d
000003c0: a4dc a0bb 1746 413b f771 1d3d f65d 883b
000003d0: ed57 d5bc d861 303c e1d5 51bd a6a4 15bd
000003e0: f668 bc3c a520 0cbc fe46 873c 2daf b8bc
000003f0: 874c 46bc 89e8 77bd 9b8d 8dbb a697 1fbb
-0.03414568 -0.039208226 -0.0028188436 -0.018237973 0.02254029 -0.030947473 -0.024710095 0.011178042
0.030718248 -0.038487177 0.04755516 -0.04266981 0.0011183653 -0.029363696 -0.0065072244 -0.030268911
-0.011319688 0.028349543 0.037856773 -0.05561313 0.03371257 -0.022535479 0.037484825 0.04844212
0.049771324 0.02273713 0.06628922 0.12095151 -0.03854753 -0.008039059 -0.014064692 0.004776893
0.0043633296 0.017293226 0.03373847 0.001190436 -0.04696159 -0.013905372 0.07489276 0.007817219
-0.028817376 -0.013458875 0.011803817 0.036065377 0.049500164 0.049449682 0.0070286975 -0.040368803
0.01960666 -0.03454762 -0.021762904 0.031584222 0.06862399 -0.031142216 0.0077155116 0.0074656024
-0.026193641 0.0126477415 -0.00087909016 0.027174894 -0.0048005413 -0.04821408 -0.0024414796 0.020016057
-0.006729443 -0.024673477 -0.05439804 0.0005577786 -0.050591692 0.031043252 -0.0035697795 0.0007851154
0.006013545 0.011615548 -0.032697376 -0.06821455 0.034457643 0.049747285 0.027925204 0.045099553
0.0416271 0.020979859 0.015271447 0.0010426494 -0.03832388 -0.0073882155 -0.027062122 0.051481735
-0.0055621965 0.032635137 0.015190011 -0.020356735 -0.002762878 -0.012464553 0.03232773 -0.0051375097
-0.031556644 0.0026078033 0.036719076 0.029039817 -0.031011283 0.011501831 0.011297387 0.05663692
-0.004924034 -0.014533 -0.039026413 -0.06715044 0.019721014 -0.0025354763 0.041990325 -0.016775623
0.0133761065 -0.018593406 0.027766166 0.025643691 -0.009186646 -0.00674058 0.040367387 -0.0026040508
0.023200527 0.0051814844 -0.020757297 -0.016370976 0.049571596 -0.03722424 0.006981781 -0.023141533
0.065537 0.04344009 -0.060718633 0.0034747254 0.040408846 -0.03690615 -0.06010066 0.061938245
0.06384484 -0.047516428 0.022420855 -0.016845899 -0.019663647 -0.036486402 0.035118576 -0.007956115
0.037295938 -0.046517976 -0.020459974 -0.0699011 0.014002423 -0.008412179 -0.026335388 0.0052030054
-0.0842268 0.016248867 -0.035167642 -0.04444831 0.0059329523 0.00020250044 -0.033754714 0.062225964
-0.004787888 -0.054212116 0.057656184 -0.03369129 -0.010597007 0.05890052 0.038107548 -0.052174266
0.025590561 0.03676735 0.015369523 -0.030452693 0.014949613 0.025923904 -0.002771849 -0.010761454
-0.05271647 0.04329744 -0.009157198 -0.07689745 0.047305472 -0.049470525 0.004930647 0.031767603
-0.035172906 -0.0061662286 0.019263858 -0.04834129 -0.0015738228 -0.061649177 0.018103667 0.008204515
0.011118388 -0.06262111 -0.018826617 -0.0026286305 -0.022591555 0.0103704855 -0.046532076 0.042341843
-0.0305122 0.006175038 0.010300784 -0.026239576 -0.019661075 -0.0507184 -0.060654067 -0.014249486
0.074167274 0.039276246 -0.028014109 -0.010584275 0.060290545 -0.02212845 -0.05865205 -0.0030338569
0.037035946 -0.048196297 0.029929938 0.022046434 0.02475645 -0.013102818 -0.07164534 0.033695716
0.033640586 -0.034717668 0.036709327 0.005353236 -0.0069279447 0.02905026 0.025364237 0.0371758
-0.0013681061 -0.0181252 0.008970733 0.027606662 -0.06259857 0.022383366 -0.032886103 0.045711163
-0.004909115 0.002949124 0.038438763 0.0041615916 -0.026042903 0.010765515 -0.05122936 -0.036533974
0.022999268 -0.008552705 0.016513344 -0.022544468 -0.0121032065 -0.060524497 -0.004319859 -0.0024351864

conv_1.bias f4 [64]
00000000: 24af cfbb 2df7 3abd 3df1 3ebd fca0 0d3d
00000010: 4f3a 6b3d ad3b 7b3d 0188 833d f810 5bbd
00000020: ef52 203c 4497 d13d f840 eabc 51e2 1d3d
00000030: b506 a6bc 607a 4fbd 0f08 a83b a4df 1a3d
00000040: 7d1f 13bd 8788 2a3e 15f9 703d 8c8b 763d
00000050: ca56 013d 562e 3d3d a949 7f3d 9e12 af39
00000060: ea4a ae3c 8ff8 24bd bdf9 ca3c 6fb6 623d
00000070: cd54 8fbc 2c50 a93d f5cf efbc a7b1 663c
00000080: bfc1 0d3d 370d 713d f3b5 94bc 646e f53c
00000090: c913 8a3c 5522 2cbd d768 783d 1ada 71bd
000000a0: 572f 7d3d fb6e d8bc 4b54 1c3d f677 3f3d
000000b0: b93b 14bd 5c33 e83c af61 573d 67bf 433a
000000c0: 117e 983c 01e2 d8bb 8744 653c 7d9f 613d
000000d0: c31f fe3c 6722 473d 1421 89b8 283f cfb9
000000e0: cd1d 37bc b3aa a93c 9533 28bc e02e 083d
000000f0: b48f bd3b 8f81 303d 850e a03d 378a b13d
-0.006338017 -0.04564588 -0.04661678 0.034577355 0.057428654 0.061336208 0.06422425 -0.05348298
0.009785398 0.1023393 -0.028595433 0.03854591 -0.02026687 -0.050653815 0.005127914 0.037810937
-0.0359187 0.16653644 0.058831293 0.060191676 0.03157691 0.046186768 0.062326107 0.00033392472
0.021275956 -0.040276106 0.024777288 0.055349763 -0.01749649 0.08267245 -0.029273966 0.014080442
0.0346086 0.058850493 -0.018153166 0.029959865 0.016855137 -0.04202493 0.060646858 -0.05904589
0.061812725 -0.026420107 0.038166326 0.046745263 -0.03618977 0.028344803 0.052583393 0.0007467181
0.0186148 -0.0066187386 0.013993389 0.05508374 0.031021005 0.048616793 -6.53883e-05 -0.00039529172
-0.011176539 0.020711279 -0.010266204 0.03324783 0.005784953 0.043092307 0.078152694 0.086689405

fc.weight f4 [10, 1600]
00000000: 6842 b33c f759 2f3d 03f3 8d3c 948b 98bd
00000010: a7bd 823d e860 3e3d 6e38 acbc 8193 10bd
00000020: e906 0fbd 60b3 8dbc 20d2 44bd a9f1 843c
00000030: 7e46 3b3b 95d2 663d a222 4cbd f54d 00bd
00000040: b8ec 98bc 38f9 573d 5e0c 5f3d 8b93 13bd
00000050: bf1a 1cbc 293b 8abc a972 5d3d 25db 4fbd
00000060: 9155 46bd 91f0 39bd 9f88 123d 3b4d e13b
00000070: a73f 8cbc 949e 60bc 2687 e6bc 454c 8abc
00000080: ce68 89bc e25c e3bc 3b05 c43b c810 843c
00000090: b01f 04bd b891 df3c f7d9 263d 65b3 d93a
000000a0: 6779 ea3a ba1d 89bc 6e15 773c dcc4 3fbd
000000b0: d85a a43d 8ee9 01bb f10e 7e3d 435b 85bd
000000c0: a28c 12bd 2405 aebc 6477 393d 0766 a23c
000000d0: 6680 ae3c 61cf 94bd e585 463b 9b36 8fbd
000000e0: b1e9 94bc 02ee fc3c d770 5e3d 0f2b 6fbc
000000f0: bd8f df3b 790d ed3d d1d5 4bbd 8ead 023d
00000100: 565c eebc 910c f23c bff8 5cbc 1823 69bc
00000110: 8769 1d3d ddaa b53c 5d7b 073d 436a dc3c
00000120: 8011 b83c c15e 9c3b d017 ddbc 7e44 06bd
00000130: a9bb 883c f9fa b7bb 3685 ef3c 2473 563c
00000140: ca44 9a3c e63d 8f3d 4fb2 c93c 3854 893c
00000150: 48fc 5d3d a720 563d 1ba2 5dbb 16c2 103d
00000160: f3a8 963d 0931 fb3c 65cc 98bc 492f 063d
00000170: 679e 94bd 3686 83bb 17ad 023d 74ee 483d
00000180: f74a f93d 0ee3 8abc 1e01 d63c adfc a2bd
00000190: eb57 713c a8bc 963c 24c3 053d fff2 b73a
000001a0: c6e5 44bd f2c0 23bd 5d51 353b 9241 2f3c
000001b0: 9488 b33c 8782 fb3c 98e9 e9ba 9bbc 92bc
000001c0: cbb8 67bb 85b4 583d 1596 2dbd ad8e 6b3d
000001d0: f076 803c 8b0a 2abd 9a0a a63d 397b 35bd
000001e0: a5ca 623d e37f af3b 7f29 55bd 15b1 1abc
000001f0: 5496 533d 379d b3bc 5787 a53c 5c8e 46bd
00000200: 6f58 86bc b451 863b b6d6 47bd 7731 9c3d
00000210: 8161 22bc 15e7 e83b a8b2 73bd 2717 f2bc
00000220: 46f8 473d 2243 ba3c 4966 643d dd9b c3bc
00000230: 3608 9d3c 78cc 8b3d 7c77 8c3c 41ef b3ba
00000240: cce6 81bb 22a6 9a3b de8a 4c3d c916 9cbc
00000250: 5c7e 5f37 498c a93c 94a4 abbc 6648 dabc
00000260: 8b0b fdbc 5c04 c7bc d53b d9bc 228f 7b3c
00000270: 157c 283b f624 02bd 2336 93bc 94de e6bc
00000280: 3797 403c 6914 7b3d 2939 44bc 368a 16be
00000290: 0778 19bd 6421 8fbd c575 1fbc a414 babc
000002a0: a65b 20bd 573c 163d e178 b6bc fcae febc
000002b0: dd36 533b 86ff 2b3d 6ecd 6d3d ed56 bf3c
000002c0: 8e3d e7bc a608 463c fb4e f6bc 4438 42bb
000002d0: 288b e0bc cdfc 4c3d a441 0dbd a25b 983c
000002e0: a130 1dbd 5ca5 d33c 8b12 8a3d 1ee8 273d
000002f0: 6e2d 83bc 0ad0 b1bb d4db d3bc 106e d839
00000300: 938c 07bc da4f bcbb 8355 edbc 1eaf 0a3d
00000310: b202 0dbd 50bc 11bc 0add 483c b3a3 f33c
00000320: e6cc fb3b 3a6d f5bc ac7f 1cbd 3289 19bb
00000330: 2c23 8e3b 01ca dabc 22e1 d0bc 4e18 88bd
00000340: 32a4 fc3c 17f9 3c3d e4c8 273d 7259 563d
00000350: 9d72 bbbc 2671 9ebd 036f 223d 2b26 a4bd
00000360: 17c7 153d 1816 923b be51 583c a28d e03d
00000370: adad 6c3d 6b78 913c c761 93bd 68ee 6dbc
00000380: 4ad8 fbbc 333f e53c 9cd2 873c bf95 c13c
00000390: 818f 1ebc ca1e 02bc 0c91 f0b9 f99e 0cbd
000003a0: e0d5 9c3d b5b8 aebb 15ba 50bd e2e7 59bd
000003b0: 610c 003e 1e3d 11bd eacf 8e3d eca4 4b3d
000003c0: 9d06 0cbd dc64 f53c e722 5dbd 0e7d 4f3d
000003d0: e547 58bd d826 b2bb 9833 6dbd 522a 5b3c
000003e0: 1d6b 7cbd 4c18 5cbd 4cf0 b7bc ce8b 83bd
000003f0: e5f3 003c 8aac 4c3c 4487 df3c 5c84 7cbd
0.02188225 0.042810407 0.017327791 -0.074484974 0.063838296 0.046479136 -0.021023002 -0.03529692
-0.0349187 -0.017297447 -0.048051953 0.016228514 0.0028575952 0.05635317 -0.049837716 -0.031324346
-0.018667564 0.052727908 0.054455154 -0.03602938 -0.009527861 -0.016873913 0.054064427 -0.050746102
-0.048421446 -0.045395438 0.035774823 0.0068756617 -0.017120196 -0.013709683 -0.028140616 -0.016882071
-0.016773608 -0.02775425 0.005982069 0.016121283 -0.032256782 0.027291164 0.04073521 0.001660925
0.0017888964 -0.016737808 0.015080793 -0.0468186 0.080251396 -0.0019823047 0.062025968 -0.065115474
-0.03577865 -0.021242686 0.045279875 0.019824041 0.02130146 -0.07266117 0.003029221 -0.06992837
-0.018177839 0.03087521 0.05430683 -0.014597668 0.006822555 0.11574835 -0.049764458 0.031903796
-0.029096764 0.029547008 -0.01348704 -0.014229558 0.038430717 0.0221762 0.033076633 0.026906138
0.022469282 0.0047720377 -0.026988894 -0.032780163 0.016691046 -0.005614635 0.029238325 0.013088975
0.01883163 0.06994228 0.024621157 0.016763791 0.054195672 0.052277233 -0.0033818546 0.035341345
0.07356443 0.03066303 -0.01865215 0.03275994 -0.07256775 -0.004013802 0.031903353 0.04905553
0.121725015 -0.016953971 0.02612358 -0.0795835 0.014730434 0.018400505 0.032656804 0.001403421
-0.04807069 -0.03997893 0.0027666904 0.0106967855 0.021915711 0.030701889 -0.0017846106 -0.0179122
-0.0035357948 0.05290653 -0.042379458 0.057509113 0.015681714 -0.04151396 0.08107491 -0.044306967
0.055369038 0.0053558215 -0.052041527 -0.009441634 0.051657036 -0.021925552 0.020206137 -0.04847561
-0.01639959 0.0040990952 -0.04878875 0.07626622 -0.009910942 0.0071076252 -0.05949655 -0.029552056
0.048820756 0.02273709 0.05576161 -0.023878032 0.019168954 0.06826109 0.017146818 -0.001372792
-0.0039642807 0.0047195116 0.04993712 -0.019053834 1.3321256e-05 0.020696776 -0.0209525 -0.02664585
-0.030889293 -0.02429407 -0.026517788 0.01535395 0.0025708724 -0.03177353 -0.01797015 -0.028182305
0.011754802 0.06129876 -0.011976519 -0.14701161 -0.037467983 -0.06988791 -0.009732668 -0.02271492
-0.039149903 0.03667864 -0.022274436 -0.031089298 0.0032228746 0.041991733 0.05805724 0.02335688
-0.028227594 0.012087023 -0.030066958 -0.0029635588 -0.027410105 0.050045777 -0.034486428 0.018598381
-0.038376454 0.025835685 0.06741818 0.04099285 -0.016012874 -0.0054264115 -0.025861658 0.00041280733
-0.008273262 -0.0057468237 -0.02897144 0.03385841 -0.0344264 -0.008894995 0.012259731 0.029741144
0.007684338 -0.02995931 -0.038207695 -0.0023427722 0.004337689 -0.026707651 -0.025497977 -0.06645261
0.030840013 0.046135988 0.04096307 0.052331395 -0.0228818 -0.07736425 0.03965665 -0.080150925
0.03656682 0.0044582 0.013203083 0.10964514 0.057782818 0.017757615 -0.07196384 -0.0145221725
-0.030742783 0.027984237 0.016579919 0.023630975 -0.009677769 -0.007941911 -0.00045884436 -0.034331296
0.07657981 -0.0053320774 -0.05095871 -0.053199656 0.12504722 -0.035458677 0.0697325 0.04971783
-0.034185994 0.02995532 -0.053988364 0.05065637 -0.05280294 -0.0054367594 -0.05791053 0.013376789
-0.06162559 -0.05373411 -0.02245345 -0.0642315 0.007870649 0.012492308 0.02728618 -0.061649665

fc.bias f4 [10]
00000000: ef5b 9bbc 27fc 62bd 34ed 89bd 2ea5 03bd
00000010: 0f3e 2c3d 370b e2bb 0e4d 1f3d 053c 00bd
00000020: 3f79 1fbc ef67 273d
-0.018964736 -0.055416252 -0.06734696 -0.03213995 0.04205137 -0.0068983096 0.038891844 -0.03130724
-0.009733497 0.040870603
