notebooks/models/long_cnn_normal_0.005/model.pth (torch, 216215 bytes, 6 tensors)

conv_0.weight f4 [64, 1, 3, 3]
000000 9c c3 77 3c 10 e0 d9 3c 22 43 a1 3c de 13 f6 bb
       0.0151223205 0.0265961 0.019685332 -0.0075096926
000010 9c fd 9b 3c 7a 89 18 3d 7a d2 06 bd 9f 11 c7 bb
       0.019041829 0.037240483 -0.03291557 -0.0060750986
000020 cf ee 24 3d bf 99 05 bd 08 c5 26 3c 10 1d 3e 3d
       0.040266808 -0.032617327 0.010178812 0.046414435
000030 4b 44 a4 bc 9a da 21 3d 4a d2 3f 3d 1a fc b0 3c
       -0.020052096 0.039515115 0.046831407 0.021604586
000040 88 97 52 3d fe 89 e1 3c 95 8e f0 3d 60 f8 00 bd
       0.051414043 0.02753162 0.11745945 -0.03148687
000050 e5 c9 1d be 66 00 60 3e b2 43 0b 3e 99 dd 80 bb
       -0.15409048 0.21875152 0.13600042 -0.0039326665
000060 fd 5b 35 3e 65 01 5d 3e 73 cb 28 3e c0 47 87 3d
       0.17710872 0.21582563 0.1648386 0.06605482
000070 6a ed a8 3d 0a 87 92 3d 1e 75 93 bc e1 02 44 3b
       0.08248408 0.07154663 -0.018000182 0.0029908943
000080 8b 32 fe 3c a8 ea 8b bd ce 89 a3 bd 2a 54 34 bd
       0.03102996 -0.068318665 -0.079852685 -0.044025578
000090 08 6e aa bc 60 a0 0e bd ae 18 8f bc d2 07 53 bc
       -0.02080442 -0.034820914 -0.017467823 -0.0128802825
0000a0 5c 63 fe ba 09 f5 de 3c 0c 6d be 3c e6 ac 32 3d
       -0.0019408274 0.027216451 0.023245357 0.04362192
0000b0 5c e7 27 3d c2 84 da bb 60 69 03 bc c3 ca 27 bc
       0.040992126 -0.006668658 -0.008020729 -0.010241213
0000c0 c0 d9 29 bc 44 bd 2a bc 0d 04 da bb 61 91 28 bc
       -0.010366857 -0.010421101 -0.006653315 -0.010288567
0000d0 6b e1 28 bb df f2 90 3c e7 c2 62 bd 72 0c 48 3c
       -0.0025769125 0.017693935 -0.055361655 0.012209998
0000e0 de a1 cd 3d 1b e3 86 bd 8c d8 f5 3c 9e 64 d6 3d
       0.10040639 -0.06586286 0.030010484 0.1046841
0000f0 d6 c8 ea bc 7a 1c 8a 3d aa 0d ad 3d d0 25 9e 3d
       -0.02866022 0.06743713 0.08449872 0.07722056
000100 4e 80 79 3d 7d 1d 20 bc 82 77 e4 3d 9b ea cc 3d
       0.060913377 -0.009772656 0.11155607 0.10005685
000110 c7 9b 0f 3d 50 ba de 3d a2 05 fe 3d 69 b4 9d 3d
       0.03506067 0.1087538 0.12403418 0.07700426
000120 d9 01 40 bb 4c 11 65 37 34 d1 0f ba 34 fe 87 3a
       -0.0029297976 1.3653491e-05 -0.0005486191 0.0010375441
000130 ea 54 2a 3a 23 b0 ad ba f2 97 9a ba f9 d5 6b ba
       0.00064976385 -0.0013251345 -0.0011794551 -0.0008996423
000140 f7 d5 97 38 bc f1 7f 3b 1d 79 b1 39 79 e0 43 ba
       7.240095e-05 0.0039053997 0.00033850307 -0.00074721087
000150 65 c3 f2 3b 85 38 7b bb 42 4f 6a bb 67 d5 16 3c
       0.0074085467 -0.0038333249 -0.0035752808 0.0092061525
000160 2f 98 e2 bb 31 56 9f ba 74 f3 41 3b b4 59 90 3c
       -0.0069151144 -0.0012156424 0.0029594572 0.017620899
000170 98 1e f8 3c da df 55 bc d0 ad 81 3b 7f b7 fd 3c
       0.030288026 -0.013053859 0.0039574876 0.030971287
000180 a3 54 ab bc ed 3f fc bb 6d c4 a8 3c e7 a3 e4 3d
       -0.020914381 -0.0076980502 0.020601476 0.111640744
000190 c2 aa 1c 3e b5 d0 ff 3d 04 58 54 3b e4 d8 bc 3d
       0.15299514 0.124909796 0.0032401094 0.09221056
0001a0 7d c2 08 3e f0 01 da bd 96 00 d8 bc c9 e9 a1 3d
       0.13355441 -0.10644901 -0.026367467 0.07905919
0001b0 42 4f a9 3d b1 00 be 3d 9d e2 b8 3c 27 cb cd 3d
       0.0826707 0.092774756 0.022568995 0.10048514
0001c0 a2 f1 41 3d 4f 78 58 bd 29 3b b1 3d 77 8b 5a bb
       0.04734958 -0.05284911 0.08653862 -0.0033347288
0001d0 43 94 7e bd 85 ef e4 3d b9 5a 03 3e 50 14 0d 3e
       -0.062153112 0.11178497 0.12827577 0.1377728
0001e0 42 e8 2e 3d 40 f7 f1 3c 91 b4 fc 3c 87 7e 06 be
       0.042701967 0.029536843 0.03084782 -0.13134204
0001f0 89 40 1b be 57 d5 d0 bd c4 0d bb bc f2 11 c4 bd
       -0.15161337 -0.10196941 -0.022833712 -0.09573735
000200 72 ce b8 bd 0a 08 5b 3c e7 17 3a bd 62 fc 0c bd
       -0.09023751 0.013368616 -0.04543295 -0.03442038
000210 fe 5f f0 3d 76 45 0f 3e 64 53 d4 3d cd 4d 15 3d
       0.11737059 0.13991341 0.10367468 0.03645115
000220 f8 5b fc 3d 78 00 12 3e 99 a2 bd 3d b3 53 54 3e
       0.12322229 0.14257991 0.09259529 0.20735054
000230 27 14 41 3e 8e b9 e5 3d ec df 3f 3e 08 ff 03 3e
       0.18855344 0.112170324 0.18737763 0.12890255
000240 bc d8 45 bc cc 16 fb bc a8 42 d4 bc 97 72 b2 bb
       -0.012075599 -0.030650519 -0.02591069 -0.005445789
000250 32 0f 83 3a 20 b6 58 3c 49 c3 de 3c 8c 11 f3 3c
       0.0009999035 0.013227016 0.027192729 0.029671453
000260 6e 9d a7 3c f9 06 0b bd 17 a7 21 bc 26 ec 32 3d
       0.02046081 -0.033942197 -0.0098664975 0.04368224
000270 7e 66 2d bd a7 d5 51 3c 71 c4 71 3d 1f 13 16 bc
       -0.042334072 0.012807286 0.05902523 -0.009159832
000280 c2 95 28 3d 44 cd 34 3d 1c d0 9d 3d 67 86 f0 3d
       0.041158445 0.04414107 0.07705709 0.11744385
000290 f8 78 d0 3d 8e d6 0a 3e 56 9b 1f 3e 9e 81 b7 3d
       0.10179323 0.13558409 0.155866 0.089602694
0002a0 46 23 f8 3d 9d e5 b4 3d a1 6c 2c 3c 0f 2b 43 bc
       0.12116103 0.08832858 0.010523946 -0.011912121
0002b0 8a 8c ab bc 62 cc a4 bc 23 a5 95 bc f4 5d 2a bc
       -0.020941038 -0.020116989 -0.01826722 -0.010398377
0002c0 36 b3 23 3c 22 6c 63 3c 04 6f f7 3c 0f 86 d9 3c
       0.009991458 0.013880761 0.030204304 0.026553182
0002d0 f2 92 6d bc 29 22 9f 3d 6d 1d ee 3d 6f ea a1 3d
       -0.0145003665 0.077701874 0.11626706 0.07906043
0002e0 01 07 33 3e 36 ec 15 3e 2b 2c 13 3e ae 1e 2f 3e
       0.1748314 0.14640889 0.14372317 0.17101547
0002f0 43 af a8 3d c6 75 dd bb fe 33 2b bc d1 99 5a bc
       0.082365535 -0.0067584245 -0.010449408 -0.013342337
000300 be 60 db bb 2a 77 07 bc 21 9f 93 3a 8b e2 19 bc
       -0.006694882 -0.008268157 0.0011262634 -0.009392391
000310 32 21 98 bb 30 03 90 3c f8 97 b1 bc aa a4 1d bd
       -0.004642629 0.017579645 -0.02167891 -0.038487114
000320 16 72 0e bd 54 26 a6 bc d4 d6 46 bc 85 2a 0f 3c
       -0.03477677 -0.020281948 -0.01213618 0.008738165
000330 14 da 3e 3d b6 e9 4e 3d 7d 92 22 3d 6b 1b 86 3d
       0.046594694 0.050515853 0.039690483 0.06548198
000340 b8 4f 7e 3d 05 04 c1 3c dd 50 bb 3d 38 f1 9b 3d
       0.062087744 0.023561487 0.09146283 0.07614368
000350 3b 0e c4 3c e1 64 48 3d ed f4 d4 3c f7 55 92 bb
       0.023932567 0.04892433 0.025995696 -0.004465814
000360 27 2c b7 bc ae 54 a5 bc ff ee 24 bc 1f 0b 7f bc
       -0.02235992 -0.02018198 -0.010066747 -0.015566616
000370 45 54 96 ba 4d f4 bf 3c 36 ca 71 3c 14 00 35 3d
       -0.0011469206 0.023431921 0.0147576835 0.044189528
000380 f0 10 35 3d d6 01 58 3e 35 4d 66 3e d3 82 e9 3d
       0.044205606 0.2109445 0.2249039 0.11401906
000390 98 29 58 3e d5 92 9f 3e 37 a2 6f 3e a0 38 af 3d
       0.21109617 0.3116671 0.23401724 0.08555722
0003a0 70 83 5d 3e e6 ea 5e 3e 89 29 b4 bc 05 b6 62 bc
       0.2163217 0.21769294 -0.021992462 -0.013837342
0003b0 a1 62 c5 3c ab ab 0a bd e9 59 16 3b 97 41 20 3d
       0.024094881 -0.03385512 0.0022941774 0.03912505
0003c0 6e c7 8c bc 1d 48 d8 3c d8 71 26 3d 66 ee 18 3c
       -0.01718494 0.026401574 0.040635914 0.009334182
0003d0 3e ae 04 3d b7 34 0f 3d 1c 7a 88 bc 8b d5 81 3c
       0.032392733 0.034962382 -0.016659789 0.015848896
0003e0 04 41 11 3d 6c be d6 bc a8 9a 74 bb 30 93 e4 3c
       0.035462394 -0.026213847 -0.0037323628 0.027902216
0003f0 a9 09 12 3e 69 72 36 3e a7 65 34 3e d9 3f 03 3d
       0.14261498 0.17817082 0.17616902 0.03204331

conv_0.bias f4 [64]
000000 bb 23 8d 3b 7a cc 7a 3c e8 fb 84 3d 69 17 78 3c
       0.004307238 0.01530754 0.0649336 0.0151423
000010 c2 69 83 3c 5d 0c 6e 3c f4 82 bf 3c 3d b4 1f 3d
       0.01604164 0.014529315 0.023377873 0.038990248
000020 cc 6f 34 bb b2 45 5b 3a f7 91 10 3c 8f 27 2b 3d
       -0.0027532456 0.00083645724 0.008823863 0.041785773
000030 ba fc fe 3c b0 38 26 3d 1f 21 07 3d 60 95 8c 3d
       0.031126369 0.040581405 0.03299057 0.068644285
000040 4b 25 f2 3b 83 3b 68 3c 16 f2 44 3d da 32 13 3c
       0.0073896996 0.014174345 0.048082434 0.008984292
000050 9d 97 5e 3d 9f cd 33 3c fe c3 fc 3b 9d c6 e9 3c
       0.05434381 0.010974317 0.007713794 0.028537089
000060 97 46 85 3c f2 f8 bb 3d 79 43 1e 3c 3c 84 f8 3b
       0.016269011 0.09178342 0.009659641 0.007584123
000070 aa 4a 31 3d a0 11 7b 3c 0e fe 9a 3c 80 85 4e 3d
       0.043284096 0.015324026 0.01891997 0.050420284
000080 c5 4f 81 3d 89 53 cd 3d f8 2e 63 3d bf 29 25 3c
       0.06314043 0.10025699 0.055464715 0.010080754
000090 44 cd da 3c 40 61 87 3d bb 35 60 3c d8 5d 96 3c
       0.026709206 0.06610346 0.013684685 0.018355295
0000a0 cd 72 d3 3c 26 d4 0f 3c e6 04 b9 3c 96 d3 f8 3c
       0.025811577 0.0087786075 0.022585344 0.03037433
0000b0 29 b4 b8 3d bc 6b b9 3d d8 6d f5 3c 8d f1 b5 3d
       0.09018738 0.09053752 0.029959604 0.08883963
0000c0 5c 84 3f 3d 86 5a 57 3c b2 b9 03 3c a7 3d d7 3c
       0.046757087 0.013144141 0.008039879 0.026274515
0000d0 49 fa 96 3b 3f ce 74 3d 49 6f 4f 3d e8 15 87 3d
       0.004607473 0.059767004 0.05064324 0.06595975
0000e0 d0 41 16 3c 7c a5 fa 3c 83 fe f4 3d 8c d8 a0 3c
       0.009170964 0.030596487 0.11962607 0.019634508
0000f0 63 d3 01 3d c2 14 67 3b d7 8d e7 3d a7 77 de 3d
       0.031695735 0.0035260175 0.11306351 0.108626656

conv_1.weight f4 [64, 64, 3, 3]
000000 b0 0b 00 3b 42 34 b7 ba 2a 93 3c b9 96 e8 74 3b
       0.0019538216 -0.0013977366 -0.000179839 0.0037370077
000010 58 4b 43 bb 79 86 91 bb f8 b8 80 38 dc f2 b4 ba
       -0.0029799547 -0.004441079 6.137969e-05 -0.0013805288
000020 d3 df 0f bc cd 06 9e b9 63 18 c5 3b eb 0d e3 3a
       -0.008781391 -0.00030141175 0.00601487 0.0017322873
000030 f3 00 b7 ba 56 c1 78 39 ad 7f d8 ba 64 7d 18 bc
       -0.0013962075 0.00023723146 -0.0016517543 -0.009307239
000040 77 46 f0 bb 4a 87 93 ba 96 db 2a 3c ee 93 1e 3c
       -0.007332619 -0.0011255529 0.01042833 0.009678824
000050 27 c6 1d 3c 6b 2f f0 3a 0b 13 a6 3a b9 13 c5 bc
       0.009629763 0.0018324679 0.001267047 -0.024057256
000060 4f 1e 93 bc 86 14 a9 bc 44 ed 86 bc a0 78 68 bb
       -0.017958788 -0.02063967 -0.016470559 -0.0035472289
000070 d5 99 34 bc f8 c8 09 bb 28 ec 5d 3c 6e 41 fb 3b
       -0.011023005 -0.0021024328 0.013545074 0.007667712
000080 08 28 9c 3b de 01 cb 3a 16 78 89 3b d9 f6 d2 bb
       0.0047655143 0.0015488227 0.0041952236 -0.006438118
000090 52 16 b3 3b c0 55 82 3b 30 b1 11 3b a1 7e c9 ba
       0.0054653073 0.0039775074 0.0022230856 -0.0015372821
0000a0 87 a3 09 b9 24 58 8b bb 7f d5 ad 3a 30 18 a6 38
       -0.00013126257 -0.0042524505 0.0013262479 7.920002e-05
0000b0 d0 e1 af ba d5 51 d4 3a a9 bf e3 3a 83 c2 44 ba
       -0.0013418738 0.0016198704 0.0017375845 -0.0007505791
0000c0 ae a5 a4 39 69 03 0f bb c3 54 47 3b 0f 6b 02 3b
       0.0003140396 -0.00218221 0.0030415512 0.0019900238
0000d0 72 e8 27 39 cd de 1f 3b 86 02 35 3a f7 b4 8a 3b
       0.00016012954 0.0024394274 0.0006904978 0.0042329985
0000e0 aa e7 20 3b 5f 74 07 3b 1a 2b ee ba 6d ab 0e bc
       0.0024552145 0.0020668728 -0.0018170804 -0.008707863
0000f0 ed 59 cb bb 86 15 23 bc 8e 5b 93 bb 45 38 01 3c
       -0.0062057883 -0.009953862 -0.004496998 0.007886951
000100 f6 ab 27 3c 6e 5e 30 3c 74 9c 23 3b 9e 02 84 3b
       0.01023387 0.010764701 0.002496508 0.0040286323
000110 18 6c 5c bb 7e 7c 68 bc c9 f4 53 bc 48 7c 05 bc
       -0.0033633765 -0.0141898375 -0.012936779 -0.008147307
000120 2c ea 05 3b 44 be 7a ba 15 ec be 3a f3 cf 94 bb
       0.0020433767 -0.0009565095 0.0014566208 -0.004541391
000130 a0 29 10 ba 29 b5 8f b9 ed 49 c6 3a e4 33 1c 3b
       -0.00054993667 -0.0002741006 0.0015128233 0.002383464
000140 1a 8c 16 3b b6 1f 1d bb 68 db d7 39 52 b7 91 bb
       0.002297169 -0.00239752 0.00041171466 -0.0044469023
000150 2d 5b e5 ba aa ac df 3a 1a b4 00 3b 25 cf fe ba
       -0.0017498486 0.0017065008 0.00196386 -0.0019440396
000160 15 39 4a ba f1 b9 09 3b 80 eb 23 bb c9 a8 ec 3a
       -0.00077141944 0.002101537 -0.0025012195 0.0018055673
000170 0b 7e 89 b9 d4 14 45 3b 27 1a 3a 3a 9c 93 91 bb
       -0.00026224586 0.003007223 0.0007099234 -0.0044426452
000180 bf 28 cd ba bc 4b 79 bb 5d b2 a1 bb 14 6d 63 bb
       -0.0015652402 -0.0038039526 -0.0049345926 -0.0034702467
000190 5a f0 54 bb 7c 5b 10 3c 57 b5 a2 3c 45 c2 36 3c
       -0.0032491894 0.008810874 0.01986186 0.011154716
0001a0 08 f6 57 ba 84 b8 13 bb ec 94 94 bb a1 56 a0 bc
       -0.00082382606 -0.00225404 -0.0045343544 -0.019572558
0001b0 d3 7f 30 3a 43 1a e3 ba aa 6c 9b 3a 52 f2 25 bb
       0.00067329145 -0.0017326552 0.0011857946 -0.0025321436
0001c0 51 04 70 3b 92 35 e4 3b 5f 27 21 bc 10 68 a6 bb
       0.0036623667 0.006964394 -0.009836047 -0.005078323
0001d0 93 9f 29 bc 78 8b c8 bb 7b 38 d9 bb 97 03 2a 3b
       -0.010352987 -0.0061201416 -0.0066290474 0.002594208
0001e0 19 4f 95 3c bf 51 b4 3c 2c fc 87 3c d1 cd 91 3b
       0.018226193 0.022011636 0.016599737 0.004449584
0001f0 99 da cb 3b 3a 7d 08 bb 3d 1b 0c 3c 7e 41 1b 3c
       0.006221127 -0.0020826594 0.008551416 0.009476064
000200 0c bc 2f bb c2 60 76 bb 24 8c 6b bb ef 93 6a bc
       -0.0026814966 -0.0037594293 -0.0035941685 -0.014317497
000210 90 00 71 bb bf 26 19 bb c1 56 b4 ba f9 81 0b 3c
       -0.0036774017 -0.0023369042 -0.0013758765 0.008514875
000220 3c 1f 9e 3c 02 94 d0 3c 4c b4 e6 3b 8f 06 45 3c
       0.019302003 0.0254612 0.007040536 0.0120254895
000230 d8 5e 08 3b 29 31 d7 bc 37 96 9e bc 3d 53 8a bc
       0.0020808484 -0.026268559 -0.019358737 -0.016885394
000240 85 c6 92 3b f8 98 e4 3a 8c 30 69 3b 23 80 48 ba
       0.004479232 0.0017440608 0.0035581915 -0.00076484884
000250 9a 5a 21 3b 43 33 9f bb a9 15 0b bb c6 d8 c2 ba
       0.0024620653 -0.004858406 -0.0021222627 -0.0014865629
000260 f3 68 d4 3a e5 68 d5 3a d5 c1 8c 3b 4c 36 93 3b
       0.0016205594 0.0016281871 0.0042955675 0.0044925567
000270 bc 57 90 ba 0c 1f 9d bb 71 37 b6 bb d4 bb a7 bb
       -0.0011012475 -0.004794961 -0.0055608083 -0.0051188264
000280 e2 67 87 ba b4 4b 8b bb ae b6 03 3c 03 c2 1e 3c
       -0.0010330642 -0.004250968 0.00803916 0.009689811
000290 02 61 95 3c a5 40 3a 3c 4b fc 8e 3c 42 44 49 3c
       0.018234733 0.0113679515 0.017454287 0.01228434
0002a0 61 c9 9a bc c0 d4 0b bc 41 ea 60 bc 4d a1 0b 34
       -0.018894853 -0.00853461 -0.0137277255 1.3004065e-07
0002b0 06 49 9c 3a a7 73 31 3b ae 8b 31 bb 87 ed 17 3b
       0.0011923618 0.002707699 -0.0027091312 0.0023182349
0002c0 10 d3 ad b9 42 13 8a ba ba 79 82 3b 80 d8 c3 3a
       -0.00033154385 -0.0010534304 0.003981796 0.0014941841
0002d0 30 b2 13 3c 65 f7 84 3c 67 82 ad 3c 1b 55 d4 b9
       0.009014651 0.016231248 0.021180345 -0.000404992
0002e0 35 53 29 3c 93 38 31 3a 1a 9e 97 bc ad fc 68 bc
       0.0103347795 0.00067604444 -0.018508006 -0.014220399
0002f0 47 e1 60 bc 02 bd a1 ba db b2 ba 3a a6 19 89 3a
       -0.013725585 -0.0012339654 0.0014243977 0.0010459914
000300 e0 11 e2 3a 18 58 6e 3a 0d f0 f7 ba ea 00 8d 3a
       0.0017247759 0.00090921065 -0.0018916145 0.0010757719
000310 b8 91 3d 3b c9 64 44 3b 84 d6 40 3b 73 50 00 3c
       0.0028925966 0.00299673 0.0029424736 0.007831681
000320 fa d7 43 3b 4d 5e 78 bb 99 e8 96 bb f1 1b 54 bb
       0.002988337 -0.0037898005 -0.0046053645 -0.0032365287
000330 b7 c9 a3 38 09 aa 18 3b 99 db bf 3b 84 8e 88 3b
       7.810018e-05 0.0023294708 0.0058550355 0.00416738
000340 cc e8 96 3b f2 9d e7 3b 09 9a 8d 3a 0c 06 49 3b
       0.0046053883 0.007068389 0.0010803352 0.003067377
000350 ab 42 71 3b 52 08 07 bc 21 83 33 bb ef 7c 0a bc
       0.003681342 -0.00824173 -0.0027391391 -0.008452638
000360 11 0a 07 3b 4a 63 59 3b 8c 25 ef 3a c9 20 dd bb
       0.0020605365 0.0033170753 0.0018245443 -0.006748293
000370 91 1c 70 bb 6e 3f 22 bb 6b 4b 12 bb 5d b7 9a ba
       -0.003663812 -0.0024757045 -0.0022322785 -0.0011803914
000380 77 07 cb 3a 6e b9 17 3c 4f 10 a9 3c ac 5f 24 3d
       0.0015489896 0.0092605185 0.02063766 0.040130302
000390 11 d2 b1 3c ed 8a c8 3c 79 23 51 3a 46 52 ef bc
       0.021706613 0.024480307 0.0007978003 -0.029214036
0003a0 da 76 c9 bc 77 47 fb bc e5 a5 4d 3b ad c6 e5 3a
       -0.024592806 -0.030673726 0.0031379398 0.0017530523
0003b0 1c 79 17 3a 24 69 16 3a 99 4f 9c bb 84 26 08 bb
       0.00057782396 0.0005737713 -0.004770231 -0.002077491
0003c0 1a 21 e4 bb 57 ff 37 bb 8b 6f a9 bb e4 3b 07 bb
       -0.006961954 -0.0028075778 -0.0051707677 -0.0020635063
0003d0 d4 8a 64 3a 74 d1 f2 ba 7d 3f 35 3b 78 4e 44 3b
       0.0008718197 -0.0018525557 0.002765625 0.0029953998
0003e0 6a ce 46 bb 17 38 ba bb f3 8c 28 bb d6 ff ef bb
       -0.0030335435 -0.005682956 -0.0025718778 -0.007324199
0003f0 52 31 86 bb ec 2d 02 bc 29 5f dd 3a ed 3e a2 3c
       -0.004095235 -0.007945519 0.0016889322 0.019805396

conv_1.bias f4 [64]
000000 b5 69 b9 ba 0d 69 00 3c 3e 82 22 bc bb de 36 3c
       -0.0014145883 0.007837546 -0.0099187475 0.0111615015
000010 e7 6f 1e bc 5e 55 e3 3a ff 15 07 39 c5 b6 2f ba
       -0.009670234 0.0017344167 0.00012882797 -0.0006702955
000020 a0 2b 23 3b b3 34 8f b9 40 d6 e3 b8 52 8e a4 bb
       0.0024897829 -0.0002731435 -0.00010864111 -0.0050218487
000030 95 96 b3 ba 8c bb 81 39 a6 10 dd 3b 8d db 71 3a
       -0.0013701493 0.0002474453 0.0067463694 0.0009226136
000040 5e 90 74 bb 68 45 46 bc ae 2e 56 3b 60 ca f0 3b
       -0.0037317495 -0.012101509 0.0032681632 0.0073483437
000050 1b 8e 5f 3b 30 7d 6a 38 ee c0 11 3b 32 c7 bc ba
       0.00341118 5.5906537e-05 0.002224024 -0.0014402627
000060 08 5c 42 bc 4d 29 99 3b 40 38 db 3b 76 0d 6b 3a
       -0.011862762 0.004674113 0.006690055 0.00089665444
000070 6c 05 36 3c 10 eb 47 39 27 3d 0f bc de 80 a5 bc
       0.011109691 0.00019065687 -0.008742607 -0.02020305
000080 12 cb 8f bb df aa 2c 3c b8 f2 02 bc 1c 51 2f 39
       -0.0043882215 0.010538786 -0.007992439 0.00016719516
000090 db 69 3c b9 b5 8d f3 3a 9d 15 ce ba 5d ff f6 ba
       -0.00017968511 0.0018581661 -0.0015722994 -0.0018844415
0000a0 86 c8 0e ba 34 76 89 3c c2 9c 87 ba 20 01 ff ba
       -0.00054467504 0.016779996 -0.00103464 -0.0019455291
0000b0 19 c6 c1 3b a0 bf d0 3b 4b 9e 34 3c 6f 2d 94 bb
       0.0059135077 0.0063704997 0.011024068 -0.0045220177
0000c0 dd 5f 0e bb 2b 58 b4 ba 3e 80 3e 3b bd 4a d5 3b
       -0.002172462 -0.0013759186 0.0029068138 0.0065091536
0000d0 90 86 a5 ba cb c3 c7 3b b6 5a 8c bb 55 1a 5c 3b
       -0.0012628604 0.0060963384 -0.0042832745 0.003358503
0000e0 f6 99 00 bc 4f 79 39 3c 97 8d a5 3b 99 ae e4 bb
       -0.007849207 0.011320426 0.005052279 -0.0069788215
0000f0 9f 08 26 3a b6 ad ff b9 82 1e 58 39 30 fe 07 bc
       0.0006333682 -0.00048766815 0.0002061073 -0.008300349

fc.weight f4 [10, 1600]
000000 e0 fb 0e 39 11 8e 36 bc 83 11 2c bc 0d 86 82 bc
       0.00013636006 -0.01114227 -0.010502222 -0.015933061
000010 f0 66 86 bc a4 7c 67 bb 28 f0 ad 3b 58 cd c5 bb
       -0.016406506 -0.0035322094 0.00530817 -0.006036442
000020 3b ca 9d bc 25 2a c9 bb 71 1b 5d bc 47 e2 2d bc
       -0.01926147 -0.006139057 -0.013495312 -0.010613031
000030 7e 53 49 bc 56 68 b3 bc fc d6 50 bc 4f 9e 9e bc
       -0.0122879725 -0.021900337 -0.012746569 -0.019362597
000040 b6 53 1c bb fd bf 0e bd f7 05 ac ba 33 67 3f bb
       -0.0023853607 -0.034851063 -0.0013124336 -0.0029205799
000050 fc 0f 66 bc 14 ed 78 bc 04 aa 5f 3c e2 48 b0 3c
       -0.014041897 -0.015193243 0.013651375 0.021519128
000060 01 d9 30 3c 42 38 f4 ba 6f 2c 55 bb 5b 52 1a bc
       0.010793925 -0.0018632489 -0.0032527705 -0.009419049
000070 f3 db ae bb 5a b9 0a bc 5b 1c 1f bb fd 16 cc 3b
       -0.0053362786 -0.008467043 -0.0024278376 0.0062283264
000080 49 5d cf bb 45 36 a4 3c 1c ee 04 bc da 62 20 3c
       -0.006328259 0.020045409 -0.00811341 0.009789193
000090 44 41 17 3c e6 67 57 3c c6 d2 f8 3c 6e ab 16 3c
       0.009231869 0.01314733 0.030373942 0.009196145
0000a0 0c f6 93 3c 65 49 98 3c 5a db 05 3d 96 67 9b 3c
       0.01806166 0.018589685 0.032679893 0.018970292
0000b0 e7 39 4c 3b 24 e5 eb 3b b6 16 63 3c d3 fd f8 bc
       0.0031162442 0.0071989466 0.013860395 -0.03039447
0000c0 c1 58 b9 bb 3a 4c 03 bc 01 82 e4 b9 97 d0 df 39
       -0.0056563322 -0.008013779 -0.0004358441 0.00042689286
0000d0 3f 96 73 bc 9b c2 63 bc 76 51 35 bb 28 49 39 3c
       -0.014867364 -0.013901378 -0.0027666963 0.011308946
0000e0 5f 7e 62 3c 34 cb 8e 3a 5d ee cf 3c 6e 06 80 3c
       0.0138240745 0.00108943 0.025382215 0.015628066
0000f0 72 92 92 3c 1f f0 b6 3c 08 20 6c 3c 22 e2 29 3d
       0.017892096 0.022331296 0.014411934 0.041475423
000100 64 89 0a 3d 85 7e 98 3c f8 dd bd 3c a6 08 1b 3c
       0.033822432 0.018615017 0.023177132 0.009462511
000110 d2 42 00 3c 51 3f 6f 39 0a 20 15 3c 08 97 af 3c
       0.007828431 0.00022816403 0.009101877 0.021434322
000120 19 2e cc bb f2 4b 2c bd 31 87 06 bd 8d b3 9a b9
       -0.006231081 -0.042064615 -0.032843772 -0.00029506945
000130 7b cc 77 bb d0 ad b7 bb ae ee 7a b8 7b 4f 83 bb
       -0.003781109 -0.005605437 -5.9826933e-05 -0.0040072775
000140 39 db 96 bb 5b 88 e1 bb 54 c6 90 bb 1f 5a 98 3b
       -0.00460377 -0.00688271 -0.004418174 0.004649415
000150 af a5 40 bc 59 80 4f bc ed 6b 0a bc f7 35 e0 bc
       -0.011758252 -0.012664878 -0.008448583 -0.027369482
000160 77 60 8f bc b7 54 af bc 5d ad b8 bc ce 78 bd bc
       -0.017502053 -0.0214027 -0.022543604 -0.023128893
000170 bd f6 f7 bc ae c0 e4 bc 78 41 29 3c 52 02 25 bc
       -0.030269021 -0.027923908 0.01033055 -0.010071354
000180 16 2e e4 bc a7 8b ad 3c a0 5c bb 3b 93 3e dd 3c
       -0.027854007 0.021184755 0.005717829 0.027007377
000190 ee f2 2b bb 70 53 49 bc 80 85 66 bc 79 74 66 ba
       -0.0026237327 -0.012287959 -0.014069915 -0.00087911595
0001a0 d7 96 43 3c 6c ca 83 3b 7e 8a 32 bb a8 1f 49 3c
       0.0119378185 0.0040219333 -0.0027243192 0.012275614
0001b0 15 ba 5d 3c db ae 42 3d 48 53 16 3c 4e 2c 3c bc
       0.013533135 0.047530036 0.009175129 -0.011485172
0001c0 30 6a 7f bc ed 22 0e 3d 89 6b 9c 3d a4 24 69 3c
       -0.015589282 0.034701277 0.07637698 0.014229927
0001d0 2e d8 bc 3c 52 7e 0e bd db 35 5a 3b f3 bb dc 3c
       0.023052301 -0.034788437 0.003329626 0.02694509
0001e0 29 aa 20 bb 69 67 f1 3c ea 32 1d bd bc db 5f bd
       -0.0024515486 0.029468255 -0.038378634 -0.054652914
0001f0 69 2c f7 bc 71 9c d0 ba 13 64 1f bc ec 83 b6 3b
       -0.030172544 -0.0015915764 -0.009728449 0.0055699255
000200 ac 70 52 ba 6a 47 08 38 9c 10 b8 ba 9f 5a 19 ba
       -0.00080276537 3.2491436e-05 -0.0014043036 -0.00058499904
000210 a2 87 e0 ba 58 df 94 bb 2a e2 aa bb b1 c2 4c bc
       -0.0017130265 -0.004543226 -0.005214949 -0.01249759
000220 0b ea 98 bb 73 58 8b bc 61 ca 80 bc c6 66 fb bb
       -0.004666572 -0.01700995 -0.015721502 -0.0076721637
000230 c9 95 3d bc e4 26 88 bc 84 dc a1 bc e0 90 25 bc
       -0.011571356 -0.016620107 -0.01975847 -0.010105342
000240 c6 52 f0 3b 4c b6 dc 3b 2f 40 cb bb 44 7a b9 3c
       0.007334086 0.0067355987 -0.0062027196 0.022641309
000250 b5 a6 d3 3b bd 1e 0f bb 42 d0 05 bc 0d d1 5e bb
       0.006459082 -0.002183839 -0.008167328 -0.0033999116
000260 59 4e 72 3b b0 aa a8 bb 81 55 e3 b9 44 40 00 3b
       0.0036972968 -0.0051473007 -0.0004336052 0.0019569555
000270 67 ad 8e 3b 72 84 17 3d f1 4c 05 bc 69 04 77 bc
       0.0043541673 0.036991544 -0.00813602 -0.015076735
000280 b0 50 13 3b e7 93 ce 3c 44 f2 d6 b9 b7 1a 07 bd
       0.0022478513 0.02521701 -0.00040997763 -0.03298446
000290 2b fc 9e 3c e0 6c 8e 3c e3 9d 48 3b cc e5 04 3c
       0.019407352 0.0173859 0.0030611686 0.0081114285
0002a0 2d ae 49 bb 39 8a 05 3d e7 56 ac 3b 5a d3 87 ba
       -0.0030773983 0.032602523 0.005259383 -0.001036267
0002b0 1f 6a 0d 3c e0 e2 f7 ba a7 e5 ce bb 2b a4 45 3a
       0.008631258 -0.0018912219 -0.006313998 0.00075394165
0002c0 7f e6 2c bb ad eb 81 bb 3b eb a3 ba 97 c9 7e 3a
       -0.0026382504 -0.0039648623 -0.0012506017 0.000971937
0002d0 b9 8b 03 3a 71 41 bd 3b 7f ef d5 ba 66 ac 18 3b
       0.0005018074 0.0057756235 -0.0016321986 0.0023296117
0002e0 76 d5 c6 3b 0f 3b 8b 39 69 4c f4 39 00 1f 7c 3b
       0.006067927 0.00026556148 0.00046596237 0.0038470626
0002f0 f1 62 e8 3b 0b c5 2b bb 7b a5 33 3a b9 e0 87 bb
       0.007091873 -0.0026209976 0.00068529666 -0.004146662
000300 08 52 4a ba 35 d2 6c 3b d8 bc 8f 3b e9 db cc ba
       -0.0007717912 0.0036136035 0.0043865256 -0.0015629503
000310 3e 79 b8 bb cd 5d 91 3a fa c8 e5 bb 5a 80 bd ba
       -0.0056296876 0.0011090577 -0.0070124837 -0.0014457807
000320 88 41 33 3c d3 94 3e bc 74 1f 3a bb b2 04 84 3c
       0.010940917 -0.011632162 -0.0028400095 0.01611552
000330 86 f8 b4 3b 3d 02 46 3b 69 1e 9f 3c 12 2b 1f 3c
       0.0055227904 0.0030213736 0.01942368 0.009714859
000340 c3 78 88 3c ac d8 34 bc 4a 31 b9 bc 81 41 b5 bc
       0.016659146 -0.011037987 -0.02260651 -0.022125961
000350 95 15 6e bc 9a 69 39 bd d0 ee ee bc 54 79 31 bd
       -0.014531513 -0.045266725 -0.029166609 -0.0433286
000360 22 a4 2f bd c5 83 d5 bc 4f 3f 9f 3b 19 53 c8 bb
       -0.04288114 -0.02606381 0.004859842 -0.0061134216
000370 ad c0 00 bd bb aa 02 bd a0 5d 93 38 a2 43 0a 3d
       -0.03143375 -0.031901103 7.026945e-05 0.033755906
000380 9a 39 04 3c 6a ca 19 bb 11 75 38 bc b5 53 e8 bb
       0.008070374 -0.0023466595 -0.01125838 -0.007090057
000390 b7 96 9c ba dd d9 79 bc f0 0d 1d bc 07 c9 4d ba
       -0.0011946772 -0.015249697 -0.0095858425 -0.0007850085
0003a0 30 60 27 bc 9f 0d 34 bb e8 4e ce bb eb d0 ba bc
       -0.010215804 -0.002747394 -0.0062960275 -0.022804698
0003b0 ee f3 86 bc 63 c8 a1 bc 18 4c 7a bc 4f 06 a2 bc
       -0.016473737 -0.019748872 -0.015276931 -0.019778399
0003c0 20 07 bc bc 5b 94 ad bc 12 d3 7e bd 1e cd 53 bc
       -0.022952616 -0.021188905 -0.06221301 -0.012927322
0003d0 40 13 6a 3c 80 24 a6 bc e1 7b ca bc f4 b8 dd 3b
       0.014286816 -0.020281076 -0.024717273 0.006766433
0003e0 8a e6 29 3c a9 da a8 3c d7 17 82 bb 75 01 2b bc
       0.010369906 0.020612078 -0.003970127 -0.010437359
0003f0 31 bf 71 3b 50 7d 76 3b 62 3d cb bb 12 17 8c 39
       0.003688764 0.0037611313 -0.0062023858 0.0002672007

fc.bias f4 [10]
000000 f7 6a 16 3c 00 75 39 3c 11 9b 81 3b b9 57 8f bc
       0.009180776 0.011319399 0.003955253 -0.017497884
000010 1a 23 05 bc 11 eb 63 3c a2 2b b4 b9 19 27 9f 3b
       -0.008126045 0.013911025 -0.00034364784 0.0048569557
000020 da 60 8f bc a6 37 08 3a
       -0.017502237 0.00051962805
