notebooks/models/long_fcnn_normal_0.005/model.pth (torch, 360471 bytes, 6 tensors)

fc_0.weight f4 [100, 784]
0	0xba3ea1ad	-0.00072720164
1	0xbb3d05fc	-0.0028842678
2	0xbbefea45	-0.0073216283
3	0xbb955f4c	-0.0045584794
4	0x3981961c	0.00024716638
5	0x39ccf22c	0.00039090344
6	0xba64a866	-0.0008722603
7	0x3a46405a	0.000756269
8	0x3b71dc81	0.0036905112
9	0xbb3d1275	-0.0028850113
10	0xb98f2152	-0.0002729991
11	0xba44fefa	-0.0007514801
12	0x3a738d5f	0.000929078
13	0xbb100e7c	-0.002198129
14	0x3992d958	0.00028009224
15	0xba256fbb	-0.00063108996
16	0xba8b7c33	-0.0010641873
17	0xba0578c3	-0.0005091542
18	0xbb7a8c96	-0.0038230768
19	0x3a6988fb	0.00089086563
20	0x3a4a25af	0.0007711304
21	0xbb49fba4	-0.0030820156
22	0x3b05c69e	0.0020412575
23	0xbb3fc982	-0.0029264395
24	0xbab4f633	-0.0013806283
25	0x3ae8884b	0.0017740814
26	0xb9692d30	-0.00022237445
27	0x38ec6de2	0.00011273824
28	0xbb428760	-0.002968274
29	0xba31788b	-0.00067699765
30	0x3b1729c6	0.002306567
31	0x3a4ad6c4	0.0007737691
32	0x38e22464	0.00010783298
33	0xbb9493e3	-0.004534231
34	0x3b0541cc	0.0020333407
35	0x3b0c1b93	0.002137874
36	0x3a5bc9c0	0.000838425
37	0x3b4656f0	0.003026422
38	0xbad73588	-0.0016419152
39	0xb9a43221	-0.00031317867
40	0x3a0f809c	0.00054741814
41	0xb991f143	-0.0002783631
42	0xbafbde1b	-0.0019215973
43	0xbb5dd92f	-0.0033851375
44	0xbb3b523a	-0.0028582946
45	0xba9a02a9	-0.001175006
46	0x3b077345	0.0020668071
47	0xba59fbeb	-0.0008315432
48	0xb9dc2d72	-0.0004199553
49	0xb9b4c665	-0.0003448009
50	0x3a94aa3e	0.001134224
51	0xbaa99ef2	-0.0012941046
52	0xb9ceb492	-0.00039425917
53	0xbb41c23d	-0.0029565238
54	0xbb04de1b	-0.0020273987
55	0x3a6d351c	0.00090487464
56	0x380938d3	3.2716267e-05
57	0xbbaa4eaf	-0.005197368
58	0xbab0ef26	-0.0013499006
59	0x3ace9cc9	0.0015763278
60	0xbaab1409	-0.0013052236
61	0xbadc39a5	-0.0016801847
62	0xbadb73e0	-0.0016742907
63	0xba6caeb3	-0.0009028718
64	0xba57afa7	-0.00082277734
65	0x39b927a0	0.00035315473
66	0xbb565993	-0.00327072
67	0xbae77d95	-0.0017661328
68	0xba8435aa	-0.0010086794
69	0xbbb3a8f7	-0.0054827887
70	0xb996c852	-0.0002875948
71	0xbc2df52f	-0.010617538
72	0xbbfbc041	-0.0076828306
73	0xbb143172	-0.002261248
74	0xbad925a7	-0.0016567007
75	0xbaaebcc8	-0.0013331408
76	0xbbe0aff0	-0.006856911
77	0xbb5656e8	-0.0032705609
78	0x3a50b8e4	0.0007962121
79	0xbb1e2ad5	-0.0024134417
80	0xba6a9427	-0.0008948468
81	0x3a9ad962	0.0011814053
82	0x3a4e9494	0.0007880416
83	0xbb042a55	-0.0020166833
84	0x38ab921b	8.18113e-05
85	0xbade11b8	-0.0016942536
86	0x39b1a74b	0.00033884714
87	0xbadd27b8	-0.0016872799
88	0xbb8d6455	-0.004314939
89	0xbb1b9d12	-0.0023744744
90	0xbba8ae9b	-0.0051477677
91	0xbae87a39	-0.001773662
92	0x3b2b95f6	0.0026181913
93	0x3a310509	0.00067527645
94	0x3ae2923c	0.0017286013
95	0x3ba76e40	0.0051095784
96	0x3a0948bb	0.0005236973
97	0x3af42d9d	0.0018629316
98	0x3b6304aa	0.0034640231
99	0xbb34d250	-0.0027591176
100	0xbc505b2d	-0.0127170505
101	0xbc0f08a5	-0.008730088
102	0xbbd1d10f	-0.0064030956
103	0xba3471f2	-0.0006883434
104	0xbc116a50	-0.0088754445
105	0xbb9f3d4e	-0.004859603
106	0xb9518a79	-0.00019983378
107	0x3a045822	0.0005048533
108	0xbba61660	-0.0050685853
109	0x3b1f3984	0.0024295757
110	0xb989c0f7	-0.00026274446
111	0x3ab1bc36	0.001356012
112	0x3a3558b3	0.0006917819
113	0xbb516f2b	-0.003195713
114	0xba09fb85	-0.00052636146
115	0x3a0ce7eb	0.00053751346
116	0x3b12a9c2	0.0022379016
117	0x3b6f6aae	0.0036532092
118	0x3b68e317	0.0035535747
119	0xb80a98d1	-3.3044085e-05
120	0xbb542eec	-0.00323766
121	0x3a72136c	0.00092344615
122	0x3aab3100	0.0013060868
123	0x3b9aedc8	0.0047280528
124	0x3b7443a5	0.0037271765
125	0xb9dd0fb9	-0.0004216412
126	0xbb26d00c	-0.0025453595
127	0xbaad9889	-0.0013244312
128	0x3b4da733	0.0031380176
129	0x3be7d406	0.0070748357
130	0x3c324487	0.010880596
131	0x3b911421	0.0044274484
132	0x3b252708	0.0025200266
133	0xbbdfbe14	-0.006828079
134	0xbac71a2d	-0.0015190296
135	0xbbc2be1a	-0.005943072
136	0xbb3e0820	-0.0028996542
137	0x3b8d809a	0.004318309
138	0xbb553fb4	-0.003253919
139	0xbaa77f96	-0.0012779112
140	0xbb8ab03e	-0.0042324355
141	0x3b104d52	0.0022018743
142	0xba8ade85	-0.001059488
143	0xbaa16b07	-0.0012315222
144	0x38ca31cb	9.641385e-05
145	0xb9fc0501	-0.00048068914
146	0x3aa9786d	0.0012929566
147	0x39d948a0	0.00041443575
148	0x3b0a2f22	0.0021085222
149	0x3bd479cd	0.0064842463
150	0x3c0d6b3a	0.008631522
151	0xbab41ea1	-0.0013742038
152	0xbb8d0c33	-0.004304433
153	0x3b2b1de5	0.0026110348
154	0x3a7fed57	0.00097628444
155	0x3b6982fe	0.0035631056
156	0x399f2658	0.00030355412
157	0x3b7c5747	0.003850417
158	0x3c11ccc6	0.008898919
159	0x3c1ba500	0.009499788
160	0x3a75181f	0.00093496026
161	0x3b830f47	0.003999624
162	0x3b18830b	0.0023271467
163	0xbb20636b	-0.002447332
164	0xba921ef0	-0.0011148136
165	0x3a06fc20	0.0005149264
166	0x377a6429	1.4924482e-05
167	0x3a2f5b7b	0.0006689352
168	0xbadcd6fb	-0.0016848737
169	0x3aa95685	0.0012919462
170	0x3b5c0b26	0.003357598
171	0x3b18d53b	0.0023320455
172	0x3aa92927	0.0012905941
173	0x3bbd945b	0.0057855076
174	0xbb16b822	-0.0022997935
175	0x3b98d3b6	0.00466391
176	0x3ba0cb12	0.0049070204
177	0x3c20e93f	0.009821235
178	0x3c657d5b	0.014006938
179	0x3bf59d93	0.007495591
180	0x3bb7f653	0.005614081
181	0x3a9bf752	0.0011899269
182	0xbba41f40	-0.005008608
183	0xbcad012d	-0.021118725
184	0xbc8dde7d	-0.017318005
185	0xbb1a27fd	-0.002352237
186	0xbba62d53	-0.005071321
187	0x3bc5b055	0.0060329833
188	0xbbcf196e	-0.00632017
189	0x3c23feb6	0.010009458
190	0xb990955b	-0.000275771
191	0x3b11c428	0.0022242162
192	0xbb372383	-0.002794475
193	0xbb7bd711	-0.003842775
194	0xbaacd7f3	-0.0013186916
195	0xbb6047a1	-0.0034222382
196	0x3aaf4e3a	0.0013374754
197	0xbb38b5bd	-0.0028184496
198	0xb90a4cc3	-0.00013189302
199	0x3a471ce2	0.00075955514
200	0x3bd03bb0	0.0063547716
201	0x3bbbe2c9	0.005733822
202	0x3bd2e685	0.0064361715
203	0x3c73a66b	0.01487122
204	0x3cb5a18e	0.022171762
205	0x3c9db3c3	0.019250756
206	0x3c87397e	0.016506907
207	0x3c85594d	0.016277933
208	0x3c711f84	0.014716987
209	0x3c8719a3	0.016491717
210	0xbb1e31c7	-0.0024138556
211	0xbc905036	-0.017616373
212	0xbc59b37f	-0.013287424
213	0xbc74dda9	-0.014945426
214	0x3c4548cc	0.012041282
215	0x3bf4bbb0	0.007468663
216	0x3bc21f34	0.00592413
217	0x3c7099ee	0.014685137
218	0x3c524b38	0.012835316
219	0xbaa56596	-0.0012618776
220	0xbb2bc766	-0.002621138
221	0xbb114b67	-0.0022170187
222	0x3b2c15c5	0.0026258093
223	0xbba31265	-0.004976558
224	0xba043772	-0.00050436624
225	0xbae2901a	-0.0017285377
226	0x3a606ca4	0.00085611106
227	0x3b566a59	0.0032717197
228	0x3bfe33c7	0.007757637
229	0x3c4f6b36	0.012659838
230	0x3c364396	0.011124512
231	0x3cb57266	0.022149276
232	0x3d006cb7	0.03135368
233	0x3cb9b47a	0.022669066
234	0x3d180b64	0.037120238
235	0x3ce3cd28	0.027807787
236	0x3cfc11d7	0.030770225
237	0x3d0c639b	0.03427468
238	0x3ceec54f	0.029146818
239	0x3c1dee80	0.009639382
240	0x3c2beb98	0.010493182
241	0x3c44338d	0.011975181
242	0x3c4c159b	0.012456323
243	0x3c6ad300	0.014332533
244	0x3c98d28e	0.018655088
245	0x3c369c1d	0.011145619
246	0x3c9a0a12	0.01880363
247	0x3bf78aac	0.007554373
248	0xbbc1cc71	-0.005914264
249	0xbb60f29a	-0.003432429
250	0x3b82f8b3	0.0039969324
251	0x3b719630	0.00368632
252	0x3aee5d5f	0.0018185786
253	0x39e9cd05	0.00044593975
254	0x3b588d5f	0.0033043248
255	0x3b90d217	0.004419576

fc_0.bias f4 [100]
0	0x3b255e5a	0.002523324
1	0x3c161e52	0.009162502
2	0x3a1b9bb6	0.00059359835
3	0x3c835495	0.016031543
4	0xbb0b0166	-0.002121055
5	0xba81b49a	-0.0009895742
6	0x3b3f7fd6	0.0029220483
7	0x3c0075b5	0.007840564
8	0x3baca485	0.0052686357
9	0x3954c8ea	0.00020292742
10	0x3cff516f	0.03116676
11	0x3b941eeb	0.0045202873
12	0x3c209a8b	0.009802471
13	0x3c1ea8ba	0.009683782
14	0x3c1b9adc	0.009497371
15	0xbbaad9bb	-0.005213944
16	0x3d07104a	0.03297452
17	0x3c124d89	0.008929619
18	0x3b5b851e	0.0033496092
19	0x3b9d2803	0.0047960295
20	0xbc089927	-0.008337296
21	0x3baaa76f	0.005207948
22	0x3b4b42c0	0.0031015128
23	0x3c407590	0.011746779
24	0x3ae65bce	0.0017574967
25	0x3b324ddb	0.002720705
26	0x3c390b2a	0.011294166
27	0xbb1cf1d9	-0.0023947863
28	0x3b8bbf34	0.0042647365
29	0x3c1e7fba	0.009674007
30	0x3c616725	0.013757502
31	0x3be31c5b	0.0069308705
32	0xbb9678a5	-0.0045920187
33	0x3a9172d8	0.0011096848
34	0x3bbabbc7	0.0056986543
35	0x3b264984	0.0025373409
36	0x3bf667dd	0.0075197057
37	0x3b762dbc	0.003756388
38	0x3c13c75f	0.009019702
39	0x3a781127	0.0009463005
40	0x385860d5	5.1588595e-05
41	0x3b62bde3	0.0034598045
42	0x3ca5bdc9	0.020232098
43	0x3b0e1157	0.0021677816
44	0x3b5bd501	0.0033543708
45	0x3c0a344b	0.008435319
46	0xbc3726be	-0.01117867
47	0x3a06b569	0.00051387266
48	0x3a9ce2a8	0.0011969404
49	0x3be748c0	0.007058233
50	0x3a8f5194	0.0010934346
51	0xbaf675b3	-0.0018803388
52	0x3c3c3069	0.011486151
53	0x3c6624e0	0.014046878
54	0xb90d30f6	-0.00013465047
55	0xbabc684a	-0.0014374342
56	0x3be265d0	0.0069091097
57	0x3c13204b	0.008979867
58	0x3b9d3f0e	0.0047987765
59	0xbb87a4c7	-0.004139516
60	0x3bc365e2	0.005963073
61	0xbc34c4b2	-0.011033224
62	0x3b22de38	0.002485169
63	0x3c141c76	0.009039989
64	0x3b842cd5	0.0040336647
65	0x3b30fa5e	0.00270047
66	0x3afe0371	0.0019379688
67	0xb863ed9f	-5.434232e-05
68	0x3c071cbb	0.008246596
69	0x3c85ce7c	0.016333811
70	0x3b5921a6	0.0033131628
71	0x3c48431d	0.012223032
72	0x3c1bb4eb	0.009503583
73	0xba526846	-0.0008026402
74	0x3bf5e935	0.007504607
75	0x3c6b6bcd	0.014368963
76	0x3cb3cb59	0.02194755
77	0x3be3e6da	0.00695501
78	0x3b7ca8b3	0.00385527
79	0xbb13f2ae	-0.0022575068
80	0xb9a0cda6	-0.00030670798
81	0xbb8935e5	-0.004187333
82	0x3bc268af	0.0059328894
83	0x3c26b754	0.010175545
84	0xbabbf9f7	-0.0014341463
85	0x3aa6c82a	0.0012724448
86	0x3b2da9ec	0.0026498986
87	0x3b510385	0.0031892967
88	0xbc25f72c	-0.010129731
89	0x3c212e23	0.00983766
90	0x3c68d24a	0.014210293
91	0x3c5b27c3	0.013376179
92	0xbaf54b80	-0.0018714517
93	0x3a4f35e1	0.0007904452
94	0x3c0f5ef3	0.008750665
95	0x3b9c2935	0.0047656544
96	0x3c38608e	0.011253489
97	0x3ba75eb9	0.0051077274
98	0x39df175f	0.00042551287
99	0x3891871e	6.939306e-05

fc_1.weight f4 [100, 100]
0	0xbc08c89c	-0.00834861
1	0xb904b697	-0.00012656521
2	0x3a40cdca	0.0007354884
3	0xbb82230d	-0.0039714635
4	0xbb17c16f	-0.0023156067
5	0xbb6d14c7	-0.0036175714
6	0xbb54cdb9	-0.0032471253
7	0xbc0e8ab0	-0.008700058
8	0x3b3dfa21	0.00289882
9	0xb9ec6743	-0.00045090364
10	0xbb3d8237	-0.0028916725
11	0xbae37f4c	-0.0017356663
12	0x3b6f2331	0.0036489482
13	0x3b16a8f8	0.0022988897
14	0x3b73dbc0	0.0037209839
15	0xb921edde	-0.00015442769
16	0x3a899d41	0.0010499136
17	0xbbf81601	-0.0075709824
18	0xb8ee61ab	-0.000113669164
19	0x3b385174	0.0028124722
20	0x3c1acc7d	0.009448168
21	0xbbd50499	-0.006500792
22	0x3bcd93e5	0.006273734
23	0x3afe0742	0.0019380825
24	0x3bc98409	0.006149773
25	0xbb34e510	-0.0027602352
26	0xbb7e3541	-0.0038789066
27	0x3a8675f3	0.001025854
28	0xbb777217	-0.0037757212
29	0xba9b28b6	-0.0011837694
30	0x3b71e213	0.0036908432
31	0xb9899b50	-0.00026246393
32	0x39af247d	0.00033405787
33	0xbb577428	-0.003287563
34	0x3c0a4f38	0.008441739
35	0x3bd59b99	0.006518793
36	0x388eae93	6.8036046e-05
37	0x3b250f2d	0.0025186047
38	0xb9420253	-0.00018502148
39	0xbb56edaf	-0.003279548
40	0xbba5ce88	-0.005060021
41	0x3bc7bd6f	0.0060955803
42	0xb9fdfc8e	-0.00048444088
43	0x3aa3f91a	0.0012510151
44	0x3c022560	0.007943481
45	0x3c4c6f0e	0.012477649
46	0x3ae24da6	0.0017265573
47	0x3b2d77ae	0.002646904
48	0x3b0ae793	0.0021195158
49	0xbb41774e	-0.0029520574
50	0x3a0c848d	0.0005360328
51	0x3ba00f71	0.0048846533
52	0xbafa14e2	-0.001907971
53	0xbb20d873	-0.0024543076
54	0x3b66f11c	0.0035238927
55	0x3bc3ef45	0.005979451
56	0x3aeef1d2	0.0018230027
57	0xba171392	-0.0005763109
58	0xba858ade	-0.001018848
59	0x3c57c188	0.0131687
60	0x3bef1491	0.007296153
61	0x3bacfe5d	0.005279346
62	0x3c3cf02f	0.011531874
63	0xbb3e5db9	-0.0029047562
64	0x3beda760	0.0072526187
65	0x399979eb	0.0002927327
66	0xbb97971d	-0.0046261684
67	0xbab1866a	-0.0013544087
68	0xbad6b955	-0.0016382138
69	0x3bb12142	0.005405576
70	0xbad5318e	-0.0016265379
71	0xbbd195b2	-0.006396019
72	0xbaec8cb8	-0.0018047309
73	0x3aee9542	0.0018202441
74	0x3b878b31	0.004136466
75	0x3bfdd830	0.007746719
76	0xbb6d766d	-0.0036233917
77	0x3bad7122	0.0052930275
78	0xbb74990c	-0.0037322668
79	0x3bfee85f	0.0077791656
80	0xbb266125	-0.0025387492
81	0xbb7d15bf	-0.0038617698
82	0xbbb585ca	-0.0055396305
83	0x3aa51dfd	0.0012597438
84	0x3af5d637	0.0018755858
85	0x3a392585	0.0007062781
86	0xbb3737dd	-0.002795688
87	0xbb762231	-0.0037557
88	0xbb8a604a	-0.0042229043
89	0xbb2ae80d	-0.0026078254
90	0xbc0d26cf	-0.00861521
91	0xbafdc2d3	-0.001936043
92	0xbb8d8913	-0.004319319
93	0x3ae91987	0.0017784097
94	0x3b8896f9	0.004168388
95	0x3c2ccc22	0.010546716
96	0xbbef368b	-0.007300203
97	0x3b27617f	0.002554029
98	0x39ad5a4f	0.00033064416
99	0x3bbbb322	0.0057281414
100	0x3b9a89ee	0.0047161495
101	0x3c2c09fd	0.010500428
102	0xbb3ca55d	-0.0028785088
103	0x3ba258a3	0.004954414
104	0xbaf470b0	-0.0018649306
105	0x3b835d50	0.0040089265
106	0x3af33834	0.0018556179
107	0x3c02c182	0.007980706
108	0xbaa0ca44	-0.0012267311
109	0x3b2776d6	0.002555301
110	0x3b7d5ed9	0.003866127
111	0xbb360e85	-0.002777965
112	0x3a147b97	0.0005664168
113	0xbb779b1c	-0.0037781661
114	0xba7dade8	-0.0009677098
115	0x3b9637f5	0.0045843073
116	0x3b00b08f	0.0019636487
117	0xbaba7053	-0.0014224149
118	0x3890d3eb	6.905928e-05
119	0xbb7c6f9e	-0.0038518677
120	0xbb179980	-0.0023132265
121	0xb8a46cdc	-7.840406e-05
122	0xbb58a682	-0.003305823
123	0xba7f5236	-0.00097397284
124	0xbb4147c9	-0.002949225
125	0x3a12b53b	0.00055964635
126	0x3bf8569c	0.007578684
127	0xba52709e	-0.00080276455
128	0x3a329cad	0.00068135076
129	0xba8c8d18	-0.0010723202
130	0xba6021b5	-0.00085499446
131	0xbb230138	-0.0024872553
132	0xbbb736a3	-0.00559123
133	0xba97494d	-0.0011542231
134	0x398dcb35	0.00027045017
135	0x3ad54a1b	0.0016272696
136	0xb8481b20	-4.7708978e-05
137	0xbacee224	-0.0015783948
138	0xba9cd8e3	-0.0011966493
139	0xba2bbdd5	-0.00065514195
140	0x39fb6bde	0.00047954818
141	0xba5efce0	-0.0008506309
142	0x3b9e7529	0.004835744
143	0x3a92e71c	0.0011207792
144	0x3b1e1fc7	0.0024127827
145	0x3b5e8242	0.0033952151
146	0xb834c1f2	-4.309597e-05
147	0xbb54e89f	-0.0032487286
148	0xbb1d5c86	-0.0024011447
149	0xbb72a289	-0.0037023148
150	0x3b282aa9	0.0025660193
151	0x3b9d011b	0.0047913915
152	0x38cab74a	9.666251e-05
153	0x3a891036	0.0010457102
154	0xba453b83	-0.00075238216
155	0x39df80fb	0.00042629972
156	0xbb580a5c	-0.003296516
157	0x394aa1b9	0.00019324468
158	0x3b315b19	0.0027062355
159	0xbbabe924	-0.0052462984
160	0xbb4c4da7	-0.0031174214
161	0xbb0bdcb8	-0.0021341275
162	0x38946b3b	7.077163e-05
163	0x3bbc2675	0.005741889
164	0x3988dd48	0.0002610481
165	0x3b24f214	0.0025168704
166	0x3b218d29	0.0024650788
167	0xba2d5781	-0.00066124654
168	0xb96246d1	-0.0002157942
169	0x3adad67d	0.0016696003
170	0xbb2c95d9	-0.0026334433
171	0xba15b3fd	-0.0005710719
172	0xbb6352e7	-0.0034686865
173	0xbb5c6e3e	-0.0033635045
174	0xbbc21d3d	-0.0059238956
175	0x3aff3677	0.0019471188
176	0xbab367e6	-0.001368758
177	0x3870720d	5.7326677e-05
178	0x389426f5	7.064446e-05
179	0x3ad4fff0	0.0016250592
180	0x3ad7d501	0.0016466678
181	0xbb28b518	-0.0025742706
182	0xbaf93fbb	-0.0019016186
183	0x3ae2249f	0.0017253346
184	0x3bd89c9a	0.0066104652
185	0xbb64e243	-0.0034924902
186	0xbb1770ae	-0.0023107934
187	0x3bb561eb	0.0055353544
188	0xb8509729	-4.9731843e-05
189	0xbb07979a	-0.0020689727
190	0x3b429c14	0.002969508
191	0x3b52f198	0.0032187458
192	0xba403e25	-0.0007333479
193	0x3bba2c6c	0.005681565
194	0xbabecfc1	-0.0014557765
195	0x3ae314ca	0.0017324921
196	0xba4598ae	-0.00075377047
197	0xba8442d7	-0.0010090721
198	0x3ad452aa	0.0016198952
199	0xbb731a22	-0.0037094434
200	0x3cc4ba17	0.024014516
201	0x3d47f554	0.048817948
202	0x3e0550e8	0.13019145
203	0x3d8c3deb	0.068477474
204	0x3d81898e	0.063250646
205	0x3d18af3b	0.037276488
206	0x3cb47e3a	0.022032846
207	0x3d951c40	0.07280779
208	0xbc849fc3	-0.016189462
209	0x3c3dd727	0.011586941
210	0x3d4b1295	0.049578268
211	0x3c89abe4	0.016805597
212	0x3b52fa52	0.003219266
213	0xbcc2610e	-0.02372792
214	0xbc815c11	-0.015790971
215	0xbcb877fe	-0.022518154
216	0x3ca065f2	0.019579861
217	0x3dacb4a0	0.08432889
218	0xbd45f681	-0.048330788
219	0xbcc037c0	-0.023464084
220	0x3bfe3030	0.0077572092
221	0x3cdbf14b	0.026848456
222	0xbe07374d	-0.1320469
223	0xbd6cc338	-0.057803363
224	0xbd901b06	-0.07036404
225	0xbc0ef9cf	-0.008726551
226	0x3d45a295	0.048250753
227	0xbe01e076	-0.12683281
228	0x3d2e144f	0.042499837
229	0x3cf8cbcc	0.030370615
230	0x3c31b4a4	0.010846291
231	0xbcb859d7	-0.022503776
232	0xbd23279c	-0.039832696
233	0xbc794e1c	-0.015216377
234	0xbc675bc0	-0.014120996
235	0xbcd057b0	-0.025432438
236	0x3d1094f1	0.03529829
237	0x3d867848	0.065659106
238	0xbb95bac0	-0.0045693815
239	0xbbdb0a15	-0.0066845515
240	0xbae0f688	-0.0017163316
241	0x3de54c57	0.11196201
242	0x3cd392c3	0.025826817
243	0xbc9ea94d	-0.019367838
244	0x3da0a8c4	0.078446895
245	0x3d5eba68	0.05437699
246	0xbb833c5e	-0.004004999
247	0xbcf8967a	-0.03034519
248	0x3d2fbea5	0.042906422
249	0xbd0af506	-0.03392508
250	0xbd2258a3	-0.03963531
251	0x3d001d57	0.03127798
252	0xbc14ad03	-0.009074452
253	0x3cc3cd68	0.023901656
254	0xbd984119	-0.074342914
255	0xbb4896f7	-0.003060756

fc_1.bias f4 [100]
0	0xbaddf2cd	-0.0016933322
1	0xbae2b8f5	-0.0017297553
2	0x3c5f4997	0.013628385
3	0x3ba27bb4	0.004958594
4	0x3bbf04b5	0.0058294185
5	0x3b209510	0.002450291
6	0x3baff0f5	0.0053693005
7	0x3bd4d0b4	0.006494606
8	0x3c4038d0	0.011732295
9	0x3c18731a	0.009304786
10	0x3b45e42b	0.0030195813
11	0xbb2dacaf	-0.0026500633
12	0xbb01c67d	-0.0019802146
13	0x3bf994a1	0.007616595
14	0xbb5f6336	-0.0034086234
15	0x3b1f5623	0.0024312816
16	0x39da5ccd	0.00041649342
17	0x3c3e8c4e	0.011630131
18	0x3a3c1308	0.0007174467
19	0x3c448d93	0.011996645
20	0x3bdde63e	0.006771832
21	0x3a8281fd	0.0009956952
22	0x3be50351	0.0069889207
23	0x3c096872	0.008386718
24	0x3be26ee1	0.0069101905
25	0x3bf5da5b	0.0075028366
26	0x3c8b41d8	0.01699917
27	0x3c3083aa	0.010773579
28	0x3b9fd401	0.0048775678
29	0x3c66fe0a	0.014098654
30	0x3c5b639e	0.01339045
31	0x3b78e068	0.0037975553
32	0xbb5c3b9d	-0.0033604868
33	0x3ae05cbf	0.0017117484
34	0x3cac11be	0.021004554
35	0x3c99bcc5	0.01876677
36	0x3c8434f8	0.016138539
37	0x3c4218df	0.01184675
38	0x3a5bc02a	0.00083828217
39	0x3cad1bdb	0.021131447
40	0x3ad421e6	0.0016184419
41	0x3bcbd45b	0.006220383
42	0x3ac107e4	0.0014727083
43	0x3c1bb682	0.0095039625
44	0x3bdfd1d9	0.0068304357
45	0x3c8c18d1	0.017101677
46	0x3ca4e26a	0.020127494
47	0x39086b49	0.00013009938
48	0x3c0bbe31	0.008529232
49	0x3be8a4f2	0.007099741
50	0x3c7e9c12	0.01554014
51	0x3b085761	0.0020804035
52	0xba22537c	-0.000619225
53	0x3ba9dc0f	0.0051837037
54	0x39ba3103	0.000355132
55	0x3beae031	0.007167839
56	0x3b1f4a7e	0.0024305875
57	0x3bfcd6c4	0.0077160317
58	0x3b912cb5	0.0044303783
59	0x3c15815b	0.009125079
60	0x3c930826	0.017948221
61	0x3c5dadaa	0.013530174
62	0x3c007faa	0.0078429375
63	0x3bae13e6	0.0053124307
64	0x3b7f92a8	0.0038997326
65	0x3cacc7bc	0.021091335
66	0x3a94634f	0.00113211
67	0x3b5a6728	0.0033325646
68	0x3ba685fb	0.0050818897
69	0x3bebd2a5	0.0071967416
70	0xb99b40f5	-0.000296123
71	0x3a941bd7	0.0011299801
72	0xbb2bc8bd	-0.0026212179
73	0x3bd99628	0.0066402145
74	0xb93cb170	-0.00017995178
75	0x3c8ea391	0.017411979
76	0x3b3c38c3	0.0028720356
77	0x3c2b5774	0.010457862
78	0xbb064ca7	-0.0020492466
79	0x3b42ffd2	0.0029754532
80	0xb7faa1c7	-2.9877656e-05
81	0xbad24b3f	-0.0016044154
82	0x3a9a759a	0.0011784316
83	0x3c1fccd8	0.009753428
84	0x3c84dc8d	0.016218448
85	0x3bf32277	0.00741988
86	0x3c36f8a9	0.011167684
87	0x3b0d4478	0.0021555703
88	0x3ac8ad7f	0.0015310495
89	0x3c023144	0.007946316
90	0x3b3acbfd	0.0028502934
91	0xba314196	-0.0006761787
92	0x3bf98b09	0.0076154512
93	0x3bf4655b	0.0074583716
94	0x3b704e91	0.0036667923
95	0x3cae2d6f	0.021261899
96	0x3bf87f91	0.0075835665
97	0x3c07340b	0.008252154
98	0x3ba74294	0.0051043723
99	0x3c6d55b8	0.014485769

fc_2.weight f4 [10, 100]
0	0x3a5ad18c	0.0008347265
1	0xbbdcf2de	-0.006742819
2	0x3c1d22b4	0.009590793
3	0xbd9970c8	-0.074922144
4	0x3da94347	0.08264785
5	0xbd97ee35	-0.07418481
6	0xbde2bfb9	-0.110717244
7	0x3cd8e720	0.026477396
8	0xbe6d0a55	-0.23148473
9	0xbb4710b4	-0.0030374946
10	0xbbd364ca	-0.006451224
11	0x3c76d168	0.015064575
12	0xbc85fdd2	-0.016356383
13	0xbd452a62	-0.048136123
14	0xbb84aca5	-0.004048901
15	0x3a04c0ce	0.00050641305
16	0x3a01e05f	0.00049543934
17	0x3e089cd2	0.13341072
18	0xbb763679	-0.003756909
19	0x3db4e38e	0.08832465
20	0xbd9cd3a7	-0.07657557
21	0xbc106495	-0.008813043
22	0xbd974d1a	-0.07387753
23	0xbd781a8f	-0.060572203
24	0x3e956a88	0.2918284
25	0xbd42716d	-0.047471453
26	0x3d912a18	0.07088107
27	0xbd68e79d	-0.05686151
28	0xbd5fa867	-0.05460396
29	0x3dde532b	0.10855707
30	0xbd956481	-0.0729456
31	0xbd2525e5	-0.040319342
32	0xbb2f38ca	-0.002673673
33	0x3ae330e6	0.0017333298
34	0x3e0d5097	0.13800274
35	0xbdd56b53	-0.10420861
36	0xbe2b4089	-0.16723837
37	0xbda16bca	-0.07881887
38	0x3d74298d	0.05960994
39	0xbe5716fc	-0.21004862
40	0x3e18c038	0.14917076
41	0xbdabda6d	-0.08391271
42	0xbdf805ff	-0.12110519
43	0xbc565d8f	-0.01308383
44	0x3d5897af	0.05287903
45	0xbdfea3d9	-0.12433595
46	0xbe13bf79	-0.1442851
47	0xba687fdb	-0.00088691496
48	0xbbd6dc04	-0.0065569896
49	0xbd3d06b7	-0.046148982
50	0xbda454c3	-0.080239795
51	0xbccd5415	-0.025064507
52	0xbc05d0c6	-0.008167451
53	0xbe051e5d	-0.12999864
54	0xbaf6aff8	-0.0018820753
55	0xbd8c934a	-0.06864031
56	0xbc84e813	-0.016223943
57	0x3ddfe985	0.10933212
58	0xbdcf6ddc	-0.10128376
59	0xbd48d477	-0.049030747
60	0x3cac43e6	0.02102847
61	0xbd82c8c9	-0.06385953
62	0xbd93cb6f	-0.07216536
63	0xbd886f9b	-0.06661912
64	0xbb26d9f3	-0.0025459498
65	0xbe3eb692	-0.18624333
66	0xbd16e05d	-0.036835063
67	0xbd5305d7	-0.05151924
68	0x3d330574	0.043706372
69	0x3e499a58	0.19687784
70	0x3d036390	0.032077372
71	0xbc17acfb	-0.00925755
72	0xbc2be428	-0.010491408
73	0x3de8c870	0.113663554
74	0x3cc9059b	0.024538806
75	0xbcc86a79	-0.024464833
76	0xba0e8f2a	-0.0005438203
77	0xbe0bf906	-0.13669214
78	0x3c2345f3	0.009965408
79	0x3e4c817b	0.19971268
80	0x3b6736eb	0.0035280536
81	0x3c6efa8a	0.0145861
82	0xbcba5045	-0.022743354
83	0x3cf1dcbf	0.029524205
84	0xbe070759	-0.13186397
85	0x3e3f5b6f	0.18687223
86	0x3df33a62	0.1187637
87	0x3ccd612c	0.02507075
88	0x3b5ee5a1	0.0034011381
89	0xbcf1fd2f	-0.029539673
90	0xbca02676	-0.01954959
91	0x3dbdc9bb	0.09266993
92	0x3e15ac57	0.14616524
93	0x3ed24408	0.4106753
94	0xbc119188	-0.008884795
95	0x3e71cca2	0.23613217
96	0xbd927522	-0.071512476
97	0xbd9e9540	-0.07743311
98	0x3dcfa843	0.10139515
99	0xbdbebc4b	-0.09313258
100	0x3b4a9e64	0.0030917162
101	0xbb85460d	-0.0040671886
102	0x3dd1d3b8	0.1024546
103	0x3e325e83	0.17418866
104	0xbd5eb6d1	-0.054373566
105	0x3e003fb2	0.12524298
106	0x3d4250a4	0.047440186
107	0x3c53d167	0.012928343
108	0xbd5e1d9a	-0.05422745
109	0xbd981bf0	-0.07427204
110	0x3dab1664	0.0835388
111	0xbbc9eab3	-0.0061620115
112	0x3e30cbab	0.17265193
113	0x3d23a846	0.0399554
114	0xbab62504	-0.001389653
115	0xb9e2445d	-0.00043157014
116	0x3a3f15c6	0.0007289316
117	0xbe36d3fd	-0.17854305
118	0x3a074580	0.00051601976
119	0xbe1f924b	-0.1558315
120	0x3d5f5603	0.054525387
121	0x3b67fe63	0.003539943
122	0x3cf86c3a	0.030325044
123	0x3e3352cb	0.17512052
124	0xbcd570b1	-0.026054712
125	0x3cad47ca	0.021152396
126	0xbe77d065	-0.2420059
127	0xbd546c35	-0.051861007
128	0x3dbf581f	0.0934298
129	0xbe1626c3	-0.14663224
130	0x3d3ac2d4	0.04559596
131	0x3cf967dc	0.030445032
132	0xbcad1c6f	-0.021131722
133	0x3a4d703b	0.0007836853
134	0xbe74ca6b	-0.23905341
135	0xbe20e9ba	-0.1571416
136	0x3e081851	0.13290526
137	0x3de455d1	0.11149181
138	0x3e564b68	0.20927203
139	0x3d8c6e55	0.06856982
140	0x3d7097c6	0.058738492
141	0x3ddccd84	0.107813865
142	0x3dbefe29	0.09325821
143	0xbe0e2487	-0.13881122
144	0xbd699be4	-0.057033435
145	0x3e8c3b9d	0.2738923
146	0xbe2ff974	-0.17185003
147	0xb90eb81a	-0.00013610758
148	0xbe12c2a0	-0.14332056
149	0xbd664691	-0.05621964
150	0xbe553a4c	-0.2082302
151	0x3e47e726	0.1952177
152	0xbc0ffe49	-0.008788654
153	0xbca16e8c	-0.019706033
154	0xba4310aa	-0.0007441143
155	0xbd928627	-0.07154494
156	0x3c3df7a0	0.011594683
157	0xbd917e38	-0.071041524
158	0xbe13c295	-0.14429696
159	0x3e16453f	0.14674853
160	0xbdd90e16	-0.1059839
161	0xbcab588d	-0.020916248
162	0x3e930938	0.2871797
163	0x3d8f8195	0.07007138
164	0x3a846982	0.0010102245
165	0x3e6d54f7	0.23176943
166	0xbca5ac7f	-0.020223854
167	0x3e1add30	0.15123439
168	0xbcb067cf	-0.021533875
169	0xbda730f1	-0.08163632
170	0x3cea1892	0.02857617
171	0x3ab33012	0.0013670942
172	0x3d3aa6be	0.045569174
173	0xbd894888	-0.06703287
174	0x3b306b4e	0.0026919427
175	0xbe657a7c	-0.22410005
176	0x3aad36e8	0.0013215216
177	0x3d749e18	0.059721082
178	0xba63c643	-0.0008688906
179	0xbdadb387	-0.08481508
180	0xba584733	-0.00082503556
181	0x3c069ff1	0.008216844
182	0x3e38fb53	0.18064623
183	0xbdee2d1c	-0.11629698
184	0x3c00b751	0.007856206
185	0xbd9e7cc0	-0.07738638
186	0xbe2fad9d	-0.17156072
187	0x3dcc8bb5	0.099875845
188	0xbdaad5e3	-0.08341577
189	0xbd316842	-0.04331232
190	0x3ba15103	0.0049229874
191	0x3ad659eb	0.0016353702
192	0x3d7a7bac	0.0611531
193	0xbd388ed7	-0.045058098
194	0x3cc1abc9	0.023641484
195	0xbd22a04d	-0.039703656
196	0x3e2b0a6f	0.16703199
197	0x3d489add	0.048975814
198	0xbcc5769a	-0.024104405
199	0x3dec2070	0.115296245
200	0xbcdd39e2	-0.02700514
201	0xbb38eb1b	-0.0028216306
202	0xbe14dca1	-0.14537288
203	0x3d086645	0.033300657
204	0xbc137e61	-0.009002299
205	0x3e09bda2	0.13451245
206	0xbe0cfb06	-0.13767633
207	0x3b1a48b1	0.0023541863
208	0x3e3247be	0.1741018
209	0xbd2d160b	-0.04225735
210	0xbd6ca026	-0.057769917
211	0xbbc8c8f0	-0.0061274692
212	0xbd82af3e	-0.06381081
213	0xbdf3a60c	-0.11896905
214	0xbb88d290	-0.0041754916
215	0x3ae8e6fb	0.0017769033
216	0x38f15fc9	0.00011509617
217	0x3d8c8fed	0.06863389
218	0x3df54796	0.119765446
219	0xbe48e1b6	-0.19617352
220	0x3dd01974	0.10161105
221	0x3c02f2c5	0.007992451
222	0x3e541330	0.20710444
223	0xbda3f8cb	-0.08006438
224	0x3eae2a3d	0.340166
225	0xbe200e35	-0.1563042
226	0xbdd4713f	-0.103731625
227	0xbe43e480	-0.19130135
228	0x3d990528	0.074716866
229	0xbe62a3e6	-0.22132835
230	0x3e7ea0a1	0.24865963
231	0xbe066d1d	-0.13127561
232	0x3c1db484	0.009625558
233	0xbb2d3439	-0.0026428832
234	0x3edbd99a	0.42939454
235	0x3dfc9dbc	0.12334773
236	0x3e9bf6f2	0.30461842
237	0x3e011175	0.12604316
238	0x3d0f2f98	0.0349575
239	0xbe78bd06	-0.24290857
240	0x3e3831b7	0.17987715
241	0x3d16c3fb	0.036807995
242	0x3d8ee634	0.069775015
243	0xbcef0794	-0.029178418
244	0x3ead8c12	0.33895928
245	0xbdcd1e03	-0.1001549
246	0xbd8f5e28	-0.07000381
247	0x3b251f3d	0.0025195621
248	0xbdd4b054	-0.103851944
249	0x3d3e8efb	0.046523076
250	0x3d7b6951	0.061379734
251	0x3d541ed7	0.051787224
252	0xbc59f5e8	-0.0133032575
253	0x3cebd101	0.028786184
254	0xbaa1880d	-0.0012323871
255	0x3e91da0a	0.28486663

fc_2.bias f4 [10]
0	0xbc809385	-0.015695343
1	0x3a6351de	0.0008671562
2	0x3ba620f0	0.0050698444
3	0xbbc10fc0	-0.00589177
4	0xbc4f681f	-0.012659102
5	0x3c82b991	0.015957626
6	0xbb1b4f1a	-0.0023698271
7	0xbc14bba0	-0.009077936
8	0x3c51229e	0.012764601
9	0x3c296734	0.010339547
