notebooks/models/long_cnn_normal_0.001/model.pth (torch, 216215 bytes, 6 tensors)

conv_0.weight f4 [64, 1, 3, 3]
00000000: 9029 6f3d 62ef df3d 1508 c13d b85e 67bc
00000010: 18b0 993d f29a d03d 6cdb 90bd 4238 f3ba
00000020: b425 733d dbb9 783d 06b6 e63d 7372 e83d
00000030: 737e a13d 10f7 123e 7106 073e 699b ee3c
00000040: 05c4 723d 5825 823d 736e 973c f3e1 583d
00000050: 24ec 513d ef41 e73c ace1 813d d349 513d
00000060: ea9e f53c 0702 453d ea7d d13c 4caa 013e
00000070: 27b6 443e 8171 183e cfcc 803e 42c2 9f3e
00000080: ef80 303e 9329 7c3e 8403 7d3e 1096 e03d
00000090: fa88 9c3c dbba 8b3d 3410 b53d 9ec0 983d
000000a0: 8abf 083e da74 e33d 3307 c43d 4a37 023e
000000b0: 83d7 8e3d e39b db3d f720 ea3d ed15 b93d
000000c0: c4df cd3d 2dce 0c3e e228 0b3e 2615 8abc
000000d0: 2b1b 8c3c e653 8a3d 3d6c ac3d 951e efbb
000000e0: 4a6a afbd f6a4 d73d f08d 2f3c 1c93 88bd
000000f0: 7f50 b13d 4c6f 733d 93ef cb3a 672a 163e
00000100: 1f85 333e b4b1 253e 62e9 3f3c 33c9 f83c
00000110: cf30 a33d de80 2cbe dc1d 3cbe cb36 a6bd
00000120: 9743 ba3b 7260 2cbd b756 2cbd 2204 353d
00000130: f157 8ebc 2dba 16bd 8643 823d 7304 7a3d
00000140: b3c6 df3c 1352 9b3d d501 e43d 5e45 833d
00000150: a139 eb3d 2e92 183e 31ac 853d 036b bc3d
00000160: 780a e63d 48ca 353d 92d4 983b 236e cc3b
00000170: 0915 613c 0401 07bc 0e49 83bb a8f1 53bb
00000180: ecad d8bb f535 c4bb 30b8 09bc 2e0e 143d
00000190: 1c1e da3b 76fc a4bc 8747 e43c 5189 47bc
000001a0: 5eac 93bc 73cf 893c 841d 7fbc 1a0c 90bc
000001b0: f95d 63bc 6d3b 02bd 5fa8 cabb 17aa a53c
000001c0: cefe 083d 9e51 433d 964c 3f3d 6e0d 763d
000001d0: 85c4 473d 2417 373d 0247 8c3d 3643 ab3d
000001e0: fafa de3c 29fe af3c 70d7 653c 9db9 28bd
000001f0: 0d79 8dbd d119 70bd eb55 ab3a 00d5 543c
00000200: 7b64 b93c cbc4 76bc 3937 2abc 77ae f6ba
00000210: c979 66bb 114c 45bc 31a2 5bbc fcf3 353e
00000220: 3131 483e d859 233e 6716 f23d 42f8 223e
00000230: ba78 313e 5ab5 e9bd cf8c bcbd a8f5 043c
00000240: 26a9 5d3e 3592 343e 2b39 4bbd a370 803e
00000250: aa7b c13d 63d6 26be b970 7e3e d668 543d
00000260: 1eca 0ebe c5d6 6b3d b94f 943d 944f 8e3d
00000270: 072b ae3c 18e3 e03c df2b 403d f756 a0bd
00000280: 9b48 c0bd 8b27 40bd 0c67 743e fe7d c33e
00000290: 0888 903e c1c5 c83e 9c2f fe3e 1765 823e
000002a0: 1d03 b63e b0f0 bc3e c1e5 0d3e 7a6a 803c
000002b0: c954 353d 62f4 2a3d 4193 9c3b 74f0 713d
000002c0: 219d 863d 8004 ad3a 21b6 7b3d 4b7d 8d3d
000002d0: ae7c 273e 1255 633e 9734 3b3e 8648 fc3d
000002e0: 92ba 4e3e 0b52 373e 83dd 38bc 0309 303d
000002f0: fe84 a23d 54d4 033c ff7a 093d 9f02 023d
00000300: e05f 293c 585c 2b3d 9a0c f83c 41a6 9b3c
00000310: 9d50 2f3d b358 d13c ed6f 40bd 00f9 c8bd
00000320: 9bc9 c4bd 0564 77bb 92be edbc 72ad 19bc
00000330: 7a21 ef3d ce3a 003e 7290 e73d 870a 413e
00000340: e3eb 7a3e fb73 393e 3215 603e 4137 683e
00000350: af72 003e ab7c 953d ac50 213d 5126 14bc
00000360: 10e7 8f3d f2b1 9e3d 5372 913d a10a 00bb
00000370: 1352 4a3a 8036 fa3c 05eb 8ebd 290b 8dbd
00000380: 413e b0bc 1a19 333d 5d74 bf3c 9fd1 0f3b
00000390: 6ff8 3c3d 4dab 5b3c 252b 37bc 7a30 083d
000003a0: 9246 4f3c d39b f9bb adc4 c9bb d83f 12bb
000003b0: 6d3d ca3b c29b 323c 8a7d 753b c6c9 b939
000003c0: 2aee 6fbb d683 59ba c045 59bb 6a15 82bb
000003d0: 0584 71bb 368c 3eb9 be79 ff38 5735 4ebb
000003e0: 70f8 53bb 7f5c 04bb ebe4 36bb 9b63 e4ba
000003f0: 9c12 113d 7e5c 5e3d 02e6 453d 7a36 edbb
0.058389246 0.109343305 0.0942537 -0.014121704 0.0750429 0.101858035 -0.070731014 -0.0018556195
0.05936213 0.06072412 0.11265187 0.113499545 0.078854464 0.1435206 0.13186051 0.02912684
0.05926897 0.06354779 0.018485283 0.052949857 0.051250592 0.028229682 0.063418716 0.051095795
0.029983003 0.048097637 0.025572736 0.1266262 0.1921011 0.14887048 0.25156257 0.31202894
0.17236684 0.24625234 0.24708372 0.10966122 0.019108284 0.06822749 0.08840981 0.07458614
0.13354316 0.11106272 0.09571686 0.12716404 0.06974699 0.107230924 0.11432069 0.09037385
0.100524455 0.13750525 0.13589814 -0.016855787 0.017102798 0.067542836 0.08419082 -0.007297347
-0.08565195 0.10529511 0.010714993 -0.06668684 0.086579315 0.059432313 0.001555907 0.14664613
0.1753125 0.1618107 0.011713358 0.030369377 0.07968294 -0.16846034 -0.18370765 -0.0811592
0.005684327 -0.042084165 -0.042074885 0.044193394 -0.017375918 -0.036798645 0.06360535 0.0610394
0.027316427 0.07584014 0.11133162 0.06409715 0.11485601 0.14899513 0.065269835 0.09200098
0.112324655 0.044382364 0.004664012 0.0062387153 0.013737925 -0.008239988 -0.0040065115 -0.0032340083
-0.00661253 -0.0059878775 -0.00840573 0.036146335 0.0066564213 -0.020139914 0.027866138 -0.012178735
-0.018026527 0.016822552 -0.015571002 -0.017583895 -0.013877385 -0.031794954 -0.006184622 0.020222707
0.033446126 0.047685258 0.046703897 0.0600714 0.0487714 0.044699803 0.06849481 0.08362429
0.027219284 0.021483498 0.014028415 -0.04119264 -0.06907854 -0.05861837 0.001307187 0.012990236
0.02263092 -0.015061568 -0.010389143 -0.0018820305 -0.0035167804 -0.012042061 -0.013405369 0.17768854
0.19550015 0.15952241 0.11820679 0.15915015 0.1733121 -0.11411543 -0.092065446 0.00811521
0.21646556 0.17633899 -0.049615066 0.25085935 0.09447415 -0.1629272 0.24847688 0.05185779
-0.13944289 0.057577867 0.072417684 0.06948772 0.021260751 0.027452037 0.04691684 -0.07829087
-0.093888484 -0.04691271 0.23867434 0.38182062 0.28228784 0.39213374 0.49645698 0.2546775
0.3554925 0.3690238 0.13857175 0.015675772 0.04427031 0.041736968 0.004778296 0.059067205
0.06572939 0.0013200194 0.06145299 0.06908663 0.16356155 0.2220042 0.1828178 0.1231852
0.20188358 0.1790239 -0.011283281 0.042977344 0.079355225 0.008046228 0.033564564 0.03174078
0.0103378 0.041836113 0.030279446 0.019000174 0.04280149 0.02555499 -0.04698174 -0.09813118
-0.09608766 -0.0037748825 -0.029021535 -0.0093797315 0.11676307 0.12522432 0.11306848 0.18851672
0.24504046 0.1811065 0.21883085 0.22677328 0.12543748 0.07299169 0.039383575 -0.0090423385
0.070264935 0.07748784 0.07101884 -0.0019537585 0.00077179185 0.030543566 -0.0697842 -0.06886894
-0.02151406 0.04372511 0.023370916 0.0021945012 0.046135362 0.0134075405 -0.01117972 0.033249356
0.012651103 -0.0076174526 -0.006157479 -0.0022315886 0.0061718733 0.010901393 0.003745886 0.00035436283
-0.0036610463 -0.0008297538 -0.0033153147 -0.003969838 -0.0036852371 -0.00018172045 0.00012182024 -0.0031464898
-0.0032344125 -0.0020196734 -0.0027907442 -0.0017424704 0.035418138 0.054287426 0.048315056 -0.00723916

conv_0.bias f4 [64]
00000000: 6613 0b3d 1d32 403d 7946 813c 63dc d33d
00000010: e6a1 353d 1504 3e3d 1f7b 9f3c 8d7b 673d
00000020: 1ea6 363c c1cf 483d 182f aa3b 4c4b d53b
00000030: 66b7 983c 2ffe f23c dfc3 ca3b 7b7d 853d
00000040: 7b91 893d ac10 c43c f0f7 273e e3dc 983c
00000050: a1af 993d 698f 083c 27b0 f83c 67ea b23d
00000060: 881c b33c a9d1 923c 9645 e93a 96ed e63a
00000070: c59e 683c 2b13 ee3c 9e5b 093d 84aa acb8
00000080: ab85 313c 2e17 1b3c 2daf 7fba 7729 463c
00000090: eb8b b73c e56c 223c bdf4 2e3d b605 803c
000000a0: ed6e aa3c 6f1b 253e e7e8 ef3c 4e29 743b
000000b0: 6b60 b53c 8024 573d 2444 9c3d 1ca1 36ba
000000c0: 76fc 8b3d a7c9 fdba a310 f53c 5f68 563c
000000d0: e19e 243d 2d39 d33a 9415 a93d b0d8 f03b
000000e0: 7ae5 c73b aada f83b f462 fa3d a56e a93c
000000f0: 00bd e03c c6d7 66bb 63ce 3e3c 38bf 213c
0.033954047 0.04692279 0.015780674 0.1034477 0.04434385 0.04639061 0.019467888 0.05651431
0.011148004 0.049026255 0.0051936023 0.00650922 0.018642139 0.02966222 0.0061879004 0.06518074
0.06717201 0.023933731 0.16403174 0.018660014 0.07504202 0.008334973 0.030357433 0.08736115
0.02186419 0.01792224 0.0017797227 0.0017618414 0.01419801 0.029061874 0.03353464 -8.23336e-05
0.010835092 0.009465976 -0.0009753581 0.012094847 0.022405585 0.009913658 0.04271387 0.015627723
0.020804847 0.16123746 0.029285861 0.0037256065 0.022140702 0.052525043 0.07630184 -0.0006966756
0.068352625 -0.0019362465 0.02991516 0.013086407 0.04019058 0.0016115062 0.08256069 0.00735005
0.006100354 0.007594426 0.12225905 0.020682642 0.027433872 -0.0035223826 0.011645886 0.00987225

conv_1.weight f4 [64, 64, 3, 3]
00000000: 1c53 a1bb dbe3 de3b a539 88ba f8a3 033c
00000010: bddc 2a3b 812a 47bc d0c9 7e3b cd76 21b9
00000020: ca8b 1dbb 67d4 2ebc f41a 533c e9d6 4e3b
00000030: e582 38ba bb97 683c bfd6 1abc a25d c73b
00000040: de27 7e3b e070 ddbb 251b 03bc 9eba 053c
00000050: e4b3 343a da69 b93b 61f5 dc3b f7fc a6bb
00000060: 50ec ff3b 6635 873b 774c 88bb 1008 21bd
00000070: f926 ee3c 518a 8e3c 52f7 f5bb 5d4a 1e3d
00000080: 90db 9dbc 4947 663c cec7 303c 3d54 88bc
00000090: 033a 7cbc 885d 953c c462 973b d762 163b
000000a0: 1f66 7f3c 46cb 20bc 8087 213c 8150 f83a
000000b0: 1350 ebbb 7b77 58bc fcc2 353b 90be bf3a
000000c0: 17e5 81bb 7402 db3b 5460 25bc d4f6 4f39
000000d0: b027 663b 8529 d6bb 4fd1 9ebb dccf cc3a
000000e0: 040b 043c fcbc cdbb 8191 423c 75f8 5d3c
000000f0: 002d 93bb 7434 6b3c 0643 8cba fdd9 6bbc
00000100: 42b8 d3bb 191d 8f3b f6fb 4abc 66af f4ba
00000110: c924 113a cd2d adbb d68e 8c39 9be3 2ebb
00000120: 175f adbb 0145 1cbb 8d56 593a 34db f2bb
00000130: 6b3f 50bb bbcb b03b f57a 3abb 2e63 d03a
00000140: 9897 20ba 7db0 9fbc a3ad 763c 36b0 1c3c
00000150: 5d5e 50bb 0d93 a23c 5729 2abc 3454 cc3b
00000160: 0cf1 a13b bf52 16bc 4ba8 d8bb 667b f7ba
00000170: 2c2c 80bb 0791 453b 428f cbba 5947 8d3a
00000180: 0ac0 153b 48b1 30bb beb8 65bb 28bf 2139
00000190: 1b4c 38ba 1081 e23b 4a62 b8ba 5b49 843b
000001a0: fe2f dc3b 87b9 ee39 e17c e53b b4e4 aaba
000001b0: 093a 9bbb 1684 d93b b797 a23a f71f 833b
000001c0: 4f14 7b3b 20f1 f6ba 38c8 a93b 7fd2 403a
000001d0: 7c6d 843a d6f3 32bb 3445 1a3b adbe 1a3c
000001e0: faa6 66bb ee65 bf3b 59e0 ecba d87c 3d3b
000001f0: 3c47 d3b9 566e 96bb 0100 723b 8abd 7c3a
00000200: 9115 7ebb 202f 76bb b324 efba 5e46 84ba
00000210: 92d3 2abb 1a50 38bb 27d6 f83a 0567 abbc
00000220: 8339 e33a 427e 9d3b 0096 cebb 1dd3 b23b
00000230: d57a d5bb 17cf 66bb 8c14 1e3c 640b 29bc
00000240: bea9 57bc 7a0c 003d a9f4 3b3d ccdd 8bbc
00000250: a663 673d d0f8 ff3c 9987 6a3b 0489 173d
00000260: afb4 0cbc d187 95bb f028 88bb 1063 f33b
00000270: 60fe e2bb 791e 483a 0705 5e3a 522d eabb
00000280: 0d23 cc38 1b34 3dbb 5ce0 8bbd bf18 693d
00000290: 217e fa3c 2861 2dbc 9a05 813d 6064 00bd
000002a0: 63d8 ce3c 6bd0 b03c 0143 b2bc 26f1 b6bb
000002b0: 0476 203c 72b8 caba a57d d23b cc6e 1b3b
000002c0: 6148 ccbb 7db8 983a 21b4 8f39 cbc2 293b
000002d0: 28a8 bdbc 78ad 5c3c 7873 7e3b 67a8 81bb
000002e0: aedb 673c bada 79bc b7ef 1e3b 7c72 863b
000002f0: 8d88 47bc e30b 93ba 945b ed3b 52dc d53a
00000300: e864 493b b10f bc3b 94bd 79bb c2be 513b
00000310: 819b cf3a b3e9 57bb 9dba be38 b9a4 843a
00000320: 6ce8 debb 3be2 07bb c0bb ddba f576 323a
00000330: fd1c 033b 2dfa 9dba 0818 b63b 9bd1 f4bc
00000340: 1c27 9c3c e964 9f3c f094 4cbc 99c8 eb3c
00000350: 471d 1cbc d383 af3b 12cd 8e3c 9509 4fbc
00000360: 732a f9bb d2b6 77bb 5328 1c3b 3199 84bb
00000370: 20ba 2cbb 72f6 39ba 6939 9dbb b7c4 b83b
00000380: 18bd 42ba 8c23 1abb 503b 583b 9331 053c
00000390: 56e8 c6bb bfde 863b 5c58 9d3a e0f8 533a
000003a0: 4dcb d53b 95e1 28bb b1af 8639 d637 a03b
000003b0: d8e0 7c3b b5b3 823a 1b79 ef3a c02c 33ba
000003c0: 3a64 6f3b 0fd9 9c3a d246 cd3a 049f 8fbb
000003d0: d688 49ba 9fc9 d93a 185d 1f3b d0a0 17ba
000003e0: 35e9 cdba 23f2 ebba bf2d 04bb e114 8bba
000003f0: 69cc 413b e830 00bb 18c8 3eba 04c4 443a
-0.0049232375 0.006802065 -0.0010393156 0.008034699 0.0026071512 -0.01215613 0.0038877614 -0.00015398413
-0.002403962 -0.010670758 0.012884844 0.0031561202 -0.0007038548 0.014196332 -0.0094506135 0.00608416
0.0038781087 -0.0067578405 -0.008002077 0.008162169 0.0006893261 0.0056583704 0.0067431186 -0.0050960737
0.007810153 0.0041262386 -0.004159506 -0.03931433 0.029071318 0.017399939 -0.0075062895 0.038645137
-0.019269735 0.014055082 0.010789825 -0.01664173 -0.01539469 0.018233076 0.004619928 0.0022947097
0.015588312 -0.009814089 0.009858966 0.001894489 -0.0071811765 -0.01321208 0.0027734628 0.0014628936
-0.003964077 0.006683642 -0.010093767 0.00019833009 0.003511887 -0.006535711 -0.004846729 0.0015625912
0.008059267 -0.006278632 0.011875511 0.013548006 -0.0044914484 0.0143557675 -0.0010701127 -0.014395234
-0.006461174 0.0043674824 -0.012389174 -0.0018667995 0.00055367925 -0.005285001 0.00026809302 -0.0026685956
-0.0052908766 -0.002384484 0.000829079 -0.007411385 -0.0031776081 0.0053953803 -0.0028454636 0.0015898698
-0.0006126105 -0.019493336 0.015056047 0.009563496 -0.0031794526 0.01984551 -0.010385833 0.0062356237
0.004942065 -0.009175002 -0.006611859 -0.001888138 -0.0039115157 0.0030146257 -0.0015530365 0.001077871
0.002285006 -0.0026961137 -0.0035052742 0.00015425368 -0.00070303836 0.006912358 -0.0014067378 0.004037065
0.0067195883 0.00045533126 0.007003412 -0.001303813 -0.004737143 0.0066380603 0.0012404834 0.0040016132
0.0038311665 -0.0018840171 0.0051813386 0.0007355585 0.001010343 -0.0027305982 0.0023539783 0.009444875
-0.003519474 0.0058410084 -0.0018072232 0.0028913524 -0.0004029813 -0.00459079 0.0036926272 0.00096412806
-0.0038770179 -0.003756471 -0.001824519 -0.0010091772 -0.0026066047 -0.0028123916 0.0018984721 -0.020923147
0.0017335865 0.004806311 -0.0063045025 0.0054572956 -0.006514887 -0.003521865 0.009648453 -0.010317657
-0.013163028 0.0312619 0.045887623 -0.017073534 0.056491517 0.031246573 0.003578639 0.036995903
-0.008588 -0.0045633097 -0.0041552708 0.0074275807 -0.0069272965 0.00076339353 0.0008469377 -0.007146516
9.734007e-05 -0.0028870169 -0.068299025 0.056908365 0.030577721 -0.010582246 0.062998965 -0.031345725
0.025249666 0.021583756 -0.021760466 -0.0055829464 0.009793762 -0.0015466346 0.0064236694 0.0023717163
-0.006234214 0.0011651661 0.00027409292 0.002590346 -0.023151472 0.013469093 0.003882615 -0.0039568427
0.014151497 -0.015249902 0.0024251768 0.004103003 -0.012178552 -0.0011218752 0.007243583 0.0016316271
0.003073031 0.0057391752 -0.0038107382 0.003200457 0.001583919 -0.0032945692 9.0946654e-05 0.0010119892
-0.006802609 -0.002073421 -0.0016916916 0.0006807887 0.0020006292 -0.0012052708 0.005557064 -0.029885104
0.019061618 0.019457297 -0.012486681 0.028782176 -0.009528465 0.005356291 0.01743177 -0.012636562
-0.0076039373 -0.0037798178 0.0023827746 -0.004046582 -0.0026356056 -0.0007093913 -0.0047981036 0.0056386846
-0.000742869 -0.0023519723 0.0032994337 0.008129495 -0.006070177 0.004115909 0.0012004483 0.00080860965
0.0065244795 -0.0025769223 0.00025689372 0.0048894687 0.0038586166 0.000997177 0.0018270345 -0.00068349764
0.0036528246 0.0011966544 0.0015661365 -0.00438297 -0.00076879316 0.0016615874 0.0024316963 -0.0005784156
-0.001570976 -0.001800124 -0.0020168868 -0.0010611081 0.00295713 -0.00195604 -0.0007277741 0.0007506015

conv_1.bias f4 [64]
00000000: 1bc1 efbb 29c0 d03a 0d37 fcba a4e5 013b
00000010: 2fd4 05bc 927b 6a3b 5eef 2bbb 59c1 5fba
00000020: 9fb8 98bb a92c 27bc 8242 ea3b 472a 77ba
00000030: e9dc 9bba 397b 18bc 2ee3 80bb 8521 16bb
00000040: b3f3 42bb a920 3cbb 0572 793c fb4c 8d3a
00000050: 99b4 1cbb b2e7 263b a31b c2ba d516 1fba
00000060: 66b5 11bb 6c9e 4d3a dff6 b93a 19db c53b
00000070: b3bd 1e3c 5e15 71b8 0338 f23b b93d f1bb
00000080: a744 c837 a5df d73b af7f 0f3c cbf0 9e3a
00000090: 85a1 12bb 84f6 00bc cf03 ca39 bc1e 41bb
000000a0: 3f91 4fbb 7366 933b 178c 8bbc 0f56 3c3b
000000b0: 5f33 f03a 2381 9f38 92a8 00bc 34e1 5d3c
000000c0: b80d 1db9 0f00 86ba c944 9c3b b56f 0a3c
000000d0: 50d2 d1b9 08c0 83ba 76b1 823b 799f 78bb
000000e0: 6ec9 383c 6afe 58bb 71b2 febb 5360 08ba
000000f0: 80d3 17bc 9ce4 633b e5d3 273a d8f1 553a
-0.007316721 0.0015926409 -0.0019242481 0.0019820714 -0.008168264 0.003577922 -0.0026235203 -0.0008535586
-0.0046606804 -0.010203519 0.0071490416 -0.0009428602 -0.0011891398 -0.009306722 -0.003933332 -0.0022908163
-0.0029747307 -0.002870599 0.015224938 0.0010780388 -0.0023911356 0.002546769 -0.0014809262 -0.0006068771
-0.0022233366 0.0007843736 0.0014187953 0.0060380814 0.0096887825 -5.7478777e-05 0.007391931 -0.0073620942
2.3873827e-05 0.00658794 0.0087584695 0.0012126205 -0.0022374105 -0.007871274 0.0003853128 -0.0029467782
-0.0031672267 0.004498297 -0.017034573 0.0028737818 0.0018325857 7.6057644e-05 -0.00785269 0.013542462
-0.00014977797 -0.0010223406 0.004768942 0.008449485 -0.0004002028 -0.0010051737 0.00398844 -0.003793685
0.011278493 -0.0033110627 -0.0077727367 -0.00052023417 -0.009266734 0.0034773713 0.0006402119 0.00081613427

fc.weight f4 [10, 1600]
00000000: f037 89bb b5bb 31bb 5c46 9abb 69bc a6bb
00000010: de70 cabb c5fc 3b3b 7cc1 18bb bad2 a93a
00000020: f45f babb ff6f 8fbc f040 773c ff78 4c3c
00000030: 9a33 863c b28a 543b 0e72 ad3b 1621 7f3c
00000040: 5278 863c 7ab6 de3c e3d4 ce3c c08f 663c
00000050: 7752 ab3b e8d5 113b e6cd b8bb 6c90 673c
00000060: 8c2f c03b 7a31 44bb 4c51 40bc 32cf 7bbc
00000070: a98d 1dbd f7aa 2abd f2cb 0dbb 8b6d e5bb
00000080: 7ea5 6dbc ace8 22bd 47db 82bd 752e fbbb
00000090: 3ed4 bf3c 13e2 483c 8b82 c0bb 1929 08bd
000000a0: 9a46 65ba 1021 003c 155f 8d3b 2466 aa3c
000000b0: eebe 123d f0ae 323a 430c 4cbc de21 2bbc
000000c0: 229f ac3c 5f24 993c 5990 5f3a 508e 49bc
000000d0: 2fb8 d5bb 34e5 02bb 7e1b 3dbc e0d5 dcbb
000000e0: c16f 413c badc 2b3b 0ed7 e33b 85ae 043c
000000f0: ef0d 84bb 9921 863c 28cb bf3c 66a2 56bb
00000100: 4aac c8bb bd3f f83b 479d d73c fd22 a23b
00000110: d91b 27bc 1f4b 7d3c 17dd a93b 148d 4b3c
00000120: f715 6f39 db4a f2bc 42c0 86bc 465d bc3a
00000130: 7653 6abb 58c3 34bb c1b4 4aba 9d9a 783b
00000140: c8e3 9e3a 7143 a639 749b a638 7b03 01ba
00000150: de70 7b3b 2ac7 553b 425c 5d3b 88c6 c03a
00000160: d6a3 423b d851 ab3b 72f8 bc3b c07f f53b
00000170: 2e67 c93b aace 3d3c 0389 e83b 3b25 9f3a
00000180: add6 ba3b 7385 123c 219c adba 9fb6 14bb
00000190: 3b09 0abb 1db0 e4bc c39f 8fbb 4c54 17bd
000001a0: 7d80 24bc d7aa 92bb 64b1 f53c 8034 cbbb
000001b0: 256e 353c 11b6 ccbc c998 553b 5dc0 153d
000001c0: e56c 2f3d cca4 c13c 1daf 103a 0e42 843c
000001d0: 11a1 823c 598b 4f3d 31b7 153d 074a 033d
000001e0: 5099 823a ff6d 933c 9d55 e2bc 68ba 1cbc
000001f0: 7662 85bc 83bd feba a7ce b1bb 935c 2739
00000200: 34a3 b6b8 9a41 253b 68c0 57bb be3c 983b
00000210: fdb1 993b 96c5 963b 5f27 e6b9 8b42 5b3a
00000220: 17e2 5e3b 3ede 7d3b cee1 4abb 617d b8bb
00000230: 0e33 9e37 ca3b 2bbb 3d0a 67ba 92d5 5dbb
00000240: 1a2b 9c3b 582e 183b a182 ce3b 3352 c3bb
00000250: b68e 14bb a106 80bb e55b efba d33c 2fbc
00000260: 2762 7e3a 5914 36bb ea6c 333c db2e bb3b
00000270: 5649 e33a 59a9 b53b 572c 013d b4f9 0e3d
00000280: 3619 c1bb 6ac1 d0ba fa74 3cbc 757c 4e3c
00000290: 174d ae3b 1801 8ebb 1481 ccbb 837c 2f3c
000002a0: 3110 8f39 d705 94bc 0f10 eb3b 8510 d7ba
000002b0: 1bed 0c3d ecd5 8bbc f49a c5bc 9330 29bb
000002c0: a1c7 a6ba 1fa3 d7bc 8845 78bc 62d7 02bc
000002d0: 2232 34ba ffa6 b33b 9756 bbbc d44f 213a
000002e0: 5508 13bd e436 80bc ab13 dbbb 3b44 c63b
000002f0: 6f9d 12bd ce17 58bb f02c 1cbd da8f 38bd
00000300: acfb 6cbc 7d0a 3a3b 64e1 db3c 91f0 9fbc
00000310: 382f 28bd 3f05 dabb 98ff dc3c d0ee 293c
00000320: 4335 c73b 4654 36bc c74f 9fbb 2766 023c
00000330: f8e3 47ba b5c4 d339 5da8 053c 2f8b 28bc
00000340: 2fce 28bb ba5b 2bbb e5a1 5bbc cef9 47ba
00000350: 0cd1 13bc 5307 a7bc a46e 14bc 4461 89bc
00000360: 7662 a2b8 191f e83b 7c95 423a c5e1 173b
00000370: 6c18 7839 b25a 1e3c f67e 463d f0ac 483c
00000380: 554a 33bb 3ec8 ca3b 7e1f 40bc 447c 1dbc
00000390: b365 b53c d0ad 70ba a968 7aba 1008 9f3b
000003a0: dc8d a8bc 2b10 813c 1f42 833c fc12 a7bc
000003b0: fd7a 4dbc b82d debb 9d0a 41bd 0bdd 0abd
000003c0: 8607 c4bc f5f3 f9bb aa06 393b 8acc 1a3c
000003d0: 7308 9ebc acf3 fdba a793 0f3d 02ed a03d
000003e0: 718f 6f3c f542 56bc e0a1 f2ba 3bf0 46bc
000003f0: 0073 baba 8c07 923a 211c 9cbc 16dd 14bc
-0.0041875765 -0.0027119939 -0.0047080945 -0.005088378 -0.0061780056 0.0028684598 -0.0023308685 0.0012956478
-0.005687708 -0.017509459 0.015091166 0.01248002 0.016382027 0.0032431302 0.0052931374 0.015571853
0.016414795 0.027186621 0.025247997 0.014072359 0.0052283364 0.0022252742 -0.0056397794 0.014133554
0.005865043 -0.0029936717 -0.011738133 -0.015369223 -0.038465176 -0.04166695 -0.0021636453 -0.007001584
-0.014504788 -0.039772674 -0.0638948 -0.00766545 0.023416635 0.012260932 -0.005874937 -0.03324232
-0.0008746177 0.007820383 0.004314313 0.020800658 0.035826616 0.0006816229 -0.012454095 -0.010445086
0.021071974 0.0186941 0.00085282844 -0.012301996 -0.0065222005 -0.0019973041 -0.011542199 -0.006739363
0.011806429 0.0026224093 0.0069531268 0.008098249 -0.0040299813 0.016373442 0.023412302 -0.0032750606
-0.006124054 0.0075759576 0.026320113 0.0049480186 -0.0101995105 0.015459805 0.0051838267 0.012423772
0.00022800999 -0.02957671 -0.016449098 0.0014371059 -0.0035755313 -0.0027582254 -0.0007732623 0.0037933954
0.0012122327 0.00031712235 7.944452e-05 -0.0004921478 0.0038366835 0.0032619932 0.0033776914 0.0014707604
0.0029699705 0.0052282624 0.0057669217 0.0074920356 0.006146333 0.011584917 0.007096411 0.0012141833
0.005701861 0.00894295 -0.0013245383 -0.0022691858 -0.002106263 -0.027916009 -0.0043830588 -0.036945626
-0.0100404 -0.004475932 0.029991813 -0.006201327 0.011073624 -0.02498916 0.0032592288 0.036560405
0.04282846 0.023638152 0.0005519258 0.016144779 0.015945943 0.05067 0.036551658 0.03205302
0.0009963904 0.017996786 -0.027628714 -0.009565927 -0.016282301 -0.0019435141 -0.005426246 0.00015960848
-8.708835e-05 0.0025216104 -0.003292108 0.004645913 0.0046904073 0.004601191 -0.00043898352 0.00083641027
0.0034009272 0.0038737203 -0.0030957344 -0.0056301807 1.8858842e-05 -0.0026128166 -0.00088134763 -0.0033849222
0.0047658803 0.0023220982 0.0063021933 -0.0059607266 -0.002266807 -0.00390704 -0.001826164 -0.010695654
0.0009703957 -0.0027783124 0.01095126 0.0057123727 0.0017340581 0.0055438695 0.031536426 0.034906104
-0.005892898 -0.0015926783 -0.011502499 0.012602915 0.0053192484 -0.0043336265 -0.0062409732 0.010710838
0.0002728715 -0.01806919 0.007173545 -0.0016408121 0.03440581 -0.01706978 -0.024121739 -0.0025816306
-0.0012724289 -0.0263229 -0.015153296 -0.007985922 -0.00068739254 0.005482554 -0.022868438 0.0006153558
-0.035896618 -0.015651174 -0.006685694 0.006050614 -0.03579467 -0.0032973173 -0.038128793 -0.045059063
-0.0144643 0.00283876 0.026840873 -0.01952389 -0.041060656 -0.0066534574 0.026977345 0.010371879
0.0060793473 -0.011128491 -0.004861805 0.007958925 -0.00076252175 0.00040391614 0.008157817 -0.01028709
-0.002575766 -0.0026147203 -0.013405298 -0.00076284714 -0.009022009 -0.020389235 -0.009059582 -0.016770013
-7.743102e-05 0.0070837853 0.00074227876 0.002317534 0.00023660221 0.009665178 0.048460923 0.012248263
-0.0027357538 0.0061884215 -0.011726258 -0.009612147 0.02214322 -0.00091811735 -0.0009552339 0.004853256
-0.020575456 0.01575478 0.01602274 -0.020394795 -0.01254153 -0.0067803524 -0.047129262 -0.03390221
-0.023929369 -0.007627959 0.0028232732 0.00944818 -0.019291138 -0.0019374988 0.03505292 0.07857706
0.014621601 -0.013077487 -0.0018511377 -0.012142236 -0.0014224946 0.0011141165 -0.019056382 -0.009085914

fc.bias f4 [10]
00000000: 6048 1c3c 4f78 443c 4b23 8c3b 9bc5 34bc
00000010: e002 2abc cdc4 823c 30ba 57ba b22c fc3a
00000020: 837e 73bc c274 ffba
0.00953874 0.011991574 0.004276668 -0.011033441 -0.010376662 0.015962983 -0.0008229343 0.0019239394
-0.014861706 -0.0019489753
