bnn/models/fashion_fcnn_laplace_0.100/model.pth (torch, 360471 bytes, 6 tensors)

fc_0.weight f4 [100, 784]
-0.013331489 -0.018307718 -0.00091385713 -0.006558781 0.0070890593 0.00628854 -0.018689662 0.00016643439
-0.019208897 -0.014591819 0.016869418 -0.012698793 -0.019202026 0.018543007 0.0057097585 -0.009748049
0.012480875 -0.014066391 -0.010153814 -0.008796877 -0.014341346 -0.017031988 0.00172416 -0.0018126058
-0.0045321663 -0.017992768 -0.011820309 0.015095569 -0.0034928715 -0.010410497 0.014964088 -0.009137725
0.006841334 0.0059284624 -0.012374482 -0.011704799 -0.016804846 -0.0029159065 0.00470813 0.0024038358
-0.010597405 -0.0042720875 -0.013907872 -0.0070827124 -0.01950865 0.011949863 0.007682501 -0.012868428
-0.014708454 0.00857692 0.011744979 0.016938666 0.0014155819 0.001693478 0.019310001 0.01383796
-0.014845986 -0.01845267 0.0016389845 0.012494486 0.017286729 0.017242683 -0.010354699 0.011373607
0.01019621 0.012005167 -0.0069436273 0.019842487 -0.004672073 0.0018092594 -0.008404255 -0.014249026
0.018450094 0.013752579 -0.0028870045 0.004809152 0.0031739653 0.0022358543 -0.0075607 -0.015042698
-0.0066822823 0.0059338077 0.005749636 -0.007842088 -0.015470582 -0.0014734163 -0.0034639346 -0.007973482
0.019312734 0.009885288 -0.0027994 0.007947405 0.003305384 0.00038506452 -0.013971186 0.0076456955
0.008632715 0.000607927 0.01923573 -0.01123399 0.012805757 -0.003453943 -0.006278284 0.004568833
-0.0013081365 -0.012670123 0.004340512 -0.00054137764 0.003356283 0.01233287 -0.007932436 0.014311844
0.007622139 0.016408715 0.007163851 -0.0010811532 0.0014715387 0.0023540892 -0.004153458 0.0075617754
-0.017758897 -0.0037435184 -0.009729448 0.0095149875 0.017582124 -0.0018993173 0.00879116 0.008841878
0.007522103 0.019480567 0.01412905 0.005491439 0.008697238 0.011700366 0.018246088 0.007379808
0.015273261 0.006087631 0.00031600095 0.0009884522 0.017820518 -0.015105771 -0.01317508 0.016789434
-0.013451122 0.014508277 -0.0055553447 -0.005183775 0.013188561 -0.009379698 0.0040041762 0.017188195
0.009379886 0.011821322 0.0057803397 0.002102176 0.018812506 0.018980308 0.013696392 -0.006115592
-0.017171724 0.001945039 -0.0041593635 -0.011305053 -0.010255849 -0.017495867 0.010985312 0.015643734
-0.012140008 0.0044925166 0.012328388 0.0024252376 -0.008496506 -0.007903334 -0.00018816422 -0.0129478695
-0.015588357 0.00540212 -0.01849215 0.0047810357 0.0016834275 0.017336758 0.016077764 -0.016928997
0.008219349 0.006247836 -0.017274262 -0.01918212 -0.0011255564 -0.0007441407 -0.014027959 0.00019700463
0.00023942003 -0.016271684 -0.006068871 0.0107824 0.015388316 0.015541993 -0.005274841 0.012860882
-0.0048695924 0.018224945 -0.0105495965 0.004817978 -0.006607344 -0.0033049865 0.00085817545 -0.009569644
0.0068334755 0.008521477 0.014102416 0.009057162 0.017996974 -0.0097306175 -0.0015802367 0.009306197
-0.008759098 0.011791861 -0.013399454 -0.0074179033 0.006602121 -0.00075071293 0.014643607 0.0055891303
0.009082271 -0.013205643 0.01070151 0.0033732257 0.0153273735 0.0037327174 0.008136539 0.015329621
-0.0005477466 -0.004997606 -0.0012489895 -0.008076917 0.007146246 0.0035528687 -0.004368478 -0.015303087
0.0044379155 -0.004795639 0.017320186 0.0043191765 -0.016683888 -0.007242282 0.017796261 0.0064610327
-0.008650782 0.002387944 0.0034506551 0.016017579 0.0034194866 -0.00079877337 0.015874477 0.009690082
00000000: 516c 5abc 11fa 95bc ea8f 6fba 0beb d6bb
00000010: 574b e83b 1910 ce3b 101b 99bc e484 2e39
00000020: fa5b 9dbc 8612 6fbc bc31 8a3c 990e 50bc
00000030: 914d 9dbc 81e7 973c ed18 bb3b 48b6 1fbc
00000040: 957c 4c3c b876 66bc 2f5c 26bc c720 10bc
00000050: f7f7 6abc ab86 8bbc 36fd e13a f594 edba
00000060: 9182 94bb 9265 93bc f8a9 41bc 6853 773c
00000070: a9e8 64bb ca90 2abc ef2b 753c 66b6 15bc
00000080: 452d e03b 8c43 c23b 57be 4abc 7cc5 3fbc
00000090: 51aa 89bc cb18 3fbb a846 9a3b ac89 1d3b
000000a0: bda0 2dbc defc 8bbb d8dd 63bc 1916 e8bb
000000b0: 9bd0 9fbc 5cc9 433c 7dbd fb3b 19d6 52bc
000000c0: bafb 70bc 3686 0c3c 036e 403c f5c2 8a3c
000000d0: 0c8b b93a b1f7 dd3a 0230 9e3c 9cb8 623c
000000e0: 943c 73bc 0e2a 97bc 32d3 d63a acb5 4c3c
000000f0: e69c 8d3c 8740 8d3c c1a6 29bc 5e58 3a3c
00000100: 010e 273c 52b1 443c 5e87 e3bb b68c a23c
00000110: 3018 99bb ac24 ed3a 00b2 09bc bf74 69bc
00000120: a724 973c 7f52 613c e633 3dbb 1796 9d3b
00000130: 4d02 503b 6987 123b c0bf f7bb a675 76bc
00000140: 0cf7 dabb 6370 c23b 7167 bc3b 1a7c 00bc
00000150: 5378 7dbc a61f c1ba 2e03 63bb 35a3 02bc
00000160: bd35 9e3c e7f5 213c 2376 37bb d535 023c
00000170: 249f 583b 7ce2 c939 67e7 64bc be88 fa3b
00000180: 3b70 0d3c 4a5d 1f3a 4094 9d3c c50e 38bc
00000190: 3dcf 513c 8c5b 62bb 10ba cdbb 26b6 953b
000001a0: c775 abba 5996 4fbc db3a 8e3b 3deb 0dba
000001b0: 16f5 5b3b ce0f 4a3c 0cf7 01bc 397c 6a3c
000001c0: 23c3 f93b 926b 863c bdbe ea3b 7bb5 8dba
000001d0: a5e0 c03a 1047 1a3b bb19 88bb c5c8 f73b
000001e0: 1b7b 91bc d155 75bb 4368 1fbc c0e4 1b3c
000001f0: 6308 903c 83f2 f8ba cc08 103c 86dd 103c
00000200: f97b f63b b695 9f3c 887d 673c 87f1 b33b
00000210: dc7e 0e3c e4b2 3f3c d278 953c 51d2 f13b
00000220: b33c 7a3c c07a c73b eeac a539 f48e 813a
00000230: 56fc 913c 327e 77bc 4adc 57bc ff89 893c
00000240: 1862 5cbc 20b4 6d3c 9c09 b6bb a8dc a9bb
00000250: d614 583c 4ead 19bc 7735 833b 42ce 8c3c
00000260: 18ae 193c 38ae 413c 0169 bd3b a9c4 093b
00000270: af1c 9a3c 977c 9b3c d566 603c 4e65 c8bb
00000280: b7ab 8cbc aef0 fe3a 454b 88bb d438 39bc
00000290: 2608 28bc 7e53 8fbc bdfb 333c 4a27 803c
000002a0: e2e6 46bc f635 933b 02fd 493c bcf0 1e3b
000002b0: ee34 0bbc fc7c 01bc f34d 45b9 4d23 54bc
000002c0: 4f66 7fbc 4404 b13b d97c 97bc 3caa 9c3b
000002d0: 74a6 dc3a d105 8e3c 84b5 833c aeae 8abc
000002e0: 73aa 063c a6ba cc3b c182 8dbc d223 9dbc
000002f0: 6887 93ba 7012 43ba 86d5 65bc 0793 4e39
00000300: d30c 7b39 324c 85bc 61dd c6bb aaa8 303c
00000310: 461f 7c3c d8a3 7e3c 93d8 acbb 73b6 523c
00000320: 1a91 9fbb 7b4c 953c 37d8 2cbc 21e0 9d3b
00000330: 6b82 d8bb 7998 58bb 2ef7 603a ffc9 1cbc
00000340: 59eb df3b aa9d 0b3c d20d 673c 7e64 143c
00000350: 646e 933c 2b6d 1fbc f21f cfba 0579 183c
00000360: 5282 0fbc a632 413c 6289 5bbc e211 f3bb
00000370: 9b56 d83b 7ecb 44ba bdeb 6f3c 0625 b73b
00000380: cecd 143c 7b5c 58bc 6355 2f3c 5611 5d3b
00000390: aa1f 7b3c 9ba0 743b 1e4f 053c 1729 7b3c
000003a0: a796 0fba f5c2 a3bb 22b5 a3ba 0c55 04bc
000003b0: 0e2b ea3b 3fd7 683b 7325 8fbb cdb9 7abc
000003c0: ef6b 913b bc24 9dbb 10e3 8d3c e187 8d3b
000003d0: a6ac 88bc aa50 edbb 77c9 913c 12b7 d33b
000003e0: 02bc 0dbc 0d7f 1c3b 6324 623b 4c37 833c
000003f0: 7719 603b c664 51ba 310b 823c 26c3 1e3c

fc_0.bias f4 [100]
-0.016908173 -0.010360145 0.0077170525 -0.00756289 0.004455644 -0.015341073 -0.018743476 0.012306204
-0.01942276 -0.007096337 -0.017442713 0.0008699758 0.013405002 -0.00050919375 -0.005065606 0.013628127
-0.01603487 -0.013343966 0.012935768 -0.0053172316 -0.016766446 -0.010243864 0.0057305116 0.015779058
-0.0049609155 -0.00917528 -0.0014383873 -0.008463619 -0.015000296 -0.017070957 -0.006431943 0.017801909
5.5353994e-05 0.0075356034 0.0013075892 0.011676815 0.012243182 0.014909056 -0.01865932 0.0069594556
0.00545127 0.019693715 0.019275362 0.000841786 0.008388939 -0.01707442 0.006316946 -0.01776094
0.010372248 0.007962444 0.016334118 0.002781492 -0.012841576 -0.012296595 -0.009572218 0.014952114
-0.007415189 -0.005368938 0.01287682 0.016305 0.019902688 0.014930134 0.011292286 0.013851345
0.016720846 0.017503755 -0.015567252 0.008092614 0.011207415 0.002866973 0.015948666 0.013671203
-0.01269721 0.0058670226 -0.010734466 0.0066058375 0.011082099 -0.015470028 0.004792841 0.019487675
-0.0129728 0.01083376 -0.016230395 0.0064036534 -0.0032392568 0.010315978 0.0013414593 0.0143606765
-0.0054775 -0.0013173805 -0.0072703063 -0.010399865 -0.009831403 0.0098951105 0.0146869635 -0.014746453
-0.009701302 -0.006802743 0.004684242 -0.014733721
00000000: 0283 8abc 99bd 29bc 54df fc3b 1fd2 f7bb
00000010: a700 923b 2059 7bbc eb8b 99bc f69f 493c
00000020: 7b1c 9fbc 6488 e8bb 05e4 8ebc 160f 643a
00000030: a7a0 5b3c 6a7b 05ba 62fd a5bb 8248 5f3c
00000040: 8f5b 83bc a6a0 5abc 8bf0 533c 2c3c aebb
00000050: c959 89bc e1d5 27bc 04c7 bb3b 1543 813c
00000060: 2d8f a2bb ea53 16bc 4588 bcba feaa 0abc
00000070: cdc3 75bc 64d8 8bbc 0cc3 d2bb 4fd5 913c
00000080: e62b 6838 39ed f63b 6a63 ab3a 1d50 3f3c
00000090: a197 483c 1d45 743c 6edb 98bc 250c e43b
000000a0: 91a0 b23b b754 a13c 5de7 9d3c 4dab 5c3a
000000b0: c371 093c a7df 8bbc 62fe ce3b 647f 91bc
000000c0: 5cf0 293c e974 023c 21cf 853c b149 363b
000000d0: 7965 52bc a877 49bc cbd4 1cbc b6f9 743c
000000e0: 1dfb f2bb ebed afbb 4cf9 523c 1092 853c
000000f0: f60a a33c 859d 743c 4803 393c c0f0 623c
00000100: 28fa 883c 0964 8f3c ca0d 7fbc e296 043c
00000110: 4e9f 373c d3e3 3b3b c7a6 823c 2efd 5f3c
00000120: f507 50bc 2740 c03b 9ddf 2fbc c875 d83b
00000130: b191 353c 0076 7dbc 440d 9d3b 9ea4 9f3c
00000140: de8b 54bc 1580 313c 9bf5 84bc bdd5 d13b
00000150: b649 54bb 5904 293c e8d3 af3a 0b49 6b3c
00000160: 9a7c b3bb f4ab acba c03b eebb 3264 2abc
00000170: e513 21bc 1a1f 223c 97a1 703c 1b9b 71bc
00000180: 36f2 1ebc 8be9 debb 457e 993b b465 71bc

fc_1.weight f4 [100, 100]
-0.014460584 0.013081823 0.001239916 -0.009352318 0.0029274372 -0.002176094 0.004675379 -0.0063084904
-0.0052427812 -0.018620454 0.016331986 -0.0099511435 -0.016921118 -0.0011967825 0.014240192 -0.018156096
-0.007797641 -0.016790444 -0.012462469 0.0018789697 0.006246037 0.00034159306 0.0028072365 0.00992043
0.0073809954 -0.015132917 0.0006443924 0.009146629 0.0139792515 0.0029589501 -0.005002231 -0.0076022623
-0.007786697 0.0036159484 -0.010580064 0.009404623 0.010649943 -0.00029170027 -0.01442391 0.019968633
0.010431433 0.0005971244 0.0052825045 0.002406887 0.019751975 0.013705043 -0.0057158386 -0.00522285
-0.0013781979 -0.010231937 0.00017192443 0.010049277 0.012786691 -0.008471544 0.010873284 -0.0036687257
0.010297233 -0.009779221 -0.01572856 0.0008379772 0.01781809 -0.00645705 -0.015735274 -0.016444372
0.001763713 -0.00082284975 -0.00021116502 -0.019779822 0.011791821 0.015247406 0.0016818305 -0.0014711968
-0.01945913 -0.010647073 0.017532013 -0.0049245195 -0.007499848 -0.0009831288 -0.006533371 0.00926806
-0.003115615 -0.012707551 0.013399273 0.011343988 0.012067498 -0.017250627 -0.0069782007 0.017626274
-0.015032466 0.011142971 -0.013501516 0.019432595 0.017643936 0.010980945 0.018560853 7.691843e-05
-0.002748553 -0.00662594 0.0055941986 -0.0021973685 0.0058504776 -0.016234059 -0.019319125 -0.018578019
0.0154333 0.00013587555 -0.016596407 -0.0008974097 0.0153486235 -0.019219218 -0.0069292914 -0.0038581395
0.0014013512 0.0018207994 0.013957717 -0.0056447326 -0.008222662 -0.015156705 -0.009319116 -0.008391743
-0.0053202617 0.0010796447 -0.016167294 -0.017035244 -0.00024426298 -0.016490731 -0.00826374 -0.017272243
-0.008557916 -0.015659261 0.010260173 -0.019481122 0.01235588 -0.0008323408 0.009075744 0.0063524987
-0.01914611 -0.018229805 -0.006937919 -0.011628983 -0.0070711 0.015735615 -0.018563772 0.008197135
0.0056007765 -0.015093072 0.010246666 0.0026433622 0.012617676 0.018104091 -0.005429903 -0.0037002128
0.019122692 -0.0060160514 0.012599558 -0.012051844 0.015440969 0.0059120837 -0.0030343086 -0.013272357
-0.004573132 0.015537709 -0.009653814 0.01687666 -0.0018622383 0.017951826 0.002299974 -0.008544638
0.0077164653 0.011294302 -0.016603779 -0.010701812 -0.014251558 -0.0026348121 -0.013353975 0.007075229
-0.014786789 0.007005531 0.020006953 0.0039006409 -0.006962954 -0.006807424 0.012212236 -0.0074459906
-0.0022699893 -0.011350709 -0.013417671 0.0099755 0.016907815 -0.017929535 0.010409544 -0.0041223587
0.01728203 0.014838079 -0.007897294 0.014521145 -0.015028255 -0.0074957367 -0.019217797 -0.009700976
-7.323449e-05 -0.01781093 0.009286808 -0.014490523 -0.017271481 -0.017386328 0.0043112827 -0.011354971
-0.010221425 0.0009729883 0.017132672 -0.013406073 0.009094245 0.009027824 0.0014626338 0.004348209
0.012376264 -0.007443239 0.017639138 -0.013538304 0.01565659 0.012683709 -0.0135287745 -0.008160603
-0.014401318 -0.0031818952 -0.00834546 -0.0018972836 0.009824914 -0.010613402 -0.012361946 -0.016433354
0.004606626 -0.0033178092 0.008842381 -0.0061986754 0.0072579673 -0.001648852 -0.0026105884 -0.013407438
-0.019935152 0.00031099468 0.01811779 0.019095635 0.009892854 0.0075811855 -0.008391785 0.0017674036
0.011261917 -0.015265016 -0.0033040873 -0.01937018 -0.002876689 0.016315449 0.0021064295 -0.0036649876
00000000: 16ec 6cbc 2455 563c ad84 a23a 773a 19bc
00000010: 3fda 3f3b cd9c 0ebb ec33 993b 74b7 cebb
00000020: a3cb abbb ec89 98bc a8ca 853c 1f0a 23bc
00000030: 289e 8abc 5bdd 9cba b24f 693c 18bc 94bc
00000040: 5b83 ffbb 1d8c 89bc 622f 4cbc c347 f63a
00000050: 8eab cc3b d817 b339 9df9 373b 4d89 223c
00000060: 47dc f13b 0ef0 77bc 71ec 283a bedb 153c
00000070: 3b09 653c f2ea 413b c1e9 a3bb 661c f9bb
00000080: 8c27 ffbb 8cf9 6c3b 0158 2dbc d915 1a3c
00000090: 197d 2e3c 59ef 98b9 4352 6cbc 4295 a33c
000000a0: 9ae8 2a3c 5788 1c3a dc18 ad3b ddbc 1d3b
000000b0: e5ce a13c 1e8b 603c ee4b bbbb 7124 abbb
000000c0: a6a4 b4ba dba3 27bc 9d46 3439 b9a5 243c
000000d0: 457f 513c 3bcc 0abc dc25 323c 016f 70bb
000000e0: bab5 283c 0739 20bc 2ed9 80bc b3ab 5b3a
000000f0: 3ef7 913c a995 d3bb 43e7 80bc 59b6 86bc
00000100: 632c e73a 83b4 57ba 2e6c 5db9 4b09 a2bc
00000110: 7b32 413c 42d0 793c de70 dc3a 2cd5 c0ba
00000120: c168 9fbc 1071 2ebc 4c9f 8f3c dd5d a1bb
00000130: 49c1 f5bb 54dc 80ba e315 d6bb 10d9 173c
00000140: 592f 4cbb 5533 50bc a088 5b3c 22dc 393c
00000150: c1b6 453c 3051 8dbc 64a9 e4bb fa64 903c
00000160: bb4a 76bc 0291 363c 7635 5dbc 1b31 9f3c
00000170: 048a 903c 6ce9 333c ee0c 983c 454f a138
00000180: 1121 34bb 6a1e d9bb 8a4f b73b ba01 10bb
00000190: 5db5 bf3b 4afd 84bc 2443 9ebc ee30 98bc
000001a0: f4db 7c3c d179 0e39 30f5 87bc 2540 6bba
000001b0: cb78 7b3c 9f71 9dbc 1c0f e3bb d7d8 7cbb
000001c0: 8bad b73a e4a7 ee3a e9ae 643c 73f7 b8bb
000001d0: 58b8 06bc d453 78bc 35af 18bc 857d 09bc
000001e0: 9755 aebb dd82 8d3a 4671 84bc 7f8d 8bbc
000001f0: 6c10 80b9 9217 87bc a364 07bc 857e 8dbc
00000200: 8036 0cbc da47 80bc 491a 283c e096 9fbc
00000210: 5170 4a3c 7231 5aba 6eb2 143c 9f28 d03b
00000220: 4ed8 9cbc ac56 95bc 7c57 e3bb 7d87 3ebc
00000230: b0b4 e7bb fae7 803c 0d13 98bc 474d 063c
00000240: b886 b73b ef48 77bc a2e1 273c 423c 2d3b
00000250: 5eba 4e3c 084f 943c 54ed b1bb 457f 72bb
00000260: 31a7 9c3c 4c22 c5bb 606e 4e3c 1975 45bc
00000270: 1efc 7c3c 27ba c13b 40db 46bb 4d74 59bc
00000280: 36da 95bb e091 7e3c 082b 1ebc ec40 8a3c
00000290: 5916 f4ba b50f 933c 29bb 163b cffe 0bbc
000002a0: 67da fc3b bc0b 393c a604 88bc a756 2fbc
000002b0: 5e7f 69bc d0ac 2cbb a1ca 5abc 53d7 e73b
000002c0: 4a44 72bc a78e e53b 9fe5 a33c e5a1 7f3b
000002d0: 7e29 e4bb d010 dfbb d515 483c 7ffd f3bb
000002e0: 1ac4 14bb 53f8 39bc cbd5 5bbc 4870 233c
000002f0: 4282 8a3c f6e0 92bc cb8c 2a3c da14 87bb
00000300: 0b93 8d3c 6a1b 733c a763 01bc 19ea 6d3c
00000310: 1239 76bc cc9e f5bb a46e 9dbc d8f0 1ebc
00000320: 7895 99b8 3ae8 91bc b227 183c a969 6dbc
00000330: ec7c 8dbc c66d 8ebc a945 8d3b 330a 3abc
00000340: c477 27bc 2410 7f3a d159 8c3c 25a5 5bbc
00000350: 0700 153c 70e9 133c d9b5 bf3a 6c7b 8e3b
00000360: d0c5 4a3c 6ae6 f3bb f47f 903c c3cf 5dbc
00000370: 4042 803c 55cf 4f3c cba7 5dbc 0db4 05bc
00000380: 81f3 6bbc 5887 50bb 65bb 08bc 46ae f8ba
00000390: adf8 203c d6e3 2dbc c289 4abc 3e9f 86bc
000003a0: 2ef3 963b 9a6f 59bb a2df 103c 421e cbbb
000003b0: 3ed4 ed3b 4b1e d8ba 6816 2bbb dfaa 5bbc
000003c0: 0b4f a3bc 000d a339 c26b 943c 736e 9c3c
000003d0: a315 223c 986b f83b b37d 09bc 39a8 e73a
000003e0: e783 383c 1e1a 7abc 6389 58bb 36ae 9ebc
000003f0: d586 3cbb faa7 853c 060c 0a3b 4a30 70bb

fc_1.bias f4 [100]
0.019760493 -0.005714067 0.011059813 -5.9416572e-05 -0.0069051483 0.0010936328 -0.018445723 0.017006567
0.01290593 -0.0026281173 0.008606662 0.013304663 0.01944019 -0.017742421 0.007797655 0.017129818
0.00031521526 0.008271494 -0.00040612707 -0.011615279 0.0010902435 0.010814661 -0.0071941866 0.005889186
-0.014341523 0.0078964 0.010490137 0.015305916 0.019349812 0.017148634 0.017063713 -0.01934481
-0.010921114 -0.0065746736 -0.004659915 0.019135958 0.019958345 0.004595296 0.01912234 0.013222239
0.010458352 0.0014306274 -0.009282677 -0.012026693 -0.007861831 -0.012324029 0.018845266 0.010746232
0.019610574 -0.002613364 -0.0014673624 -0.0052446513 -0.014997859 0.0064656613 -0.0032744422 -0.0011125493
-0.01092269 0.019958653 -0.009340206 -0.0037259362 0.019468779 0.0159605 0.011800009 -0.0003155047
-0.014183491 0.013257763 0.014598705 -0.017892553 0.019178545 0.00068368047 0.0062228525 -0.01544975
-0.007500059 -0.013481867 0.003104611 0.0050053704 -0.008406943 0.0072200666 -0.0026341758 -0.0047312593
-0.0064905314 0.005713922 -0.006454288 -0.0018709607 -0.0035521935 0.0067593292 0.011756661 0.017328527
-0.016097296 0.018477933 -0.013963491 0.0020528291 0.016160455 0.0007709473 0.003717261 -0.0051270095
0.015389024 -0.019625744 -0.017922891 0.0016865999
00000000: c2e0 a13c 113d bbbb 3834 353c 0f36 79b8
00000010: 9544 e2bb 3a58 8f3a 7c1b 97bc 5b51 8b3c
00000020: 6573 533c 7e3c 2cbb f502 0d3c cdfb 593c
00000030: 0941 9f3c 8e58 91bc 7983 ff3b d553 8c3c
00000040: 7a43 a539 2985 073c 74ed d4b9 034e 3ebc
00000050: 80e6 8e3a fa2f 313c 36bd ebbb 13fa c03b
00000060: b5f8 6abc e75f 013c d3de 2b3c aac5 7a3c
00000070: 7f83 9e3c 4b7b 8c3c 33c9 8b3c 0279 9ebc
00000080: 79ee 32bc 5c70 d7bb 33b2 98bb 03c3 9c3c
00000090: af7f a33c 2394 963b 74a6 9c3c 17a2 583c
000000a0: 8259 2b3c e483 bb3a 5f16 18bc 9b0b 45bc
000000b0: e9ce 00bc b9ea 49bc 6361 9a3c f710 303c
000000c0: 5ba6 a03c f944 2bbb 8354 c0ba 53db abbb
000000d0: 94b9 75bc e6dd d33b 0698 56bb f6d2 91ba
000000e0: 15f5 32bc 5480 a33c aa07 19bc d62e 74bb
000000f0: fd7c 9f3c 98bf 823c d354 413c 536a a5b9
00000100: df61 68bc 1737 593c 682f 6f3c 6793 92bc
00000110: 531c 9d3c 0539 333a 12e9 cb3b f320 7dbc
00000120: 0ec3 f5bb 0ce3 5cbc bb76 4b3b 1704 a43b
00000130: 46bd 09bc 4f96 ec3b 23a2 2cbb ae08 9bbb
00000140: 86ae d4bb da3b bb3b 7e7e d3bb 063b f5ba
00000150: ebcb 68bb 5d7d dd3b 039f 403c 8ef4 8d3c
00000160: 7ade 83bc 095f 973c 20c7 64bc c288 063b
00000170: ee62 843c 6619 4a3a 4a9d 733b 7900 a8bb
00000180: 3f22 7c3c 2bc6 a0bc 07d3 92bc e710 dd3a

fc_2.weight f4 [10, 100]
0.016642833 0.006831339 0.0073329792 -0.007897659 0.0048687784 0.013590961 -0.010963673 -0.018757766
0.01605187 -0.008335088 -0.010209945 0.0029747947 -0.009190482 -0.009383685 0.008832061 -0.0068589933
-0.0028651715 -0.0044347947 0.00863502 0.019871455 0.004769092 0.019519258 0.010113972 -0.0045394236
-0.0009048207 0.010421944 -0.00020602431 -0.016911276 0.01636894 -0.0086446125 0.0023033796 0.013080168
-0.008407121 0.0040996796 0.005741898 -0.008683849 -0.0074715745 0.00817095 -0.011897871 0.005670382
-0.0005028731 -0.01347254 0.004352864 -0.0007776593 -0.004583237 -0.0027991396 0.0057878694 0.0062530413
-0.0056083067 -0.00094992353 0.0060655326 0.007022372 -0.014519571 0.001418435 -0.00613189 -0.0018638872
0.0022893478 -0.01237859 -0.009690852 -0.017535629 -0.018981399 0.0064455685 0.010158263 0.014074017
0.0009696809 0.008102891 0.0149963265 0.0035638292 -0.013737554 0.005973417 0.013090959 -0.013474123
0.007159131 0.009989036 -0.014673563 0.018421648 0.018078448 -0.003994756 0.009805659 -0.018932378
0.0032437297 0.017011633 0.0024202995 -0.004871707 0.011416365 -0.019469848 0.0015192536 0.016283974
0.016210062 0.018951727 -0.008064498 0.010303152 -0.010923338 -0.015897352 -0.011256531 -0.016235419
0.004705362 -0.017519021 0.010429529 0.0049037556 0.011571016 0.01013003 -0.01568998 0.002005335
-0.019938882 -0.00879789 0.0017111443 0.016461253 -0.01726654 -0.0065757083 0.006477968 0.014584481
-0.014754935 -0.009613002 -0.010584364 0.0009950794 -0.008326948 -0.014953101 -0.000554793 -0.014135147
-0.013719692 -0.007872144 0.017705647 0.006728206 -0.014119325 -0.009250333 -0.014135135 -0.0044846972
0.013547469 0.012747922 -0.0036237696 -0.009713756 0.019887822 0.004231718 0.0033458814 0.0069829808
0.0071359966 -0.017268779 0.009756649 -0.0071997456 -0.016428404 -0.0066957464 0.009388841 -0.01766145
-0.00020751198 0.0034767801 -0.017614163 0.018826354 0.014233567 -0.004568448 -0.013098563 0.017304508
-0.015664391 -0.0051268335 -0.0049967365 -0.0052666417 -0.018852888 -0.015852703 -0.002794102 0.004490964
-0.008596081 -0.016711857 0.014172735 0.016624644 0.014934335 0.019943215 -0.00545462 0.008277161
-0.010361916 0.006736243 0.01379359 0.015266742 -0.010363625 0.0014553999 0.007488898 0.010742843
-0.012703006 0.013087098 0.0073012435 -0.009191943 0.0036406089 -0.0114494525 -0.019527381 0.011836976
8.4614454e-05 0.012387516 0.0022669218 -0.015970415 0.004991843 0.015608192 0.004140273 -0.008174494
0.0016046203 -0.014720655 0.01144839 -0.011068103 -0.0060691126 0.010836226 -0.0011376882 -0.008291483
-0.01852849 0.019625274 -0.01405704 0.0062021995 0.0075187953 0.009680169 -0.010976709 -0.012325403
-0.019762358 -0.0028821034 -0.008933018 -0.017773842 0.007919061 0.011189152 -0.009240482 0.007894678
-0.019153638 0.0047548604 0.016027886 0.0069224513 0.0008441311 -0.0036767228 -0.007912354 -0.006140319
-0.014055375 -0.020000335 -0.015329069 -0.01639381 0.0060081696 -0.006791334 -0.0059666648 0.009769705
0.009359407 0.0017509526 -0.010430454 -0.008646438 -0.012183295 -0.0012086662 -0.018519033 0.008999502
-0.0032859591 0.0054107346 0.0020584061 -0.00028186166 0.003489466 0.015342954 -0.012297929 -0.016028479
-0.008441741 0.009307828 -0.014306654 0.0104082925 -0.008289406 -0.01489075 0.0146513935 -0.0040256474
00000000: 8d56 883c 6dd9 df3b 7d49 f03b 2f65 01bc
00000010: 468a 9f3b 9fac 5e3c faa0 33bc e3a9 99bc
00000020: 367f 833c e58f 08bc 9d47 27bc c6f4 423b
00000030: ad93 16bc 07be 19bc 59b4 103c 68c1 e0bb
00000040: 9ac5 3bbb c151 91bb e679 0d3c 76c9 a23c
00000050: 0b46 9c3b dae6 9f3c 13b5 253c 72bf 94bb
00000060: 7d31 6dba cdc0 2a3c 3b08 58b9 8489 8abc
00000070: 2818 863c 22a2 0dbc 4cf4 163b 334e 563c
00000080: 05be 09bc 9b56 863b 8826 bc3b b446 0ebc
00000090: 1cd4 f4bb 73df 053c 4aef 42bc 9dce b93b
000000a0: 3ed3 03ba eebb 5cbc 78a2 8e3b d5db 4bba
000000b0: fb2e 96bb c571 37bb 2ba8 bd3b 50e6 cc3b
000000c0: e3c5 b7bb 4a04 79ba 60c1 c63b ed1b e63b
000000d0: 7fe3 6dbc c8ea b93a 06ee c8bb ad4d f4ba
000000e0: e208 163b 92cf 4abc 61c6 1ebc e1a6 8fbc
000000f0: e17e 9bbc 5935 d33b d86e 263c b596 663c
00000100: 2f32 7e3a fdc1 043c 27b3 753c 228f 693b
00000110: 7a13 61bc a7bc c33b 767b 563c 91c2 5cbc
00000120: 2597 ea3b 0ea9 233c 6269 70bc ffe8 963c
00000130: 4119 943c 71e6 82bb eaa7 203c 1318 9bbc
00000140: c194 543b fb5b 8b3c e39d 1e3b d7a2 9fbb
00000150: b50b 3b3c 3b7f 9fbc b121 c73a f865 853c
00000160: f7ca 843c a740 9b3c f520 04bc 8dce 283c
00000170: cdf7 32bc 2a3b 82bc 506d 38bc 2400 85bc
00000180: 702f 9a3b 0d84 8fbc 9de0 2a3c afaf a03b
00000190: 5c94 3d3c 6df8 253c 4688 80bc f06b 033b
000001a0: de56 a3bc 0625 10bc 7a48 e03a c0d9 863c
000001b0: 8f72 8dbc 0a79 d7bb 2245 d43b bff3 6e3c
000001c0: afbe 71bc da7f 1dbc 0a6a 2dbc 536d 823a
000001d0: c06d 08bc dafd 74bc 876f 11ba 1b97 67bc
000001e0: 8fc8 60bc 2afa 00bc 6f0b 913c 4878 dc3b
000001f0: be54 67bc b58e 17bc 0e97 67bc 5ef4 92bb
00000200: 34f6 5d3c a9dc 503c c47c 6dbb 7226 1fbc
00000210: c9eb a23c 39aa 8a3b 9346 5b3b 7dd1 e43b
00000220: 14d5 e93b 4177 8dbc 5ada 1f3c d8eb ebbb
00000230: dc94 86bc fe67 dbbb a7d3 193c bfae 90bc
00000240: 9397 59b9 b1da 633b 944b 90bc ba39 9a3c
00000250: e833 693c ebb2 95bb 5b9b 56bc 2fc2 8d3c
00000260: 9c52 80bc fffe a7bb aabb a3bb cb93 acbb
00000270: 5f71 9abc 87dd 81bc 411d 37bb f028 933b
00000280: 94d6 0cbc 4ee7 88bc c234 683c 6830 883c
00000290: 24af 743c f45f a33c abbc b2bb ee9c 073c
000002a0: 07c5 29bc b4bb dc3b 82fe 613c 5b21 7a3c
000002b0: 32cc 29bc 1ec3 be3a 6e65 f53b c002 303c
000002c0: 4520 50bc 446b 563c 453f ef3b ce99 16bc
000002d0: 4897 6e3b 7c96 3bbc e3f7 9fbc e0ef 413c
000002e0: 0a73 b138 02f5 4a3c a390 143b 63d4 82bc
000002f0: 9d92 a33b 81b9 7f3c 21ab 873b 50ee 05bc
00000300: 1f52 d23a e72e 71bc 0792 3b3c fd56 35bc
00000310: 68df c6bb 6d8a 313c 7b1e 95ba 00d9 07bc
00000320: 0fc9 97bc 2fc5 a03c 804f 66bc d23b cb3b
00000330: 3a60 f63b 9299 1e3c a8d7 33bc 7df0 49bc
00000340: abe4 a1bc ace1 3cbb cb5b 12bc 739a 91bc
00000350: f3be 013c b452 373c 6465 17bc ae58 013c
00000360: 17e8 9cbc a9ce 9b3b ea4c 833c bbd5 e23b
00000370: ae48 5d3a 2cf5 70bb d1a2 01bc bb34 c9bb
00000380: 8448 66bc bed7 a3bc c726 7bbc 504c 86bc
00000390: 2ee0 c43b d789 debb 0384 c3bb 1d11 203c
000003a0: 3358 193c 3880 e53a 7fe4 2abc caa9 0dbc
000003b0: 719c 47bc 1c6c 9eba 3ab5 97bc a672 133c
000003c0: 3f59 57bb 884c b13b 53e6 063b d5c6 93b9
000003d0: 86af 643b 0361 7b3c 417d 49bc 284e 83bc
000003e0: 3a4f 0abc dc7f 183c 7566 6abc 8b87 2a3c
000003f0: 4ad0 07bc 55f8 73bc 660c 703c 94e9 83bb

fc_2.bias f4 [10]
0.010092038 -0.009125441 -0.008502153 0.008524644 0.009821065 -0.012119406 0.008201048 0.0077865324
0.009518979 0.009540313
00000000: 1359 253c e082 15bc 9d4c 0bbc f3aa 0b3c
00000010: 88e8 203c 7990 46bc b05d 063c 2b26 ff3b
00000020: 7ef5 1b3c f94e 1c3c
