notebooks/models/long_linear_laplace_0.01/model.pth (torch, 360471 bytes, 6 tensors)

fc_0.weight f4 [100, 784]
00000000: bd2b d5b6 0ea2 e1b6 834b d7b6 ae92 e1b6
00000010: b1b9 d8b6 ff73 d6b6 03dd d7b6 d145 cdb6
00000020: a747 ddb6 525a e2b6 6df7 d5b6 2f7a dab6
00000030: 90b0 2c3d d77a 98b6 042f cbb6 a208 e3b6
00000040: d5d7 ddb6 4369 d5b6 efcc dab6 7189 d7b6
00000050: 7201 e1b6 910e d6b6 8759 d5b6 9b2f d0b6
00000060: 294a cdb6 bbde d0b6 0d04 d7b6 1246 cab6
00000070: 9f51 dcb6 1d57 ceb6 27af dab6 c361 dbb6
00000080: dc04 cdb6 d7b8 d0b6 f975 cdb6 1841 ceb6
00000090: 55ad d6b6 b915 d2b6 9982 c3b6 d485 cab6
000000a0: a60c a9b6 6d60 7db6 4c20 c1b6 40b3 ccb6
000000b0: a7ba cfb6 ad31 c8b6 dcd0 aeb6 4a71 d2b6
000000c0: ecf6 d9b6 9ffa d0b6 5ff2 cfb6 917f d4b6
000000d0: 341e e1b6 ce44 dfb6 bde0 dab6 4d3b e4b6
000000e0: e913 d9b6 5570 dab6 27aa e3b6 2188 dbb6
000000f0: 6131 d8b6 89e0 dcb6 873e d6b6 f189 b2b6
00000100: 7506 733d b06d d4b6 8036 d7b6 baae bab6
00000110: c3e2 2bb6 b606 abb6 f931 aab6 87a7 73b6
00000120: 2953 46b6 28b4 edb5 73c4 45b6 2f46 9fb6
00000130: 527b 69b6 5f14 1fb6 6553 93b6 3bfa c7b6
00000140: 6f90 d2b6 d44f f2bd 8646 e3b6 a1ff d8b6
00000150: 3270 e1b6 b974 ddb6 7982 dab6 aa24 e2b6
00000160: d988 d8b6 57dc cab6 59fe b7b6 ace6 bcb6
00000170: 7883 cfb6 efac b7b6 33b1 1fbc d2ff b1b6
00000180: 2d19 feb5 7a72 9db5 e836 5d36 990c bc36
00000190: 6161 b236 af31 9235 b3f5 86b4 7670 5036
000001a0: 5b71 803d 242e 8436 977a 273d be86 05b6
000001b0: b828 8bb5 b6cb d8b6 7b70 ceb6 beb2 e0b6
000001c0: 09f6 cdb6 a328 d2b6 2c21 dfb6 40ce 86bb
000001d0: 493f d8b6 9c67 bfb6 5e4f b5b6 45b6 a6b6
000001e0: 1c4e ceb5 56cc 3cbd 40b3 25b6 facf 1335
000001f0: a320 3836 2cb2 e336 24d3 7337 0832 5f37
00000200: 609b 4d37 3f89 c037 a5e4 6437 7633 0837
00000210: 6df5 a537 c3fa 2837 61a2 76b6 ecd8 1ab7
00000220: ff95 88b6 eac2 9db6 c7ae dab6 1b20 d5b6
00000230: 49a3 dbb6 6430 e1b6 8f8d 6cbd 968f e8b6
00000240: 73fb b8b6 368b a1b6 267e 91b6 06e3 24b6
00000250: cb9b af36 7a3b a436 def2 97b6 3237 b7b6
00000260: 2ef9 f6b6 fe61 f136 9117 be37 d131 da3c
00000270: 13b6 db36 4719 e737 3597 603d 8e52 7637
00000280: 90a6 1b37 3ca8 b935 1e1b 08b9 6682 06b8
00000290: 1d52 f1b7 6c02 dbb6 22f9 ceb6 9b8b d6b6
000002a0: 05da d3b6 15b8 d0b6 59c1 e3b6 5bd8 e3b6
000002b0: 2e00 b9b6 a349 3eb7 88d7 6bb7 bed3 8136
000002c0: 867e c236 617e eab6 d4a5 8db7 4549 71b7
000002d0: 3c49 eeb6 d30b b23c cb94 4138 f384 8138
000002e0: de88 8838 44c3 ad38 00ff 4138 af53 a436
000002f0: 6dfc 6f36 51bb bbba 3ea3 d6bb 9a26 2cb8
00000300: 8fef 05b8 df26 54b7 42cf d3b6 bde7 cfb6
00000310: bf30 d8b6 61b3 d8b6 d520 d5b6 b0c9 ddb6
00000320: c50f d2b6 f7dd 6fb7 e6f3 c7bb 40ff 4db7
00000330: 9fa2 80b7 a0e4 a9b7 0e2a 50b7 1f13 fc35
00000340: 97dc 1838 80f2 d13c ef83 b83a 664a 093e
00000350: 8cc8 3838 fc5c 4037 00c7 9937 1d72 8d37
00000360: 232e 0737 08c3 b3b5 d13a f3b7 9807 5db8
00000370: f0d5 5ab7 b659 09b7 865a dbb6 fb96 ddb6
00000380: f33f cdb6 c266 cdb6 73b3 deb6 053f d6b6
00000390: 54c6 bcb6 ddc0 6eb7 d471 c1b6 2df7 58b7
000003a0: bc6e b3b5 dbf6 18b5 2967 07b7 cc35 1138
000003b0: 4787 e738 bfc4 1f3c 4120 823b 1293 9d38
000003c0: ccba 2038 5bb0 bbb6 98a2 fcbd ea36 a7bc
000003d0: 3e49 f1b7 c3a3 9eb6 06ea 1eb8 b60f ecba
000003e0: ae7c a3b7 16b9 08b7 b2ab e1b6 9226 e0b6
000003f0: 13f0 d8b6 1e74 d9b6 0b72 cfb6 45e0 e5b6
-6.3529865e-06 -6.724388e-06 -6.41629e-06 -6.7225983e-06 -6.458919e-06 -6.3912007e-06 -6.4332285e-06 -6.117604e-06
-6.5946547e-06 -6.7458395e-06 -6.376699e-06 -6.5111303e-06 0.04216057 -4.5442534e-06 -6.055345e-06 -6.766132e-06
-6.6114394e-06 -6.3601487e-06 -6.5207637e-06 -6.4234996e-06 -6.705691e-06 -6.3793927e-06 -6.358317e-06 -6.204425e-06
-6.1181095e-06 -6.2248123e-06 -6.407971e-06 -6.0282264e-06 -6.566013e-06 -6.1494197e-06 -6.5172967e-06 -6.5380896e-06
-6.110042e-06 -6.2204012e-06 -6.12321e-06 -6.1468563e-06 -6.3978755e-06 -6.2610166e-06 -5.8266564e-06 -6.0356488e-06
-5.038065e-06 -3.7756065e-06 -5.755608e-06 -6.100541e-06 -6.19081e-06 -5.9662475e-06 -5.2099185e-06 -6.2716763e-06
-6.4958494e-06 -6.228059e-06 -6.1972964e-06 -6.332943e-06 -6.7090386e-06 -6.653928e-06 -6.5230693e-06 -6.801833e-06
-6.469422e-06 -6.5099835e-06 -6.7849355e-06 -6.542556e-06 -6.44305e-06 -6.5826503e-06 -6.384976e-06 -5.320872e-06
0.05933233 -6.3308617e-06 -6.413844e-06 -5.563573e-06 -2.5612978e-06 -5.0969784e-06 -5.0722124e-06 -3.6307335e-06
-2.9552705e-06 -1.7710308e-06 -2.9469636e-06 -4.7467397e-06 -3.4791487e-06 -2.3704704e-06 -4.39065e-06 -5.959793e-06
-6.275302e-06 -0.11831632 -6.773337e-06 -6.4670608e-06 -6.718584e-06 -6.5999016e-06 -6.5120953e-06 -6.739593e-06
-6.453233e-06 -6.04572e-06 -5.483435e-06 -5.6296903e-06 -6.1843857e-06 -5.473957e-06 -0.009746837 -5.3047925e-06
-1.8931802e-06 -1.1730729e-06 3.2963526e-06 5.604303e-06 5.31615e-06 1.0892308e-06 -2.5138215e-07 3.1059876e-06
0.06271621 3.939278e-06 0.040888395 -1.9896975e-06 -1.0368158e-06 -6.4610167e-06 -6.152373e-06 -6.6965285e-06
-6.1381184e-06 -6.2632184e-06 -6.6497796e-06 -0.0041139424 -6.444669e-06 -5.7043053e-06 -5.40346e-06 -4.9684045e-06
-1.5370929e-06 -0.046093307 -2.4691253e-06 5.5064413e-07 2.7437134e-06 6.785869e-06 1.4533089e-05 1.3303485e-05
1.2255128e-05 2.2952094e-05 1.36430945e-05 8.118213e-06 1.9783818e-05 1.0071965e-05 -3.6751374e-06 -9.229621e-06
-4.0705777e-06 -4.7016556e-06 -6.517253e-06 -6.3516322e-06 -6.5457175e-06 -6.711156e-06 -0.05775219 -6.9308544e-06
-5.5129e-06 -4.81438e-06 -4.3360224e-06 -2.457005e-06 5.233543e-06 4.894505e-06 -4.528424e-06 -5.4602506e-06
-7.3603796e-06 7.1937675e-06 2.2660739e-05 0.026635082 6.547905e-06 2.7549117e-05 0.054831702 1.4681964e-05
9.277501e-06 1.3832537e-06 -0.00012980073 -3.2069533e-05 -2.8767676e-05 -6.5269905e-06 -6.1682813e-06 -6.393949e-06
-6.313671e-06 -6.220313e-06 -6.787636e-06 -6.7903143e-06 -5.5134506e-06 -1.1342027e-05 -1.4057274e-05 3.8691496e-06
5.79638e-06 -6.988456e-06 -1.688573e-05 -1.4381779e-05 -7.1014783e-06 0.021734154 4.615336e-05 6.175963e-05
6.510479e-05 8.285654e-05 4.6252273e-05 4.897323e-06 3.5760706e-06 -0.0014322792 -0.0065502217 -4.1043946e-05
-3.1932777e-05 -1.2645235e-05 -6.312418e-06 -6.1960586e-06 -6.4429764e-06 -6.458184e-06 -6.351717e-06 -6.6097928e-06
-6.2603235e-06 -1.429719e-05 -0.006102073 -1.2278382e-05 -1.5334515e-05 -2.0252832e-05 -1.2407558e-05 1.8781028e-06
3.6445064e-05 0.025628328 0.0014077405 0.13407287 4.4055792e-05 1.1465741e-05 1.8331688e-05 1.6861648e-05
8.057369e-06 -1.3393301e-06 -2.8995246e-05 -5.269758e-05 -1.3043624e-05 -8.186724e-06 -6.537247e-06 -6.6038897e-06
-6.1169208e-06 -6.1214387e-06 -6.637006e-06 -6.3850334e-06 -5.625925e-06 -1.423081e-05 -5.7650996e-06 -1.2932153e-05
-1.3368767e-06 -5.6983635e-07 -8.070646e-06 3.4620796e-05 0.00011040136 0.009751498 0.00397113 7.5137374e-05
3.832094e-05 -5.5935648e-06 -0.123357 -0.020411927 -2.8763545e-05 -4.7278313e-06 -3.7888087e-05 -0.0018010053
-1.9489173e-05 -8.149325e-06 -6.7255105e-06 -6.6802104e-06 -6.46525e-06 -6.480622e-06 -6.182357e-06 -6.8508402e-06

fc_0.bias f4 [100]
00000000: ef96 4338 102a 8d38 6f31 42b6 2a27 aeb4
00000010: fa89 b13c f8d8 a2b7 5b74 04b5 120d ab37
00000020: 79f7 02b7 ba76 ff37 34ee 7033 0197 8f38
00000030: 71aa 59b8 0160 6934 bd4b d8b4 693f 7336
00000040: 9600 9234 0897 9034 46fa 75b7 a97f fab6
00000050: d7fc b4b5 d263 62b4 1a83 81b5 6224 a133
00000060: 02a7 1db6 ef89 a4b3 3f10 4635 86ec 1438
00000070: 6897 d9b5 4495 13b8 ff24 3e35 0b44 9db6
00000080: 316d bdb7 67eb d835 0553 ab38 6dd3 b735
00000090: 2a1c b337 1dbb 4037 8689 3437 bea3 fe35
000000a0: 83eb ceb4 953c 4436 3be8 6b38 e8f9 0ab7
000000b0: 1b27 41b4 a754 f837 531f 8634 9731 1ab6
000000c0: c979 8eb7 6517 cc34 2f88 17b6 7968 6436
000000d0: 1b3a a234 7592 b037 28c9 40b5 dd19 2138
000000e0: ee26 c234 f43c e2b6 f367 1b36 5710 0836
000000f0: 4e94 8538 05eb 95b7 e9af cfb7 864b d7b6
00000100: 97b9 8d36 b50b 38b6 8dd0 0a38 9ce9 a7b5
00000110: 8f1c f5b6 dd3e 9635 f835 2335 8c11 a1b7
00000120: f936 30b3 159e 7c3a 31c6 ab35 2d93 6fb6
00000130: 6b7a a536 2f1a 1038 a199 b4b5 0512 e5b7
00000140: cfbd e5b6 7c8e cc34 1e22 9334 7434 e336
00000150: daa2 f83d 980c abb5 c763 5936 b5f4 5535
00000160: 5695 9f35 c304 fc37 d80e d0b3 747a c737
00000170: 53c4 5236 44ba ffb3 742c 3438 a3c7 0d36
00000180: 9890 88b6 f827 8237 d06c 39b7 eea2 0eb8
4.663219e-05 6.731239e-05 -2.8937027e-06 -3.243852e-07 0.021672238 -1.9412939e-05 -4.934315e-07 2.0390875e-05
-7.806223e-06 3.0453655e-05 5.6096e-08 6.846898e-05 -5.1895568e-05 2.1734742e-07 -4.0288242e-07 3.6246731e-06
2.7195046e-07 2.693198e-07 -1.4661409e-05 -7.465442e-06 -1.3484631e-06 -2.1084205e-07 -9.649405e-07 7.503765e-08
-2.3492034e-06 -7.661935e-08 7.378439e-07 3.550623e-05 -1.6211825e-06 -3.5186546e-05 7.083435e-07 -4.686886e-06
-2.2581402e-05 1.6161765e-06 8.169379e-05 1.3696095e-06 2.1351578e-05 1.14876575e-05 1.0760856e-05 1.897213e-06
-3.8541847e-07 2.924154e-06 5.6244648e-05 -8.283627e-06 -1.7988752e-07 2.9603323e-05 2.4982236e-07 -2.2976653e-06
-1.698443e-05 3.8014983e-07 -2.2580023e-06 3.4035459e-06 3.021713e-07 2.1049034e-05 -7.1818295e-07 3.840948e-05
3.616364e-07 -6.7424207e-06 2.3157306e-06 2.027509e-06 6.369558e-05 -1.7871624e-05 -2.4758237e-05 -6.4162914e-06
4.223733e-06 -2.742495e-06 3.3095992e-05 -1.2510459e-06 -7.3048936e-06 1.1194167e-06 6.0800767e-07 -1.9200867e-05
-4.102819e-08 0.0009636593 1.2798174e-06 -3.5699443e-06 4.9316345e-06 3.435666e-05 -1.3455757e-06 -2.7307318e-05
-6.8468285e-06 3.8101632e-07 2.7405707e-07 6.7712335e-06 0.121404365 -1.2744158e-06 3.2393598e-06 7.970478e-07
1.1889886e-06 3.0042958e-05 -9.688455e-08 2.377967e-05 3.1406714e-06 -1.1908244e-07 4.2956744e-05 2.1126841e-06
-4.069949e-06 1.551582e-05 -1.1052194e-05 -3.400718e-05

fc_1.weight f4 [100, 100]
00000000: 4559 b4b4 249b 80b3 dd40 42b4 3be0 7d33
00000010: c38e 5b34 095b bfb3 83bc 8fb4 9b22 c834
00000020: 6bf8 cab4 8fd5 b6b3 a8ee b733 a137 7a34
00000030: e9e5 1633 c665 0c33 df17 0234 12d4 9433
00000040: 179a c3b4 0269 1db4 d15f 92b3 609e aab4
00000050: 2069 0f34 228f 6a32 dbe9 75b4 40f5 e5b1
00000060: e396 86b4 c2c5 d8b2 517a 05b3 8264 8334
00000070: 3c74 47b4 7ed3 91b4 607e 8132 37d9 7734
00000080: 1936 8f34 79d3 5eb4 1d27 6fb3 5b59 72b3
00000090: 9682 6a34 aef2 3231 72c0 ad33 ab73 87b4
000000a0: 97a0 8933 3c0a bbb4 13a7 6fb4 a63f ae34
000000b0: 8ceb a3b4 44c0 c033 362c 90b4 1abf 9c34
000000c0: 38fc dab3 fc2b 64b4 87d2 e733 944a 82b4
000000d0: 3ee9 b734 08a8 b9b4 0240 a7b4 1e90 b134
000000e0: 546f 68b3 e9ab 9ab4 f4b6 30b4 a336 9d34
000000f0: 4d9f 5832 13c4 5234 a3f2 ae34 40d2 4bb3
00000100: 16be 2db4 9330 b3b4 0db8 00b3 4efd 81b4
00000110: a2f9 9bb4 6ae8 8d34 8035 9b34 1e01 7ab4
00000120: aa89 d2b4 cca1 8ab3 adde 6c34 db23 71b4
00000130: 2818 d5b4 588f cdb3 67e8 6a34 895d bc33
00000140: bdff bab4 0616 f7b3 f43b b334 79ae 30b4
00000150: a376 92b3 9b47 a2b4 105a 6f34 9976 58b4
00000160: e015 bab4 7cb6 1db4 d9b5 1633 eed7 a8b4
00000170: 3d74 8eb4 d996 85b4 ab4a 64b3 896b f9b2
00000180: 5c29 c8b4 6471 2634 a5f9 3a34 e36b 74b3
00000190: 6895 293e a511 9cbd a59e 163d f82d bc34
000001a0: 4250 17b8 be2e 1836 2fce aa35 eabc e33c
000001b0: d853 beb4 1324 5d36 92d7 0935 92d3 8d36
000001c0: f475 ffbc 0a01 3533 7ca3 4c34 046e df33
000001d0: 1de6 0634 f6a5 b134 8c32 63b7 5a35 aab6
000001e0: 1d27 3436 951e 7533 d643 5134 513e 13b5
000001f0: 92a2 9936 5bf4 d434 e049 d9b6 ab65 2736
00000200: f787 05b4 a540 c7b5 462d bb35 cf5f ef35
00000210: 5fa9 6cb7 15d9 4437 3e83 c936 8377 a837
00000220: b41b 743e cf6a 4937 d6de 9637 39cf 57b4
00000230: 2499 b835 6099 23b5 c7cb c536 4f88 8c3c
00000240: 0d94 49b4 a166 25b7 b009 0eb4 5940 e035
00000250: 1b69 eab6 534b 2635 de33 5f36 c2ad 1eb5
00000260: 30f3 c334 bf48 53b5 fd7e 0ab5 fdab 5a37
00000270: 3778 e5b4 d15d edb6 16cb 8bb4 e566 1e36
00000280: ce48 a2b7 7145 8436 3d75 5bbd 4fc6 c0b5
00000290: 194d a6b5 9465 1536 4aaf a737 066d 273d
000002a0: 64dd 9b35 69da ae36 fe02 89b4 379c 9bb6
000002b0: 447a 9535 0033 a1b5 b3a3 32b5 e59a 2236
000002c0: 1386 d1bc 57a7 9537 8daf 9435 ebf9 d33d
000002d0: 879d 433d e9d4 dd34 0708 0635 a310 5535
000002e0: 2984 6fb7 5e5b 1936 2076 5eb4 ef4f 413b
000002f0: eb0d 95b5 5b6f 4bb7 769b 7c35 595a 7ab5
00000300: e77b 2837 bf21 3b35 ac31 7d38 0fb8 2d34
00000310: 45c5 d535 1179 233c 1e95 c435 0019 b736
00000320: 87a8 feb5 00b5 6535 7f93 c2b5 0018 e3b2
00000330: 2cdb a8b5 3566 1ab5 3e8f 9933 0f42 95b4
00000340: 1ff0 a5b4 1923 9eb5 ddd1 0534 3309 ad3d
00000350: fb5e f0b4 bc71 2b34 d0af cf34 fe54 afb3
00000360: 6b88 10b4 3a26 4a34 c764 74b5 6cfb bbb3
00000370: d3be b4b3 2f5f 28b3 f857 34b4 f68b a534
00000380: 8085 e9b4 5bce 9e34 9cc5 ea34 97df c5bc
00000390: 036c fbb4 c376 60b4 7d53 e7b4 fc0a fe33
000003a0: cb5b 03b3 7257 d6b4 febc 11b6 edcc 80b5
000003b0: a2db 41b5 da7c f433 7f5c 10b6 9bfa 2e34
000003c0: c01e 3534 1bfb 6834 b488 72b5 d5e2 52b5
000003d0: b26d bf34 d092 37b6 a9c9 d0b4 7943 6eb3
000003e0: 65f1 c5b3 1f33 dcb2 2dfd 67b5 ebeb d534
000003f0: 2101 a5b4 c126 eab5 f60d b5b0 aec1 6fb5
-3.3592565e-07 -5.9886844e-08 -1.8091255e-07 5.911009e-08 2.0447901e-07 -8.91069e-08 -2.6772986e-07 3.7278082e-07
-3.780618e-07 -8.5138815e-08 8.565013e-08 2.3303302e-07 3.51337e-08 3.2688853e-08 1.2115878e-07 6.9303624e-08
-3.6433696e-07 -1.4659966e-07 -6.816084e-08 -3.17802e-07 1.3356157e-07 1.3653137e-08 -2.2902479e-07 -6.692659e-09
-2.506923e-07 -2.523564e-08 -3.107772e-08 2.447378e-07 -1.8575605e-07 -2.7162235e-07 1.5075045e-08 2.308269e-07
2.6675187e-07 -2.0752294e-07 -5.5682097e-08 -5.6426284e-08 2.1840455e-07 2.6040357e-09 8.090946e-08 -2.522987e-07
6.408771e-08 -3.483891e-07 -2.2319391e-07 3.2456336e-07 -3.05325e-07 8.9756696e-08 -2.6854258e-07 2.919631e-07
-1.01972944e-07 -2.1250156e-07 1.07950704e-07 -2.426865e-07 3.4256112e-07 -3.4581194e-07 -3.1152746e-07 3.3073678e-07
-5.411796e-08 -2.8809816e-07 -1.6457835e-07 2.9283282e-07 1.2609076e-08 1.9629105e-07 3.2586567e-07 -4.7455842e-08
-1.6181033e-07 -3.337669e-07 -2.9969716e-08 -2.4212426e-07 -2.9052632e-07 2.64324e-07 2.8909926e-07 -2.3283471e-07
-3.9215712e-07 -6.4555564e-08 2.2060222e-07 -2.2457918e-07 -3.9691918e-07 -9.5721305e-08 2.1877496e-07 8.771446e-08
-3.4831274e-07 -1.150584e-07 3.338497e-07 -1.645475e-07 -6.820235e-08 -3.022695e-07 2.2291374e-07 -2.0159713e-07
-3.4661116e-07 -1.4688152e-07 3.5089986e-08 -3.1449548e-07 -2.6534136e-07 -2.4882937e-07 -5.3153297e-08 -2.9036316e-08
-3.7282996e-07 1.5501206e-07 1.741342e-07 -5.69088e-08 0.165609 -0.07620553 0.03677239 3.5051175e-07
-3.607595e-05 2.2676973e-06 1.2725994e-06 0.027800042 -3.5451262e-07 3.2952564e-06 5.1350173e-07 4.2267575e-06
-0.031184174 4.214329e-08 1.9058456e-07 1.04042584e-07 1.2563437e-07 3.3089572e-07 -1.3542023e-05 -5.0726057e-06
2.6844857e-06 5.7071322e-08 1.948932e-07 -5.485245e-07 4.578681e-06 3.966587e-07 -6.475704e-06 2.4944118e-06
-1.2436054e-07 -1.4845469e-06 1.3945762e-06 1.7834772e-06 -1.4106131e-05 1.1733054e-05 6.0055454e-06 2.0082813e-05
0.23838693 1.2005402e-05 1.798516e-05 -2.0098823e-07 1.3753638e-06 -6.094542e-07 5.8947803e-06 0.01715484
-1.8773444e-07 -9.8586615e-06 -1.3228305e-07 1.6708028e-06 -6.9859793e-06 6.194943e-07 3.325978e-06 -5.911244e-07
3.6498523e-07 -7.8709485e-07 -5.15938e-07 1.3033857e-05 -4.2742042e-07 -7.074072e-06 -2.6038532e-07 2.3603727e-06
-1.9345807e-05 3.9419906e-06 -0.053578604 -1.436283e-06 -1.2390402e-06 2.2261856e-06 1.9989577e-05 0.040875457
1.1612833e-06 5.2110304e-06 -2.5520416e-07 -4.6375458e-06 1.1136949e-06 -1.2010278e-06 -6.654838e-07 2.4230042e-06
-0.025576627 1.7840108e-05 1.1077951e-06 0.103504024 0.04775765 4.131937e-07 4.993057e-07 7.9372893e-07
-1.4276281e-05 2.285196e-06 -2.0718335e-07 0.0029497107 -1.1105416e-06 -1.212567e-05 9.410354e-07 -9.326373e-07
1.0042429e-05 6.9712036e-07 6.036616e-05 1.617884e-07 1.592715e-06 0.009977595 1.4646537e-06 5.4567354e-06
-1.8973523e-06 8.557254e-07 -1.4497053e-06 -2.6437192e-08 -1.2580763e-06 -5.75182e-07 7.150673e-08 -2.7801477e-07
-3.0908356e-07 -1.1782132e-06 1.2462938e-07 0.0844902 -4.477259e-07 1.5966992e-07 3.8684675e-07 -8.1645325e-08
-1.3460674e-07 1.8826623e-07 -9.1043734e-07 -8.7535994e-08 -8.416614e-08 -3.9202117e-08 -1.6795809e-07 3.083548e-07
-4.3496766e-07 2.9579937e-07 4.3729676e-07 -0.024154468 -4.6830982e-07 -2.0904831e-07 -4.308785e-07 1.1829795e-07
-3.05843e-08 -3.992423e-07 -2.1716692e-06 -9.596384e-07 -7.221771e-07 1.1384846e-07 -2.1511512e-06 1.6296183e-07
1.6868125e-07 2.1698035e-07 -9.0350954e-07 -7.856118e-07 3.5656336e-07 -2.735458e-06 -3.8889746e-07 -5.547506e-08
-9.217437e-08 -2.5634618e-08 -8.6422625e-07 3.9845995e-07 -3.0734466e-07 -1.7445637e-06 -1.3173451e-09 -8.931628e-07

fc_1.bias f4 [100]
00000000: 185e e033 e8c8 6b36 e492 15b5 b82b 5538
00000010: fcac 8bb6 bf77 ab36 eee5 b337 fedf be3c
00000020: 4998 90b4 ae72 ab34 1ad8 04b5 ea46 5636
00000030: 1517 e037 3177 ac37 1657 28b6 bda5 1b35
00000040: 6a0c a936 2305 25b8 0092 09b4 3e88 c936
00000050: 9aa4 1137 fc7c ae36 cc22 9f34 d0cd 283c
00000060: 2251 9b38 7432 15b7 b59d 44b7 6b68 8336
00000070: 1863 3a38 d7dc 4eb6 d33d af38 c4b6 03b5
00000080: 95e1 3137 30eb b837 1c78 8a36 27ff 4eb6
00000090: 584b 6434 1e86 1e37 c622 8537 b590 6637
000000a0: b88e c136 9bc3 063c a2d5 fdb4 53b6 cf35
000000b0: d133 8f35 0eac 9036 b9c8 81b6 7e24 fc37
000000c0: e005 34b6 a369 bf35 f51f 5534 2fa2 a738
000000d0: abf7 0fb5 b77b ffb6 2387 11b6 1826 843d
000000e0: 8d85 13b6 8157 51b4 3f50 ccb5 f438 8336
000000f0: 32f2 c9b2 9665 7eb5 8e83 ca3d 66fc 9936
00000100: 4345 5cb6 77c6 09b7 c403 c736 3571 8eb6
00000110: 088f 7d36 8081 3cb6 2faf 05b5 d405 e3bd
00000120: 6ad9 c936 aa1f cfb4 250a 4734 86ec 1336
00000130: 7df3 0eb7 8d97 bcb5 eb0a 78b6 6c93 f237
00000140: d6bd e0b5 afea 24b8 7893 6fb7 bb86 1538
00000150: 7c3f 1db3 fe16 a337 1513 7eb4 6369 9fb6
00000160: b6b4 2d37 4aea dc3d 15ec 5935 0f55 123d
00000170: 159b dab4 7399 4bb6 3e3e 9a35 54d7 7736
00000180: 2a54 c6b3 8b2f 8237 bf3c 1bb6 1ac6 bdb5
1.04479284e-07 3.5134672e-06 -5.572058e-07 5.0823874e-05 -4.162661e-06 5.1101374e-06 2.1445532e-05 0.023300167
-2.6932892e-07 3.1934673e-07 -4.94883e-07 3.1929762e-06 2.671363e-05 2.05595e-05 -2.5084641e-06 5.798318e-07
5.0380377e-06 -3.934385e-05 -1.2812234e-07 6.0061275e-06 8.680998e-06 5.200154e-06 2.9641376e-07 0.010302976
7.406088e-05 -8.892839e-06 -1.1719229e-05 3.91626e-06 4.4438144e-05 -3.0824938e-06 8.356166e-05 -4.906726e-07
1.06025445e-05 2.2044027e-05 4.126703e-06 -3.084491e-06 2.1261565e-07 9.4487605e-06 1.5871028e-05 1.37427605e-05
5.768463e-06 0.008225347 -4.728036e-07 1.5475765e-06 1.0669411e-06 4.311564e-06 -3.867867e-06 3.0057734e-05
-2.682551e-06 1.4261353e-06 1.9848797e-07 7.9933896e-05 -5.3632056e-07 -7.6139945e-06 -2.1685344e-06 0.06452578
-2.1982444e-06 -1.9496476e-07 -1.5222539e-06 3.9107344e-06 -2.3509617e-08 -9.47702e-07 0.09888373 4.5891384e-06
-3.282287e-06 -8.212045e-06 5.9311005e-06 -4.245109e-06 3.7783193e-06 -2.8089562e-06 -4.9801287e-07 -0.11085096
6.015577e-06 -3.8579793e-07 1.853701e-07 2.2042382e-06 -8.520551e-06 -1.4051199e-06 -3.6961235e-06 2.8917297e-05
-1.674455e-06 -3.9319213e-05 -1.4279845e-05 3.5649846e-05 -3.661215e-08 1.944182e-05 -2.3662535e-07 -4.750838e-06
1.0353679e-05 0.107868746 8.1182344e-07 0.03572565 -4.07185e-07 -3.0338676e-06 1.1492009e-06 3.6931206e-06
-9.235403e-08 1.5519347e-05 -2.3132159e-06 -1.4139252e-06

fc_2.weight f4 [10, 100]
00000000: 29fe 8634 ad55 c0bb c9a3 3dbd 0ccf 09be
00000010: 8a36 373e 28aa ba3c 0778 00be 1dbe a2b4
00000020: 0100 3cb4 1547 c1b4 1ced a0b6 0e9e feb5
00000030: b498 6a3d cb1d 1c3e 44c4 11b5 c944 a436
00000040: 0397 9ebe 1174 703f e193 6eb5 3885 20b8
00000050: dc19 1cb7 0e6e 0dbe a606 c633 7739 a3b8
00000060: 8fac f9be cecb f0b6 7a71 5c37 62a4 40be
00000070: e9a6 7b3c 7488 2fb5 cab8 e33e 6406 123d
00000080: f083 e3b5 1776 f4b7 e0a5 4db7 3a7d 1dbe
00000090: 1687 1cb5 76ec 22be b8d5 fabc 0abc 81b7
000000a0: 37b9 29be f6dd 6332 0c7a f0b4 6ded 69b6
000000b0: 0393 92b6 004d 4238 5788 04b8 1375 49b8
000000c0: da13 03b6 ef37 07b5 3f8a a732 c454 c53d
000000d0: 9906 2fb6 f2ba fcb6 d59e 57b8 92e0 0ab6
000000e0: 8617 d9bb f1c1 12b4 cd73 4fb7 f75f cf3e
000000f0: 502e 30b3 4b1d 87bd ec71 ffbd 428c 8fb7
00000100: 028c 843e b864 f33d b105 85b7 d24c 35b6
00000110: df47 6dbd 68d2 2cb6 ca2d e433 c8c7 e3b7
00000120: e3eb 94b8 1046 15b5 26ec 6e32 9ded b33e
00000130: 69e0 bb3d 99b6 09be 2db4 ff3c 0887 ffb7
00000140: 73eb 153e 4397 a73d 1211 ac3e 2088 04bf
00000150: a86a 1534 bf2e 4f38 f567 c4b3 c4d9 343e
00000160: 72b0 cbb6 0414 f036 f7d7 08b5 d75b b4ba
00000170: 38f0 10b6 8c68 29ba 0026 94be 1a86 9f34
00000180: 31d8 4434 f180 8ebe 7fbb 263e c763 5ebd
00000190: 4a13 bcb4 da85 47b8 7efc b034 1e8e 6a36
000001a0: 9cef 15be fdb1 58b7 a0ad 50b7 5141 7bb5
000001b0: 2532 5d34 e45a dbb3 7e6a b635 47e6 beb6
000001c0: beb5 8037 d9ea 4fbf 6e30 0fb6 3cef 133e
000001d0: 2033 dab7 1b58 d837 72fb a835 d0fc 9eb7
000001e0: c750 58be a710 d93d 5109 e2b3 8bd0 8abd
000001f0: a2a0 3eb8 80eb da3e 1adf 473e 0411 483e
00000200: 6de9 86be 8993 03b8 d509 dabd c399 f6bd
00000210: 4933 f63e 63ba 63be 7907 8fb7 f599 d33e
00000220: 9847 91b4 dd78 c03e 3981 d7be 69a3 96bb
00000230: d9a0 99b7 f41a 3234 2ec3 3135 4b29 843d
00000240: c3ab 3ab7 b9c8 29b6 b04b 833e 6eee dd3e
00000250: 2ed8 66b6 d153 c5bd 2485 1f33 780b 36bf
00000260: f537 bf36 f54f 6836 edcc b5bd 63ce 7b36
00000270: ad6e 41b7 165f 213e 58d4 763d d486 9abc
00000280: e7a7 5333 a25d eeb7 1e1f ab3d 757c 07be
00000290: 7599 a3b7 4394 9e36 5b3e 963e 768d d13e
000002a0: 4b20 8934 8c59 7b35 2740 3d33 8f22 e1b7
000002b0: 2a8a 2037 2c2e 3935 4990 8234 338d 4737
000002c0: e27f 243e a286 7eb6 12ca bbb8 4a1a 69b8
000002d0: 1106 a4bc 1505 4338 62d0 81bc 820b aaba
000002e0: 54f5 fcbc 3a78 9cbe b6dd 49b4 3323 88b3
000002f0: 6a68 5335 fafd 753a 0cf3 6c34 2a72 4f36
00000300: 010d a335 2921 a7b7 69d2 953e 8c18 8f34
00000310: 0b2e 1bb4 b714 c63e 0f17 4534 a166 0abe
00000320: 7c3d 5eb4 71f7 8537 5c9b 78b5 af30 5fb8
00000330: 4f87 0a39 899a 813e 36b0 d23e 958b 9eb3
00000340: f1d9 6035 cbb6 2135 f102 0f36 a632 32b6
00000350: b4f0 1e35 8339 9f3d a360 b1b3 aabb 3c3f
00000360: cb14 47be 19df 12bd 6f1a 6b34 f54b 83be
00000370: b2b8 7437 7c77 873b 24b1 e533 590b a63e
00000380: da3f 023f 15ce b1b6 2861 8bbd 3c70 3f38
00000390: 2ad8 8038 4894 7b3e b6d3 613d 713c 2a3e
000003a0: 0cc3 903b d483 8637 469b 313e fa67 2fbe
000003b0: 9548 0bb2 f48b 173d f7af 7437 9dbd bfbd
000003c0: 940f 6c37 90f8 bab4 8693 dcb2 edb2 c0bd
000003d0: 1216 4836 c2a2 b33e 2130 2d3e 122a 51b8
000003e0: de14 1f3e be6d 2e3e 58c2 15b4 0649 9138
000003f0: 539b 9b3e c10b 0cb6 41ea 13be ab03 d537
2.514437e-07 -0.0058695883 -0.046298776 -0.13457888 0.17891899 0.022786215 -0.12545787 -3.0313177e-07
-1.7508866e-07 -3.600077e-07 -4.7959747e-06 -1.8970475e-06 0.057274535 0.1524574 -5.4302313e-07 4.8955885e-06
-0.30974588 0.93927103 -8.88771e-07 -3.8271042e-05 -9.304345e-06 -0.13811514 9.221303e-08 -7.783149e-05
-0.48764464 -7.1762834e-06 1.3139443e-05 -0.18812707 0.015359619 -6.5391146e-07 0.4447692 0.035650626
-1.6951217e-06 -2.9142057e-05 -1.2257573e-05 -0.15379801 -5.8311105e-07 -0.15910515 -0.030619487 -1.546556e-05
-0.1657456 1.3263607e-08 -4.4792284e-07 -3.4857906e-06 -4.3682535e-06 4.6324916e-05 -3.159823e-05 -4.803117e-05
-1.9532076e-06 -5.0372813e-07 1.9504226e-08 0.096353084 -2.6080872e-06 -7.5319485e-06 -5.140792e-05 -2.069432e-06
-0.0066251187 -1.3667865e-07 -1.2365123e-05 0.40502903 -4.1020314e-08 -0.06597384 -0.12472901 -1.7112241e-05
0.25888067 0.11884445 -1.5857486e-05 -2.7015817e-06 -0.05792987 -2.575247e-06 1.0625406e-07 -2.715354e-05
-7.101127e-05 -5.560878e-07 1.3907117e-08 0.35142222 0.09173662 -0.13448562 0.031213844 -3.0461248e-05
0.14640598 0.08183148 0.33606774 -0.5177021 1.3915508e-07 4.939618e-05 -9.145871e-08 0.17661196
-6.0704124e-06 7.1548875e-06 -5.097822e-07 -0.001376028 -2.1597498e-06 -0.0006462417 -0.28935242 2.971363e-07
1.8332572e-07 -0.2783275 0.16282462 -0.054294374 -3.5031763e-07 -4.7569956e-05 3.2966267e-07 3.495144e-06
-0.14642185 -1.2916044e-05 -1.2438191e-05 -9.3599834e-07 2.0600471e-07 -1.0214515e-07 1.359105e-06 -5.689249e-06
1.534342e-05 -0.81217724 -2.133685e-06 0.1444673 -2.6011432e-05 2.5790234e-05 1.2590156e-06 -1.8952793e-05
-0.21124564 0.10598879 -1.052564e-07 -0.06778058 -4.544913e-05 0.42757797 0.195187 0.19537741
-0.26349965 -3.1370237e-05 -0.106464066 -0.120410465 0.48086002 -0.2223907 -1.7050408e-05 0.41328397
-2.7060446e-07 0.3759221 -0.42090777 -0.0045971167 -1.8313922e-05 1.6587347e-07 6.622166e-07 0.064531885
-1.1126455e-05 -2.5299798e-06 0.25643682 0.4334597 -3.4398504e-06 -0.09635127 3.7141163e-08 -0.7111125
5.698758e-06 3.4617235e-06 -0.08876977 3.7522047e-06 -1.1529465e-05 0.15758929 0.0602611 -0.01886312
4.9279972e-08 -2.8415412e-05 0.083555445 -0.1323107 -1.9502573e-05 4.726027e-06 0.29344448 0.4092824
2.5541735e-07 9.3635094e-07 4.4063338e-08 -2.6838183e-05 9.568912e-06 6.898506e-07 2.4319368e-07 1.18942e-05
0.16064408 -3.7927316e-06 -8.9544934e-05 -5.5576013e-05 -0.020022424 4.6496356e-05 -0.015846435 -0.00129734
-0.0308787 -0.30560476 -1.8800242e-07 -6.339396e-08 7.875557e-07 0.0009383854 2.2067633e-07 3.0911856e-06
1.2148231e-06 -1.9923393e-05 0.29262093 2.6653686e-07 -1.445225e-07 0.3868768 1.8355443e-07 -0.13515712
-2.0697729e-07 1.597006e-05 -9.2613277e-07 -5.3212683e-05 0.00013211112 0.25313213 0.41150063 -7.382838e-08
8.376365e-07 6.024317e-07 2.1310373e-06 -2.6553548e-06 5.9209856e-07 0.07774641 -8.259783e-08 0.7372385
-0.19441526 -0.035857294 2.1895697e-07 -0.25643888 1.4586536e-05 0.0041341167 1.0695865e-07 0.32430533
0.5087868 -5.299002e-06 -0.068056405 4.5642475e-05 6.143779e-05 0.24568284 0.055133544 0.16624619
0.0044177826 1.6035432e-05 0.17344388 -0.17129508 -8.107368e-09 0.036998704 1.4584503e-05 -0.09362338
1.4070323e-05 -3.4826053e-07 -2.5678457e-08 -0.094091274 2.981517e-06 0.35085112 0.16912891 -4.9868664e-05
0.15535304 0.17034051 -1.3947408e-07 6.9277405e-05 0.3039194 -2.0868467e-06 -0.1444483 2.5393287e-05

fc_2.bias f4 [10]
00000000: 065c 45b8 f798 edb6 a30d b137 613f 7bb6
00000010: 02c0 1cb8 0835 e937 6618 6e37 268f 7cb7
00000020: ad4e 0638 1047 0138
-4.7054164e-05 -7.080958e-06 2.1106394e-05 -3.7438806e-06 -3.737212e-05 2.7800459e-05 1.4191586e-05 -1.50537e-05
3.2021362e-05 3.082218e-05
