notebooks/models/cnn_normal_0.500/model.pth (torch, 216215 bytes, 6 tensors)

conv_0.weight f4 [64, 1, 3, 3]
00000000: 1579 493d bbb7 d0bb 92db e93c 1ee8 a93d
00000010: 57d9 533e 6b5e ca3d dec6 283e 110f 763e
00000020: 7d76 373e 2b2e 32bd d42a 70bc 047e b9bc
00000030: 3feb 43bc 0475 cdbc baae 11bb 586d fa3b
00000040: 14d5 91bc 48b3 95bb a04b cd3d 5c6d ef3b
00000050: 6150 fe3c 792a f93d 6863 063e 75ae 46bc
00000060: e91e 0a3e 79e3 1a3e 9b32 553d 31a9 7bbc
00000070: 292b 42bd a74a 46bd 381f 32bd 04d4 4fbd
00000080: 6542 3ebd 1e8b 883d c0db da3d 44e3 093d
00000090: eb5b 6ebc f989 3a3d 9e00 52bd 8699 88bd
000000a0: a151 dcbd 1320 643c f22b aebc fad7 99bb
000000b0: b50b a5bd 9741 8e3d 4413 6a3d 31f9 3b3e
000000c0: 6b86 033e bdd4 d73d a304 073d 1377 8f3d
000000d0: 11d5 7c3d abac d53d ea1a 10bd c153 66bc
000000e0: de6c debd 6950 fbbc 965a 283c 9932 2cbd
000000f0: 3a5f e6bc eca5 e3bc 0932 be3b ed86 4b3e
00000100: c1d1 a33e 31b5 733e f6d1 613e 9fcb a33e
00000110: 8a33 293e 0bc1 083e ddab 583e 8d32 c43c
00000120: 0bcf 513d eec0 e73b d3ca 64bd 7000 ea3a
00000130: 1d28 d5bb a5a1 283e 2352 b93c 4568 ed3c
00000140: fc65 863c 4138 6a3e 5240 4a3e 4f34 a03d
00000150: 6307 f13d a057 873e 2a80 263e c349 373e
00000160: f80a 8c3e 4c10 4a3e fcd7 1abd 96d0 e5bd
00000170: cfbf cfbd dd45 8a3d a66a c13c 970e 13bb
00000180: c187 033d 3fcc dc3d fb7e b83d 98cb 6d3e
00000190: c0d8 433e 4a75 103e 10d6 9f3c 1896 ad3d
000001a0: 00d1 ca3d 6fea fdbd fe45 01be d208 acbd
000001b0: 6c29 56bc dc3c 44bd 2a1c 743d 4409 6fbd
000001c0: 639a 293d 988b 1a3d 206b 523d 9560 d23d
000001d0: 451f 903c d585 d0bc 2459 a3bb 96ba 36bc
000001e0: 5cf0 02bd c202 dcbc f893 4fbb 8578 c03b
000001f0: 97ba e3bc 568e b8bc 0244 1b3d f594 133e
00000200: 382e 733e 871e 2b3d 7edb 8a3e d74e 5a3e
00000210: c754 f73d 34aa 4d3d de51 eb3d ea5b fd3d
00000220: b10f 883d 896b 0a3d f272 da3d f147 d23d
00000230: 44be ad3d df54 eb3c c110 f13d 2c55 953d
00000240: 64d3 113e 6abe 2e3e 74c2 123e b2ee 7bbd
00000250: a857 bc3c 0931 b03d 7e59 16be f861 07be
00000260: 0262 a2ba 8db5 42bd ff5a c7bd a477 f2bd
00000270: 0845 a4bd 74a4 cdbc df91 f63c 1cd9 4f3e
00000280: a44c be3d c863 cf3d fcb7 56bd 0512 973c
00000290: a81b 083e 8a5b d7bd 4395 a53c e8fd 073e
000002a0: 76c8 0fbd 4c36 003e 07d6 2e3e 455f 0f3e
000002b0: d93c 26bd dea7 1ebe 633d c33d 70bc ab3d
000002c0: ddd8 6d3d b810 8d3d 14e3 133e f3d5 4d3e
000002d0: 4da2 9d3d dc88 f1bc de11 2cbd ce65 bc3d
000002e0: c511 7cbb ceb3 b0bd c8b9 3a3d dbfd 4c3d
000002f0: eccc b4bd 3ca4 883d c846 623d fce8 c2bc
00000300: 269f 823d aaa7 013e e1c8 9c3d 9d1c e13d
00000310: 1f94 c03d dd75 d83d 4bca 02bd e818 d83d
00000320: 7b7a 053e 62e3 88bd f32d 9c3d cab4 303e
00000330: 5c2b 623d a755 2d3e 80b7 563e 1aab 6d3c
00000340: 485a f03d f73c 0c3e f05b 1d3e 8e98 dc3d
00000350: 4213 8a3d 8780 fd3a 947a b9bd 0a58 1a3c
00000360: 3821 71bd c080 b03d dbbb d73d 34b0 f93b
00000370: 7666 823d a6f5 9b3d 7a1d 0c3e b67b 2b3e
00000380: feb4 813d 7976 84bd 2c85 a1bd 2980 b9bd
00000390: 1769 67bc d345 38bd a1c1 4fbd bd6e f43d
000003a0: 354e ee3d 7cc2 103e 9c0a 90bd 22ff f9bd
000003b0: d1ee 58bd 5bcf 7a3d f53f 56bd e2b2 1cbc
000003c0: c8dc 363d 63a4 013e 1a84 8a3d 02f3 26bd
000003d0: 456f d93c b697 a0bc 37e8 9e3b 618e 01bd
000003e0: 0fd7 b03c f73e a53c 878d 403d 4289 0abc
000003f0: f0b7 093e 9cb8 1a3e 0bb3 583e 7dfe d13d
0.04918774 -0.0063695586 0.028547082 0.08296226 0.20688377 0.0988129 0.16482112 0.24029185
0.17916293 -0.04350106 -0.0146586485 -0.022643097 -0.0119579425 -0.025080211 -0.002222939 0.0076424293
-0.017801799 -0.004568491 0.1002419 0.007306738 0.031044187 0.12166304 0.13123858 -0.012126555
0.13488354 0.15125836 0.052050214 -0.015360163 -0.047404442 -0.048411038 -0.043486804 -0.050739303
-0.046450038 0.066671595 0.10686445 0.033664003 -0.014548282 0.045541737 -0.05127012 -0.06669907
-0.10757757 0.013923663 -0.02126119 -0.004694936 -0.080588736 0.06946104 0.05714728 0.18356778
0.12844245 0.105386235 0.032963406 0.070051335 0.061726633 0.104333244 -0.035181917 -0.014058054
-0.108606085 -0.030677991 0.010275504 -0.04204044 -0.02812158 -0.027789079 0.0058043045 0.19875689
0.31995967 0.23799588 0.2205275 0.31991288 0.16523567 0.1335489 0.2115931 0.023949886
0.051222842 0.0070725596 -0.05585749 0.0017852914 -0.006505026 0.16467912 0.022622174 0.028980384
0.016406052 0.22873022 0.19751099 0.07822477 0.11768987 0.2643404 0.16259828 0.17899232
0.27352118 0.1973278 -0.037803635 -0.11221425 -0.101440065 0.067516066 0.023610424 -0.0022439116
0.032111887 0.10781144 0.090085946 0.23222196 0.19125652 0.14107242 0.019511253 0.08475894
0.09903145 -0.1239823 -0.12624356 -0.0840012 -0.013071399 -0.047909603 0.05959717 -0.058358446
0.041407 0.037730783 0.051371694 0.10272328 0.017593035 -0.025454441 -0.0049849916 -0.011152884
-0.031967506 -0.026856784 -0.003167389 0.005873742 -0.027798934 -0.022528809 0.037906654 0.14412291
0.237481 0.04177716 0.27120584 0.21319138 0.12076717 0.050211146 0.11490224 0.12371047
0.06643618 0.03379396 0.10666455 0.10267628 0.08483556 0.028726993 0.11770774 0.07291636
0.14240795 0.17064825 0.1433199 -0.061506934 0.022991017 0.08603103 -0.14682576 -0.13220966
-0.0012388828 -0.04753642 -0.09734153 -0.11839226 -0.08020979 -0.025102831 0.030098854 0.20297664
0.09291962 0.10126454 -0.052421555 0.01844121 0.132918 -0.105155066 0.020212775 0.13280451
-0.035103284 0.12520713 0.17073832 0.14001186 -0.040585373 -0.15493724 0.09533193 0.08385551
0.058068145 0.068879545 0.14442092 0.20101146 0.07696972 -0.029484205 -0.042009227 0.09199105
-0.003846274 -0.08628045 0.04558733 0.050046783 -0.08828148 0.0667195 0.055243284 -0.023792736
0.063780114 0.12661615 0.07655502 0.10991786 0.09403252 0.10569356 -0.031931203 0.105516255
0.13035004 -0.06683995 0.076259516 0.17256466 0.055217132 0.16927205 0.20968437 0.014506126
0.1173597 0.13695131 0.15367103 0.10771285 0.067419544 0.0019340672 -0.09056583 0.009420404
-0.05886957 0.08618307 0.105338775 0.007619882 0.06367199 0.07615213 0.1368312 0.1674641
0.0633335 -0.06467909 -0.07886729 -0.09057648 -0.014124176 -0.044988465 -0.05072177 0.11935184
0.116360106 0.1413669 -0.070332736 -0.12206866 -0.052962128 0.061232906 -0.052307088 -0.009564133
0.044644147 0.12660365 0.067634776 -0.040759094 0.026542315 -0.019603591 0.0048494595 -0.031629924
0.021586923 0.020171626 0.04700997 -0.008455576 0.13449073 0.15109485 0.2116205 0.10253618

conv_0.bias f4 [64]
00000000: c501 af3d 7a81 b03c d0a9 963c fb96 053d
00000010: 620d 933d 8c13 b23d 99a5 21bc 589c 5e3d
00000020: 2443 663d 6df2 e43d 5b28 a43c 1402 a43d
00000030: 3906 343c 9b8d 723d de63 8d3d 5881 503c
00000040: d1b8 713d 2570 663c b68b 8d3c 978d 343d
00000050: 6a2a 2bbd 981d 8a3c f553 513c f128 823d
00000060: c7e7 953c 3151 663c 87c4 5b3d 2e16 c1bd
00000070: 97a7 bc3d 097b bc3d 0aaa 553d 0bf0 e33b
00000080: 69d3 503c 0997 a13d bbc1 67bd 72a2 07bd
00000090: 2781 09bd 04be ed3d 9889 c2bb fea6 e43b
000000a0: a88c 4fbd 8873 a9bc 695f 5f3d 065b b83b
000000b0: 63e3 a13d 05b3 7abb 6665 093d 6ac4 9dbb
000000c0: 65b0 473d 3cf1 b5bc 8ada 6e3d ee53 c23b
000000d0: 4d0f 193c 8fe5 fb38 0262 02bd 33ac a3bd
000000e0: 726b c43b a967 c4bc bace b03d 6fa3 093d
000000f0: ccd4 3c3d 48be 893c ad7e 0c3e 7591 033d
0.085452594 0.021546114 0.01839152 0.03261469 0.07180287 0.086951345 -0.009866142 0.05434832
0.056216374 0.111790515 0.020038774 0.08008209 0.010987812 0.059217077 0.06903814 0.01272615
0.059014145 0.014064823 0.017278533 0.044080343 -0.041788496 0.016859815 0.012776365 0.06355465
0.018298997 0.0140574435 0.05365422 -0.094280586 0.09211653 0.092031546 0.052164115 0.0069561056
0.012745717 0.07890136 -0.05658124 -0.033113904 -0.033570435 0.11608508 -0.0059368126 0.006977915
-0.05067125 -0.020684972 0.05453435 0.005626085 0.07904699 -0.0038253677 0.033543967 -0.004814674
0.048752207 -0.022209756 0.058313884 0.0059304154 0.009342027 0.00012011371 -0.03183175 -0.07991829
0.005994254 -0.02397521 0.0863318 0.033603128 0.046101376 0.016814366 0.13720198 0.03212114

conv_1.weight f4 [64, 64, 3, 3]
00000000: 2499 d23b f5ec f03c a895 ba3c 00fa e5bd
00000010: fe89 2fbd 57b7 ba3c ca5b 323d 9399 1a3d
00000020: 8529 983c 2b07 e6bc e530 fbbc 55bb 1abd
00000030: e06a c6ba c87f 1ebd b45f 453c 097a 853c
00000040: 33e8 e2bc d24c 85bd 024a 743c 4702 9f3d
00000050: 647f 69bc 2b05 20bd 4348 d7bc 7c52 04bd
00000060: 906b 01bd c464 493d e614 58bc 15e4 10bb
00000070: 3cf8 bbbc e137 28bd 6669 b53c 59fc ea3c
00000080: 7f37 0a3d 8c0a 6fbd 7f56 453c de34 363d
00000090: 2df1 b339 e4e8 92bc 91bd 14bc 72c1 e93b
000000a0: 2dbb cfbc 7b4e 23bc 973e 3c3c 85b9 4fb7
000000b0: 950b 95bc 04aa b33d 0662 4d3d 7d0d 42bc
000000c0: 1f34 503b 3c25 70bd 45e5 be3b ae6e 0dbd
000000d0: 9098 90bc 90c9 a73d b45f 5d3d fa01 a93d
000000e0: 3da1 09bd 62c9 40bd 768b 1dbd bc1d 563d
000000f0: 81db 02bd 7646 9a3d 2e72 aebb 5cb9 b43d
00000100: b359 703d 40eb 9d3d 8762 58bc e797 4abd
00000110: e0b7 9a3d bae8 fabb 99c0 0a3d 724b a33d
00000120: ff9e b33c 9ca2 4c3d 7763 073d 87dc a13c
00000130: db22 eb3c 41c2 1cbd c8c3 54bc a772 f6bd
00000140: 01f2 013d b832 883d caf7 fe3c 8528 163c
00000150: 5180 76bd 0d18 a6bd 81ee c53c 21f9 4dbb
00000160: dbc5 903d fee2 9a3c 53c0 08bd 2e52 593d
00000170: 75d7 9c3c 43ee 78bb 4dd5 903c 6ea1 cfbc
00000180: de85 183d 66d4 6b3c 44b2 433d be1f 293c
00000190: 1add 733d 4649 e03d b580 f9bc 7f48 7b3d
000001a0: 6f9e 703a 1927 c3bd 6ed1 583c 846e c23c
000001b0: 6683 8b3d c585 8cbc 3ac9 5a3d 0e8a 363b
000001c0: 1865 36bd b7f2 11bd d729 d53c f134 223c
000001d0: fdc0 393d 18ba 343d 49af 83bc 91b4 8cbd
000001e0: bfce 383d cbe1 a9bd a34e 66bd 2ded d4bc
000001f0: b9d3 9a3b a803 1fbd 36d7 4c3d f610 d83d
00000200: 2883 7d3c b993 be3b 13a5 36bc b959 2e3c
00000210: 77f9 52bd 0a2b 0abd a927 3e3d 0f75 533c
00000220: 2923 2cbc e481 70bc da76 72bc b118 fdbc
00000230: dfe0 673d 163e 123c c480 8a3c 5aeb 213d
00000240: e7c7 493d aaa4 683d 3854 6d3d 4d59 4d3c
00000250: 578f 90bc c3bd e83d 9874 d7bd 7d43 86bd
00000260: c4bb 08bd 6790 7d3d e79d 12bd d52f 863c
00000270: eabc 9fbd a05b 27bd ee8d 61bd 8c0b 7a3b
00000280: dbe7 9e3d 3bf7 2e3b f274 b1bd 5d99 aabc
00000290: 38df 9c3c 7f63 53bd 926e 01bd e932 b03c
000002a0: aa90 163c 7b4c 76bd b531 5b3d 32f2 a6bc
000002b0: 4e07 cf3c 0025 ba3d 9166 b7bc a3ba 74bd
000002c0: de7b 123d 78dc 3fbd f996 003d 3273 edbb
000002d0: 5ec2 78bc 260a 90bb 7c23 63bd c3a8 86bc
000002e0: 1ff1 fb3c 070b 6dbd 99b3 2d3d 7d75 76bd
000002f0: 406c 2fbd 1eb4 6b3c e1d1 c23c b4bd c8ba
00000300: 00d6 c8bc 769f 8b3c 13cd ecbc 6f05 54bd
00000310: 83de 573d 2318 c7bc 1f2f a1bb 2072 10bc
00000320: 8d50 d13c 18ed 20bd 17a5 ab3c b714 2d3d
00000330: e2d9 a23c 0d80 373d 36a9 09ba 9f85 483d
00000340: 1c9b 843c 6e9e 6f3a e4d1 b23c 70d2 aebd
00000350: 7045 603d 306c 7abd 29c7 873c d15e 953d
00000360: 5d15 103b e57e 7dbc 1f5f 3fbd 2c08 17bc
00000370: 1820 29bd d513 9cbb 4940 e8bc 692c e83c
00000380: e964 0c3d d399 65bd 7285 3dbd 7664 303d
00000390: 3022 ba3d eb6d 07bd b73b 3bbc 8016 60bc
000003a0: 12c9 ad3c 4c6f 2fbc a3ef 64bd 5f14 4ebd
000003b0: c8bc f93c 4440 153d 7bff aa3c 7789 a4bb
000003c0: 7aaf 6e3c fa28 b43a b187 20bc 304c 4d3b
000003d0: 80d2 97bc 5630 a13c ccdd 943c ba3b 433c
000003e0: 6324 38bc ca03 f73c 2997 973a fe49 023d
000003f0: 44ff c53c 5ec6 403d 8e40 10bc ad09 cbbc
0.006426947 0.029409865 0.02277644 -0.11229324 -0.04285621 0.022792501 0.043544568 0.037744116
0.018574486 -0.02807959 -0.030662963 -0.03777631 -0.0015138052 -0.03869608 0.012046743 0.016293542
-0.027698612 -0.06508793 0.014910223 0.07764106 -0.014251564 -0.03906743 -0.026279574 -0.032305226
-0.03159672 0.049168363 -0.013188576 -0.0022108604 -0.022945516 -0.041068915 0.022144984 0.028684782
0.03374433 -0.058359668 0.012044548 0.04448401 0.0003432123 -0.017933317 -0.009078399 0.007133656
-0.025357807 -0.009967442 0.011489532 -1.2381356e-05 -0.018194 0.08772662 0.05014231 -0.011844036
0.0031769348 -0.05862926 0.005825671 -0.03452938 -0.017650872 0.08192742 0.054046348 0.0825233
-0.033601034 -0.047067054 -0.03846308 0.05227445 -0.031947616 0.075329706 -0.00532367 0.08824417
0.058679294 0.07710886 -0.0132070845 -0.04946127 0.075546026 -0.0076571377 0.03387508 0.079733744
0.021926401 0.049959764 0.03305384 0.019758476 0.028703144 -0.038271192 -0.012986131 -0.12033587
0.031724934 0.06650299 0.031124014 0.009164934 -0.060180966 -0.08110056 0.02416158 -0.003142901
0.07068988 0.018907066 -0.03338654 0.05305689 0.019145707 -0.0037983812 0.017679835 -0.02534553
0.03723704 0.014393901 0.04777743 0.010322509 0.05953703 0.10951476 -0.03045688 0.061348435
0.0009178882 -0.09528942 0.013233526 0.023734339 0.06812172 -0.01715363 0.05341456 0.0027853283
-0.044530004 -0.03563186 0.026020927 0.0099003175 0.045350064 0.044122785 -0.016074793 -0.06870378
0.045119043 -0.0829502 -0.056227338 -0.025992 0.0047249463 -0.038821846 0.05000993 0.1055011
0.015473165 0.0058159498 -0.011147755 0.010641509 -0.05150744 -0.03373245 0.04642454 0.012906327
-0.01050643 -0.014679406 -0.014798844 -0.030895563 0.05661094 0.008925935 0.016907103 0.03953109
0.049262907 0.05679766 0.057941645 0.012533498 -0.017646475 0.11364319 -0.10520285 -0.06555841
-0.033382192 0.06190529 -0.03579512 0.01638023 -0.077997044 -0.040858865 -0.055066995 0.0038153855
0.07759067 0.0026697654 -0.08664884 -0.020825082 0.019149408 -0.05160856 -0.03159959 0.02150865
0.009189764 -0.06013153 0.0535142 -0.02037916 0.025272038 0.090890884 -0.022387775 -0.059748303
0.03576266 -0.046841115 0.03139398 -0.0072463984 -0.0151830595 -0.004395741 -0.055453762 -0.016437894
0.030754624 -0.057871845 0.042407606 -0.06017064 -0.042827845 0.014386205 0.023781719 -0.0015315325
-0.024516106 0.01704381 -0.02890638 -0.051762994 0.052702438 -0.024303501 -0.0049189474 -0.008816272
0.025551105 -0.03928861 0.020952744 0.042256083 0.019879285 0.044799853 -0.00052513496 0.048955556
0.016187243 0.00091407343 0.0218286 -0.085362315 0.05475372 -0.061138332 0.01657446 0.072934754
0.002198539 -0.015472149 -0.046721574 -0.009218257 -0.041290373 -0.0047631063 -0.028350966 0.028341489
0.034275923 -0.0560549 -0.04626984 0.043064557 0.09088552 -0.03306381 -0.011427811 -0.013677239
0.021214042 -0.010707688 -0.055892598 -0.050312396 0.030485526 0.03643824 0.020873776 -0.00502127
0.014568204 0.0013745122 -0.009797976 0.003132593 -0.018532991 0.019676369 0.018172167 0.011916095
-0.011239144 0.030153174 0.0011565435 0.031808846 0.024169572 0.047064178 -0.008804454 -0.024784887

conv_1.bias f4 [64]
00000000: d18e cdbc ad55 823c 0aaa d4bd 4f28 343b
00000010: 2354 d53c d276 6cbb e7e6 12bb 0a92 243d
00000020: c386 87bb df72 8f3d 4226 893d cf68 f33c
00000030: d45c c8bb be2c 413c 6700 a63d 2f45 9e3c
00000040: fd24 0c3b d168 bf3c a488 eb3c 1225 113d
00000050: 161a cd3c 38bd 96bc 3503 3d3d 60dc 163c
00000060: c9d1 803c 9748 a0bb 01f6 40bc 682d 80bc
00000070: d82c 643d e299 c7ba a5ab 4ebc ed85 1ebd
00000080: b89f 293d ef65 8c3c 9db7 61bd c249 b93b
00000090: 6564 43bc b0ca 413d eb72 813d 4cb5 ccbc
000000a0: c29a e53c 2fd4 043c ecb3 8d3c ea7a 4bbd
000000b0: fcdc c13c 5916 523c 7101 373c 127d a03c
000000c0: d8f0 303d ddde 2d3d e34e 2e3d c693 b4bc
000000d0: b1bf 5dbd a8e6 4ebc a51a 033a 8255 c9bc
000000e0: 77a4 b8bc 0dc6 d1ba c016 c4bc e5c2 d73c
000000f0: e598 46bd acf9 273d 59a7 343d f3b2 b63b
-0.025092514 0.015909994 -0.10383995 0.0027489846 0.026041096 -0.0036081565 -0.002241546 0.040178336
-0.004135938 0.07004332 0.0669675 0.029713063 -0.0061145816 0.0117904525 0.081055455 0.019320099
0.0021384351 0.02336541 0.028751679 0.035435744 0.025036853 -0.018400773 0.046145637 0.009207815
0.015725033 -0.004891466 -0.011777402 -0.015646651 0.05570683 -0.0015228356 -0.012614165 -0.03870194
0.041412085 0.01713845 -0.055106748 0.0056545446 -0.011925791 0.04731244 0.06320747 -0.024988793
0.028027896 0.008107229 0.017297707 -0.049677767 0.023664944 0.012822711 0.011169777 0.019590888
0.043198436 0.042448867 0.0425557 -0.02204312 -0.05413789 -0.012628235 0.0005001224 -0.024576906
-0.02253936 -0.0016004458 -0.02393663 0.02633805 -0.048485655 0.04100959 0.044104908 0.0055755316

fc.weight f4 [10, 1600]
00000000: 6ba1 ab3b 7a32 56bd e11c 3ebc 1b6f 39bd
00000010: e2c2 81bd bcd7 55bd c6be 803c 5279 39bd
00000020: 98a3 9cbc 23f8 5ebc 08a8 79bd fbc5 eb3c
00000030: bfa6 113c a976 dabc 49b5 fa3b 4e13 c6bc
00000040: 4a55 973c 08c1 49bc df08 00bd 9330 613d
00000050: 51dc 3c3d afb7 2fbd 871f d53c 61e1 e1bb
00000060: a792 393d b2f7 a73b 546c afbd 4004 91bd
00000070: f493 bcbb 0d60 31bd 426d 18bc 48b8 c73c
00000080: ad69 33bd 49ce 943a 5cf1 143d 67ea 3abb
00000090: 7a45 35bb 6457 3cba ce75 ed3b 299d af3b
000000a0: 4747 6fbd aa02 0ebd 22ed abbc 4053 90bd
000000b0: c6c5 c1bc afe5 efbc 250a 003d 92ad cd3c
000000c0: 95c8 993b 9adc fa3c 6401 193d dbda a63a
000000d0: 3b23 90bc 38a9 86bc e0d8 633d 576f a7bd
000000e0: c030 bbbc c7e1 f63c 39f1 6c3d bd7d c33d
000000f0: 8f2a b8bc 4d0e c13a 64fc 023d 9679 3c3d
00000100: 4c98 0b3e 4ed9 4f3c 0079 9c3c 3f89 f0bc
00000110: 9452 a73b 0f8c dcbc 5412 debc 168c f53c
00000120: 1147 46bd 8163 96bc 69c1 38bc cec4 c4bc
00000130: 86d2 fc3c 7dac d3bb 95e5 203d bec2 643c
00000140: 1021 99bc 65c4 243d c010 d03d b246 26bd
00000150: 0f47 89bc fb76 82bd d373 383d 3d71 323b
00000160: de46 733d 26cb 513c c0eb 973d 4764 06bc
00000170: 5ab6 8cbd 8345 d338 61f7 393d 071a debb
00000180: 6d68 cb3c 1bce abbb d22a b2bd 0a29 d1bb
00000190: a204 8abd 1b9d 6cbd 468c 34bd 0b05 41bb
000001a0: 5d85 2b3d 48ac e7bc 3a39 52bd 9499 ccbc
000001b0: a1f6 073c 1411 613a ea3a e33c 45a8 c73c
000001c0: 01e5 23bc da40 bb3b 1249 393a c858 203d
000001d0: 3a39 1a3d 0681 2e3d e5e2 b7bc 513f b0bd
000001e0: 8d7e 683a 3af7 13bd b3c6 b53c 14a3 e43c
000001f0: 97c1 54bc c607 b13c f23e 35bc 482a 9cbd
00000200: 1323 11bd b959 c5bb c4e7 af3a 16d7 00bd
00000210: 0f71 3bbc 245f 3dbc b82c 2abd dd85 d03c
00000220: db6e ef3c e796 a33d 1b05 62bd 45b1 0c3d
00000230: c896 3c3d 8286 283d 8871 8abc 2946 9e3c
00000240: 9446 073c d73b 4dbc 7abb acbc 54f2 3b3d
00000250: 9ad1 553c 7e17 84bc 9376 44bb 109d 0abd
00000260: 04ed 46bd 16a9 673c ceaa d63c 2f3f 54bd
00000270: 4ec4 3ebd d9b5 cd3d ba7c bbbc 3c3c 15bc
00000280: fea2 ea3c 7da9 d23b b2dd 1ebd d114 6abc
00000290: 4daf 133d 1f75 9e3c 9d45 973d 12af b0bb
000002a0: 2831 7b3c 58a7 dfbb e05c efbc a599 3f3c
000002b0: 50e4 4f3d 98d3 13bb a6b8 89bc b903 dcbb
000002c0: d599 fe3c cee0 9e3c 72a8 92bc 88f7 1bbd
000002d0: 0834 47bd 7e6f 8bbd 2a07 03bd 677c 553c
000002e0: 9bed 123d ec67 40bc 4823 11bc f8a0 3dbd
000002f0: b19c 6f3c f17f cc3b 364c bdbc 9e2f f0bc
00000300: d4da 94bd dbe3 00bc 6b39 02bd 83a6 87bd
00000310: 6fb9 313a 73c0 5ebd 6ccc 0bba 6f14 a1bd
00000320: 5cce 813d 9ad8 273d 9613 4e3c 6eb2 bf3c
00000330: 2eae 8aba 0829 723c f525 1ebc f50a 6f3c
00000340: 549f 33bc bc72 48bc 3574 ab3c 90dd 6f3c
00000350: 0934 24bd 8d56 5dbd 382b 48bd a252 f9bc
00000360: da89 993c de10 abbc 1c64 94bd 5b5d d3bc
00000370: 219d a63b a3f1 ce3c 2b7e 3f3d 7d6a 98bc
00000380: 5fc7 5d3d 33aa 0abd 7cf2 fa3c 02bf 613c
00000390: 1a8b 2dbd 147d f33b 5690 063c 8a1b 823d
000003a0: dd64 063c a746 18bc fd3f 2ebd b9d2 f6bc
000003b0: 17da 23bd f129 7cbb 382b a2bd e08b 80bd
000003c0: ce87 753b 7592 f9bc 1bd8 34bb 19e6 19bc
000003d0: e47d 7bbc 043e 7f3c 389b 58bd c098 023d
000003e0: 18c7 28bc 154c a2bc 2327 693d ba7a 033c
000003f0: 7c3b e33a 4adb 473d 4f20 86bd 1c33 0dbc
0.0052377484 -0.052294232 -0.011603565 -0.045271974 -0.06335999 -0.052207693 0.015715968 -0.045281716
-0.019120976 -0.013608965 -0.060951263 0.028780928 0.008889853 -0.02666791 0.0076510054 -0.024179127
0.018473286 -0.012314089 -0.03125846 0.054977965 0.046108548 -0.042899784 0.02601601 -0.0068933223
0.045305874 0.005125963 -0.08565584 -0.07080889 -0.005754942 -0.04330449 -0.009303393 0.024379864
-0.043801952 0.0011352982 0.03636299 -0.0028521062 -0.002765982 -0.0007184653 0.0072467094 0.005359311
-0.058417585 -0.03467051 -0.020987097 -0.07047129 -0.023653876 -0.029284326 0.031259675 0.025107179
0.0046931007 0.03062277 0.03735484 0.0012730019 -0.017594924 -0.016438112 0.05562675 -0.08175533
-0.022850394 0.030136956 0.057847235 0.09545467 -0.022481231 0.0014728993 0.03197898 0.04601439
0.13632315 0.012686087 0.019100666 -0.029362319 0.0051062796 -0.026922254 -0.027108349 0.029974025
-0.048407618 -0.018357994 -0.011276581 -0.024019625 0.030862104 -0.006459771 0.039281446 0.013962446
-0.018692523 0.04022636 0.10159445 -0.040594764 -0.016757516 -0.0637035 0.045032334 0.002722814
0.059393756 0.012804782 0.074180126 -0.008202619 -0.06870718 0.000100742116 0.045401935 -0.006778005
0.024830068 -0.0052430755 -0.086995736 -0.006383066 -0.06739165 -0.057767015 -0.044079088 -0.0029452469
0.041875232 -0.028280392 -0.051324107 -0.024975576 0.008298547 0.00085856137 0.027738053 0.02437223
-0.010003329 0.005714518 0.0007068078 0.03914717 0.03765223 0.042603515 -0.022447059 -0.08605827
0.0008868955 -0.036124445 0.022189474 0.027909793 -0.012985609 0.021610152 -0.011062371 -0.07625252
-0.03543384 -0.0060226587 0.0013420512 -0.031455122 -0.0114405295 -0.011558328 -0.041546553 0.025454456
0.029227665 0.07987767 -0.05518065 0.034348745 0.046042234 0.0411439 -0.016899839 0.019320564
0.008256573 -0.012526474 -0.02108549 0.0458854 0.013050461 -0.016124483 -0.0029977902 -0.033841193
-0.04856588 0.014139434 0.026204493 -0.05181807 -0.04657393 0.1004445 -0.022886623 -0.009108599
0.028642174 0.006428896 -0.038785644 -0.01428719 0.03605585 0.019342957 0.073863246 -0.0053919638
0.015331544 -0.006825369 -0.029219091 0.011694347 0.050754845 -0.002255654 -0.01681168 -0.006714311
0.031079212 0.019394305 -0.017902587 -0.03807786 -0.048633605 -0.06808375 -0.031989254 0.013030148
0.03587113 -0.011743527 -0.008858509 -0.04629609 0.0146247605 0.0062408377 -0.02310763 -0.02931958
-0.07268301 -0.007866825 -0.03179304 -0.066235565 0.0006779646 -0.054382753 -0.00053328904 -0.078652255
0.06338188 0.04097805 0.012577912 0.023400512 -0.0010580474 0.01478029 -0.009652604 0.014590015
-0.01096328 -0.012234386 0.020929435 0.014640227 -0.040088687 -0.05403762 -0.04886934 -0.03043491
0.01874249 -0.020882066 -0.07245657 -0.025801351 0.005084649 0.025261706 0.046751183 -0.018605465
0.054145213 -0.03385372 0.030633204 0.01377845 -0.042368986 0.007430682 0.008213123 0.06352909
0.008202759 -0.009294189 -0.042541493 -0.030129777 -0.04000291 -0.0038477147 -0.079183996 -0.06276679
0.003746498 -0.030465344 -0.002759463 -0.009393238 -0.015349839 0.0155787505 -0.052882403 0.031883955
-0.010301374 -0.01981167 0.05692209 0.008024866 0.0017336453 0.048793115 -0.06549131 -0.008618142

fc.bias f4 [10]
00000000: 5628 17bd a9e0 d73c 48cf bc3c 416d 1bbc
00000010: 0ea1 703c 9493 99bc 5774 b9bc c4df 573d
00000020: 39b3 a13b 846d af3c
-0.0369037 0.026352243 0.023048058 -0.009486497 0.014686836 -0.018747129 -0.022638483 0.052703634
0.004934695 0.021414526
