models/fashion_fcnn_normal_0.100/model.pth (torch, 360455 bytes, 6 tensors)

fc_0.weight f4 [100, 784]
0.006100979 0.004317477 0.018292647 -0.0032965036 0.053653844 0.056434393 -0.021000344 0.04270653
0.08010528 -0.013708453 -0.10803774 -0.045385763 -0.105620556 -0.28264752 -0.2808762 -0.107043654
-0.31605023 -0.18704636 -0.09011056 -0.035941083 -0.05405046 -0.049574282 0.044809222 0.03985452
0.0049821227 -0.02507791 -0.0029035697 0.011613249 0.0035238597 -0.011426194 0.063193426 0.047761627
0.12216208 0.07674311 0.16657978 -0.005859969 -0.12516002 -0.18254855 -0.56407535 -0.19143575
0.04828378 0.14954932 8.895428e-05 0.26001257 -0.35250375 -0.36303586 -0.25469732 -0.085969925
-0.016267858 0.0767324 0.15204528 0.08667087 0.0067605833 0.010545959 -0.044680502 0.024268568
-0.020640621 -0.039181072 -0.01569378 0.07238772 0.1765482 0.119333476 0.038799297 -0.08166621
-0.04786368 0.012096238 -0.016170124 -0.19474342 0.09663272 0.05435936 0.027001126 0.25518447
-0.25873417 -0.059632294 -0.08142888 -0.09143725 -0.22022425 -0.118642785 0.0215184 0.07621857
0.032661956 -0.043016106 -0.0019495545 -0.013207747 -0.052636728 -0.09647481 -0.056304127 0.10594963
0.15688105 0.057120472 0.098494925 0.10798672 -0.020270243 -0.07777063 0.06573944 -0.040113054
0.15913664 0.18354285 0.15683115 0.12384109 -0.120394155 -0.0540676 -0.12587488 -0.12142674
-0.1188558 -0.15776373 0.059857138 -0.023214504 0.08039757 -0.042196337 -0.06616186 -0.0051714
-0.051528286 -0.1066644 -0.037478648 0.1303671 0.21817662 0.053183306 0.12191781 0.25880036
0.11724301 -0.18636985 -0.11886451 -0.027160166 -0.048043855 0.062284835 0.097110905 0.26574406
0.07833263 -0.11082327 -0.30472115 -0.08612959 0.14564939 0.07197008 -0.04170708 0.08103212
0.11199545 0.03176414 -0.08193225 -0.06633926 -0.06408731 -0.11311982 0.11846637 0.060627226
0.13744326 0.13160537 0.3243031 0.06991134 -0.015795464 -0.28584483 -0.12366939 0.02376565
-0.21193829 -0.12593614 -0.02461429 -0.03167678 0.021131067 -0.03423539 -0.015542396 -0.09897856
0.19432153 0.23704854 0.2142188 0.18953855 -0.012383526 0.08797135 -0.11453141 -0.045010284
-0.035051953 -0.03683074 0.056291167 0.031755675 -0.0823682 0.026159203 0.21185935 0.08889504
-0.11186057 -0.070059076 0.09637347 0.10115063 0.06973082 0.05382364 -0.066206105 -0.019945323
0.05153071 0.159284 0.12079323 -0.0743287 -0.0056956243 0.32032302 0.041767877 0.098320045
-0.03398478 -0.045687333 -0.08475268 -0.03379445 -0.0528084 -0.038248476 0.01737721 0.053426594
-0.096043296 0.008859283 0.092722446 0.16097713 -0.051788032 -0.21803394 -0.1468556 -0.119487256
-0.07830346 -0.025344199 -0.12045808 -0.15044516 0.023402793 0.008685317 -0.19367725 0.0026400324
-0.0017518332 0.31171513 -0.19732699 -0.059338935 -0.117092006 -0.121691726 0.04368576 0.020273987
-0.04463639 -0.068918675 0.07076617 0.032816116 -0.020218411 0.19074805 0.23288885 0.29167175
-0.046557143 -0.039829172 -0.086748384 -0.138169 -0.07163193 0.069496706 -0.08374153 0.030711502
-0.07363615 -0.019877775 -0.09204754 -0.13486812 0.016593985 0.060868062 -0.06470241 -0.17117566
0.019145582 -0.13968119 -0.0207304 -0.017301088 -0.07047149 -0.12031481 0.057224173 -0.03001658
00000000: b9ea c73b 9f79 8d3b 76da 953c 270a 58bb
00000010: 22c4 5b3d c027 673d ea08 acbc 0bed 2e3d
00000020: 3d0e a43d 6b99 60bc e442 ddbd 6ce6 39bd
00000030: 974f d8bd 2db7 90be 01cf 8fbe b439 dbbd
00000040: 56d1 a1be 1589 3fbe e38b b8bd f536 13bd
00000050: 0464 5dbd 670e 4bbd e089 373d 7e3e 233d
00000060: 1341 a33b 3070 cdbc d149 3ebb 7f45 3e3c
00000070: 8ef0 663b ee34 3bbc 8e6b 813d b2a1 433d
00000080: 1d30 fa3d 7e2b 9d3d e493 2a3e fc04 c0bb
00000090: f329 00be 02ee 3abe 3e67 10bf bc07 44be
000000a0: 37c5 453d 7523 193e f78c ba38 5e20 853e
000000b0: 5f7b b4be d6df b9be b067 82be 0011 b0bd
000000c0: 2c44 85bc e025 9d3d c2b1 1b3e 7f80 b13d
000000d0: e287 dd3b f5c8 2c3c e702 37bd e0ce c63c
000000e0: 8516 a9bc 557c 20bd 3e90 80bc 0340 943d
000000f0: 0dc9 343e 1c65 f43d 03ec 1e3d 9d40 a7bd
00000100: b50c 44bd 4d2f 463c 3577 84bc d26a 47be
00000110: 60e7 c53d eca7 5e3d 7731 dd3c 8aa7 823e
00000120: ce78 84be fe40 74bd 2fc4 a6bd 7443 bbbd
00000130: 7782 61be fdfa f2bd 5b47 b03c 7b18 9c3d
00000140: 8bc8 053d a831 30bd 3288 ffba 4e65 58bc
00000150: 9c99 57bd 9694 c5bd 289f 66bd 1ffc d83d
00000160: 6da5 203e 28f7 693d b5b7 c93d 2428 dd3d
00000170: c80d a6bc 3546 9fbd 66a2 863d 964d 24bd
00000180: b7f4 223e a8f2 3b3e 5898 203e 66a0 fd3d
00000190: 3691 f6bd fd75 5dbd 58e5 00be 95ae f8bd
000001a0: ab6a f3bd d18c 21be c22c 753d 582c bebc
000001b0: 7ba7 a43d 11d6 2cbd df7f 87bd d974 a9bb
000001c0: 530f 53bd dd72 dabd 3683 19bd f47e 053e
000001d0: b169 5f3e bdd6 593d 0bb0 f93d 7b81 843e
000001e0: 1a1d f03d bdd7 3ebe 3c6f f3bd ff7e debc
000001f0: a2c9 44bd 621e 7f3d 15e2 c63d 9b0f 883e
00000200: dc6c a03d 50f7 e2bd 6904 9cbe b664 b0bd
00000210: 1d25 153e 0d65 933d 0bd5 2abd 2bf4 a53d
00000220: df5d e53d 1d1b 023d 18cc a7bd e1dc 87bd
00000230: 3540 83bd 5dab e7bd 7f9e f23d 4154 783d
00000240: edbd 0c3e 8fc3 063e 0e0b a63e ad2d 8f3d
00000250: 7d65 81bc 415a 92be 6146 fdbd 2eb0 c23c
00000260: 5a06 59be 67f5 00be e8a3 c9bc 83bf 01bd
00000270: 0f1b ad3c 693a 0cbd 89a5 7ebc 45b5 cabd
00000280: 39fc 463e dabc 723e 2c5c 5b3e 6516 423e
00000290: 46e4 4abc 532a b43d 728f eabd b45c 38bd
000002a0: a392 0fbd d4db 16bd 9191 663d 3d12 023d
000002b0: a9b0 a8bd d34b d63c a8f1 583e 9a0e b63d
000002c0: 2817 e5bd 227b 8fbd 745f c53d 1028 cf3d
000002d0: 08cf 8e3d 2d76 5c3d 1197 87bd 6064 a3bc
000002e0: de11 533d 581b 233e 7162 f73d a539 98bd
000002f0: 5ca2 babb 6101 a43e cb14 2b3d 055c c93d
00000300: a033 0bbd a422 3bbd d092 adbd 0d6c 0abd
00000310: 9f4d 58bd 6faa 1cbd a75a 8e3c d8d5 5a3d
00000320: 59b2 c4bd 8726 113c 44e5 bd3d 30d7 243e
00000330: b01f 54bd 4a44 5fbe 5061 16be bcb5 f4bd
00000340: 905d a0bd a39e cfbc bab2 f6bd 4c0e 1abe
00000350: 37b7 bf3c dc4c 0e3c 5453 46be 6504 2d3b
00000360: c59d e5ba 2099 9f3e 1610 4abe 620d 73bd
00000370: efcd efbd 8339 f9bd d7ef 323d a215 a63c
00000380: a6d4 36bd 3c25 8dbd dbed 903d 316a 063d
00000390: 15a1 a5bc 7553 433e 6a7a 6e3e 0056 953e
000003a0: b4b2 3ebd ea23 23bd 23a9 b1bd 2d7c 0dbe
000003b0: c3b3 92bd 4a54 8e3d ae80 abbd b096 fb3c
000003c0: 8dce 96bd b7d6 a2bc 6c83 bcbd de1a 0abe
000003d0: 1cf0 873c ca50 793d b282 84bd ac48 2fbe
000003e0: 32d7 9c3c 9608 0fbe cdd2 a9bc 03bb 8dbc
000003f0: 5b53 90bd 9c67 f6bd e563 6a3d 55e5 f5bc

fc_0.bias f4 [100]
0.2565604 0.20270453 0.63655347 0.15460931 0.37876153 0.31765977 0.06880444 -0.03316715
-0.15639777 0.5212305 0.50312126 0.28546345 -0.12204351 0.45076394 0.18132336 -0.07995167
-0.369739 0.3853602 0.24288222 0.0051285117 0.28537744 -0.2870498 0.43213612 0.08304556
-0.018509692 0.106543094 -0.28690842 0.105315305 0.28483662 0.5112757 -0.07721982 0.0075001563
-0.18091618 0.0032985294 0.16424017 0.01824578 0.5062238 0.34290624 -0.45628956 0.12587649
-0.030186152 -0.27252334 0.27887717 -0.12437584 -0.80604064 0.08237479 0.07649016 0.6343148
-0.007969755 -0.023824194 -0.38600245 0.21132757 0.29522103 0.06135012 -0.24811283 0.23063505
-0.09701468 0.118124165 -0.5632723 -0.5193828 -0.41888696 -0.5854503 -0.79868895 0.08263126
-0.04372423 0.06813082 -0.33493224 0.7032907 0.03657673 -0.53428465 -0.0470942 -1.1377654
-0.19149028 0.7828122 0.09264988 0.25318968 0.37639767 0.51486737 0.6112159 0.6102996
0.26225567 0.013060992 0.041086424 0.082119055 0.33401853 0.061554052 0.10845688 0.18952177
0.1399813 0.28665298 0.6817716 0.07868205 0.79210985 0.74235547 0.061237764 0.35174236
0.39718422 0.06685506 -0.56094414 -0.467564
00000000: e25b 833e c791 4f3e 2bf5 223f e751 1e3e
00000010: 08ed c13e 4da4 a23e 58e9 8c3d 47da 07bd
00000020: bd26 20be 5d6f 053f 8ecc 003f 4428 923e
00000030: f3f1 f9bd 88ca e63e d5ac 393e b3bd a3bd
00000040: 6e4e bdbe ef4d c53e 1eb6 783e 130d a83b
00000050: fe1c 923e 31f8 92be f240 dd3e ca13 aa3d
00000060: a3a1 97bc 4433 da3d a9e5 92be 8daf d73d
00000070: 1bd6 913e f7e2 023f 6d25 9ebd dfc3 f53b
00000080: 1742 39be 242c 583b 932e 283e 2d78 953c
00000090: e297 013f 6891 af3e c99e e9be c4e5 003e
000000a0: f348 f7bc 2e88 8bbe fdc8 8e3e c3b8 febd
000000b0: ae58 4ebf 1db4 a83d dfa6 9c3d 7462 223f
000000c0: 9393 02bc f52a c3bc 1da2 c5be 4166 583e
000000d0: 3627 973e 434a 7b3d 4a11 7ebe 982b 6c3e
000000e0: a2af c6bd 15eb f13d 9d32 10bf 45f6 04bf
000000f0: 5a78 d6be 12e0 15bf e176 4cbf 943a a93d
00000100: 2e18 33bd 2c88 8b3d 3d7c abbe dc0a 343f
00000110: 7bd1 153d e1c6 08bf d9e5 40bd 4ca2 91bf
00000120: 0716 44be 6166 483f 38bf bd3d 14a2 813e
00000130: 32b7 c03e 59ce 033f a578 1c3f 983c 1c3f
00000140: 6046 863e c5fd 553c 3d4a 283d 092e a83d
00000150: 7a04 ab3e 1a20 7c3d a41e de3d ff11 423e
00000160: 4257 0f3e 2ec4 923e 9588 2e3f 0e24 a13d
00000170: b6c7 4a3f 020b 3e3f 73d4 7a3d 9317 b43e
00000180: bb5b cb3e 4eeb 883d 099a 0fbf 8c64 efbe

fc_1.weight f4 [100, 100]
-0.037390128 -0.12752819 0.0059338333 0.21052356 -0.42332217 0.15012011 0.20693426 0.17202525
0.14002132 -0.017039128 0.031090217 -0.19056536 0.0045863437 0.13548419 -0.110798955 0.21187638
0.33048257 0.1494528 -0.04790415 0.00603549 -0.565957 -0.08929967 0.16951068 0.020680126
-0.011663761 -0.1390907 0.42506957 -0.24186558 -0.08006848 -0.40838262 -0.07409663 0.0063609374
0.121640034 -0.016773319 -0.03526878 0.00565504 0.17576243 -0.08541493 0.08425983 0.0078097424
0.016039148 0.18896306 0.00083762413 0.0071173036 0.32381126 0.15581778 0.061925128 0.10144808
0.020332558 -0.033948615 -0.20683758 0.008267885 -0.09653075 -0.118732385 -0.17513959 -0.0035269582
0.03632116 -0.08830762 0.045660827 0.035584282 0.06396146 0.26052728 0.009733727 -0.07941793
0.047412004 -0.01595555 -0.14154164 0.008712039 -0.37086114 0.23712464 -0.017368894 -0.013435361
-0.10851726 -0.1666937 -0.11647649 -0.006712991 0.41896787 -0.077633716 0.020811116 0.0913155
-0.21072192 -0.016916716 -0.012507646 0.018452568 -0.07987728 0.03975513 -0.04143669 0.361915
-0.21288401 0.03269061 -0.35266215 -0.32289124 0.12655932 0.17767172 -0.044717528 0.12707318
0.0027111717 0.1968937 -0.22221433 0.118855976 -0.25028515 0.09715883 -0.18205498 0.08100658
-0.26186994 -0.011851598 0.09891191 -0.039257783 0.25952187 -0.010701041 -0.09231041 -0.27654225
0.18454887 -0.3000108 0.049901392 -0.4404566 -0.1440102 0.004486825 0.15828073 -0.0019394532
-0.053525146 0.0139093725 -0.09775955 0.0037610487 0.002204362 -0.065631025 -0.024427706 -0.03434249
0.18321976 0.20488219 0.25429726 -0.0031938525 0.14766614 -0.004301794 -0.0177354 -0.007979283
-0.18749893 -0.25096336 0.16231427 -0.014829076 -0.09719768 0.01882695 -0.13269384 -0.110500254
0.09810849 0.15649465 -0.061299436 -0.023629699 0.005211835 0.18706195 -0.19024207 0.05108807
0.20747094 0.25053215 -0.30135602 -0.045181025 0.05102207 0.07456587 0.28336322 -0.1890243
-0.059518125 -0.27032596 0.020586537 0.2720511 -0.028189039 -0.10685285 0.40507954 0.06470194
-0.044244673 -0.19783981 0.33091867 -0.4352218 0.20913896 0.18468428 0.18518427 0.056094453
-0.00627756 -0.141862 0.117131904 0.06352979 -0.030350383 -0.010161335 -0.05386223 0.008541735
-0.0148239285 -0.28964245 0.07543001 -0.32010904 0.068355404 -0.13902166 0.28564024 -0.08003877
0.050377235 -0.07351519 0.019332789 -0.11895429 0.0875903 -0.038966484 0.11422527 0.16984338
0.19176452 0.11582066 -0.038119856 0.0945856 0.18046044 -0.18423434 -0.23255593 0.03529607
-0.248854 0.123304166 -0.112475716 -0.36007333 0.08445882 0.031690884 -0.18949398 0.06945287
0.3387883 0.09091222 -0.12571211 0.0077769537 0.04172336 -0.021092877 0.097586 0.022923425
-0.00759691 -0.0359051 -0.10690557 0.17896958 -0.09347474 -0.0015245168 0.075777516 0.008790237
0.26895356 -0.0025523955 0.28692475 0.018639334 -0.24551393 -0.13393722 -0.07147962 0.05430933
-0.05076735 0.19831513 -0.044297844 0.18364495 0.23486681 0.23416777 0.08400465 0.20341915
0.009705224 0.0007897012 -0.18312748 0.021522395 -0.35745046 0.12523441 -0.23063107 0.041421473
00000000: 6426 19bd c096 02be 9a70 c23b 7d93 573e
00000010: afbd d8be 16b9 193e 93e6 533e 6327 303e
00000020: c061 0f3e a495 8bbc e9b0 fe3c 9123 43be
00000030: 0a49 963b 5ebc 0a3e 90ea e2bd 1ff6 583e
00000040: 0335 a93e 280a 193e 2437 44bd 5cc5 c53b
00000050: 8fe2 10bf bfe2 b6bd 3594 2d3e 5e69 a93c
00000060: 5c19 3fbc cb6d 0ebe b8a2 d93e 9cab 77be
00000070: f1fa a3bd 8717 d1be f9bf 97bd 696f d03b
00000080: 691e f93d 3368 89bc ff75 10bd ea4d b93b
00000090: 11fb 333e 06ee aebd 6b90 ac3d dee8 ff3b
000000a0: 8864 833c 887f 413e 0194 5b3a 4538 e93b
000000b0: 97ca a53e b28e 1f3e 34a5 7d3d 03c4 cf3d
000000c0: 7790 a63c b40d 0bbd 3bcd 53be 0676 073c
000000d0: eab1 c5bd f729 f3bd cb57 33be 8a24 67bb
000000e0: 7fc5 143d a0da b4bd d906 3b3d d3c0 113d
000000f0: 3afe 823d d563 853e 367a 1f3c dea5 a2bd
00000100: 1733 423d 37b5 82bc 4bf0 10be f1bc 0e3c
00000110: 83e1 bdbe cdd0 723e 3649 8ebc fd1f 5cbc
00000120: 4c3e debd c1b1 2abe 3a8b eebd a6f8 dbbb
00000130: f582 d63e 6dfe 9ebd 137c aa3c 9f03 bb3d
00000140: 7dc7 57be ed94 8abc dfec 4cbc d729 973c
00000150: b396 a3bd 46d6 223d 85b9 29bd ec4c b93e
00000160: 44fe 59be 97e6 053d 2290 b4be 0052 a5be
00000170: c498 013e 93ef 353e ba29 37bd 791f 023e
00000180: eaad 313b 819e 493e 278c 63be c36a f33d
00000190: 6025 80be 35fb c63d 9f6c 3abe c7e6 a53d
000001a0: d113 86be 342d 42bc 5492 ca3d c5cc 20bd
000001b0: 0de0 843e 6b53 2fbc 3e0d bdbd f296 8dbe
000001c0: 61fa 3c3e 049b 99be 6765 4c3d 8783 e1be
000001d0: 6977 13be 3706 933b 5814 223e 4035 feba
000001e0: 2f3d 5bbd 23e4 633c 2936 c8bd ed7b 763b
000001f0: 0f77 103b 8f69 86bd 9d1c c8bc b6aa 0cbd
00000200: f69d 3b3e a3cc 513e 4033 823e f44f 51bb
00000210: cb35 173e 10f6 8cbb d449 91bc 8abb 02bc
00000220: b8ff 3fbe 457e 80be b635 263e a7f5 72bc
00000230: 940f c7bd fa3a 9a3c e5e0 07be f54d e2bd
00000240: 1bed c83d 2240 203e 1e15 7bbd 1293 c1bc
00000250: 0ac8 aa3b 2b8d 3f3e d1ce 42be b941 513d
00000260: 4373 543e c045 803e 564b 9abe bd0f 39bd
00000270: 85fc 503d feb5 983d fc14 913e 968f 41be
00000280: 47c9 73bd 2a68 8abe 19a5 a83c 484a 8b3e
00000290: b3ec e6bc abd5 dabd 9666 cf3e 7382 843d
000002a0: e739 35bd 8596 4abe 2c6e a93e 64d5 debe
000002b0: 8628 563e e01d 3d3e f2a0 3d3e 4cc3 653d
000002c0: fdb3 cdbb 4644 11be dae2 ef3d e81b 823d
000002d0: 5ea1 f8bc ba7b 26bc a49e 5cbd a2f2 0b3c
000002e0: 10e0 72bc 044c 94be 0d7b 9a3d 55e5 a3be
000002f0: ebfd 8b3d b25b 0ebe 703f 923e 5eeb a3bd
00000300: 5c58 4e3d 228f 96bd cc5f 9e3c 4f9e f3bd
00000310: 8b62 b33d 529b 1fbd f0ee e93d 6ceb 2d3e
00000320: eb5d 443e 6233 ed3d 9123 1cbd 18b6 c13d
00000330: 9fca 383e eda7 3cbe 2423 6ebe 9d92 103d
00000340: 95d3 7ebe e586 fc3d ab59 e6bd 885b b8be
00000350: bff8 ac3d 4dce 013d b60a 42be 4e3d 8e3d
00000360: a975 ad3e 3030 ba3d adba 00be d1d5 fe3b
00000370: 1de6 2a3d f8ca acbc 2bdb c73d e8c9 bb3c
00000380: 80ef f8bb 3a11 13bd 4ff1 dabd cd43 373e
00000390: af6f bfbd 4cd2 c7ba 3e31 9b3d ed04 103c
000003a0: 48b4 893e 1746 27bb cde7 923e 84b1 983c
000003b0: 0168 7bbe d726 09be e863 92bd 7673 5e3d
000003c0: 6df1 4fbd 1f13 4b3e a871 35bd 6c0d 3c3e
000003d0: ed80 703e adc9 6f3e a10a ac3d 1c4d 503e
000003e0: a902 1f3c f303 4f3a c585 3bbe bc4f b03c
000003f0: bf03 b7be 733d 003e 8d2a 6cbe 90a9 293d

fc_1.bias f4 [100]
0.04628931 -0.2702493 0.13497797 0.013799569 -0.097320065 0.0011473881 -0.13493654 0.05178851
0.10003624 0.007938091 0.046248544 0.13749303 -0.26689056 0.31982523 0.26562423 0.18832175
0.20226178 0.1491156 0.2843283 0.18948983 -0.021191346 0.23301753 0.2196491 0.13747628
0.092584915 0.21875745 0.23158532 0.008621289 0.031737935 0.16355485 0.29978618 -0.00016183541
0.07732888 0.001986429 0.41233638 0.035018686 0.10349301 0.22243914 -0.0978988 0.013931867
-0.20949037 -0.027216077 -0.11445564 0.14071906 -0.15610217 0.5005542 0.24349084 -0.074656196
-0.2812407 0.5634121 -0.2296805 0.44832292 -0.042378504 0.027670978 0.0019888128 -0.0379921
-0.1306971 0.16490196 0.37406695 0.28380036 -0.13150553 -0.03406341 -0.125776 0.1640263
0.0008713527 0.07907425 -0.0675606 0.02639145 0.07539928 0.105970025 0.3261795 -0.18751983
0.087823346 0.00966735 0.24774724 -0.099158294 0.07968236 0.27783924 0.30042732 0.04571699
0.2754804 0.23192462 0.020978691 0.4069377 0.013070116 -0.018018488 0.5202414 -0.033378985
0.2171471 -0.17944156 0.08427702 0.21883908 0.53028953 0.24958633 -0.083648235 0.025342956
-0.049753666 -0.13649891 0.30722076 -0.08083727
00000000: dc99 3d3d 1e5e 8abe aa37 0a3e 9617 623c
00000010: be4f c7bd f563 963a ce2c 0abe 3020 543d
00000020: cddf cc3d c40e 023c 1d6f 3d3d f9ca 0c3e
00000030: e1a5 88be 22c0 a33e e6ff 873e 6bd7 403e
00000040: b61d 4f3e c3b1 183e 7b93 913e 9f09 423e
00000050: 7999 adbc 269c 6e3e b2eb 603e 95c6 0c3e
00000060: 299d bd3d f401 603e b424 6d3e 4f40 0d3c
00000070: a3ff 013d ec7a 273e 937d 993e 5db2 29b9
00000080: 9b5e 9e3d c02e 023b c11d d33e c16f 0f3d
00000090: 25f4 d33d 16c7 633e 2b7f c8bd 7c42 643c
000000a0: a584 56be 40f4 debc b867 eabd a818 103e
000000b0: 3fd9 1fbe 5224 003f aa55 793e 59e5 98bd
000000c0: c8fe 8fbe c63b 103f 5d31 6bbe 958a e53e
000000d0: 1595 2dbd 3fae e23c be56 023b 9b9d 1bbd
000000e0: 76d5 05be 0fdc 283e b485 bf3e 484e 913e
000000f0: 63a9 06be 1386 0bbd 6ccb 00be 83f6 273e
00000100: 7d6b 643a aef1 a13d 365d 8abd e232 d83c
00000110: f06a 9a3d d006 d93d 0001 a73e 3305 40be
00000120: badc b33d ce63 1e3c 74b1 7d3e 8113 cbbd
00000130: 8130 a33d f240 8e3e 9cd1 993e bd41 3b3d
00000140: c40b 8d3e a67d 6d3e 81db ab3c 235a d03e
00000150: 0a24 563c 829b 93bc 8a2e 053f 67b8 08bd
00000160: cf5b 5e3e 87bf 37be 6e99 ac3d 5a17 603e
00000170: 0ec1 073f 8f93 7f3e c44f abbd 089c cf3c
00000180: 80ca 4bbd 5fc6 0bbe 0a4c 9d3e 038e a5bd

fc_2.weight f4 [10, 100]
0.8949074 -0.35686514 0.47772312 -0.0773558 -0.30218726 0.038410306 -0.2661955 0.2066921
-1.0845371 0.102073 -0.24620885 -0.5983005 0.63124067 0.5717908 -0.82265073 0.91773695
-0.27042052 0.58947605 0.6583575 -0.913626 -0.18444252 0.027071979 0.0686452 0.059415553
0.77538705 0.24831882 0.75642574 0.73658997 -0.11196578 -0.13338852 0.7121782 0.56901866
0.14838833 -0.21074136 0.1862579 -0.73243225 -0.0017070412 0.38469854 0.5272874 0.47404847
0.96989614 -0.4611607 -0.5219099 0.10463804 0.22397016 0.083205745 -0.4846045 0.84917086
0.72415286 -0.28517944 0.5131511 -0.990663 0.34448558 0.22429533 0.5593608 -0.55940706
-0.11097923 0.2172701 0.77072203 -0.06550867 0.5245376 -0.65602547 0.33624786 -0.17182833
0.025727715 -0.3639418 -0.88859785 0.31590164 -0.0025034412 -0.45788187 -0.86551064 -0.96359175
1.3885173 0.69474393 -0.733536 0.51175696 -0.2958827 -0.37922636 -1.271082 -0.14358194
-1.0008684 -0.6050125 0.38647622 0.6746708 0.47592193 0.7064074 -0.48461947 -0.17158023
0.47491455 -0.76662797 0.7090102 0.35095796 0.5899129 0.12267515 -0.553475 0.5459398
0.79003197 -0.036938854 -0.70972914 0.30098492 -0.16487956 0.34677225 0.40127587 0.40346065
0.57436407 -0.039357882 -0.16319701 -0.0031137222 0.43046436 0.018200826 -0.00090195006 -0.023959523
0.010770184 -0.22329812 0.28161153 -0.19639768 0.35331315 -0.2972491 -0.06057892 -0.31637228
0.53784513 -0.59721255 -0.31219023 -0.04101153 0.29504085 0.2958411 -0.3946995 0.20479378
0.046435487 -0.3106145 0.15397443 0.1962044 -0.84428793 0.12028535 -0.07784141 -0.13759142
-0.12940311 0.05356666 -0.18636446 0.114770964 0.13739522 -0.07327892 0.049589697 -0.24581246
0.08216312 -0.13766904 0.4232141 -0.10513166 0.17005584 -0.23289424 0.21445209 -0.24474761
-0.02873572 -0.060088515 -0.46259227 -0.049118724 0.93068075 -0.3098102 -0.13146545 0.016354635
-0.2807869 0.53563476 0.0140149845 0.22738555 0.25628495 -0.18895094 -0.15525225 0.08714911
-0.0040481845 -0.06814915 -0.27893576 0.65213203 -0.24015433 0.17445299 -0.07127675 -0.03762483
0.14539567 -0.1848315 -0.44720626 -0.148146 -0.21843307 -0.41932824 0.24606757 -0.095502764
-0.049696244 -0.014103212 0.10958263 -0.054138247 0.122000486 0.054494128 0.00500918 -0.2393876
-0.45444012 -0.13231021 0.20257136 1.3621953 -0.022359794 -0.20741475 -0.17179534 -0.044723693
-0.62576705 -0.34467366 -0.91556823 -1.2489581 0.60383725 -0.1708641 0.42680454 0.010026861
0.76290673 0.5327619 -0.51139176 -0.6064381 -0.76609147 0.8742069 0.63633686 0.21038742
0.1787353 0.426012 0.98334557 -0.6648473 0.3432696 0.20790784 0.69185627 -0.20134574
-0.30952823 -0.73614556 -0.5340125 -0.67710596 -0.45086515 -0.029865688 0.7964426 0.6939331
0.6446993 0.8350926 0.83763605 -0.4301079 0.107683495 -0.49171522 -0.14652708 -0.67665267
0.19344808 0.112134635 -0.2455698 0.054368004 -0.44960302 1.1373729 -1.1439668 0.6539889
0.36241856 -1.0689889 -0.12376088 0.611908 -0.6870106 -0.42429346 0.46927714 -0.18363088
00000000: a718 653f 07b7 b6be 2098 f43e b86c 9ebd
00000010: 4ab8 9abe 2054 1d3d c74a 88be 18a7 533e
00000020: 1dd2 8abf a60b d13d 2c1e 7cbe 392a 19bf
00000030: fd98 213f e260 123f 3d99 52bf cff0 6a3f
00000040: 8f74 8abe e7e7 163f 1e8a 283f 65e3 69bf
00000050: 80de 3cbe 0ec6 dd3c db95 8c3d b95d 733d
00000060: c47f 463f 4a47 7e3e 1ea5 413f 2991 3c3f
00000070: 514e e5bd 0097 08be 4f51 363f 35ab 113f
00000080: 1cf3 173e 95cc 57be 64ba 3e3e ae80 3bbf
00000090: ccbe dfba 35f7 c43e 4ffc 063f 7bb6 f23e
000000a0: 1d4b 783f 411d ecbe e39b 05bf 784c d63d
000000b0: 6f58 653e c667 aa3d 151e f8be 4363 593f
000000c0: 1562 393f 0a03 92be df5d 033f 179c 7dbf
000000d0: 6a60 b03e adad 653e 4532 0f3f 4d35 0fbf
000000e0: 1449 e3bd 0e7c 5e3e 0a4e 453f 6929 86bd
000000f0: 1948 063f 49f1 27bf ae28 ac3e c4f3 2fbe
00000100: eec2 d23c 9456 babe 267b 63bf dcbd a13e
00000110: c610 24bb 7e6f eabe 1b92 5dbf f3ad 76bf
00000120: efba b13f bdda 313f 04c9 3bbf 8102 033f
00000130: f07d 97be f529 c2be d1b2 a2bf 2507 13be
00000140: 751c 80bf 19e2 1abf 36e0 c53e 3ab7 2c3f
00000150: 0aac f33e 1ed7 343f 0b20 f8be bab2 2fbe
00000160: 0028 f33e bb41 44bf b181 353f c3b0 b33e
00000170: 8804 173f 1c3d fb3d 8ab0 0dbf b6c2 0b3f
00000180: 893f 4a3f 324d 17bd cfb0 35bf b21a 9a3e
00000190: 30d6 28be 228c b13e 0874 cd3e 6592 ce3e
000001a0: 8609 133f bb35 21bd 1e1d 27be 970f 4cbb
000001b0: d365 dc3e e619 953c d870 6cba c346 c4bc
000001c0: 6d75 303c 43a8 64be 632f 903e 791c 49be
000001d0: 76e5 b43e 0931 98be 9a21 78bd 8cfb a1be
000001e0: 38b0 093f ece2 18bf 66d7 9fbe b5fb 27bd
000001f0: 980f 973e 7c78 973e 0e16 cabe 76b5 513e
00000200: 2333 3e3d dd08 9fbe 79ab 1d3e cee9 483e
00000210: 4123 58bf 2a58 f63d 516b 9fbd c4e4 0cbe
00000220: 4082 04be b768 5b3d 53d6 3ebe 0a0d eb3d
00000230: 55b1 0c3e 4213 96bd 911e 4b3d 43b6 7bbe
00000240: 2345 a83d 1df9 0cbe 85af d83e 454f d7bd
00000250: 1e23 2e3e d47b 6ebe 5499 5b3e 1e9f 7abe
00000260: 2c67 ebbc 601f 76bd e5d8 ecbe b730 49bd
00000270: 1841 6e3f 719f 9ebe e19e 06be 28fa 853c
00000280: 4dc3 8fbe 5c1f 093f 1b9f 653c c2d7 683e
00000290: c837 833e 5b7c 41be 72fa 1ebe 3c7b b23d
000002a0: a2a6 84bb c891 8bbd abd0 8ebe 20f2 263f
000002b0: 04eb 75be cea3 323e 8bf9 91bd 7e1c 1abd
000002c0: 9ae2 143e 7844 3dbe 38f8 e4be 96b3 17be
000002d0: ebac 5fbe 31b2 d6be 23f9 7b3e f496 c3bd
000002e0: 4a8e 4bbd 2911 67bc dc6c e03d 11c0 5dbd
000002f0: 64db f93d 3c35 5f3d 0c24 a43b 0622 75be
00000300: 60ac e8be 547c 07be de6e 4f3e 6a5c ae3f
00000310: e32b b7bc 8864 54be 1eeb 2fbe 3130 37bd
00000320: 4532 20bf 1179 b0be ae62 6abf dcdd 9fbf
00000330: 1495 1a3f 00f7 2ebe 2086 da3e b447 243c
00000340: db4d 433f 1563 083f 92ea 02bf 873f 1bbf
00000350: 921e 44bf 06cc 5f3f f9e6 223f cd6f 573e
00000360: 6306 373e 3f1e da3e 89bc 7b3f 6f33 2abf
00000370: 08c1 af3e cbe5 543e 7e1d 313f 942d 4ebe
00000380: 7c7a 9ebe 0974 3cbf 0bb5 08bf d156 2dbf
00000390: ccd7 e6be e3a8 f4bc aae3 4b3f 9aa5 313f
000003a0: 030b 253f a1c8 553f 516f 563f 1a37 dcbe
000003b0: 2a89 dc3d 19c2 fbbe 320b 16be 1c39 2dbf
000003c0: 4117 463e d8a6 e53d a676 7bbe fcb0 5e3d
000003d0: 5e32 e6be 6f95 913f 816d 92bf d16b 273f
000003e0: ed8e b93e a1d4 88bf 5876 fdbd 01a6 1c3f
000003f0: eddf 2fbf fe3c d9be 1845 f03e bc09 3cbe

fc_2.bias f4 [10]
-0.11028109 -0.24052916 0.2185562 0.28812262 -0.062373146 -0.1927519 0.1367235 -0.08363766
0.15935937 -0.11647796
00000000: 0ddb e1bd 474d 76be 32cd 5f3e cf84 933e
00000010: fc7a 7fbd c160 45be 3f01 0c3e 394a abbd
00000020: 1a2f 233e ff8b eebd
