bnn/models/fashion_fcnn_normal_1.000/model.pth (torch, 360471 bytes, 6 tensors)

fc_0.weight f4 [100, 784]
00000000: 6067 d5b8 6fcf 20b8 5623 bc36 5e2a d038
00000010: 6337 4d38 4663 beb8 e274 9738 88c2 b438
00000020: dcdb 09b5 f7e9 e238 fa41 cdb8 57d1 1cb8
00000030: 86c4 df37 ac22 21b7 2f90 a137 ce85 d936
00000040: d6b6 9ab8 ede6 18b7 1fac 9938 3b8f 8d37
00000050: ba58 7438 761b 3338 fc66 09b8 005e 7b38
00000060: 582b a6b8 3c04 dbb8 dec6 8638 91f7 deb6
00000070: dc95 5338 ab87 abb7 54af 91b8 9ff4 ffb7
00000080: 297e d738 37fa 60b8 eec6 9f38 d0f6 91b8
00000090: 634e 4b38 8f78 5f38 bcb6 41b6 758b 6eb6
000000a0: dd97 2eb9 501e c0b7 1b4d 86b7 ed42 0a37
000000b0: 524a 2538 a6a9 6d36 2e0e 6f38 b149 1c37
000000c0: 2209 9f35 edad acb8 2ae8 28b6 ad9a 93b8
000000d0: b1d9 fe38 477f aeb7 c44f 3bb7 98e0 eeb7
000000e0: 0456 8538 173e 85b7 50a6 4f38 3571 4338
000000f0: dfe5 55b8 d7ec c737 cef6 2c38 d4a0 0438
00000100: 0841 adb8 55a4 c6b8 d397 f3b6 736f 3eb6
00000110: c428 abb8 4f2f 1ab8 ec9a a637 37ed 8a37
00000120: c494 a0b8 ad89 cfb7 12a3 fd37 cde4 0038
00000130: 0991 5a38 2c31 a638 15d6 91b8 261c 6637
00000140: 5672 fcb8 6c81 bd37 8a69 dfb8 244c 0a38
00000150: 6a28 c437 ca6e 14b9 bf2b 3337 61ea 67b8
00000160: 35a5 0fb8 a9e3 17b8 9834 b138 448c f037
00000170: d32a e437 2c14 6d38 874c 4ab6 1bee c3b8
00000180: 01bf 0f39 8b2a 5636 193e 73b7 cad0 ecb8
00000190: 7be5 44b7 478f 34b6 493b 95b8 d0da 00b9
000001a0: a926 1b38 b6f9 9cb7 beb8 0b38 97b3 3738
000001b0: a444 06b8 a494 a4b7 1a2e f037 0d24 0f38
000001c0: a282 30b8 0d33 7a38 20b0 abb7 8151 15b8
000001d0: dd31 2238 2a1d 3f38 68ce 20b8 f9c8 2739
000001e0: 0fda 35b8 41dc 6537 0e35 9db8 7a2a 87b8
000001f0: 6794 5f38 e6cf bd35 842e a8b8 868c 28b8
00000200: 0695 fcb6 ccc8 a136 4a20 a9b8 fe74 a236
00000210: 6384 09b9 2be8 26b8 0e84 aeb8 b3a5 5338
00000220: 525e edb8 21f0 ddb8 c76a 5bb8 32b8 3eb7
00000230: 93bb 8038 55f7 0938 abf8 a3b8 b0c0 7238
00000240: 17ae 8d37 e21e beb7 bc83 0a38 52e1 8537
00000250: 1734 1cb8 d423 e6b8 fa54 73b8 d084 70b8
00000260: 3fd4 4938 67f8 be37 254c ec37 079c adb7
00000270: 9a0c 1938 bf25 e537 582c 5138 340c a037
00000280: 0a71 d7b8 f7b1 99b7 cda5 f737 14d8 9a37
00000290: b775 0439 06ee 6eb8 2216 6d38 5c17 4638
000002a0: 19d7 2038 4666 aeb5 0b2d 0637 5df9 14b9
000002b0: 5ccf ac38 c625 cfb8 c730 1d36 b616 2eb9
000002c0: d642 53b8 ce9a 0238 3f41 3438 4c84 ca36
000002d0: 91c6 4838 0740 6738 01d0 6fb7 cc16 1e38
000002e0: 4671 2439 72f0 1238 2d7e d3b8 4c99 16b8
000002f0: 011b ccb7 4cf5 8b37 bbd8 3236 2d12 feb7
00000300: b57d 06b8 c4e0 7cb7 20fa 40b8 1898 8438
00000310: 5dc7 6eb7 a436 9d37 2147 85b8 7781 5836
00000320: b3f5 0ab8 31df 4d38 f23b 67b7 4dca 5c37
00000330: 01ca 59b8 9432 4b38 3358 db38 0258 da37
00000340: 6a7d 6238 eda7 6e37 5621 5937 0aa2 9cb6
00000350: a539 9eb8 2f17 ac37 9e0b b2b8 de66 ccb7
00000360: 5cf3 a538 9c9c 8637 640f 1ab8 8a2f 42b7
00000370: 8799 5438 427c 0338 8504 d0b7 ae26 a437
00000380: 53d1 6938 e72a 06b8 06f3 af37 2a13 ecb6
00000390: 3b72 ac37 d508 ea37 ec46 6f38 533c 1339
000003a0: 6352 4638 c83d 3c38 6fa5 2a38 9b02 1238
000003b0: 1fac 89b5 5859 cd38 7d00 acb6 eb96 eeb8
000003c0: 729f c6b7 4ffd d237 c72a 48b8 9223 a1b8
000003d0: c060 5bb8 0e21 e2b7 4467 0738 7714 9938
000003e0: 7b24 2038 7ef4 e337 4f6b a5b8 27dd 3c38
000003f0: af22 2038 55b5 9ab8 fb0d a1b5 fa8a ab38
-0.000101758866 -3.834016e-05 5.6069503e-06 9.9261044e-05 4.892739e-05 -9.078397e-05 7.222012e-05 8.619303e-05
-5.1356415e-07 0.00010820099 -9.787451e-05 -3.738826e-05 2.6675185e-05 -9.6044205e-06 1.9259836e-05 6.482681e-06
-7.377348e-05 -9.113673e-06 7.3276686e-05 1.6875207e-05 5.8256766e-05 4.27025e-05 -3.2759257e-05 5.9930608e-05
-7.92357e-05 -0.000104435225 6.42666e-05 -6.644936e-06 5.0445888e-05 -2.0447964e-05 -6.946796e-05 -3.051228e-05
0.00010275498 -5.3638792e-05 7.618764e-05 -6.960111e-05 4.8471975e-05 5.3279622e-05 -2.8865607e-06 -3.5545938e-06
-0.00016650507 -2.2902299e-05 -1.600995e-05 8.241023e-06 3.940828e-05 3.54145e-06 5.6995246e-05 9.315482e-06
1.1849081e-06 -8.233995e-05 -2.5169088e-06 -7.038317e-05 0.00012152212 -2.0801685e-05 -1.11646405e-05 -2.8476396e-05
6.357956e-05 -1.5883748e-05 4.9507536e-05 4.6597055e-05 -5.099724e-05 2.3832936e-05 4.123785e-05 3.1621035e-05
-8.261396e-05 -9.471985e-05 -7.259639e-06 -2.8377078e-06 -8.1615086e-05 -3.676052e-05 1.9860883e-05 1.6561344e-05
-7.657104e-05 -2.4740433e-05 3.0235886e-05 3.0730665e-05 5.2110325e-05 7.924656e-05 -6.954015e-05 1.3715622e-05
-0.00012037593 2.2590822e-05 -0.00010653127 3.2972675e-05 2.338384e-05 -0.00014155652 1.0679417e-05 -5.5292974e-05
-3.4247718e-05 -3.621323e-05 8.449814e-05 2.8675546e-05 2.719966e-05 5.652399e-05 -3.014489e-06 -9.342675e-05
0.00013708697 3.1913248e-06 -1.4498387e-05 -0.00011292247 -1.17359405e-05 -2.6905489e-06 -7.1159164e-05 -0.00012288545
3.6990885e-05 -1.871293e-05 3.3312237e-05 4.3797856e-05 -3.2012016e-05 -1.961954e-05 2.8631697e-05 3.412743e-05
-4.208333e-05 5.965219e-05 -2.0466803e-05 -3.5600275e-05 3.867025e-05 4.556511e-05 -3.8339203e-05 0.00016001229
-4.3356846e-05 1.37007455e-05 -7.4962256e-05 -6.4452135e-05 5.3305554e-05 1.4142104e-06 -8.0195285e-05 -4.0185194e-05
-7.527534e-06 4.8215497e-06 -8.064562e-05 4.841596e-06 -0.00013114656 -3.9793707e-05 -8.321564e-05 5.046064e-05
-0.00011318609 -0.00010582829 -5.2313113e-05 -1.1367769e-05 6.138454e-05 3.289369e-05 -7.818764e-05 5.787675e-05
1.6889577e-05 -2.2664146e-05 3.302445e-05 1.5959758e-05 -3.724181e-05 -0.00010973928 -5.8014855e-05 -5.734415e-05
4.8119804e-05 2.2765436e-05 2.816885e-05 -2.0695863e-05 3.648978e-05 2.7316504e-05 4.987078e-05 1.9079169e-05
-0.00010273054 -1.8321893e-05 2.9521902e-05 1.845885e-05 0.00012632353 -5.69653e-05 5.6525816e-05 4.7228634e-05
3.8347298e-05 -1.2993776e-06 7.99751e-06 -0.00014207275 8.240223e-05 -9.877565e-05 2.3423215e-06 -0.00016602394
-5.0368566e-05 3.113859e-05 4.297611e-05 6.0354705e-06 4.7868645e-05 5.5134322e-05 -1.429394e-05 3.7691367e-05
0.00015682456 3.5033045e-05 -0.00010084766 -3.5905556e-05 -2.433127e-05 1.6684317e-05 2.665022e-06 -3.0287623e-05
-3.2065163e-05 -1.5072703e-05 -4.6009314e-05 6.32258e-05 -1.4232323e-05 1.8741302e-05 -6.355183e-05 3.2261867e-06
-3.313059e-05 4.9083672e-05 -1.378263e-05 1.3160124e-05 -5.1924962e-05 4.8446076e-05 0.00010459162 2.6028607e-05
5.39994e-05 1.4225004e-05 1.29419695e-05 -4.668026e-06 -7.544764e-05 2.0514794e-05 -8.489865e-05 -2.4366596e-05
7.913142e-05 1.6046972e-05 -3.6730795e-05 -1.157437e-05 5.0687722e-05 3.1348558e-05 -2.4797637e-05 1.9568335e-05
5.5746477e-05 -3.1988046e-05 2.0974792e-05 -7.035579e-06 2.055719e-05 2.7899086e-05 5.704809e-05 0.00014041485
4.7283607e-05 4.488023e-05 4.068523e-05 3.481154e-05 -1.0257389e-06 9.791803e-05 -5.1260563e-06 -0.00011376835
-2.3677687e-05 2.5151907e-05 -4.7723555e-05 -7.683704e-05 -5.2303774e-05 -2.6956692e-05 3.228268e-05 7.2994204e-05
3.8180948e-05 2.717436e-05 -7.887801e-05 4.5028657e-05 3.8179274e-05 -7.377068e-05 -1.1999504e-06 8.179802e-05

fc_0.bias f4 [100]
00000000: 2726 11b8 3a5f f9b7 5c71 bcb8 55a4 7d38
00000010: 073f 7ab8 974b 6837 018e 9a37 2ca9 d3b7
00000020: cf8b a737 3998 5838 4999 0439 e60b 2ab8
00000030: b787 7938 bddb c5b7 c862 3337 a7e0 87b6
00000040: be41 c3b8 d9fd a338 8aa2 8ab8 0a0a 02b8
00000050: a399 c838 a01e 8a38 e247 a6b8 830e fa38
00000060: 636b f137 0a29 8a37 3801 5837 23ce fc37
00000070: 9b01 b535 87ca af38 4ae5 c0b8 8e1a 4136
00000080: 3805 25b7 242b 9b38 1804 d5b7 c43a 01b9
00000090: 5a76 cd37 3291 7338 f955 3ab7 e174 3838
000000a0: cded 3fb8 a9ab 9a38 9c0b 5ab7 515b a8b6
000000b0: 7f24 3038 4d7c 75b8 6efd cdb8 4eb1 8c35
000000c0: 81a5 b937 1639 1137 c462 4e38 6cae 0d37
000000d0: 5d6c 91b8 0879 b4b7 827b 6038 4c48 91b7
000000e0: 088d e2b7 1bb5 a738 67af 83b8 3934 ff37
000000f0: f5a3 9eb8 5fa4 92b7 8c66 1537 6085 d237
00000100: d5a7 b6b6 6a7c 0637 14a7 6b38 308b 2339
00000110: 3ad1 4f37 e0d0 0bb7 0cb6 63b8 5f68 2a38
00000120: 48d1 1438 0c9c 0e38 44c4 0cb8 5cf5 1738
00000130: c3a7 5538 e933 1bb8 78ff b136 eb43 f0b8
00000140: 9f5c 8537 a049 2bb8 17d6 48b8 dd64 9538
00000150: f471 b5b7 dc13 6e37 2ecc 39b8 a61a ef37
00000160: 53f9 0239 27a7 bc38 0f51 4d38 73d5 7638
00000170: c287 25b8 51d8 4eb8 6ba7 2fb7 b3c2 1e38
00000180: 6eda 2db7 01f5 d7b8 2bb9 c138 96fb d9b7
-3.4606226e-05 -2.9727456e-05 -8.9856534e-05 6.0472947e-05 -5.9663344e-05 1.3845877e-05 1.8424356e-05 -2.5231937e-05
1.9973055e-05 5.164018e-05 0.00012645604 -4.054224e-05 5.949262e-05 -2.3586554e-05 1.0692231e-05 -4.0494665e-06
-9.31057e-05 7.8197285e-05 -6.610628e-05 -3.1003765e-05 9.56536e-05 6.586057e-05 -7.928886e-05 0.00011923632
2.8779445e-05 1.6469992e-05 1.2874887e-05 3.013673e-05 1.3486018e-06 8.382374e-05 -9.197982e-05 2.8774698e-06
-9.8359815e-06 7.3990115e-05 -2.5393485e-05 -0.0001232429 2.4493016e-05 5.807094e-05 -1.1106481e-05 4.397787e-05
-4.5759418e-05 7.3752664e-05 -1.2996516e-05 -5.017421e-06 4.199566e-05 -5.8528316e-05 -9.822367e-05 1.0482415e-06
2.2130787e-05 8.655965e-06 4.920621e-05 8.444866e-06 -6.934323e-05 -2.1514032e-05 5.3520787e-05 -1.7319013e-05
-2.7006972e-05 7.996914e-05 -6.279238e-05 3.0422687e-05 -7.5645665e-05 -1.7481098e-05 8.904968e-06 2.5096058e-05
-5.443561e-06 8.01599e-06 5.618397e-05 0.00015596743 1.2386876e-05 -8.333678e-06 -5.4290562e-05 4.062836e-05
3.5480858e-05 3.400077e-05 -3.3561388e-05 3.6229714e-05 5.0939398e-05 -3.7003225e-05 5.3047515e-06 -0.000114567425
1.5897966e-05 -4.0838146e-05 -4.7883103e-05 7.123661e-05 -2.1629945e-05 1.4190529e-05 -4.4297594e-05 2.850343e-05
0.00012490647 8.995673e-05 4.89513e-05 5.884976e-05 -3.94655e-05 -4.9315688e-05 -1.0469793e-05 3.7851463e-05
-1.0362461e-05 -0.000102976344 9.2374474e-05 -2.598557e-05

fc_1.weight f4 [100, 100]
00000000: 06b1 1bb8 4e6d 79b8 2314 b2b7 f682 f137
00000010: f228 1239 2bb5 3ab8 6817 4338 b215 8ab6
00000020: 3911 3db8 dde2 8637 47b8 6237 b40a 3f38
00000030: f177 89b8 d73d 0ab8 3f6b f938 4169 3f38
00000040: e360 2b38 4e25 1cb8 3e52 c537 9036 1f38
00000050: 638f b737 0cf6 f236 9c98 a137 1989 0c39
00000060: 7e09 b9b7 a807 7838 9556 0c38 0b84 aeb8
00000070: 43bf fb32 f1ac 99b7 4198 5538 2b96 1138
00000080: 856b b7b6 1a80 83b8 963e a937 151c 41b8
00000090: a5d1 6138 935f 3f38 26f1 9e38 3e53 df37
000000a0: 25fc 8336 8019 e9b6 fade 75b7 b511 94b8
000000b0: c8f1 2fb8 c500 acb7 bc78 0cb9 f72d f638
000000c0: 2ae0 06b8 ddeb 23b8 c9ed 4f38 8cf3 a5b8
000000d0: eb04 8fb7 4880 2bb8 672e 5038 4685 ba38
000000e0: 26c1 4638 c14b 4a35 ef60 c5b8 512a d637
000000f0: b25d 98b7 6da0 9a37 390f 3eb6 051d 9fb8
00000100: 0f75 bf36 f63f 3a38 ff95 9f36 1623 f937
00000110: edd9 8636 d671 dc37 edff 9034 acf9 3437
00000120: bb3c 48b8 135e 29b7 21f5 57b8 8cbe 8338
00000130: e14f 1ab7 ac1b b5b8 7654 c037 4a66 d536
00000140: 6362 d636 5331 a3b8 c48f f9b3 0131 2f38
00000150: 304e 1238 0373 ae37 e762 0039 3820 76b6
00000160: 8b11 a7b8 389d 4ab8 1f9d a038 fca0 e236
00000170: cac4 8338 1b05 ea37 3fe0 a8b7 ff12 3a38
00000180: 5b05 56b7 8b26 82b8 3f47 83b7 cf7b 0238
00000190: c233 d437 65b8 70b8 8cfa 17b8 9e75 8237
000001a0: d691 c9b8 ce51 6338 6e06 a4b6 2f64 26b8
000001b0: f2e2 7338 2655 19b8 aa91 8338 4e97 e2b6
000001c0: 851b 1db8 2c56 65b8 c7dc 06b7 7341 f637
000001d0: 5608 7c38 9caf 1238 3384 98b8 c25b 31b7
000001e0: 843d 48b8 c345 61b7 9e4e 02b8 7a05 6f37
000001f0: e43b 83b8 a37e b837 0874 9b38 d8cd b737
00000200: 9495 6437 9852 6437 53e1 38b8 0823 03b8
00000210: be10 ad36 5559 97b8 6123 4835 83cd 5f36
00000220: f2a5 9937 9326 9a37 eff2 ebb8 2ba8 45b7
00000230: 628a 98b7 f3fa 3738 c656 d436 f241 2e38
00000240: 54de 04b8 eb4d 77b8 e9d0 ebb7 74f3 2737
00000250: b6c8 8838 51ae f437 95b0 91b8 ef78 a038
00000260: c6ba d836 75de 31b7 214d 3f36 214d 91b8
00000270: 5ae6 43b8 774c 9c34 8df2 0b39 76d8 6e38
00000280: a8ac d537 b0d5 7938 e04f 9538 12cb a3b8
00000290: a8f0 da34 7864 0938 82cd 3c36 12eb 1239
000002a0: f7a0 1736 502a b6b7 842d fcb7 e0c7 08b8
000002b0: e830 2938 4859 a3b6 fb7a 03b9 cecd 1d38
000002c0: ebe2 5039 013f 39b8 0b70 7bb6 d85c 3138
000002d0: 84cb 2838 e978 edb7 5d86 00b9 21be 36b7
000002e0: 2c7b 94b8 ac60 5eb8 5e9b 84b6 e9e2 7e38
000002f0: 681d c635 a29c 12b7 8f25 0db8 6e69 3e38
00000300: c06c 1f38 6474 3fb8 f3be a036 e2f4 01b8
00000310: a763 a5b8 b0b9 ecb6 164c fdb6 3757 9fb8
00000320: c921 6cb8 9b92 0cb7 7186 fb37 bb88 d237
00000330: f7e8 b1b7 6ed2 98b7 9604 cc38 eb8b 2db8
00000340: 6896 31b7 9296 1639 4de9 b5b7 7da4 6638
00000350: 6085 52b8 b92b a0b8 03c8 ddb7 64e9 7838
00000360: 1df8 2438 36f2 a8b8 c9ee 80b6 e5e8 f5b6
00000370: e99a b7b7 0fb2 ce37 4778 5f37 4dd4 8a38
00000380: 82d9 6bb8 2d55 22b8 a9ab 4437 2815 1138
00000390: 00de fc37 ebbe 9e36 dcd5 42b8 d79c 4db8
000003a0: bb35 9438 8c1f 97b8 a2bf 96b8 a025 2737
000003b0: 669c 0f39 1ef0 9238 dac4 cdb7 54d5 9237
000003c0: 5045 b8b6 43c5 49b8 1947 8236 f2c7 b637
000003d0: 0fce 33b8 6f54 21b7 8b00 1f39 2b30 aeb6
000003e0: b927 30b8 77de 3337 392f 3eb8 1546 09b8
000003f0: ce7c 0bb6 7be6 98b8 a1ce 5138 e976 a838
-3.7119746e-05 -5.9468024e-05 -2.122863e-05 2.8790422e-05 0.00013938898 -4.451458e-05 4.651342e-05 -4.115246e-06
-4.507715e-05 1.6079686e-05 1.3513555e-05 4.5547917e-05 -6.55501e-05 -3.2959357e-05 0.000118932214 4.5635974e-05
4.085981e-05 -3.722804e-05 2.3522527e-05 3.795937e-05 2.188207e-05 7.2408056e-06 1.926376e-05 0.00013402513
-2.2058139e-05 5.9134938e-05 3.3459237e-05 -8.3215615e-05 2.9307222e-08 -1.8319553e-05 5.0924955e-05 3.471055e-05
-5.466342e-06 -6.2704275e-05 2.0175514e-05 -4.604094e-05 5.3839427e-05 4.562696e-05 7.5789445e-05 2.6622434e-05
3.9334577e-06 -6.9469097e-06 -1.4655054e-05 -7.060488e-05 -4.1948428e-05 -2.0504356e-05 -0.00013396417 0.00011738756
-3.215686e-05 -3.9081893e-05 4.95741e-05 -7.913177e-05 -1.7049219e-05 -4.088905e-05 4.963428e-05 8.893995e-05
4.7386762e-05 7.53611e-07 -9.411747e-05 2.5530493e-05 -1.8163442e-05 1.8432935e-05 -2.8321067e-06 -7.587116e-05
5.705871e-06 4.4405424e-05 4.756031e-06 2.9699451e-05 4.018881e-06 2.6279053e-05 2.70083e-07 1.0786967e-05
-4.7740275e-05 -1.0095088e-05 -5.148829e-05 6.282059e-05 -9.197714e-06 -8.635907e-05 2.2927514e-05 6.3598027e-06
6.3891507e-06 -7.781633e-05 -1.1621117e-07 4.176889e-05 3.488193e-05 2.0795973e-05 0.00012243875 -3.667561e-06
-7.966448e-05 -4.8306974e-05 7.6586606e-05 6.754066e-06 6.2832216e-05 2.7897351e-05 -2.0131583e-05 4.4363547e-05
-1.2756641e-05 -6.206062e-05 -1.5649593e-05 3.110972e-05 2.5296471e-05 -5.739219e-05 -3.6234545e-05 1.5551977e-05
-9.611591e-05 5.4197204e-05 -4.8883294e-06 -3.9670787e-05 5.8147074e-05 -3.6557343e-05 6.273699e-05 -6.752939e-06
-3.7457346e-05 -5.467811e-05 -8.038426e-06 2.9355962e-05 6.0089245e-05 3.497266e-05 -7.272549e-05 -1.0571386e-05
-4.7741007e-05 -1.3427288e-05 -3.1067633e-05 1.4246785e-05 -6.257722e-05 2.199348e-05 7.4125885e-05 2.1911153e-05
1.3624685e-05 1.3609089e-05 -4.4078868e-05 -3.126546e-05 5.157751e-06 -7.2168805e-05 7.455729e-07 3.3349213e-06
1.8316296e-05 1.8376193e-05 -0.00011250923 -1.178127e-05 -1.8184252e-05 4.3864315e-05 6.328194e-06 4.154625e-05
-3.167831e-05 -5.8961956e-05 -2.8111464e-05 1.0010659e-05 6.522371e-05 2.9168239e-05 -6.94703e-05 7.65192e-05
6.459045e-06 -1.0601817e-05 2.8506113e-06 -6.928505e-05 -4.6706155e-05 2.91129e-07 0.0001334643 5.6945217e-05
2.5471978e-05 5.956524e-05 7.1197515e-05 -7.8102705e-05 4.0780765e-07 3.2756914e-05 2.8133804e-06 0.00014011216
2.2594447e-06 -2.1715794e-05 -3.0061936e-05 -3.2611075e-05 4.0338287e-05 -4.8681723e-06 -0.00012538947 3.7623387e-05
0.0001992096 -4.4166114e-05 -3.7467132e-06 4.2286556e-05 4.024386e-05 -2.8308905e-05 -0.00012257085 -1.0892313e-05
-7.0801325e-05 -5.3018957e-05 -3.9519937e-06 6.0769646e-05 1.4760708e-06 -8.738747e-06 -3.3652e-05 4.539772e-05
3.8009835e-05 -4.5646346e-05 4.790601e-06 -3.098406e-05 -7.886375e-05 -7.054965e-06 -7.548845e-06 -7.597956e-05
-5.629825e-05 -8.3787845e-06 2.9984136e-05 2.509762e-05 -2.1208527e-05 -1.8217801e-05 9.728332e-05 -4.1376723e-05
-1.0585041e-05 0.00014361207 -2.168552e-05 5.4989465e-05 -5.0192117e-05 -7.6375385e-05 -2.643839e-05 5.934517e-05
3.933172e-05 -8.0559796e-05 -3.8424955e-06 -7.3286815e-06 -2.1887436e-05 2.4640029e-05 1.331984e-05 6.619897e-05
-5.6230936e-05 -3.8703136e-05 1.1722478e-05 3.4590397e-05 3.0144118e-05 4.7309927e-06 -4.6452376e-05 -4.9021877e-05
7.067198e-05 -7.206117e-05 -7.188252e-05 9.962736e-06 0.00013695806 7.006548e-05 -2.452957e-05 1.7503895e-05
-5.4916964e-06 -4.810585e-05 3.8825788e-06 2.1789197e-05 -4.2868833e-05 -9.6160065e-06 0.00015163624 -5.1912116e-06
-4.1998665e-05 1.0721028e-05 -4.534351e-05 -3.2728614e-05 -2.078526e-06 -7.290855e-05 5.002192e-05 8.033013e-05

fc_1.bias f4 [100]
00000000: 235c 48b8 d3c7 93b8 98f6 3638 d696 56b8
00000010: d3d8 9538 125c 1439 1ff8 2f38 966d 4eb7
00000020: 5400 01b2 8fc5 2138 6467 9e38 2d39 3db8
00000030: 3309 96b8 5b73 29b8 b36e 5338 fd30 1bb8
00000040: 0324 3a38 fe53 46b8 8a49 a038 b682 c237
00000050: 6b5f 6138 8f3b 9b37 310e a3b8 2be3 9038
00000060: a578 fb37 b6d0 8937 a413 04b8 84b2 c0b7
00000070: 82b9 1538 4423 b038 c42a 6a38 ef7e 0237
00000080: 10fb 9837 7839 1439 53df 5338 1156 7638
00000090: ed99 e8b8 4056 2037 91b6 0938 da5a 9f38
000000a0: 6d9d aeb6 dc1a 3238 0b43 9538 c2e8 95b8
000000b0: 0a99 e8b7 d640 b5b8 d91a b338 e9b6 73b9
000000c0: e9bf be38 5f14 9538 129a 99b7 c061 a035
000000d0: 4915 0a38 22e3 aab5 376a 48b8 bc7e 4737
000000e0: 4b20 4cb8 9750 c038 3f0a 19b8 8c1e 48b7
000000f0: e986 4bb8 f634 9cb8 54e2 eab8 11f0 92b8
00000100: d146 bdb8 013f e9b7 c8e6 9bb8 e438 8ab7
00000110: ce06 9eb6 9210 cf37 af9d a238 0f00 9438
00000120: 5d13 a438 27fb 8bb6 3a87 e5b6 b1a3 9ab7
00000130: a496 c1b6 67de 95b8 310b 1938 1fa5 9a38
00000140: d1b9 e737 90b2 1337 6401 81b7 2970 a438
00000150: d322 6db8 f095 a8b8 fb74 e137 a06a 3ab8
00000160: d2bf e6b8 e54f 0138 ebde a436 729d c5b8
00000170: e0ae e538 e6b2 ebb7 75aa b3b7 20e0 ab37
00000180: 0b74 8638 9f5a e2b7 b354 88b8 886f 8537
-4.7769525e-05 -7.0467264e-05 4.362184e-05 -5.1162053e-05 7.14526e-05 0.00014148679 4.1954332e-05 -1.2304072e-05
-7.508863e-09 3.8569382e-05 7.553285e-05 -4.511436e-05 -7.154271e-05 -4.0400173e-05 5.0409417e-05 -3.7000504e-05
4.4379394e-05 -4.7285102e-05 7.643092e-05 2.318747e-05 5.3733045e-05 1.8505174e-05 -7.775089e-05 6.9087684e-05
2.9977711e-05 1.6428861e-05 -3.1489544e-05 -2.2971311e-05 3.5697136e-05 8.398903e-05 5.5829776e-05 7.778158e-06
1.8236722e-05 0.00014135789 5.0514307e-05 5.8731126e-05 -0.00011091293 9.556825e-06 3.2833374e-05 7.598633e-05
-5.203931e-06 4.2463522e-05 7.1173614e-05 -7.148228e-05 -2.772782e-05 -8.642829e-05 8.540386e-05 -0.00023242425
9.095652e-05 7.108668e-05 -1.8310766e-05 1.1949378e-06 3.2921587e-05 -1.2732091e-06 -4.7782636e-05 1.1890832e-05
-4.8667465e-05 9.1702845e-05 -3.6487585e-05 -1.1928041e-05 -4.8524616e-05 -7.4485244e-05 -0.000112001464 -7.006538e-05
-9.025413e-05 -2.7805103e-05 -7.433962e-05 -1.6477374e-05 -4.709559e-06 2.4684039e-05 7.754133e-05 7.057201e-05
7.823736e-05 -4.171761e-06 -6.8404743e-06 -1.8434455e-05 -5.769385e-06 -7.146299e-05 3.6488465e-05 7.3740484e-05
2.7623873e-05 8.803458e-06 -1.5378646e-05 7.841021e-05 -5.6537636e-05 -8.038792e-05 2.6876563e-05 -4.4445158e-05
-0.00011002984 3.0830404e-05 4.913532e-06 -9.4230185e-05 0.00010952144 -2.809749e-05 -2.1417838e-05 2.0489155e-05
6.4112326e-05 -2.6983498e-05 -6.500762e-05 1.5906771e-05

fc_2.weight f4 [10, 100]
00000000: 865f 6bb7 512d d436 2911 8737 8055 e3b8
00000010: ac19 dab7 7d6a 26b8 44c5 88b8 58f2 b3b8
00000020: dc39 06b8 e014 6ab8 301e dd38 83ee 7eb8
00000030: 3ea8 0c37 e48f 8737 6ba0 4438 2314 06b9
00000040: b0dd 3038 e242 5138 228d 9b37 0d70 0037
00000050: 1733 8838 8f61 5e38 0401 60b8 a731 1e38
00000060: 52a3 48b8 cc57 4938 4bc0 66b8 d422 3a38
00000070: 019b 0ab8 8023 94b8 53f9 9338 6936 cd38
00000080: df22 2938 38f6 6fb8 cac8 8338 c349 3f38
00000090: 9a22 03b8 e95c d2b7 10b2 b538 fd59 7338
000000a0: 4da2 a337 18af 6737 e343 b6b8 6f89 01b8
000000b0: 77e9 95b8 af12 ccb7 3048 e5b7 0b28 9238
000000c0: c44a 1938 e10e cd37 dbb8 9438 e7d3 ecb6
000000d0: 1965 0f38 843e 40b8 431c 9f38 eee3 59b8
000000e0: 6645 c938 a608 25b8 c2e3 9135 806e 4db8
000000f0: 51e0 aa38 88be 88b7 7c26 b737 c0a4 c536
00000100: e6dc 8135 dafb e238 82ad 21b9 0dff 32b8
00000110: 906f adb8 c97b e437 f211 1f38 6844 4cb8
00000120: 6d02 d336 aff7 20b7 1abe 5e38 8e9e d138
00000130: 5b2b 3db6 0fcf 73b7 0b8b 9437 867e c837
00000140: cebe b8b8 97b9 3938 4292 6fb8 2577 3538
00000150: 357d 51b7 4e53 1239 2df8 efb7 f9c7 6e38
00000160: a73e 5db8 243a 60b7 7e7f 83b8 ca07 c037
00000170: 45b6 4b38 d732 ef35 0eef 1e38 8a69 ab38
00000180: dc91 0236 255d b837 1ed9 73b6 d113 dab7
00000190: ffe4 f837 12a6 65b8 4353 bdb7 ce18 65b8
000001a0: 0f83 fa37 c1bf a837 aeb1 8ab7 c4f7 1737
000001b0: 6bd4 b3b7 9af4 dc38 9c18 3bb8 d751 8638
000001c0: eb96 b138 0a79 ea38 8998 da36 f906 0638
000001d0: b2d2 74b8 716d 1637 8341 2a38 0846 4237
000001e0: 45e2 e338 1287 a738 a938 41b7 1a7b f937
000001f0: 18d8 5bb8 f1d4 a037 b499 2a37 d76a 90b7
00000200: 11f9 e3b4 5c08 6db8 f231 e737 6de5 da37
00000210: c1e1 9c37 5cb2 ddb8 a755 3038 ce7b 19b8
00000220: 601f 5935 5cc8 fb37 d9c9 9138 90a9 90b8
00000230: 5d75 a0b6 f07a 0138 d721 42b8 571b 29b8
00000240: 5ce9 45b7 f771 e735 2252 acb7 17aa 4e38
00000250: e983 94b8 556f 1bb8 6104 31b7 577a 0bb8
00000260: ee48 94b8 7371 a637 db95 f9b4 8aef 3ab8
00000270: fb1b 1db7 de99 83b8 2890 4538 8272 c2b8
00000280: fd49 0bb8 2699 ae38 9a94 e0b8 eb8a feb7
00000290: fa08 1ab8 4560 2d38 d51c 54b8 6cfa db37
000002a0: 3450 89b8 2ff5 e2b7 7d77 34b6 b8a8 9cb7
000002b0: 7ee5 a638 5e9b a437 8945 20b8 ce72 3338
000002c0: 8739 22b8 3279 d038 d66c 14b8 c76b 0639
000002d0: 37e3 93b8 ec60 abb5 a4de 98b8 2f57 77b8
000002e0: ae1c ab37 9645 ba38 1de4 4838 aab6 c938
000002f0: a840 5838 b9ac c735 b8b4 1637 88ff a3b7
00000300: 6493 e438 fc9c e4b7 cdf3 eab7 9db1 08b8
00000310: 9812 6e38 7b52 82b8 a626 7b38 3aa7 bf38
00000320: 7843 8236 e029 18b8 48f7 93b8 67ea 98b7
00000330: 9492 1c38 cdc4 b536 2d14 3437 a86e b3b7
00000340: 701e 37b8 2077 a3b8 95e3 87b8 721d c4b7
00000350: d03b f7b3 b436 29b8 185a 37b8 34a8 62b7
00000360: afff 84b7 3cfd b537 106c afb8 87d7 96b7
00000370: 9a6e 96b8 6810 8e37 0431 b936 c91b 8738
00000380: 02cc 4338 2f9f 5438 2fb0 58b8 6ede 0b38
00000390: 75c6 5b37 31d1 e537 a246 3838 806e 31b8
000003a0: c520 51b6 640f 90b8 ca6e 4e38 460e eeb8
000003b0: f53d fbb8 e37a bd37 eb00 0038 c701 5537
000003c0: 3cd9 6a38 f528 70b7 0599 2cb8 c017 ceb7
000003d0: c60e 32b8 145d 80b8 110a 59b5 ecfb 3838
000003e0: 212b f837 a614 c2b8 81f8 dab7 3a87 bfb8
000003f0: 50ef ba36 1ba2 23b8 287a fd37 41c0 f8b7
-1.4029332e-05 6.323368e-06 1.6101245e-05 -0.00010840129 -2.599958e-05 -3.967666e-05 -6.521729e-05 -8.580525e-05
-3.2001975e-05 -5.580939e-05 0.00010543724 -6.078045e-05 8.383822e-06 1.6160258e-05 4.6879442e-05 -0.00012786737
4.2168132e-05 4.9891773e-05 1.854316e-05 7.655483e-06 6.4945016e-05 5.3019783e-05 -5.3406708e-05 3.7716378e-05
-4.783582e-05 4.80039e-05 -5.501536e-05 4.4378292e-05 -3.3046123e-05 -7.063802e-05 7.0559465e-05 9.7852964e-05
4.0325216e-05 -5.721135e-05 6.283967e-05 4.5606645e-05 -3.126506e-05 -2.5077215e-05 8.663919e-05 5.8019523e-05
1.9506691e-05 1.380944e-05 -8.691081e-05 -3.088399e-05 -7.14836e-05 -2.4327395e-05 -2.7332542e-05 6.969281e-05
3.6547674e-05 2.4444833e-05 7.091622e-05 -7.0580168e-06 3.418801e-05 -4.583459e-05 7.586975e-05 -5.1949108e-05
9.597353e-05 -3.934712e-05 1.0869628e-06 -4.897872e-05 8.148014e-05 -1.6301186e-05 2.183322e-05 5.890237e-06
9.675539e-07 0.00010823431 -0.00015418793 -4.267604e-05 -8.270063e-05 2.723736e-05 3.7925267e-05 -4.87011e-05
6.2885724e-06 -9.5944115e-06 5.310597e-05 9.99543e-05 -2.818843e-06 -1.4532138e-05 1.7707722e-05 2.3900775e-05
-8.809344e-05 4.428028e-05 -5.7118254e-05 4.3264725e-05 -1.2486523e-05 0.00013954678 -2.8606586e-05 5.692986e-05
-5.2748856e-05 -1.3364977e-05 -6.270314e-05 2.289181e-05 4.8568723e-05 1.7821684e-06 3.7892773e-05 8.1735736e-05
1.945641e-06 2.1977883e-05 -3.63362e-06 -2.5996853e-05 2.9670538e-05 -5.475252e-05 -2.2569327e-05 -5.4620956e-05
2.9863351e-05 2.0116453e-05 -1.653362e-05 9.057989e-06 -2.1437378e-05 0.00010535978 -4.4607194e-05 6.404862e-05
8.468128e-05 0.00011180535 6.5146637e-06 3.1954583e-05 -5.837036e-05 8.966178e-06 4.059217e-05 1.15796065e-05
0.000108663495 7.988339e-05 -1.1516889e-05 2.9740437e-05 -5.241492e-05 1.9172645e-05 1.0168576e-05 -1.7215889e-05
-4.2463265e-07 -5.651299e-05 2.7560603e-05 2.609446e-05 1.8701774e-05 -0.00010571323 4.204144e-05 -3.6593345e-05
8.0884456e-07 3.0014831e-05 6.951736e-05 -6.8980386e-05 -4.7820345e-06 3.087049e-05 -4.628472e-05 -4.0318202e-05
-1.1796448e-05 1.7244009e-06 -2.0542244e-05 4.9272636e-05 -7.08176e-05 -3.7058566e-05 -1.0551042e-05 -3.325412e-05
-7.070774e-05 1.9841571e-05 -4.6488898e-07 -4.4568944e-05 -9.364444e-06 -6.275227e-05 4.7102716e-05 -9.2719696e-05
-3.320909e-05 8.325493e-05 -0.000107088315 -3.0343848e-05 -3.672482e-05 4.1336072e-05 -5.057159e-05 2.6223446e-05
-6.547608e-05 -2.7055472e-05 -2.6891641e-06 -1.8675215e-05 7.958243e-05 1.9622672e-05 -3.8211732e-05 4.2783846e-05
-3.8677386e-05 9.940787e-05 -3.538731e-05 0.00012819386 -7.051828e-05 -1.2768701e-06 -7.289395e-05 -5.8970585e-05
2.0398144e-05 8.8821325e-05 4.7896163e-05 9.618451e-05 5.155863e-05 1.4876924e-06 8.982774e-06 -1.9550105e-05
0.00010899341 -2.725282e-05 -2.8008502e-05 -3.2590342e-05 5.676094e-05 -6.214246e-05 5.9879058e-05 9.138738e-05
3.8821563e-06 -3.6278623e-05 -7.055566e-05 -1.8228964e-05 3.732981e-05 5.417131e-06 1.0733534e-05 -2.1389991e-05
-4.3658947e-05 -7.7946344e-05 -6.479692e-05 -2.3378732e-05 -1.15127136e-07 -4.0343686e-05 -4.3714506e-05 -1.3509813e-05
-1.5854688e-05 2.1694803e-05 -8.3647785e-05 -1.7981756e-05 -7.1731585e-05 1.6935359e-05 5.519136e-06 6.442477e-05
4.668162e-05 5.069299e-05 -5.1662497e-05 3.3347336e-05 1.3099624e-05 2.739634e-05 4.39348e-05 -4.2303e-05
-3.1162501e-06 -6.869322e-05 4.9217408e-05 -0.00011351383 -0.00011980153 2.258778e-05 3.0518433e-05 1.2696203e-05
5.5992263e-05 -1.4314651e-05 -4.1150506e-05 -2.4568173e-05 -4.2452266e-05 -6.120853e-05 -8.085345e-07 4.410364e-05
2.9583987e-05 -9.254487e-05 -2.6103344e-05 -9.1327776e-05 5.5710916e-06 -3.90132e-05 3.0216834e-05 -2.9653429e-05

fc_2.bias f4 [10]
00000000: 2a07 3937 e3c0 b437 1296 c837 62e4 b5b8
00000010: 125f 8ab8 eb34 b7b7 0747 9c37 49fc 46b8
00000020: d715 3339 6261 84b7
1.1028527e-05 2.1547492e-05 2.391174e-05 -8.673292e-05 -6.598061e-05 -2.1839942e-05 1.8629724e-05 -4.7441838e-05
0.00017078906 -1.5780974e-05
