notebooks/models/cnn_laplace_0.01/model.pth (torch, 216215 bytes, 6 tensors)

conv_0.weight f4 [64, 1, 3, 3]
00000000: b36b b83d e7f6 c33d ce7e a1bd 566c e93d
00000010: 2184 e53c 8a64 eebd 75b9 0e3e cadf 983d
00000020: 436e 1bbe 7999 283d 153a 9c3d 1dbc 8ebc
00000030: fd0d 303e b320 403e 3952 863e 40c9 cc3d
00000040: 1051 983e 874b a73d 4654 dcbd c67c 3a37
00000050: 84e5 8c3e 85d7 d1bd 9776 e23c e83d b83d
00000060: f705 4dbd c2a6 a83d 15b0 213e 3e65 95bd
00000070: 26d7 5ebd a74f a63d c28a 1b3d d74b e6bc
00000080: e6ca 5cbc 590d 1c3d db70 8e3d 6a96 71bd
00000090: 6ac0 9bb8 4911 2e3d c0bc 91bc 23f3 bcbc
000000a0: cb6e 90bd dfea ecbd 7852 b2bd bd69 1cbd
000000b0: 30a8 1fbe 31a4 86bc d00d 7b3d 27b7 f13b
000000c0: d060 19bd f83f efb5 9543 c63b c03d 05bd
000000d0: a03b d9bd 8e52 acbb 7cb0 81bb fe94 9f3c
000000e0: 42f0 e7bd 0f0c 11be c835 7dbd 293f 3ebe
000000f0: 0bea c2bd ceb6 953c 21a6 083d a798 e43d
00000100: 2b77 2bbe 4bef 2839 c253 ccbd a3af 473d
00000110: bef0 cbbc f44e a4bb 2be2 92bc 03bb dbbd
00000120: d63b df3d e376 df3d 223d 1a3e 32c7 533d
00000130: 7ea2 7b3d 4479 0abe 2a6f 6a3d c967 543d
00000140: 839e 85ba 2171 003d 1d67 de3d 07ca 623e
00000150: 8108 013c 07bd 47b7 5c55 a53b 6065 80be
00000160: ad88 73bd 2f4b 32bd 3b79 373e 9e1f ac3d
00000170: 4e58 1e3d c243 053e 5150 213e c09e 043e
00000180: 1af2 af3d ed23 bf3d bc75 f73d 993e c23d
00000190: 6885 f23d 8b86 753d 654c 8bb7 b87b 6c3d
000001a0: aa73 2f3e 62fc 13be 7fb6 993d 0dbe a93d
000001b0: c4f9 513e 1d29 213e e911 443e 1398 6a3e
000001c0: 1610 0a3d 9cc3 fa3d 4628 11bd a174 c83c
000001d0: 1c10 ae3c b365 cbbc 137f 31be 2895 04bd
000001e0: 25ee 72bc 9eab 88bd a114 67bd 06d1 913c
000001f0: b0e2 513d 35c3 2bbc 7fd7 ce3b dc35 40b8
00000200: 3ff8 a2bd 488d 963b 7a88 d03c efb6 a5bd
00000210: 6126 823c fb03 5abd 670a b0bd 48a2 2dbc
00000220: ad25 4b3b 7c0d 0c3d 1a88 a13c fe02 513d
00000230: 0f45 b53d 0372 433e a0c4 c23d ad64 6e3d
00000240: 7394 b1bd b679 2f3c d743 7b3d a52a f1bd
00000250: 8001 4e3d bdaf ed3d 81f4 93bd e152 043d
00000260: 1ebe 1f3b 8aa9 06bc 296a 45bd 0e98 abbd
00000270: ce6d 913c 159e c8bc e8bf 873d 1b59 5b3d
00000280: 6103 08bb d8fe 1dbd 80e7 1636 ff0b bc3a
00000290: 617f 323d 17ed e3bb d285 c4bc 8a16 7b3d
000002a0: 58c8 94bc 241c 7cbd 66ed 8cb8 fba8 72bd
000002b0: 23bc 8e3c fdd3 273d 7028 89be f76e 153e
000002c0: 8d7b 8e3d 4f07 d6b8 8afb c63b 4d2a fe3c
000002d0: 3aaf 8f3d 5617 ec3d 712b 9b3e d4ed eb3d
000002e0: fa3a 6d3e 3a9b 493e f454 0b3e 8cf5 db3d
000002f0: 79b0 463e b8f4 eb3d f5da a73c c984 a2bc
00000300: 73e5 463e fbad 283e 00c4 84bd bf32 843d
00000310: f47b 883b 8880 2fbe 49ef e63d 9855 a93e
00000320: 2c16 993d da6d 503e 9c07 3c3e 40fe 373e
00000330: cb17 aa3a d399 d23d f03e 7a3e f970 073d
00000340: 33cb d7b6 243a 42bd 68de d5bd 519e 08bb
00000350: 4e02 eabc dbef 2abd 7041 4dbd 0073 9bbc
00000360: 1cfe 5837 a398 37be e7e4 21be c204 04bc
00000370: 358d 2836 f22d d2bb 8c07 133c 09dd c4bc
00000380: 02c5 9abc ebd4 5b3e af9b 6cbc cebb 28be
00000390: 1e67 9c3c 6616 623d 4680 a6bd d413 9e3c
000003a0: f3a1 f13c d9c5 60bd 0af4 c63d b7ea 333d
000003b0: 0c8d fd3d 3f46 043c b665 1a3d a23e 913d
000003c0: 436b aabd 03a4 88bd c6fe 43be 0308 66bc
000003d0: b969 98bd 28d3 93bd 683e 1abd 50d5 85bd
000003e0: 9650 883d a69e bdbd 1387 0b3d 0fd7 353d
000003f0: ea4f 993d 7dc4 ac3d 3c1a 3e3e 934e a43c
0.09004917 0.09568577 -0.07885514 0.113976166 0.028017106 -0.1164027 0.13937934 0.074645594
-0.1517878 0.041161988 0.07628266 -0.017423684 0.17192836 0.18762474 0.26234606 0.09999323
0.29749346 0.081687026 -0.107582614 1.1115515e-05 0.27518857 -0.10246185 0.027644439 0.08996183
-0.050054517 0.082349315 0.15789826 -0.07294701 -0.0544044 0.08120661 0.037974127 -0.028112335
-0.013476109 0.038098667 0.06955119 -0.058981337 -7.426816e-05 0.042496953 -0.017790198 -0.023065155
-0.07052382 -0.115682356 -0.08707136 -0.038186777 -0.15591502 -0.016435714 0.06129247 0.00737657
-0.037445843 -1.7825505e-06 0.006050537 -0.032529593 -0.10607076 -0.0052588647 -0.003957806 0.019480225
-0.113251224 -0.14164756 -0.061818868 -0.18578781 -0.095172964 0.018275645 0.033361558 0.111619286
-0.16744678 0.00016110872 -0.09976913 0.048751485 -0.024895068 -0.0050142948 -0.01793011 -0.10729029
0.10900085 0.10911348 0.15062383 0.05170364 0.06143426 -0.13522822 0.05723492 0.05185679
-0.0010194335 0.031357888 0.10859511 0.2214738 0.007875563 -1.1905336e-05 0.005045576 -0.25077343
-0.059456516 -0.043528732 0.1791734 0.08404468 0.038658433 0.13014129 0.15753295 0.12951183
0.08591099 0.09333024 0.12083003 0.09484596 0.118418515 0.059942763 -1.6605665e-05 0.057735175
0.17133966 -0.14451745 0.075055115 0.082882024 0.20505434 0.1573834 0.19147457 0.22909574
0.033706747 0.12244341 -0.0354388 0.024469675 0.021247916 -0.024828767 -0.17333631 -0.03236881
-0.014827286 -0.066733584 -0.056416158 0.017799865 0.051241577 -0.010483553 0.00631231 -4.5826528e-05
-0.079575054 0.0045944788 0.025455702 -0.080915324 0.015887441 -0.053226452 -0.08595734 -0.010597773
0.0030997798 0.034192547 0.019718219 0.051028244 0.088510625 0.19086461 0.095101595 0.05820148
-0.086708926 0.0107101705 0.061343994 -0.11775712 0.0502944 0.11605785 -0.0722437 0.032305602
0.0024374793 -0.008219132 -0.048196945 -0.083786115 0.017752554 -0.024489442 0.066284 0.053551774
-0.0020753967 -0.038573116 2.2486493e-06 0.0014346837 0.04357851 -0.0069557535 -0.023989592 0.06130079
-0.018161938 -0.061550274 -6.719939e-05 -0.059243184 0.017423695 0.040973652 -0.26788664 0.14593111
0.06957159 -0.000102056765 0.0060724663 0.03102603 0.07015844 0.115278885 0.3030658 0.115199715
0.23167029 0.1968812 0.13606626 0.10740194 0.19403256 0.11521286 0.020490149 -0.019838708
0.19423465 0.16472618 -0.064826965 0.064549915 0.004165167 -0.17138875 0.11276109 0.33073115
0.07474932 0.20354405 0.18362278 0.17968082 0.0012977062 0.10283246 0.24438071 0.033066723
-6.431155e-06 -0.04741873 -0.10442811 -0.0020846317 -0.028565552 -0.04173265 -0.050111234 -0.018975735
1.2933768e-05 -0.1792932 -0.15809976 -0.008057775 2.5116144e-06 -0.0064141685 0.008973967 -0.024031179
-0.018892769 0.2146794 -0.014441415 -0.16477892 0.019092139 0.055197142 -0.08129935 0.019296564
0.029496169 -0.054876182 0.097145155 0.043925013 0.12380418 0.008073389 0.037694655 0.070920244
-0.0832124 -0.06671908 -0.19140157 -0.014039996 -0.0744204 -0.07218009 -0.03765717 -0.06534827
0.066559955 -0.092587754 0.034064364 0.04439455 0.074859455 0.08435915 0.18564695 0.020056998

conv_0.bias f4 [64]
00000000: 03d7 18b8 03b1 cc3c 20f7 9e3d e3c5 3fb8
00000010: 0e6b 173d b554 f6bd 1482 603d ec49 293d
00000020: 47fd 4cb7 6b86 f23b 8308 1b3e 6c8a c03c
00000030: 805d 0b3e 8fdd 01b8 de50 ed3d 1161 e63d
00000040: a552 c3b7 e517 19bd 1f77 72bc bf47 773b
00000050: 68f9 ae3c 390f a73a 6481 8a3d fb19 583d
00000060: 9d95 233d 1d7a b7b9 183e c03d 317e 9d3d
00000070: 9e8e 4e3c 8b32 5dbe 4afb a93d a3c4 c83a
00000080: 0a84 d93d 3802 413d 3fc0 bfbd afc4 a2bd
00000090: 6f41 a23d 119f 773c 68b7 9d3d 72a9 a83c
000000a0: c26a 22be f415 d93d fadc de3d 45ed 64bb
000000b0: 90bb 073d d6dc 273d 67a5 22bd c019 7438
000000c0: 771d a2bd 9c60 9d3d 1572 b73b f48f 0f37
000000d0: 68c2 9a3a 7d98 0bbc 41aa f0bc 2c8f 88bb
000000e0: 892c fa3d 53d7 173b 6877 113d 16da da35
000000f0: 2792 a73c 3ddf b1bb e217 963d a1de e5bc
-3.643987e-05 0.02498675 0.07761979 -4.5722245e-05 0.03696733 -0.12027875 0.054811552 0.041330263
-1.2218318e-05 0.007401278 0.15139966 0.023503505 0.13609886 -3.096234e-05 0.1158769 0.11248983
-2.3284296e-05 -0.037376303 -0.0147989085 0.0037731973 0.02135916 0.0012745626 0.067629606 0.052759152
0.039937604 -0.00034995461 0.093868434 0.07690085 0.012607245 -0.21601312 0.08299883 0.0015317391
0.106208876 0.047121257 -0.0936284 -0.07947671 0.07922637 0.015113608 0.077009976 0.02058861
-0.15861037 0.1059989 0.10881992 -0.0034931463 0.033137858 0.04098209 -0.03970852 5.8198115e-05
-0.07915776 0.076844424 0.0055983164 8.556981e-06 0.0011807205 -0.008520243 -0.029378058 -0.004167458
0.12215526 0.0023169115 0.035514265 1.6305737e-06 0.020455433 -0.0054282234 0.07328774 -0.02806026

conv_1.weight f4 [64, 64, 3, 3]
00000000: b9a3 8837 652f 2e3d f6be cabd b9b6 c03d
00000010: eefd bf3d e380 1db6 dcc8 13b7 69ba 4135
00000020: a461 97b4 413d 483d e5c4 7cbd 679c 82bd
00000030: cee3 183c be9b 823d f044 ac3c 7da2 80bd
00000040: 496d fb3c 726b 143d 05f8 70bc d873 4537
00000050: 2c1c 32bd d2a2 cc3c 0fbe 2f3e 80ba ebb5
00000060: 293c 9fbc 40a8 6a3c f7f3 3ebe 84d1 95b3
00000070: 82be 743e f31f b23b bf10 323b 3790 70b5
00000080: 8181 a13c 7896 583d eb2b 8b3b 4b6f 6bbc
00000090: 54c9 afbe 9fab c53c 21fe 50bd 1fb6 303e
000000a0: 8a71 b6bc d6c7 53bb ce29 a13c 3566 babc
000000b0: 4845 563d 5461 f9bd f834 0fbb aa9c b833
000000c0: 6531 f9bc 1605 95b4 00c3 6cb4 bb3a 72bc
000000d0: 8da8 813b f328 03bd 4064 bc3c 03c3 d73c
000000e0: 2b08 4cbc fbb4 c3b5 9cc2 a9bc 3cc3 d83d
000000f0: 82a4 393d c3a9 acbc 5bda 0cbe 2148 e7bc
00000100: e921 16bd 9769 1e35 6811 8e3d e4bb afbc
00000110: e353 293d 5e55 1a35 a271 7dbd ea7f d9b4
00000120: 368a 3cbe 3a87 7b3d 66c0 b23b 9475 b13c
00000130: af94 1e3e 002a 593b 62b2 89bd d804 0eb7
00000140: 606b b0b6 b491 703d 1657 c3bd 7cee af3d
00000150: 4b80 ca3c cd15 22b7 16c6 e43b 3b62 8e3c
00000160: 5428 b23d 4581 883b c539 1e3b 4d21 adbd
00000170: 7b8b 9c3c 59dd 9837 4001 c8bd 341b a83c
00000180: c6f5 e63d 601d 043b e977 9436 c11d 3d3a
00000190: ecba 2db8 a759 efbd fc10 cc3d 15b0 c7bb
000001a0: 7610 d4bc aaad 233d 9077 0a3d 23db 7b3a
000001b0: 7d8a d2bc 92da 0ebc 62cd 143d 8d38 f33b
000001c0: bf9d bfb7 4a10 c93c 1b93 3cbc 1d0b 09bc
000001d0: 3ff8 143d 27d6 9a3a 7c9a 8ebc 4499 993c
000001e0: 7a42 3a3d 7d06 a3bc bd26 1b3e da4f a53a
000001f0: 8229 cb3d 5572 6a35 b595 193c 7ad8 a63d
00000200: 645e 2dbc e5ea 89bd 0801 613b 6967 b83b
00000210: 359c c03c 0259 c53c a101 b33c 1887 55bd
00000220: 7512 83b6 f87a 33bc dabc 41be e260 dc3c
00000230: 0edf c1b6 c514 d73c 55b0 edb7 3906 67b6
00000240: 41f9 333d 2618 2e36 d7b6 6435 e849 253e
00000250: 229a d13c abf7 a6bc 4d0e 233d 0b6d 543c
00000260: 9699 02bd 4492 c6bd 929e c8bb d78f 34bd
00000270: 8ebb ef34 2789 82bd b1d2 cabd 9d22 d4b3
00000280: 6d96 a63d 99e5 9b3c c9a1 f0bc fae7 ea3c
00000290: 1129 35b3 7936 bc3d 3c67 453e 09ba 0c3c
000002a0: e402 a435 8260 153d 0703 0735 06b9 3bbd
000002b0: 9faf a936 b1ea 19bd 8c08 c83b 0026 34bc
000002c0: 61da 84bd da83 a7bc b9bd 1fbc c382 283e
000002d0: 5716 203d 93b2 15b8 cef6 69bc 4626 0b3b
000002e0: 0018 ad3d 5251 89be 66b8 d43c e820 253d
000002f0: 55b9 0db8 cb0a 323b 12c4 79bc 77ae 0a3d
00000300: 1522 f1bd c698 a33c 3fdd 463e 88f9 27be
00000310: 58a7 913d 8d74 2d3d 79f5 723c 5ba6 113e
00000320: e4ac 0cbd 5611 763b db94 c13d 6de8 aabd
00000330: 72c5 b4b6 952e d53d 53b4 263d 93c8 41bd
00000340: 7676 2cbd cb28 7e3c 8c36 e3bc 5925 06be
00000350: 57a9 813c d71e 83bd f43b c5bd da49 c534
00000360: ba23 b6bc b4a8 8ebd 5276 11bd ead6 acbd
00000370: 185a 3bbc 3ab0 c434 b034 0e3c 3921 1935
00000380: 46a4 693c 5fa0 973e 5ac7 6a3d 2b1b ee3c
00000390: 54d9 bb3c 6b1a 973d 94d5 bcbb edae dd3c
000003a0: 68c4 013d 73bd e33c 686e 2ebe eda6 dcbd
000003b0: f682 f5b6 fa1f ddba eabb 1bbb 5b47 5fb7
000003c0: c5d1 30bd f4a1 0cb7 2439 21b4 5eb3 973e
000003d0: eae1 93b5 8f88 d8b5 76ec 95bd 76f2 97bd
000003e0: 1870 96bd afba babc f471 7fb5 9821 86be
000003f0: 591c aa3d 6dc4 f03c c769 86bd ca24 35bc
1.6288703e-05 0.042525668 -0.09899704 0.094098516 0.09374605 -2.3469845e-06 -8.808649e-06 7.2169365e-07
-2.8196985e-07 0.04888654 -0.06171121 -0.06377488 0.009331657 0.06377362 0.021028966 -0.06280992
0.03069176 0.03623528 -0.01470757 1.1769087e-05 -0.043483898 0.024979983 0.17162345 -1.7563143e-06
-0.019437866 0.0143223405 -0.18647753 -6.976464e-08 0.23900798 0.0054359375 0.0027170626 -8.961683e-07
0.019715073 0.052877873 0.004247179 -0.014369796 -0.3433329 0.024129687 -0.051023606 0.17256974
-0.022270937 -0.0032315156 0.019673254 -0.022753814 0.052312165 -0.12176767 -0.002185164 8.596665e-08
-0.030419061 -2.7757113e-07 -2.2050153e-07 -0.01478451 0.0039568604 -0.032021474 0.022997022 0.026338106
-0.012453119 -1.4581304e-06 -0.02072268 0.10584113 0.045322903 -0.021077042 -0.13755171 -0.028232636
-0.036653433 5.901324e-07 0.06936914 -0.021451898 0.041339766 5.7493696e-07 -0.061875947 -4.051247e-07
-0.18412098 0.06140826 0.0054550646 0.021662511 0.15486406 0.0033136606 -0.06723477 -8.464987e-06
-5.257709e-06 0.058732703 -0.09538095 0.08590409 0.024719378 -9.661028e-06 0.0069816215 0.017380824
0.08699098 0.0041658008 0.002414332 -0.08453617 0.019109478 1.8222885e-05 -0.097658634 0.020520784
0.11277346 0.002015911 4.424703e-06 0.00072142115 -4.14205e-05 -0.11687022 0.09964177 -0.0060939887
-0.025886755 0.03996054 0.03380543 0.0009607544 -0.025700802 -0.008719103 0.03632868 0.007422513
-2.284243e-05 0.0245439 -0.011509682 -0.008364466 0.03636956 0.001181309 -0.017407648 0.01874984
0.045473553 -0.019900555 0.15151496 0.0012612299 0.09920026 8.733817e-07 0.009374072 0.081467584
-0.0105815865 -0.06734256 0.003433289 0.005627562 0.023511985 0.024090294 0.021851363 -0.05213079
-3.906253e-06 -0.010954611 -0.18919697 0.026901666 -5.777815e-06 0.02625502 -2.8334713e-05 -3.4425304e-06
0.04393888 2.5942077e-06 8.5202686e-07 0.16141474 0.025586192 -0.02038177 0.03980856 0.012965451
-0.031884752 -0.09695867 -0.0061224187 -0.04408249 4.4653683e-07 -0.06373816 -0.099034674 -9.8783154e-08
0.0813416 0.01903038 -0.02937402 0.028675068 -4.2179696e-08 0.09190077 0.19277662 0.008589276
1.2219793e-06 0.03646899 5.0295824e-07 -0.04583075 5.0570375e-06 -0.037577335 0.0061045345 -0.010995388
-0.06486965 -0.020448614 -0.009749823 0.16456132 0.039083805 -3.569068e-05 -0.014280034 0.002123253
0.08451843 -0.26819855 0.025966834 0.040314585 -3.3789624e-05 0.0027167078 -0.015244501 0.03385779
-0.11774079 0.019970309 0.19420336 -0.16403782 0.071119964 0.04234748 0.014829033 0.14223616
-0.03434457 0.0037546954 0.0945222 -0.08345113 -5.3874037e-06 0.104092754 0.040699314 -0.047310423
-0.04210516 0.0155126555 -0.02773597 -0.13100185 0.015827818 -0.064023666 -0.09630576 3.6747844e-07
-0.022233833 -0.06965771 -0.03551323 -0.08439429 -0.011435054 3.6636067e-07 0.008679554 5.7045287e-07
0.014260357 0.2961454 0.057319023 0.02906569 0.022930779 0.07378086 -0.005762765 0.02706095
0.03168145 0.027800297 -0.17034304 -0.10774026 -7.316815e-06 -0.0016870492 -0.0023763129 -1.33084495e-05
-0.0431688 -8.382358e-06 -1.5015081e-07 0.29629034 -1.1018103e-06 -1.6132998e-06 -0.07320492 -0.07419293
-0.07345599 -0.022794096 -9.5160726e-07 -0.26197505 0.08306188 0.029390538 -0.06563144 -0.0110561345

conv_1.bias f4 [64]
00000000: 9f65 c8bd 311b acbc 9248 3c3d 0fc0 97bd
00000010: 2939 da3c 7c1e 0abd 4905 20ba 697d 3337
00000020: 8dd3 f5bd 300b f83c 714f b3bd 5628 ca36
00000030: 5882 1237 261f 87b9 6191 bc3b 06c9 32bb
00000040: 347e 1cbd a686 813c 981e c8b7 4f3a 6bbd
00000050: 5701 c93c 6ded 163d dcf1 89b7 4262 833d
00000060: 0799 0fbe cbc2 67bc e1b8 bb3d f806 053c
00000070: 26d8 a8b6 431b 14b6 cbd9 9d35 036e 843e
00000080: d285 ec3c b1bb e83c 19d5 1c35 ea12 72bc
00000090: 6eed 283d 15bf 9b3c 956a a8bd eaaf a336
000000a0: 3627 3737 d9a9 95ba da26 6dbe 8956 8036
000000b0: 73b3 90bd 01ab bf3d 39d9 b537 673d cebd
000000c0: 873a 9f37 dcaa d6b5 793d b23d f1b0 4c3d
000000d0: eded 2137 a714 3bbd 410a bb3d cd03 2e3d
000000e0: 2bd8 10be 6843 7dbc 21ac 3fbd fcc3 863d
000000f0: de29 0936 85b1 9b3d bffa a435 5d4a 1b37
-0.09785008 -0.02100906 0.045967646 -0.07409679 0.026638584 -0.03372048 -0.0006104303 1.0698431e-05
-0.12003241 0.030278772 -0.087553866 6.024765e-06 8.732626e-06 -0.00025772414 0.005754635 -0.0027280464
-0.038206294 0.015811276 -2.3856104e-05 -0.057428654 0.024536772 0.03684752 -1.6444297e-05 0.064152256
-0.14023219 -0.014145563 0.09166122 0.008119337 -5.031953e-06 -2.2069587e-06 1.1760798e-06 0.25865182
0.028872404 0.02840981 5.8424627e-07 -0.014775017 0.041242056 0.019012013 -0.08223454 4.8782576e-06
1.09167795e-05 -0.0011418416 -0.23159352 3.8247713e-06 -0.07065477 0.09358788 2.1678034e-05 -0.10070305
1.8981531e-05 -1.5993969e-06 0.08703131 0.049973432 9.651744e-06 -0.045673992 0.09132815 0.042484093
-0.14144962 -0.015457965 -0.046795014 0.0658035 2.043896e-06 0.076022185 1.2291929e-06 9.256034e-06

fc.weight f4 [10, 1600]
00000000: 19b1 773d cfb9 9fbd d312 323d 7070 8d3c
00000010: 88e8 b73d c2c2 91bc 8c51 7c3d d083 20bb
00000020: ff22 9a3b 7bda eb3d bd0f 5ebd e928 64bd
00000030: 3cca eabb 51a9 2e3d fc4f 1f39 3bec 4c3d
00000040: c9fd 7f3d 3b2f 953b c09d c839 4acd c235
00000050: fd4b aabb f909 6f3d 7096 62bb 54bc 1dbe
00000060: c79c 6fb8 1280 22bd 7d52 f4ba 826f 35be
00000070: 5d76 853d 7a98 69bc f25a e5bc 8aea 47b9
00000080: fd52 323d d2e0 b13c e15c 8b38 3396 943d
00000090: afc7 70bd 201a 7f3d 133a 2ebb 9eac 36be
000000a0: 147d 4cbd fd61 c13b 1fa5 55bd d342 86bd
000000b0: e371 d2bc 4e7b 823d ae85 e83d 2d6b d33d
000000c0: c142 f6bc 2964 03be e213 e93c 14cd 18b6
000000d0: d4a1 61b5 a868 95bd ee7c c634 cf29 cd3c
000000e0: a694 83b6 c9f1 cf34 01e2 a9bd d878 82bc
000000f0: 37a7 b13d e43e f4bc 3555 08be 194e c03d
00000100: bfe7 eb3c f553 36b6 fa89 0ebb febc 5cbd
00000110: 2308 4abc dc10 bb3c e12d c6bc 7cf7 16bd
00000120: bf90 16ba 1329 6e33 025b d2bc a0f7 f13d
00000130: cea1 15b7 b91d a53c 6386 2db6 8498 1336
00000140: 9e67 95bd a602 7e3d a496 de3d 346c 0ebb
00000150: dd64 da3b 0913 a036 f6f3 3f3d 7509 a03c
00000160: 2154 e83d 591e 5cb6 1c67 42bd 9989 25be
00000170: 52f3 bfbd 850c ccbd 33a1 c436 450a 9db6
00000180: bbb2 323e 3be2 56b6 dae7 e83d 8710 513b
00000190: 89d6 e433 de52 bcbd c2e9 05bd 2ce8 a3bc
000001a0: 2a12 9d3c e44e 73b5 487e 8cbc 421c d23c
000001b0: 052c 0a3d 8072 9a34 54d1 97bb c6c9 c83c
000001c0: 8d12 f7bc b3d1 553a e7cb 453d 2910 34bd
000001d0: 117b a134 b40a cabc ce42 09be 39ad c83b
000001e0: 3092 c7bc 4de9 ba3b 0940 8ebd 6108 7abd
000001f0: f6f5 68bd 3a08 8bbc 2775 94bc bc94 3dbd
00000200: 6c85 3bbd 7379 963d 5c07 49be 54a6 edb9
00000210: bf88 ab3d 1a85 dab4 f750 1eb6 aaa5 5abe
00000220: bd92 54bd e524 9cbd 801c f5bb 32ee 443d
00000230: f33b 6d3d 49fd c0bb 6315 52b6 9348 253e
00000240: efa1 4e3d a034 5b3e 92ed 33bd da58 2f3c
00000250: b2bc ff3d 4018 e93b 89fa 20bd 76af 02bd
00000260: 3dc4 f134 1105 423d e808 8ab6 9407 e8bc
00000270: 104d e2b3 b577 ea32 56d1 a63d 766d 88bd
00000280: 637c 5c3c 77d8 cabc 1261 773c 0e26 123d
00000290: ac4d 63bb 2986 aebc 5203 81b6 d1cf 963a
000002a0: 8c67 8b33 834e 03b5 7236 22bc fe3f 313d
000002b0: 820a 64bc dc67 343d 976d 8c35 bb81 b534
000002c0: 8ee1 beb4 c267 6dbc ea12 18bd 0d08 0c3e
000002d0: 490d 70bc 84b5 a2b4 03c5 7f3d 5ec2 e433
000002e0: 8712 f9bc ff4e b633 d28d 2834 869b a3bc
000002f0: 4665 8b34 e34a 59bd f4a1 233d e6cc 0abe
00000300: f58a ccbd dbde 013d 92e6 58bd 5301 b2b4
00000310: 1f0a a93d 27fb 5fbb cda0 b1b4 9893 623c
00000320: fb38 023e b017 2637 3f62 733b c28c f0b7
00000330: 0c59 84bd 2982 c5bc 5e98 873c ea10 18bd
00000340: 2e83 b736 842c a03d 6dc9 90bc b49e b1bb
00000350: 3097 df3a 2377 9c3d d65f a7bd fb7a 60bd
00000360: af5b fa3c 575b f8b7 b085 a9bd b9f3 08bd
00000370: ec0a 72bd 4e0c 62bc 4e60 44bd 882f 78ba
00000380: 06c7 00bd f83f fab5 5f2a aeba b042 c236
00000390: 8095 f2bb 8e0f 15bc ae14 08b8 4475 85bc
000003a0: eed9 a13b 18d0 043c 3668 8c3d ad1c 8a3a
000003b0: 8cc8 c9bd a8e6 53bd 7740 823d b869 a93c
000003c0: b744 cab6 4a39 333d da17 c4bd 20e4 86b8
000003d0: f1a7 bdb7 5fc1 d13c 6f96 8b36 1a4d 803e
000003e0: d776 f6bb 515b aebd 9cf0 2dbd 96d0 7bb7
000003f0: ccc3 7ebd ce39 3bb8 c4c4 c6bd bb35 a6b7
0.060471628 -0.07799112 0.043474983 0.017265528 0.08979899 -0.017793063 0.061601207 -0.002449263
0.004703879 0.11516281 -0.054214228 -0.055703077 -0.0071652215 0.04264194 0.00015193218 0.050029974
0.062497888 0.0045527495 0.00038264506 1.4513873e-06 -0.005197047 0.05835912 -0.003457453 -0.15403873
-5.712805e-05 -0.03967292 -0.0018640306 -0.17718318 0.06516717 -0.014257545 -0.027997468 -0.00019065492
0.043536175 0.021713648 6.6453365e-05 0.07255211 -0.058784183 0.062280774 -0.0026584908 -0.17839286
-0.04992397 0.0059015737 -0.052159425 -0.065557145 -0.025689071 0.06371175 0.113536224 0.103231765
-0.030061128 -0.12831177 0.028451864 -2.2769136e-06 -8.405452e-07 -0.07295352 3.6971272e-07 0.02504435
-3.921409e-06 3.8732676e-07 -0.0829506 -0.015926763 0.08674472 -0.029815145 -0.13313754 0.09389896
0.028797029 -2.7168983e-06 -0.002174972 -0.053891174 -0.0123310415 0.022835188 -0.024191799 -0.036857113
-0.0005743615 5.545105e-08 -0.025678162 0.11814809 -8.918765e-06 0.020155774 -2.5857232e-06 2.1993483e-06
-0.07295154 0.062014244 0.10868576 -0.0021731975 0.006664856 4.7705876e-06 0.04686352 0.01953576
0.11344171 -3.280022e-06 -0.047461614 -0.1616577 -0.093725815 -0.099633254 5.8600212e-06 -4.68016e-06
0.17450993 -3.2020168e-06 0.11372347 0.003190072 1.0656101e-07 -0.09195493 -0.032693632 -0.02000817
0.0191737 -9.0639355e-07 -0.01715006 0.02564824 0.033733387 2.8768045e-07 -0.004633108 0.024510276
-0.030160213 0.0008156553 0.04829016 -0.043960724 3.007813e-07 -0.024663307 -0.1340439 0.0061241654
-0.0243617 0.005704081 -0.069458075 -0.061043147 -0.05687519 -0.016971696 -0.018122269 -0.046284422
-0.045781538 0.07347383 -0.19631714 -0.00045328087 0.083756916 -4.0702508e-07 -2.3590962e-06 -0.21352258
-0.051897753 -0.076242246 -0.007480204 0.048078723 0.0579185 -0.005889569 -3.1304887e-06 0.16140966
0.0504474 0.21406794 -0.043927737 0.010702336 0.12487163 0.0071134865 -0.03930143 -0.031905614
4.503253e-07 0.047368113 -4.1137573e-06 -0.028323926 -1.0537963e-07 2.7295622e-08 0.081453964 -0.06661503
0.0134573905 -0.024761422 0.015098827 0.035680823 -0.0034683747 -0.021304207 -3.844886e-06 0.0011506026
6.491527e-08 -4.891555e-07 -0.009900676 0.04327392 -0.013918521 0.04404436 1.0462708e-06 3.3808269e-07
-3.555437e-07 -0.01449007 -0.037127413 0.13674946 -0.014651605 -3.030692e-07 0.062443744 1.06524325e-07
-0.030404342 8.489405e-08 1.5697813e-07 -0.01997162 2.5964454e-07 -0.053049933 0.039949372 -0.13554725
-0.099874415 0.031706672 -0.052954264 -3.3156047e-07 0.082538836 -0.0034176798 -3.3085817e-07 0.013829134
0.12717049 9.899886e-06 0.0037137417 -2.8675775e-05 -0.06462297 -0.024109917 0.016552147 -0.037125506
5.4690963e-06 0.07820991 -0.017674172 -0.00542053 0.0017058607 0.07639911 -0.08172576 -0.054804783
0.030561296 -2.9606437e-05 -0.08277452 -0.033435557 -0.059092447 -0.013796879 -0.047943406 -0.0009467532
-0.031439804 -1.8645069e-06 -0.0013287774 5.789414e-06 -0.0074030757 -0.009097947 -3.2444186e-05 -0.016291268
0.0049393093 0.008106254 0.06855814 0.001053711 -0.098527044 -0.051733643 0.06359952 0.020680293
-6.0280686e-06 0.043755807 -0.09574862 -6.4321095e-05 -2.260876e-05 0.025604902 4.1600356e-06 0.25058824
-0.007521491 -0.08513511 -0.04246579 -1.5009331e-05 -0.062198445 -4.463811e-05 -0.09705499 -1.9813762e-05

fc.bias f4 [10]
00000000: 21af 89bd f497 3137 fb1b 203d 5098 2dbd
00000010: 6cb4 453d 262d 983c cb5c 2637 68ca f636
00000020: 6bfc 7cbd 2135 d6b5
-0.06722856 1.05854015e-05 0.039089184 -0.042381585 0.048267767 0.018576216 9.915976e-06 7.3549345e-06
-0.061764162 -1.5959705e-06
