notebooks/models/cnn_laplace_0.1/model.pth (torch, 216215 bytes, 6 tensors)

conv_0.weight f4 [64, 1, 3, 3]
00000000: c72c 8d3d 98b3 f13c 10bb 613d 4c1c fbbc
00000010: f3a4 023d 0e45 cc3d f8b4 7dbd 5b14 98bd
00000020: 936c 9ebd 5bc3 903e b59f cd3e fc00 09bb
00000030: f105 853e 205b 8e3e 80a3 693d d0c5 cf3d
00000040: 31a3 4e3e 964d 073e 81f2 713d 2907 0e3e
00000050: 1edf 5cbd a225 803e 6199 303d 4000 1dbd
00000060: 283a 823e abee b53d 028f e6bd 1522 83bc
00000070: 70fc 8f38 672b 7d3d 1791 593c 0f30 b73c
00000080: 6794 96b6 03e6 273d d793 e9bc 04a2 bfbd
00000090: 3038 2d3e 7c4f df3c afdf 4cbd 30fe 723d
000000a0: 84f4 79bc 3606 e4bd 1bd6 123e cd96 ea3c
000000b0: 82fe 58bd a7fd d23d b0b5 813c 1f6a 7abd
000000c0: 42bd d6bd d1bd 0a3d e2b0 2fbd 56c3 053d
000000d0: ee06 803d f4a2 3c3d 07b1 92bb 44f2 d3bc
000000e0: 127e a0bd 00c8 58bd 6676 51bd c7be 613c
000000f0: a2c0 0cb8 de95 18bc 711e 1bbb c758 36be
00000100: 2747 76b6 8155 f8bd 9dd2 af3b 65f8 6cbc
00000110: df61 e8bc 31dc b7ba 36ea 19bd 87fd ad3d
00000120: 3193 5dbd 66f2 60bb c3e4 1dbd 990e ac3c
00000130: c47b 8c36 d628 04bc a181 5cbc 7fdf b63c
00000140: 04fe dfbd e55f 17be fa19 82bc 0202 07bb
00000150: 583b 503d 6e6b 133c 2229 0d3d bcf0 273d
00000160: 846b 4c3d e097 f83d b60c d9bd 70aa 023e
00000170: 5c4c a03d 5abc 293e 4a70 463d 0930 47bd
00000180: 7cbb ec3d c785 0339 53bf 36bc 8a7b 023d
00000190: 22f0 85bc e723 27bd 8912 123e b68c 853d
000001a0: abac 133d 2df6 173e aa4a 363c 79a1 a2bc
000001b0: 5fc8 af3d fd03 403e 0387 983d e59f 4abd
000001c0: 6d06 e03d 9bcc bd3c 8456 c23d c3e0 a23d
000001d0: 7f4d bd3d c3b3 943d ffc3 2d3e d3f8 163d
000001e0: af10 b73d c2da 803d 36e1 9b3b d8d5 193d
000001f0: 8771 d23d 2982 d7ba 3aa7 bf3b ca97 603e
00000200: 3b3e a53e 7a65 1f3e 00b7 7c3e 7080 2f3d
00000210: f404 4a3e a94d f43d a892 623d e969 1f3e
00000220: c143 233e e5f2 8c3e 2f43 02be 7ce2 41b8
00000230: 8013 063e a1d0 dfbd b2eb a9bd 9559 06be
00000240: 6cf3 1f3e cbd6 163e d9a3 b4bd ba00 033e
00000250: c477 843e c710 923d f87f 5f3e afb5 ff3d
00000260: 8cf0 a83e d968 f6bd a65f 4dbd e652 bdbd
00000270: 327e e7bd eb77 95bd 3397 83bd ded6 1f3e
00000280: b663 b93d 8dcc 1f3a 4153 79bd 3948 8034
00000290: a555 bbbc 40a9 09bd 606b 8139 c64b 2dbd
000002a0: 3c3b d3ba f576 cc34 ffee 063c b90b a83d
000002b0: 42f6 b63d c060 a7b8 53aa 8f3d 7626 133d
000002c0: 4492 89be 2878 4f3e 1c13 c438 39cd a9bc
000002d0: 31a3 db3d 4edc 2abd 258b aabd 53e6 38be
000002e0: 4c38 3cbd 1d34 0bbd ab45 d737 e8d0 273d
000002f0: 023e be3c 4671 d939 4c20 c13d dc1a 123e
00000300: aca6 9437 db48 adbc 060b 193c f816 cf3c
00000310: eb80 21be f762 bfbd fd06 813d f0ab de3e
00000320: f6bc 8a3e 304c e13d f75c 3c3e a00a ab3e
00000330: c827 7f3d 97f8 7a3d 2469 913d dce1 37bd
00000340: 46ae 4dbb 962e d63d 89ae 0cbb 66b6 dd3c
00000350: 00cc dc3c fa19 113e 2a3d 9e3d 9934 8e3d
00000360: 89cb 2b3d 2310 8ebd 7e53 edbd 4611 c6bd
00000370: 09db 61bc 5ece 08b4 0580 8d3d 3de5 9d3c
00000380: 5c8b 8437 2eba 563d 2d27 be3d 076f 823d
00000390: 8670 83bd d02a 583e 4cd6 aabd acbd 9f3d
000003a0: a3ec f63b b1fd e0bc f3f3 ee3b 4ba7 15b7
000003b0: d0c8 09be b020 63bd 02b4 2fba 6438 e83b
000003c0: 2513 73bd 365b 9fbd c107 5a39 fa1c 803d
000003d0: 254c 63b8 5833 75bd f3e0 d83d 6847 243d
000003e0: 2bc4 cabc 86c1 42bc b4a5 033d e202 fe3c
000003f0: f7ea 373b 4383 4f3e f50f 1fbe a038 1abd
0.06893306 0.029504582 0.055110037 -0.030653141 0.03189559 0.09974109 -0.061940163 -0.074257575
-0.07735553 0.28274044 0.4016091 -0.0020905128 0.25981095 0.27803898 0.05704069 0.101451516
0.2017944 0.1321319 0.05906916 0.13869919 -0.05392372 0.25028712 0.043115024 -0.038330317
0.25434995 0.08883413 -0.11257745 -0.016007463 6.8657915e-05 0.06180897 0.013279221 0.022361783
-4.4876247e-06 0.04099084 -0.028512878 -0.09357074 0.16915965 0.02725958 -0.05001801 0.059324443
-0.015256051 -0.11133997 0.14339487 0.02863636 -0.052977093 0.103022866 0.015833706 -0.06113636
-0.10485317 0.03387243 -0.042893298 0.03265699 0.06251322 0.04605384 -0.0044766697 -0.025872357
-0.07836546 -0.05292511 -0.051138304 0.013778395 -3.3558004e-05 -0.009313075 -0.0023669268 -0.17807303
-3.6698273e-06 -0.121256836 0.005365683 -0.014463519 -0.028366981 -0.0014027414 -0.037576877 0.08495622
-0.05409545 -0.0034324168 -0.038548242 0.021003054 4.1867333e-06 -0.008066377 -0.01345864 0.022323368
-0.109371215 -0.14782675 -0.015881527 -0.0020600562 0.050837845 0.008997781 0.034463055 0.041001067
0.049907222 0.12138343 -0.105981275 0.12760329 0.078270644 0.16575757 0.04844693 -0.048629794
0.11559197 0.0001254297 -0.011154014 0.031856097 -0.016349856 -0.040805724 0.14264883 0.06520979
0.03605334 0.14840002 0.0111262 -0.019852387 0.0858314 0.18751521 0.074476264 -0.049468894
0.109387256 0.023168853 0.09489158 0.07953026 0.09243297 0.07260849 0.16969298 0.03685839
0.08938729 0.06291725 0.004757072 0.037557453 0.1027556 -0.0016441989 0.0058487924 0.21932903
0.3227404 0.15566054 0.24679184 0.042847097 0.19728452 0.11928875 0.055315644 0.15567745
0.15943815 0.27529064 -0.12720941 -4.6225716e-05 0.13093376 -0.10928465 -0.082969084 -0.1312011
0.15620202 0.14730375 -0.08820314 0.12793246 0.25872624 0.07132106 0.2182616 0.12485825
0.32996023 -0.12031717 -0.050140046 -0.09244327 -0.11303367 -0.07298263 -0.06425323 0.15609309
0.090522215 0.0006095849 -0.060870413 2.3894407e-07 -0.022867987 -0.033608675 0.00024684798 -0.04230859
-0.0016115676 3.8084514e-07 0.008235692 0.08205361 0.08933689 -7.9812016e-05 0.07014909 0.03592535
-0.26869404 0.2026068 9.349568e-05 -0.02072774 0.10724486 -0.041714005 -0.08327321 -0.18056612
-0.045952126 -0.033985246 2.5662439e-05 0.040970713 0.023222927 0.0004147386 0.09429988 0.14268059
1.7720587e-05 -0.021152904 0.009341007 0.025279507 -0.15771835 -0.09345048 0.06300161 0.43490553
0.2709729 0.1100086 0.18394838 0.33406544 0.062293798 0.06127223 0.07100132 -0.04489313
-0.0031384393 0.10458104 -0.0021466336 0.027064513 0.026952744 0.14170066 0.0772651 0.06943626
0.041942153 -0.069366716 -0.115881905 -0.096712634 -0.013785132 -1.2741063e-07 0.069091834 0.019274348
1.580052e-05 0.05242365 0.09284816 0.06368833 -0.064179465 0.21110082 -0.08341655 0.07799849
0.0075355335 -0.02746472 0.0072922646 -8.920043e-06 -0.1345551 -0.055451095 -0.00067025435 0.0070868004
-0.05934443 -0.07781069 0.00020792989 0.06255527 -5.4191933e-05 -0.05986342 0.10589781 0.04010716
-0.024751743 -0.01188696 0.03214045 0.031007234 0.0028063634 0.20264916 -0.15533431 -0.037651658

conv_0.bias f4 [64]
00000000: 48de 493d 3caa fd3d 3603 063e 101a 2738
00000010: b992 fc3c aa13 c03b 8a1b ad3b 53db 513d
00000020: 512a 07bd e96a 333d 7c18 043e 6fd2 0e3e
00000030: 98ea e537 aad3 943e 906b 1a3e b919 843c
00000040: 2cc0 8d3d 4aa6 0f3e 97d7 8cbe 09f8 a13a
00000050: 367b 043e f969 d1b7 6898 663e 4d0e 15be
00000060: a4b1 313e 5976 54bb c8c1 58b7 3e9a 96bc
00000070: f22d be3a 226f ae3c 3b91 293b 78da cb3d
00000080: 319e d4bb 1e69 b43b ec7f f03c 83ce d6bd
00000090: 283a 54be 0154 2ebc 72a3 393d ee5c 14b7
000000a0: 04ba 61bd 408e 8ab6 ebe0 30bd e18d d63c
000000b0: 7275 ac3c 3d2e b9bb 7787 423c e879 873d
000000c0: 6854 d4bc 2ddc 21be 2d80 ae3d a928 6a3e
000000d0: f45f 68ba f4b1 fe3c 1b60 96bd f4c2 003c
000000e0: 724e ef3d bf4b 1abc e5c1 2d3d ef6c 9ebd
000000f0: eec6 c93c b6f9 153d fff5 ee3c ec39 b637
0.04928425 0.12385985 0.13087162 3.9840175e-05 0.030831682 0.005861719 0.005282824 0.051234554
-0.03299934 0.04380313 0.12899965 0.13947462 2.7408169e-05 0.29067737 0.15080094 0.016125547
0.069214195 0.14028278 -0.27508232 0.0012357245 0.12937626 -2.4964089e-05 0.22519076 -0.14556237
0.17352921 -0.0032419174 -1.29197215e-05 -0.018384095 0.0014509542 0.021293227 0.0025873918 0.09953779
-0.0064885844 0.005505695 0.029357873 -0.10488608 -0.2072531 -0.010640145 0.04532189 -8.843124e-06
-0.05510904 -4.1292806e-06 -0.04318325 0.0261907 0.021052096 -0.005651264 0.011873118 0.06615049
-0.025919154 -0.15806647 0.08520541 0.22867073 -0.0008864396 0.031090714 -0.073425494 0.00785898
0.11684884 -0.009417473 0.04242124 -0.07735621 0.02463099 0.036615096 0.029170034 2.1723063e-05

conv_1.weight f4 [64, 64, 3, 3]
00000000: 8cc9 0cb5 733e 75b4 86c3 94ba a302 de3c
00000010: dc58 3cb5 7e29 d0bc d3ee a13c ceac 41bc
00000020: bbaa 0bbc a403 c4bc e228 abbc 8551 0abd
00000030: 8f06 d33a c4fc 04b9 aad2 a03a e912 553d
00000040: e7a6 9b3d 0cc9 de3d 2dfb c9bc 7e5f 9ab6
00000050: 8721 fb3c 5f89 bdb6 c518 9abd 26ca 3b3d
00000060: 6ef7 a13d 743c 853d 2597 843c 50b8 90b4
00000070: afdc 4bb9 b5ef 90bd bb2a f73c 8760 89b5
00000080: fd3a 80b5 a6f1 c83c 348c a5b5 7813 b73d
00000090: 3808 3d3d 5650 d739 77c2 3dbc 2ba5 4ebc
000000a0: 33f2 a9b5 3511 5f3c 7677 ce3c ce03 93bd
000000b0: 0900 a8bc d929 c4bc 422b 1abd ba1f 553b
000000c0: a3c6 2fb5 4eb1 e7bb 3e28 303e 6d2a a13c
000000d0: 8917 3b3d 54b1 54b6 0b31 01be 7531 55bd
000000e0: fb07 98bc 886d 16be 073e 1c3e c722 41be
000000f0: 92bc dfb4 209c 19bb 4abf bfb4 d77b 29bb
00000100: 3fe8 ccbc 8c8c 01bd 685b cdbc 74c2 23b6
00000110: 1fba 51be bfa7 1db6 7997 06bb f458 6eba
00000120: da7e b0bb d189 ba3d da4d 6fb4 bb33 423d
00000130: fdd6 c1bc 4492 1bbb 3da8 6333 01e7 6eb4
00000140: 8ebb c43b e498 85b5 be55 dcb5 9beb a6bc
00000150: f7ff e73c 3d54 1d3d ca7d a13d 9dbf d83c
00000160: a4a6 683d 9d22 043b 8bb3 2dbc 753e 633d
00000170: ab99 c8bd efd8 4b3c 5c9f 75bc 99e3 22b8
00000180: 7793 d2bc 30e1 d0bc b08b 1fbd 991a cc3c
00000190: eb76 dbbd fb17 d43d 791f 29b6 377e b23c
000001a0: c744 b83c 904b 4336 0bdf 4e3d 16db ee3d
000001b0: 220f 48bc dfd3 513c ed3b febc df46 61bc
000001c0: 82ae 8abc 376b 99bb 55aa 1d3d 3661 9f3c
000001d0: e52d 493e b522 b7bd ba37 a5b6 04c7 f3bc
000001e0: eb12 b83d 1e4f bdb7 a448 dcbc 7fe7 1a3c
000001f0: 15f7 393d 1b25 893c 197b 26bc 60d1 18be
00000200: da21 33bd f609 dfb7 3fe7 11be 1542 a3bd
00000210: a45b 233e aa62 80bd 85fc 1bbd c785 1cbd
00000220: daf0 163c 789c 6b36 adf6 acba 7d75 95bd
00000230: db7a 36bd 159a 25bc f6a2 b73d 7976 a13d
00000240: 28f4 0dbd 7356 23b8 affa 8abd eb67 b1bc
00000250: 2754 013d e4b3 a4bd e0ed 1d3d 3148 b53d
00000260: 732b 213c 0ad9 3c3c dc5e c9bc 96ec 04bd
00000270: f722 203b eef3 7dbd 6ce9 793d d1ed 9cb5
00000280: 273d 5b3d 83c5 a4bd f6a9 d5bb 65b5 a6bd
00000290: b0e5 7c3c 01bb 19b3 60fa 51b9 0514 7d32
000002a0: 7a64 78bd 6673 233d a6c3 fbbc 780e ef3c
000002b0: 35d0 d6bb f3ae 27be e687 69bc e884 9d3d
000002c0: 8f56 5ebb ce73 8b3d dc18 eabc 0bd6 e83c
000002d0: 9d42 013d 98a2 013c 6d18 85b6 1b98 1cbd
000002e0: 9b9c bc3d 4e12 efba 7cc1 03bd 3183 0e3b
000002f0: 2532 6c3c cdf9 833d 22c6 3ebc 0342 99ba
00000300: 5211 e13d 2f84 333d b498 94b4 0f3b da3c
00000310: 5680 ecb5 bb6d 1333 0df7 3c3c bc49 17bb
00000320: 7fdc 82bc e7ec f8ba 6b61 d2bb 4a8e 2ebe
00000330: 84a0 553c 488a 093b 40bd 863d 4aa2 d9bd
00000340: 980d 8839 7896 dabd 831c b83d a9a9 a13d
00000350: cd61 d43c 5bfd 153c 85a9 673d 0c80 cd3c
00000360: 527f 003e a0c7 a2bb 51b0 9cbd d36f 9a3c
00000370: c0a3 293d 315a bd3c f6a0 4eb6 5615 c8b5
00000380: 561d 0f3d 6015 f6bc 9c9c b6b5 6274 3d3d
00000390: ef8d 5d3d e80b e6b6 b4ab 3ebc 1012 29b6
000003a0: fdf6 ad3c a203 22bd c956 bc3c ef70 a4b5
000003b0: 4e27 b1b5 31c5 c1bc 576c 16bd 49dc c9b5
000003c0: f5f6 10bb 2c12 7fbd 5750 8ebd 3add f5bd
000003d0: 1a23 ce3c 734c 8db5 4fbd 213c 96e5 c13c
000003e0: 66e6 14bd c4b0 7a3d 92fb 2ebc 4324 1c3e
000003f0: e396 883d 76b4 25bd ae52 28bc ccc3 1ab6
-5.2447353e-07 -2.2840122e-07 -0.0011349774 0.027100867 -7.0164765e-07 -0.02541041 0.0197672 -0.011820985
-0.008524592 -0.023927517 -0.020893518 -0.03376915 0.0016099977 -0.00012682664 0.0012269814 0.052019987
0.076001935 0.108781904 -0.024655903 -4.6006744e-06 0.030655636 -5.648631e-06 -0.07524256 0.04584708
0.079085216 0.06505671 0.016185353 -2.6956195e-07 -0.000194418 -0.070769705 0.030171743 -1.0235389e-06
-9.553911e-07 0.02452929 -1.2334262e-06 0.0893926 0.046150416 0.0004106785 -0.011582009 -0.012612621
-1.266197e-06 0.013614942 0.025203448 -0.0717846 -0.02050783 -0.023945736 -0.03763891 0.0032520131
-6.5481635e-07 -0.007070697 0.17202851 0.01967355 0.04567674 -3.169368e-06 -0.12616365 -0.05204912
-0.018558493 -0.1469022 0.15258037 -0.18860923 -4.167419e-07 -0.0023439005 -3.5715703e-07 -0.0025861168
-0.025013087 -0.031628177 -0.025068 -2.440208e-06 -0.20481156 -2.3492464e-06 -0.0020537062 -0.00090922345
-0.0053862156 0.09108318 -2.2286932e-07 0.047412615 -0.023662085 -0.0023738304 5.3005568e-08 -2.2249516e-07
0.0060038036 -9.953769e-07 -1.6416232e-06 -0.020376017 0.028320296 0.038410414 0.078853205 0.026458556
0.056799546 0.0020162233 -0.010601888 0.055479486 -0.09794935 0.012441858 -0.0149916075 -3.8835777e-05
-0.025705082 -0.025498003 -0.038951576 0.024915027 -0.10716041 0.103561364 -2.5201282e-06 0.0217887
0.022493733 2.9101247e-06 0.05050568 0.11662881 -0.012210639 0.012806862 -0.031034434 -0.013749807
-0.016928915 -0.0046819705 0.03849252 0.019455533 0.19646414 -0.08942167 -4.9238706e-06 -0.029757984
0.08987983 -2.2567398e-05 -0.026890106 0.009454607 0.04540165 0.016741326 -0.010161185 -0.1492362
-0.043733455 -2.658831e-05 -0.1424837 -0.079715885 0.15952927 -0.06268819 -0.03808262 -0.038213518
0.009212697 3.5108806e-06 -0.0013196074 -0.072978 -0.044550758 -0.010107537 0.08966629 0.07883925
-0.034656674 -3.894274e-05 -0.06786095 -0.021655997 0.031574395 -0.08042124 0.038556933 0.0885166
0.009837019 0.0115263555 -0.024581365 -0.03245219 0.0024434903 -0.062000208 0.061013624 -1.1692119e-06
0.053525116 -0.08045485 -0.006520505 -0.08140067 0.015435621 -3.5793168e-08 -0.00020025065 1.473109e-08
-0.060642697 0.039904974 -0.03073294 0.029181704 -0.006555582 -0.16375332 -0.014253592 0.076913655
-0.0033926105 0.06809197 -0.028576307 0.028422376 0.031557668 0.0079123005 -3.9665524e-06 -0.038230997
0.092095576 -0.0018239708 -0.032166943 0.0021745677 0.014416252 0.0644413 -0.011643918 -0.0011692647
0.10989632 0.043827232 -2.7678254e-07 0.02663949 -1.7620721e-06 3.4325904e-08 0.011533511 -0.002308472
-0.015974281 -0.0018991501 -0.0064203045 -0.17046466 0.013038758 0.0020986963 0.06579065 -0.10626657
0.0002595007 -0.10673231 0.08989813 0.07893688 0.025925541 0.009154643 0.05655815 0.025085472
0.12548569 -0.004967645 -0.07650817 0.01885215 0.04141593 0.023114296 -3.0790084e-06 -1.4907371e-06
0.034940086 -0.03003949 -1.3605636e-06 0.04625357 0.054090437 -6.85592e-06 -0.011637617 -2.5193476e-06
0.021235937 -0.039554246 0.022990601 -1.225182e-06 -1.3198967e-06 -0.023653599 -0.036724415 -1.5039778e-06
-0.0022119854 -0.06227319 -0.06948917 -0.12005086 0.025163222 -1.0527568e-06 0.009871795 0.023669045
-0.036352538 0.061203733 -0.010680096 0.15248208 0.06669404 -0.040455304 -0.010273619 -2.3061757e-06

conv_1.bias f4 [64]
00000000: b888 073e f03a 4536 9d24 3d3d 2a9b a63c
00000010: fad1 cc3c f5bf acbc 08ff 4e3d 9601 423d
00000020: d11e b9bd 185e e53c dfee 32b7 231e 013d
00000030: d3c9 a83c b76c 97b6 60fb 63bc ebb8 5ebc
00000040: d998 253d 0230 913c 8fa0 2f36 f763 e0b7
00000050: 2279 bb3c 1fe5 2eb7 6904 7f3d 82d4 96bc
00000060: 9351 fabb 0058 0abe 3a54 90bd aff3 e53c
00000070: ea71 953d 68b9 4dbb e24e 1a3d 7c51 5136
00000080: e747 52ba 778e 06bd c5e2 23bd 0bb7 53bd
00000090: da6c 3eb7 c8f4 58b7 1d4e a43d 4629 ae37
000000a0: 7fc6 b93d a3b7 07bd 7232 55b8 6246 85bc
000000b0: bbd3 2fb7 48e6 9837 7e43 e1bc 4ea9 3e3d
000000c0: 79fb 1d36 6ba1 55b7 cb91 7e3d c0c6 0cbe
000000d0: c17b 1f3c 23cc 68bd fe49 a736 5d9b c837
000000e0: 7b1c 65bd c763 18b6 df89 f436 8102 4bbd
000000f0: 822a 873c 7dcf 5ebc 91af ddbc 47d9 e9b7
0.13235748 2.9389594e-06 0.046177495 0.02033766 0.025002468 -0.021087626 0.050536186 0.047364794
-0.09039081 0.027998969 -1.0665243e-05 0.03152288 0.02060405 -4.5128068e-06 -0.013914913 -0.013593893
0.04042897 0.017723087 2.617049e-06 -2.674943e-05 0.022884909 -1.0424555e-05 0.062260065 -0.018411878
-0.007639119 -0.13510132 -0.07047315 0.028070299 0.07297118 -0.0031391028 0.037672885 3.1190857e-06
-0.00080215785 -0.03285071 -0.040011186 -0.051688235 -1.13502265e-05 -1.2931596e-05 0.080227114 2.0761636e-05
0.09071063 -0.033134114 -5.083014e-05 -0.016268913 -1.048011e-05 1.8227045e-05 -0.027498003 0.04654818
2.35412e-06 -1.2733372e-05 0.062150758 -0.13747692 0.009734095 -0.056835305 4.9856017e-06 2.3914205e-05
-0.055935364 -2.2707843e-06 7.287817e-06 -0.049562935 0.016499761 -0.013599274 -0.027061256 -2.7876942e-05

fc.weight f4 [10, 1600]
00000000: 34bb 1437 a988 1938 eb59 dfbd 930e f13d
00000010: a816 cabd 017c fb3d f29f 4738 7513 dd38
00000020: 543c 0dbd eb4f b53d 1202 5737 7516 3bbd
00000030: 6981 97bd 8fc4 26bb 8774 eabd f886 71bd
00000040: 1f3b f4bc 2673 a83c c303 053e ab06 a037
00000050: e425 ea3b 98ec 01bd b544 e7bc f617 203e
00000060: c7e4 b3bb d1c5 0c3d 58ff a4bd d20c 5e38
00000070: 0ace b438 3574 d6b7 0842 b7bd 60a3 c73d
00000080: 7f7c 233d 90da 2abe d7ba 60bc 6d5f fcbc
00000090: 5ca5 513d 6c7b 26bd 85f5 f63c 2b6f f93c
000000a0: 60be e53b ac5a 143d e638 2bbd 92cb b83d
000000b0: 7a08 80bd 7149 ddbd a589 a1ba f7d9 75ba
000000c0: 655a cdbc 6475 f336 4126 c8bc ec7a 2fbd
000000d0: 459f 0fbc d66c 86bc 214e 3d37 32a7 91bd
000000e0: 5a40 5d3a c185 dbbc 7f76 7137 7e7f 2cbc
000000f0: 9ada adbd 221e 1dbd f5c8 1138 bb7b dd3b
00000100: 8872 0b38 6a19 6c37 b253 043d 87e6 953c
00000110: db0d 0a38 6119 09bd 4829 cfbd 6346 4cbc
00000120: 114c 3cbb df25 6dbe 7764 6c3c 7deb b7bc
00000130: 704f ba3c 2a56 7437 335b 9337 3704 c7bc
00000140: f3d7 f8bd eaa6 6bbb f817 d03c 23a9 bdbc
00000150: 8e83 60bd 9723 a63c 189a 23be c313 e23c
00000160: 7789 58b6 0ae1 1cbc ee79 fabd e6c6 b9bd
00000170: 17c0 3e37 340d ff37 871f b73d b22e 18bc
00000180: b956 563d a1a9 b83c 3474 93bc cf33 3abd
00000190: f563 c1bb e1a2 da3c 656b 1bbc 4160 6c3d
000001a0: 6cd3 5f3d 7785 393d caff 8338 e12e b93a
000001b0: ac27 e43d ecde 393b b8d7 a1bb 8b61 acbc
000001c0: 25e4 3fbc 7ba8 0a39 94cb d33c 80a4 9abd
000001d0: 00ed 8d3c 5adc 0439 e778 573a 50dc c138
000001e0: 9ea1 d93d 4ea7 2d3d 9864 933b 022b bcbc
000001f0: 01aa 4bbd 78ef 81bc 1599 7738 6927 89bd
00000200: cb96 5dbc 9512 a2bc dd79 7a3d 2f20 bb38
00000210: 04a9 4f38 12ca eebb 8957 b438 9346 c53d
00000220: 3bfc 2e3b 57c3 c93d bd3b 873a 4ae0 32bc
00000230: 3a30 31bd 43ab 9d3c dc2f 2039 8f00 30bc
00000240: b826 42bb 9d1c 2d3c b10e ae3d 68f7 cc3c
00000250: e9bf aa3c 8a9c 95bd 375c cd36 cfbb 22bc
00000260: 999c a6bc b624 1dbd 007b 26b5 5245 31bc
00000270: 4e21 d233 6bb2 473d c23e cbbc e6b9 103e
00000280: 0aa1 c33c ac18 663b b32a 2b37 c2b4 b636
00000290: 771f 09be 7c23 2239 db46 40bd b5c7 893d
000002a0: 5c20 15bc 1466 f735 cfe4 db34 9be3 863d
000002b0: 622f a5bd f91a cebc b606 893d 1f1c c936
000002c0: fe15 b13c d845 a7bc 16e6 2bbc d0b3 cfbc
000002d0: 43d7 db37 76d2 a9bb d74c 013d c71d 783c
000002e0: 8d4e 3439 d73e 993d 6881 8f3d 6cd3 2a3c
000002f0: fdc4 a8bd a6df 4d3c 4906 203d 3755 1339
00000300: d830 b0bd f264 94bd 1e18 53bd f788 7bbb
00000310: 52a0 013d 8475 223e e1bd cbbb 250a 04bb
00000320: 3ff5 103d 3b6b 0438 8cdb 2a3d 4184 1438
00000330: 2e15 b8bc e820 1038 b81f 873c aba2 5cbd
00000340: 1dd4 e737 5255 99bd 19d0 083b f78f 8736
00000350: a6fd 8bbd 7aa0 8f3c 6e7f 30be 8305 3fb6
00000360: cee5 8b3c dd35 7bbb 77ef 003d ebee a137
00000370: 06e8 a2b5 54fa b8bc 47f0 b4bd 90e3 35b6
00000380: cd10 4135 ebea 0d36 9318 edba 071e c737
00000390: 954c 55bc 966a 24bd 4c26 f937 2ce1 bcbc
000003a0: 3e5c 483c ceb6 1dbe 9790 adbd 4f58 4a3d
000003b0: 3a17 b23d 9aed 9cbc 93f6 a9bd c461 8d3b
000003c0: e3ca cf3c ec40 0239 1985 35bb ae35 e538
000003d0: 4494 5d3d 309d 27bd 127f 393d 5b74 47bc
000003e0: d9f8 633c 3afc 4dbd e9e8 5636 c318 41bd
000003f0: e81a 10bd 648c 063b 894f e1bc 553b 09bd
8.865074e-06 3.6605317e-05 -0.10905822 0.11770358 -0.098676026 0.12279511 4.7594258e-05 0.00010541725
-0.03448136 0.08853134 1.2815481e-05 -0.045675714 -0.0739773 -0.0025446748 -0.11448007 -0.058966607
-0.029813347 0.02056272 0.12989716 1.9076591e-05 0.00714563 -0.031719774 -0.028231004 0.1563414
-0.005489919 0.03436834 -0.080565155 5.2940864e-05 8.6214466e-05 -2.5564901e-05 -0.08948141 0.09747958
0.03991365 -0.16684937 -0.013716421 -0.030807221 0.05118309 -0.040645048 0.03014637 0.030448517
0.00701122 0.036219284 -0.04180231 0.09023203 -0.06251617 -0.108050235 -0.0012324346 -0.00093784876
-0.025067518 7.2556304e-06 -0.024432303 -0.042841837 -0.008766 -0.016409319 1.1283469e-05 -0.07111968
0.000844007 -0.026797177 1.4392309e-05 -0.010528443 -0.084889606 -0.038358815 3.475785e-05 0.0067591346
3.3246848e-05 1.4072613e-05 0.03230638 0.0182984 3.2914668e-05 -0.03347147 -0.10115296 -0.012467953
-0.0028731863 -0.23158978 0.01442825 -0.022451157 0.022742957 1.4563595e-05 1.7566234e-05 -0.024294002
-0.12150564 -0.0035957643 0.025402054 -0.02315194 -0.05481296 0.020280642 -0.15976751 0.027597314
-3.2266523e-06 -0.009575138 -0.122302875 -0.0907114 1.1369607e-05 3.0404517e-05 0.0894156 -0.009288477
0.0523288 0.022541823 -0.017999746 -0.045459565 -0.0059018084 0.026688995 -0.009486054 0.057708982
0.054644987 0.045293298 6.294211e-05 0.0014128351 0.11140379 0.0028361632 -0.0049390458 -0.021042606
-0.011712109 0.0001322347 0.02585391 -0.07550907 0.017324924 0.00012670588 0.0008219615 9.2439936e-05
0.10626529 0.042395882 0.0044980757 -0.022969726 -0.049722675 -0.015861258 5.9031958e-05 -0.0669697
-0.013524721 -0.019784251 0.061151374 8.9228495e-05 4.9510054e-05 -0.0072872723 8.5993735e-05 0.096326016
0.0026700634 0.09851711 0.0010317486 -0.0109177325 -0.043258883 0.019246703 0.00015276618 -0.010742321
-0.002962513 0.010565904 0.08498896 0.025020316 0.020843463 -0.07305248 6.1202113e-06 -0.009932472
-0.020338343 -0.03836509 -6.201881e-07 -0.01081975 9.784945e-08 0.048754137 -0.024810199 0.14133415
0.0238805 0.003510992 1.0202336e-05 5.4450657e-06 -0.13390909 0.00015462743 -0.046942573 0.06727544
-0.009101953 1.8432643e-06 4.095841e-07 0.06586381 -0.08065678 -0.025159346 0.06690733 5.9935405e-06
0.021616932 -0.020419046 -0.0104918685 -0.025354296 2.6207073e-05 -0.0051825596 0.03156742 0.015143818
0.000171954 0.07482689 0.07007104 0.010426383 -0.082406975 0.012565529 0.039068494 0.00014050757
-0.08603066 -0.07245816 -0.05153667 -0.0038381198 0.031647034 0.15865141 -0.0062177037 -0.0020147648
0.035390135 3.157112e-05 0.041713282 3.540912e-05 -0.022471037 3.436292e-05 0.016494617 -0.05386607
2.7636119e-05 -0.07486977 0.002087599 4.0400732e-06 -0.06835489 0.017532576 -0.1723611 -2.8464426e-06
0.017077353 -0.0038331666 0.03147837 1.930395e-05 -1.2137468e-06 -0.022580303 -0.08834892 -2.710356e-06
7.192255e-07 2.1147378e-06 -0.0018088989 2.3736631e-05 -0.013018747 -0.04014071 2.9700946e-05 -0.023056589
0.0122290235 -0.15401766 -0.08474844 0.049400624 0.08695836 -0.019156266 -0.082989834 0.004314633
0.025365299 0.00012421951 -0.002769774 0.000109295695 0.054096475 -0.04092139 0.0452872 -0.012173737
0.01391431 -0.05028937 3.2024057e-06 -0.047142755 -0.03518191 0.0020530457 -0.027503746 -0.03350385

fc.bias f4 [10]
00000000: 85bc 003d f00d 8a3d 0212 c4b7 1ff5 38bd
00000010: a339 cb3b 17ad 213d a6ac 04bd dbae 11b4
00000020: c0cf ecb5 eb15 2eb6
0.031429786 0.067409396 -2.3373406e-05 -0.04515564 0.006201939 0.039471712 -0.032391213 -1.356779e-07
-1.7643833e-06 -2.5940778e-06
