notebooks/models/cnn_normal_0.010/model.pth (torch, 216215 bytes, 6 tensors)

conv_0.weight f4 [64, 1, 3, 3]
0	0x3e4344db	0.19069235
1	0x3e5d9b64	0.21641308
2	0x3e6628e8	0.22476542
3	0x3ab2da87	0.0013645448
4	0x3e155785	0.14584167
5	0x3e4bb12b	0.19891803
6	0xbd1502ee	-0.036379747
7	0x3ddbbda4	0.107295305
8	0x3e11e57b	0.14247696
9	0x3b8ec6df	0.0043572034
10	0xbd831560	-0.06400561
11	0x3ccaadde	0.02474111
12	0x3d9b2ea4	0.07577255
13	0x3d6d62e5	0.05795564
14	0x3d0e57a1	0.03475154
15	0x3dae21e0	0.08502555
16	0x3e31e45e	0.17372271
17	0x3e51e61a	0.20497933
18	0xbb9f4f2f	-0.0048617343
19	0xbd5577d8	-0.052116245
20	0xbd10d931	-0.03536338
21	0xbc975594	-0.018473424
22	0xbd73246e	-0.059360914
23	0x3cdf6b3a	0.02727281
24	0xbd18a4b2	-0.03726644
25	0x3bd56241	0.006511957
26	0x3c75c7a6	0.015001213
27	0x3d4c6d60	0.049908996
28	0x3d88b0b6	0.0667433
29	0xbd07958a	-0.033101596
30	0x3ddec8a9	0.10878117
31	0x3dd31791	0.10307229
32	0x3d8f5642	0.06998874
33	0x3d15bd15	0.036557276
34	0x3bdbd9da	0.0067093195
35	0x3d476384	0.04867889
36	0xbde56dda	-0.11202593
37	0xbe09a7cc	-0.13442916
38	0xbe08a99b	-0.1334595
39	0xbcffea4e	-0.031239655
40	0xbbb0708a	-0.0053845095
41	0x3d87b115	0.066255726
42	0x3dcb28bc	0.09919879
43	0x3e0ffee5	0.14062078
44	0x3e47a3e4	0.19496113
45	0xbd9483e4	-0.07251719
46	0xbcf99c39	-0.03047
47	0xbd243800	-0.04009247
48	0xbd25b74a	-0.040458
49	0x3c692803	0.014230731
50	0xbcb7f103	-0.02245379
51	0xbd550f10	-0.052016318
52	0xbd5871b0	-0.052842796
53	0xbc3fea6a	-0.0117136035
54	0xbba7fb35	-0.0051263818
55	0x3d8cc362	0.06873204
56	0xbd5e8dca	-0.05433444
57	0x3bf1ca43	0.007378848
58	0x3d036040	0.032074213
59	0x3d014310	0.031558096
60	0xbc2ce0f6	-0.010551682
61	0x3d59f749	0.053214345
62	0x3dc8dd1e	0.098078
63	0xbd1e0297	-0.03857669
64	0xbbffbfed	-0.0078048618
65	0xbd8e91fc	-0.06961438
66	0xbcc8b801	-0.024501802
67	0xbd0814e3	-0.033223044
68	0x3d3b162e	0.04567545
69	0xbddf3647	-0.108990245
70	0xbcd2ea09	-0.025746362
71	0x3d043590	0.032277644
72	0x3d8a2874	0.06745997
73	0xbd9987d1	-0.07496608
74	0xbd47f99a	-0.048822023
75	0x3da1724a	0.07883127
76	0x3d05561a	0.032552816
77	0xbd5b3681	-0.053518776
78	0x3e18e448	0.14930832
79	0x3db7fa97	0.08983343
80	0xbc28b653	-0.010297376
81	0x3e09c2d2	0.13453224
82	0x3debd2ec	0.115148395
83	0x3d84dcb9	0.06487412
84	0xbc849a7f	-0.01618695
85	0xbc1d9fbf	-0.009620606
86	0xbc9753df	-0.01847261
87	0xbdba596c	-0.09099087
88	0xbdfca8cc	-0.12336883
89	0xbd805937	-0.062670164
90	0x3e946ba5	0.28988376
91	0x3e8ef0df	0.27918145
92	0x3e12a60b	0.14321153
93	0x3e918ba6	0.28426856
94	0x3eadba24	0.33931077
95	0x3e8d40fb	0.2758864
96	0x3e1a454b	0.15065496
97	0x3e0876f6	0.1332663
98	0x3de3f652	0.11130966
99	0x3e225908	0.15854275
100	0x3e1e289f	0.15445183
101	0x3d883af5	0.0665187
102	0x3e8b2b12	0.27181298
103	0x3e2ab941	0.16672231
104	0xbdae27e1	-0.085037
105	0x3e604493	0.21901159
106	0x3dce2146	0.1006494
107	0x3cd37aac	0.02581533
108	0xbbf89e6b	-0.0075872443
109	0x3c70f2f7	0.014706365
110	0xbd171917	-0.036889162
111	0xbd8056c0	-0.06266546
112	0xbd10ed38	-0.03538248
113	0xbca50366	-0.020143222
114	0xbcce7f59	-0.025207208
115	0xbdab2c26	-0.0835803
116	0xbca1b2ce	-0.019738581
117	0x3d45b928	0.048272282
118	0x3e1f372b	0.15548389
119	0x3e362d73	0.17790775
120	0xbd156459	-0.036472652
121	0x3dd46270	0.10370338
122	0x3e1ac3ba	0.15113726
123	0xbe4573a3	-0.19282393
124	0xbe31d24e	-0.17365381
125	0x3d38d5c5	0.04512574
126	0xbd7e957d	-0.062154282
127	0xbd9982dc	-0.074956626
128	0xbb885606	-0.0041606454
129	0x3d0bc60c	0.03412442
130	0xbc3e5652	-0.01161726
131	0xbce17879	-0.027523266
132	0xbd0a2792	-0.033729143
133	0xbd68e342	-0.056857355
134	0xbca6aa47	-0.020344866
135	0xbdee23b2	-0.11627902
136	0xbd895279	-0.067051835
137	0xbd0874c1	-0.03331447
138	0xbc7c5e84	-0.015403394
139	0xbdc6bc5d	-0.09703896
140	0x3d917688	0.07102686
141	0x3c982c05	0.018575678
142	0x3dcde700	0.100538254
143	0x3e00ebe9	0.12589993
144	0x3ceab37b	0.028650036
145	0x3d5c14f5	0.053730924
146	0x3c65c7db	0.0140247
147	0xbcb279ce	-0.021786597
148	0xbd2383eb	-0.03992073
149	0xbd273815	-0.04082497
150	0xbd402196	-0.04690703
151	0x3cd95460	0.026529491
152	0xbd1a3808	-0.03765109
153	0x3dbb95c2	0.091594234
154	0x3de0973f	0.10966348
155	0x3ccf9788	0.02534081
156	0x3dd43179	0.10360999
157	0xbd93970e	-0.07206546
158	0xbd8d75cd	-0.06907234
159	0x3da96e85	0.08273033
160	0xbd48b8f6	-0.049004517
161	0xbc854f7b	-0.01627325
162	0x3b21acd5	0.0024669666
163	0xbd5cbc77	-0.05389067
164	0xbd227d08	-0.03967002
165	0xbd039797	-0.03212699
166	0xbd954a07	-0.0728951
167	0x3ce95f46	0.028487813
168	0xbd0625ac	-0.03275077
169	0x3d4bb1bc	0.049730048
170	0x3cbd5595	0.023112098
171	0x3d68d7b7	0.056846347
172	0x3c321891	0.010870115
173	0x3d52cf6c	0.051467344
174	0x3e51587f	0.20443915
175	0x3eb2f4c2	0.3495236
176	0x3e6fa6ee	0.23403522
177	0x3e2c1145	0.16803463
178	0x3e89948e	0.2687115
179	0x3e1a1c12	0.1504977
180	0xbd92e140	-0.07171869
181	0x39074a48	0.00012902275
182	0xbd3234ba	-0.043507315
183	0xbd723659	-0.05913386
184	0x3bbd3738	0.005774405
185	0xbb5d5d5a	-0.0033777566
186	0xbc60f920	-0.013731271
187	0xbbab38a0	-0.005225256
188	0x3cc70be9	0.024297671
189	0xbd882c0c	-0.06649026
190	0x3d066287	0.032808807
191	0x3e093199	0.13397826
192	0xbd7f785d	-0.062370647
193	0x3dcdecf9	0.100549646
194	0x3e1fcb07	0.15604793
195	0x3d89ca70	0.06728065
196	0x3e15149d	0.14558645
197	0x3e155153	0.14581804
198	0xbd13fada	-0.036127903
199	0xbd21f97d	-0.03954457
200	0x3b9c6126	0.004772323
201	0x3d746135	0.059663016
202	0xbcbd0cb4	-0.023077346
203	0x3c828c10	0.015935928
204	0xbcb6d14b	-0.022316596
205	0xbce1a647	-0.027545108
206	0xbd6f2e59	-0.05839381
207	0xbd4332d9	-0.047655914
208	0xbd127d18	-0.03576383
209	0xbc872b5e	-0.016500171
210	0xbd69db6a	-0.057094015
211	0x3b9dff31	0.004821681
212	0xbd4ddc9b	-0.050259214
213	0xbd3f1975	-0.046655137
214	0xbcce2e91	-0.025168689
215	0xbc9dfc63	-0.019285386
216	0xbc94efaf	-0.018180696
217	0xbdb0ad37	-0.08626788
218	0xbd22b144	-0.039719835
219	0x3ccd1e9c	0.02503901
220	0x3d3335d8	0.04375252
221	0xbc886550	-0.016649872
222	0x3d45232d	0.04812925
223	0x3d06f352	0.032946892
224	0x3d4b7fce	0.04968243
225	0x3bcdc75d	0.0062798695
226	0x3dbcc2f1	0.092168696
227	0x3c5bf779	0.013425701
228	0x3e43b6e4	0.19112736
229	0x3e2705f8	0.1631087
230	0x3e287cd2	0.16453865
231	0x3da9a9f2	0.082843676
232	0x3de4998e	0.11162101
233	0x3e1fd54f	0.15608715
234	0x3d89ebaf	0.06734406
235	0xbe0fa782	-0.14028743
236	0xbccf80b6	-0.025329929
237	0x3dab04f8	0.08350557
238	0xbc06698c	-0.008203875
239	0xbd332a7c	-0.043741688
240	0x3d0ae999	0.033914182
241	0x3d540227	0.051759865
242	0x3c73a453	0.014870721
243	0xbd2e3b88	-0.042537242
244	0xbdd5964e	-0.10429059
245	0xbd069bee	-0.03286355
246	0xbda46221	-0.08026529
247	0xbd04967e	-0.032370083
248	0x3d912352	0.07086815
249	0xbdb1418b	-0.086550795
250	0x3d825efa	0.063657716
251	0x3dc14e9d	0.094388224
252	0x3d4111d3	0.04713614
253	0x3dd422e5	0.10358218
254	0x3e047495	0.12935098
255	0x3d9f5788	0.07780367

conv_0.bias f4 [64]
0	0x3d8db05c	0.069184035
1	0x3db0a230	0.08624685
2	0xbc4a2cf7	-0.012339822
3	0xbd1e6a71	-0.03867573
4	0x3d032002	0.032012947
5	0x3c511801	0.012762071
6	0x3c969824	0.018383093
7	0x3d5bdd12	0.053677626
8	0xbc73ae99	-0.01487317
9	0x3d8c9518	0.06864375
10	0x3e2ce817	0.1688541
11	0x3d9e76d0	0.077375054
12	0x3ca3bd73	0.019987797
13	0x3ca8bc86	0.020597707
14	0xbda236d9	-0.079206176
15	0x3de945a5	0.11390237
16	0x3d5c88d4	0.053841427
17	0x3ca50da1	0.0201481
18	0x3d6c9bcb	0.057765763
19	0x3de2c2f4	0.110723406
20	0x3d8e2e8e	0.06942473
21	0x3c8c2ce0	0.017111242
22	0xbbc989be	-0.0061504534
23	0x3d591ea9	0.053007755
24	0x3cff4966	0.031162929
25	0x3d8f9537	0.07010882
26	0x3c26c20d	0.010178101
27	0x3d321da1	0.043485288
28	0x3dd2aedb	0.10287257
29	0x3d02b8cc	0.031914517
30	0xbd3f4710	-0.04669863
31	0x3cc68527	0.024233414
32	0x3db9f1e5	0.09079341
33	0x3c89018f	0.016724376
34	0xbbb26e33	-0.0054452657
35	0x3c30ae30	0.010783717
36	0x3d121e2f	0.035673317
37	0x3cb753c9	0.022378819
38	0x3c9b5d52	0.018965397
39	0x3c247512	0.010037677
40	0xbc51921f	-0.012791186
41	0xbd41422f	-0.04718226
42	0x3cb13ba7	0.02163489
43	0x3d1517a0	0.036399484
44	0xbc87774d	-0.01653638
45	0x3d88318b	0.066500746
46	0x38ec55fd	0.000112693735
47	0xbcad3b16	-0.021146338
48	0x3c9404ed	0.018068755
49	0x3d6a82db	0.0572537
50	0x3d72da17	0.059290018
51	0xb9c97253	-0.00038422886
52	0x3d43d0d6	0.047806583
53	0x3ca34d40	0.019934297
54	0x3c834c0d	0.016027475
55	0x3d99df09	0.07513244
56	0x3d7b48f4	0.06134887
57	0x3cbb90be	0.022896167
58	0x3d716736	0.05893632
59	0x3bd57f6e	0.006515435
60	0x3d82c30b	0.06384858
61	0x3e13e6e3	0.14443545
62	0x3cf8d54f	0.030375151
63	0x3ddc4954	0.10756174

conv_1.weight f4 [64, 64, 3, 3]
0	0x3c88709f	0.016655264
1	0xbd53a119	-0.051667307
2	0xbd05366d	-0.032522608
3	0xbd9610b4	-0.073274046
4	0xbce0841a	-0.027406741
5	0x3d0a7e99	0.03381214
6	0x3d0078df	0.03136527
7	0xbcd2ef61	-0.02574891
8	0xbd1008c8	-0.035164624
9	0x3c83ea19	0.016102837
10	0x3ce50ca9	0.027960138
11	0x3d38cc0c	0.04511647
12	0xbd18d2c0	-0.03731036
13	0x3c8eaa1f	0.017415104
14	0xbd4666a6	-0.048437737
15	0x3d1e94a2	0.038715966
16	0xbcfbd282	-0.030740026
17	0x3ac8fcf7	0.0015334178
18	0x3d7cbf59	0.06170592
19	0x3d051c11	0.03249747
20	0xbcd19b33	-0.0255867
21	0x3cde983e	0.027172204
22	0x3cc10272	0.023560736
23	0xbcf18be9	-0.02948566
24	0xbd496744	-0.049170747
25	0x3c384f91	0.011249439
26	0xbadf2caf	-0.0017026867
27	0xbc872b12	-0.01650003
28	0xbbbe96b5	-0.0058163055
29	0xbc718fc9	-0.014743754
30	0xbd3ea8e5	-0.04654779
31	0xbc8fd600	-0.017558098
32	0xbc50d5a9	-0.012746253
33	0xbd590c82	-0.052990444
34	0xbc094768	-0.008378841
35	0x3c17345e	0.009228794
36	0xbd880ffe	-0.06643675
37	0xbcb54d2f	-0.02213153
38	0x3b303daa	0.0026892223
39	0xbd239c07	-0.03994372
40	0x3c464b28	0.01210288
41	0xbcd1ee34	-0.02562628
42	0xbb910983	-0.0044261827
43	0xbcd4c69f	-0.025973616
44	0x3b8b7313	0.0042556613
45	0xbc0add1d	-0.008475569
46	0x3bada6f3	0.005299443
47	0x3cbf3f8d	0.023345733
48	0x3d545208	0.051836044
49	0x3cbef629	0.023310738
50	0xbd2933d9	-0.04130921
51	0xbd3a7794	-0.045524195
52	0xbcb87444	-0.022516377
53	0x3a5c33f3	0.0008400075
54	0x3c07d102	0.008289577
55	0xbc20c0d7	-0.009811602
56	0xbc6a31f0	-0.014294133
57	0x3c0831fa	0.008312697
58	0xbc80a530	-0.015703768
59	0x3c798116	0.01522853
60	0x3cedf73f	0.02904856
61	0xbd14ea30	-0.03635615
62	0xbc26a293	-0.010170597
63	0x3c6ad992	0.014334099
64	0x3d5be490	0.05368477
65	0x3ccaef04	0.024772175
66	0x3c967215	0.018364945
67	0xbcadcb33	-0.021215057
68	0xbc0232ad	-0.007946652
69	0xbc8ad411	-0.016946824
70	0xbb190a83	-0.0023352213
71	0x3ca201c2	0.019776229
72	0x3c159b4f	0.009131267
73	0x3cc2dbde	0.023786481
74	0xbcbf61ce	-0.023362067
75	0xbc0955ff	-0.0083823195
76	0xbca150fd	-0.019691939
77	0xbd5f9662	-0.054586776
78	0x3cc58032	0.02410898
79	0xbd72def4	-0.059294656
80	0xbd1855df	-0.037191268
81	0x3cf809f5	0.030278185
82	0x3c0a19f8	0.008429043
83	0x3d3e4c2d	0.046459366
84	0xbb8ba805	-0.004261973
85	0x3a822efe	0.0009932218
86	0x3caf35bb	0.021387925
87	0x3d2bf5fd	0.04198264
88	0xbd7cedff	-0.06175041
89	0xbd02a3aa	-0.031894363
90	0x3add8127	0.0016899452
91	0x3d8fd45e	0.07022928
92	0x3c1d3467	0.009595013
93	0xbc02f51e	-0.007993011
94	0xbe092efd	-0.13396831
95	0x3b09aab4	0.0021006288
96	0x3cd96e0c	0.026541732
97	0xbd335f4d	-0.043792058
98	0xbc848ef5	-0.016181448
99	0x3d5fddd9	0.05465493
100	0xbd8083d5	-0.06275145
101	0x3d141163	0.036149394
102	0xbd7afdd0	-0.06127721
103	0x3d1203d3	0.03564818
104	0xbd035d19	-0.032071207
105	0x3d375cb2	0.044766136
106	0x3c796b3a	0.015223319
107	0x3d04eeb8	0.032454222
108	0xbda44df9	-0.080226846
109	0x3cab8c0e	0.020940807
110	0x3c0e7246	0.008694237
111	0x3d9e169e	0.07719158
112	0x3d0582ee	0.032595567
113	0x3d42342f	0.047413047
114	0xbbfe6c36	-0.0077643646
115	0xbcbbb636	-0.022914033
116	0x3c31a4a7	0.010842479
117	0xbb398caf	-0.0028312614
118	0x3c81ffbe	0.015869018
119	0x3c292130	0.010322854
120	0xbc22dfc2	-0.009941043
121	0x3c117387	0.0088776415
122	0xbc0a21f4	-0.008430947
123	0x3b8eeef2	0.0043619806
124	0x3c551f83	0.013008001
125	0xbd098a0a	-0.03357891
126	0xbd78a1af	-0.06070107
127	0x3cbc35d9	0.022974895
128	0xbd68c1fa	-0.056825615
129	0x3b165f8b	0.0022945132
130	0x3cc438f2	0.023952935
131	0x3be0f0ed	0.006864658
132	0x3c236081	0.009971739
133	0xbcd30149	-0.025757449
134	0xba222494	-0.000618526
135	0x3d83e923	0.06440952
136	0x3ced2ffb	0.028953543
137	0xbcbbb0a0	-0.02291137
138	0x3d956bf8	0.07295984
139	0xbc5256f9	-0.012838119
140	0x3bb130d0	0.00540743
141	0xbc7911f7	-0.015202037
142	0x3d3ab3dc	0.045581684
143	0x3c94cb8b	0.018163463
144	0xba8ccad4	-0.00107416
145	0x3ba1c73e	0.0049370816
146	0xbd83e4d5	-0.064401306
147	0x3d98031f	0.0742247
148	0xbd11ff79	-0.03564403
149	0xbc91e668	-0.017810062
150	0xbd6c31a6	-0.057664536
151	0xbd84edbe	-0.06490658
152	0x3d853c59	0.06505651
153	0x3d068284	0.032839313
154	0xbd9a0bdd	-0.07521794
155	0xbc9815d2	-0.018565092
156	0xbd2df7de	-0.042472713
157	0xbc4bc479	-0.012436979
158	0xbcf93e5a	-0.03042524
159	0xbd1fe124	-0.03903307
160	0xbc69bc8d	-0.014266145
161	0xbd4ab130	-0.049485385
162	0xbd0d1466	-0.03444328
163	0x3c4bc90a	0.012438068
164	0x3b9600b4	0.0045777205
165	0xbc7f661c	-0.01558831
166	0x3c696477	0.014245144
167	0x3caab8ee	0.020840134
168	0xbc84a2c9	-0.016190903
169	0x3ced6983	0.028980976
170	0xbcc12383	-0.023576504
171	0xbc6acde5	-0.014331316
172	0x3adfb708	0.0017068097
173	0x3deb7aae	0.11498009
174	0x3c87cee0	0.016578138
175	0xbd1ac54a	-0.037785806
176	0xbc8ea3d7	-0.01741211
177	0x3b5b13e9	0.0033428615
178	0xbd819c39	-0.06328625
179	0x3d3a4310	0.045474112
180	0x3c6740bb	0.014114554
181	0x3cbd6613	0.023119962
182	0x3c42c535	0.011887838
183	0xbc448213	-0.011993903
184	0xbdf9edfb	-0.12203594
185	0xbbcb7976	-0.0062095476
186	0xbcefc26e	-0.029267516
187	0xbbad4db4	-0.005288804
188	0x3cd83891	0.02639416
189	0xbc7a5cad	-0.015280885
190	0x3c1596a2	0.009130152
191	0xbd2b1ae5	-0.041773695
192	0x3d2bf3b5	0.041980464
193	0xbbd98022	-0.006637589
194	0x3c50d234	0.012745429
195	0x3ab30a5b	0.0013659702
196	0x3bd20fc3	0.0064105703
197	0xbc778e6a	-0.015109638
198	0xbcbc4f5f	-0.022987066
199	0x3c95523f	0.018227695
200	0xbce69b5e	-0.028150257
201	0xbd448483	-0.047977936
202	0xbd00425a	-0.031313278
203	0x3d814206	0.06311421
204	0xbcc14721	-0.023593487
205	0xbce2c890	-0.027683526
206	0xbe04f6b8	-0.1298474
207	0xbc2149b7	-0.009844235
208	0x3d632e2d	0.05546396
209	0xbc208ae8	-0.009798743
210	0xbc233849	-0.00996215
211	0xbc2255cd	-0.009908152
212	0x3d1a70c0	0.037705183
213	0x3da06d06	0.078332946
214	0x3cc9f85f	0.024654565
215	0xbca37251	-0.019951971
216	0xbbc62942	-0.006047399
217	0x3bf02bef	0.007329456
218	0xbd0018c7	-0.03127363
219	0xbc80d3df	-0.015726028
220	0x3b326abe	0.0027224268
221	0x3db1ea44	0.08687261
222	0x3d31c56d	0.04340117
223	0xbb0c0f15	-0.0021371294
224	0xbd4d5874	-0.050133184
225	0x3c97e21f	0.01854044
226	0x3a22fb3a	0.0006217245
227	0x3b3692c8	0.0027858485
228	0xbd1eae2a	-0.038740315
229	0xbcc03e25	-0.023467133
230	0xbce9496c	-0.028477393
231	0x3d288827	0.04114547
232	0xbc6b86bc	-0.014375385
233	0x3c7330a0	0.014843136
234	0xbd22b48f	-0.039722975
235	0xbacadc2b	-0.0015476992
236	0xbd5c7dff	-0.053831097
237	0x3ce23af6	0.027616005
238	0xbd851715	-0.06498543
239	0xbc8b6b25	-0.017018864
240	0xbd459422	-0.048236974
241	0xbd3b5cb9	-0.045742724
242	0x3c7aa966	0.015299177
243	0x3c97b8e3	0.018520778
244	0x3db258b3	0.08708324
245	0x3c6d2978	0.014475219
246	0xbd02e1f8	-0.03195378
247	0x3ca2ae92	0.019858632
248	0x3c0822a7	0.008309043
249	0xbc16a3a5	-0.009194289
250	0xbae55360	-0.0017496161
251	0x3b209798	0.002450442
252	0x3c5f6abe	0.013636289
253	0xbc6dd98a	-0.014517197
254	0x3c8b2aac	0.016988121
255	0xbd2c181a	-0.042015173

conv_1.bias f4 [64]
0	0x3d699b7f	0.05703306
1	0xbd05a4b7	-0.032627787
2	0xbc80e09f	-0.015732108
3	0xbd688a97	-0.056772795
4	0xbcb9396b	-0.022610387
5	0xbd042c44	-0.032268777
6	0xbc0f0c85	-0.008731012
7	0x3c230d57	0.009951911
8	0x3d41b29f	0.047289487
9	0x3d4caa17	0.049966898
10	0xbc52bbca	-0.012862155
11	0x3d743e5e	0.05962979
12	0x3c550051	0.013000564
13	0x3c7f1ab8	0.015570335
14	0x3da55b81	0.080740936
15	0x3da59b63	0.08086278
16	0xbc220530	-0.009888932
17	0xbd06d858	-0.032921165
18	0xbc660efc	-0.0140416585
19	0x3cf66961	0.030079545
20	0x3c9f02ee	0.019410577
21	0x3d6d90b6	0.057999335
22	0x3c8d23f4	0.017229058
23	0x3d53a360	0.05166948
24	0x3ca08ae4	0.019597478
25	0xbc8e1a73	-0.017346596
26	0xbb5f9464	-0.0034115547
27	0xbc6f6ecc	-0.014613818
28	0x3c9d08fe	0.019169327
29	0xbc8a496a	-0.01688071
30	0x3cf55bc1	0.029950978
31	0x3cfe4a01	0.031041147
32	0xbcb89aac	-0.02253469
33	0x3d015b9a	0.0315815
34	0x3b0c2846	0.002138631
35	0x3c0e19cb	0.008673142
36	0x3c4398d9	0.011938297
37	0xbca7a48e	-0.020464208
38	0x3c9ce1ff	0.019150732
39	0x3c66a179	0.014076584
40	0x3d13f04f	0.036117848
41	0xbce01317	-0.027352853
42	0xbd988d59	-0.07448835
43	0xbaa3fe58	-0.0012511713
44	0xbdc7edd2	-0.097621575
45	0x3da1e3b8	0.07904762
46	0x3d3249d9	0.043527458
47	0x3ca97617	0.020686192
48	0xbd2e528f	-0.042559203
49	0xbc1ce866	-0.0095768925
50	0xbd35dcb9	-0.04439995
51	0xbda960df	-0.0827043
52	0x3d241b21	0.040064935
53	0x3cdd6e0e	0.027030017
54	0x39ab967c	0.0003272778
55	0x3cd18237	0.025574787
56	0x3c257555	0.010098775
57	0xbbc3c1b9	-0.0059740213
58	0x3a86cb9a	0.0010284067
59	0x3ca94a5e	0.020665344
60	0x3d50bc62	0.050960906
61	0xbc094551	-0.008378343
62	0x3c3fee5e	0.011714546
63	0x3cc5fabd	0.024167413

fc.weight f4 [10, 1600]
0	0x3ab2af77	0.0013632615
1	0x3db182fa	0.0866756
2	0x3d16bae3	0.036799323
3	0xbc0127a0	-0.0078829825
4	0x3d4ddf27	0.050261643
5	0x3bc07a4c	0.005873954
6	0xbc6c6ca2	-0.014430197
7	0xbd04fa95	-0.032465536
8	0x3d650483	0.055912506
9	0xbd3aa9c1	-0.045572046
10	0xbc96e034	-0.018417455
11	0xbdd80b2a	-0.105490044
12	0xbd62c1cf	-0.05536061
13	0xbd6a6f48	-0.057235032
14	0xbced59d0	-0.02897349
15	0x3b02a863	0.0019936792
16	0xbca52104	-0.020157345
17	0x3c4a2a0a	0.012339124
18	0x3d4e04f6	0.0502977
19	0xbca6a908	-0.020344272
20	0xbd7cf5d1	-0.061757866
21	0x3b87e0ab	0.0041466556
22	0x3d9a7545	0.07541899
23	0xbc83cbaa	-0.016088326
24	0xbd412139	-0.047150824
25	0xbcd42dca	-0.02590074
26	0xbd6c863c	-0.057745203
27	0x3d46b562	0.048512824
28	0xbd2d258c	-0.042272136
29	0xba2b3718	-0.0006531342
30	0x3d482953	0.048867535
31	0xbcd641d8	-0.026154444
32	0xbb95ee05	-0.0045754933
33	0xbb089a12	-0.0020843786
34	0x3c48d6d5	0.012258251
35	0xbc8676e2	-0.01641411
36	0xbc96d57a	-0.01841234
37	0xbd10cba8	-0.03535047
38	0x3d3a2ac6	0.04545095
39	0xbcae8dd9	-0.021307873
40	0xbcfc1995	-0.030773917
41	0xbcce2f79	-0.025169121
42	0xbc86e555	-0.016466776
43	0xbdc939c2	-0.098254696
44	0xbc1ddc68	-0.0096350685
45	0x3c33147e	0.010930179
46	0x3c9ff07d	0.019523853
47	0x3cce1247	0.0251552
48	0x3c3fc2a4	0.011704121
49	0x3cb927a5	0.022601912
50	0x3bb72b06	0.0055898456
51	0xbacc98ce	-0.0015609504
52	0x3c9ad6d5	0.018901268
53	0x3c9a6cbc	0.018850677
54	0xbc211e84	-0.009833936
55	0x3cc6b583	0.024256473
56	0xbc85cdec	-0.016333543
57	0xbba7564a	-0.005106722
58	0xbc1563fa	-0.009118075
59	0x3d32015b	0.043458324
60	0x3d2fd44b	0.042927068
61	0xbc211257	-0.009831033
62	0xbd9c33a5	-0.07627038
63	0xbca3055a	-0.019900013
64	0x3c7196c4	0.014745418
65	0x3caeed5c	0.021353416
66	0xbc3bc02b	-0.011459391
67	0xbd2d068b	-0.042242568
68	0xbca2fc0a	-0.019895572
69	0xbb72ed0a	-0.0037067556
70	0x3d7baf9c	0.06144677
71	0x3d1fa16c	0.038972303
72	0x3c43fb53	0.011961776
73	0x3c7ad6e2	0.015310021
74	0x3d1d77dc	0.038444385
75	0x3d474398	0.048648447
76	0xbcddea3e	-0.027089234
77	0xbc40047a	-0.011719817
78	0x3cb3a7e3	0.02193064
79	0xbcf33ffe	-0.0296936
80	0x3c909e2c	0.017653547
81	0xbd05a2e1	-0.032626037
82	0x3cccae8f	0.02498558
83	0xbbff010f	-0.0077821086
84	0xbd05aef1	-0.03263754
85	0x3d14b0ac	0.0363013
86	0xbd50c736	-0.050971232
87	0xbcddf65c	-0.027095012
88	0xbd925756	-0.07145564
89	0x3bd11ff9	0.0063819853
90	0x3cc21e98	0.023696229
91	0xbd889d84	-0.06670669
92	0xbca4d5a9	-0.020121412
93	0xbd54edc7	-0.051984575
94	0xbd2126f9	-0.039343808
95	0xbcd39f6c	-0.025832854
96	0xbc86acd1	-0.016439827
97	0xbca5f3b2	-0.020257805
98	0x3c9ae7f7	0.018909438
99	0xbcc794f5	-0.02436302
100	0xbd3fa429	-0.046787415
101	0xb7258b90	-9.867261e-06
102	0xbd060ac0	-0.032725096
103	0x3d79e883	0.061012756
104	0x3cff109c	0.03113585
105	0xb9fc9675	-0.00048177285
106	0xbd33bef4	-0.04388328
107	0x3ddda5e2	0.10822655
108	0x3d43ba93	0.047785353
109	0x3d41b060	0.047287345
110	0xbd023cdc	-0.03179632
111	0xbcabd91f	-0.020977555
112	0xbb064ad0	-0.002049137
113	0x3cb9ed50	0.022696167
114	0x3ce4bee5	0.027923057
115	0xbbd0efce	-0.006376243
116	0x3ca8a2d7	0.02058546
117	0x3d05a909	0.032631908
118	0xbdbd1fb1	-0.0923456
119	0x3d554adf	0.052073356
120	0x3d31f44d	0.043445874
121	0x3d296034	0.041351512
122	0x3d555d9f	0.052091237
123	0xbd3b4abb	-0.045725565
124	0x3cafaa65	0.021443555
125	0xbd2fa5a2	-0.04288257
126	0x3d791e2e	0.060819797
127	0xbd5dc547	-0.054143216
128	0xbd35c4f1	-0.04437727
129	0x3d698747	0.057013776
130	0x3d830090	0.06396592
131	0x3d35ee27	0.044416573
132	0x3c6d1d64	0.014472339
133	0xbc8cd628	-0.017191961
134	0x3ca39654	0.019969143
135	0xbaf8b264	-0.0018974063
136	0x3da30e28	0.079616845
137	0xbb59c6b9	-0.003323002
138	0x3c5cd940	0.013479531
139	0xb9315a93	-0.00016913777
140	0x3c969816	0.018383067
141	0xbc90f21e	-0.017693575
142	0x3d0f4386	0.034976505
143	0x3caa747c	0.020807497
144	0xbd57b4f0	-0.05266279
145	0xbd4a7843	-0.049431097
146	0x3d08db0d	0.033412028
147	0xbc2c5c2d	-0.010520023
148	0xbd05e850	-0.032692254
149	0x3c60b26b	0.013714413
150	0x3a81952e	0.0009886378
151	0x3b6d08b5	0.003616852
152	0xbcf76e4e	-0.030203965
153	0xbd12a7c7	-0.035804536
154	0xbd8a7574	-0.06760684
155	0xbd5810c2	-0.052750356
156	0x3c9d8b06	0.01923133
157	0xbcb1931e	-0.021676596
158	0xbbec6405	-0.0072140717
159	0xbd66643c	-0.056247935
160	0xbc404671	-0.011735545
161	0xbbdf481c	-0.006814016
162	0xbc8fb0ad	-0.0175403
163	0xbc9b2a9f	-0.018941222
164	0x3c0848d2	0.008318143
165	0xbd887d81	-0.06664563
166	0xbd0f7e67	-0.035032656
167	0xbce6ab68	-0.028157905
168	0x3c83767e	0.016047712
169	0x3c1f361d	0.009717491
170	0xbe102504	-0.1407662
171	0x3d2bb4c2	0.04192043
172	0xbc160d36	-0.009158423
173	0x3d33e19a	0.043916322
174	0x3c84cfa8	0.0162123
175	0x3d5cb82a	0.05388657
176	0x3d0d8792	0.034553118
177	0xbc86411e	-0.016388472
178	0xbcced272	-0.025246833
179	0x3cfbee41	0.030753257
180	0x3c1623ff	0.009163856
181	0x3d207c38	0.039180964
182	0x3d54157c	0.0517783
183	0x3d70c280	0.05877924
184	0xbd5fe41c	-0.0546609
185	0xbd8480c2	-0.06469871
186	0xbd0ad495	-0.03389414
187	0xbd08fd7d	-0.03344487
188	0xbc0b7433	-0.008511591
189	0x3c2b9cac	0.010474365
190	0x3bffa641	0.0078018014
191	0xbda6a1c7	-0.08136325
192	0xbd89b31a	-0.06723614
193	0xbbcf45a3	-0.00632544
194	0x3d06773e	0.032828562
195	0xbce12b2c	-0.027486406
196	0xbcac4d90	-0.021033078
197	0xbc8e92d5	-0.017404
198	0xba99cbea	-0.0011733745
199	0xbd50ca3b	-0.050974112
200	0x3cda63cf	0.02665892
201	0x3d301b71	0.04299492
202	0x3d4c8209	0.0499287
203	0x3b015a1f	0.0019737554
204	0x3c008726	0.007844722
205	0xbce4c013	-0.02792362
206	0x3d0af108	0.03392127
207	0x3c16ba2e	0.009199662
208	0xbd11a177	-0.035554375
209	0x3d1dff25	0.038573403
210	0x3befe434	0.007320905
211	0xbc9ec93e	-0.01938307
212	0xbcdb2b1b	-0.026753953
213	0xbcf35ef7	-0.029708369
214	0xba95edfb	-0.0011438722
215	0x3c63539b	0.013874914
216	0xbd2af653	-0.04173882
217	0xbd195968	-0.03743878
218	0x3c07f166	0.0082973
219	0x3c9531eb	0.01821228
220	0x3d306b45	0.04307105
221	0xbd85102b	-0.064972244
222	0x3bf3d021	0.0074405824
223	0xbba3fb4b	-0.0050043217
224	0xbd2b38db	-0.04180227
225	0xbc049dbf	-0.00809425
226	0xbb6b03c7	-0.0035860406
227	0xbd6363e7	-0.055515196
228	0x3c943683	0.0180924
229	0x3ccaac0d	0.024740243
230	0x3cc7e7fb	0.02440261
231	0x3d04cea4	0.03242363
232	0xbd2b4c9c	-0.041821107
233	0xbcb4699e	-0.022023018
234	0x3c8c1cea	0.017103631
235	0x3d0ac284	0.03387691
236	0xbd8c576b	-0.06852611
237	0x3c28f3ee	0.010312064
238	0x3d3d1e9f	0.04617178
239	0xbbfd13f1	-0.0077233245
240	0xbd3266f0	-0.0435552
241	0x3d2d9728	0.042380482
242	0xbd2377f9	-0.039909337
243	0x3b8bc3cf	0.0042652856
244	0x3d3a8c50	0.04554397
245	0xbd2f26d0	-0.042761624
246	0x3cd056e1	0.025432052
247	0xbcb24c2e	-0.02176484
248	0xbbee29cb	-0.0072681657
249	0xbd215c4a	-0.039394654
250	0x3b1186e0	0.0022205636
251	0x3d28fb24	0.04125513
252	0xbc950d8e	-0.01819494
253	0xbc9af8b1	-0.018917413
254	0xbccc1263	-0.024911111
255	0x3c3233bc	0.010876592

fc.bias f4 [10]
0	0x3c75d7c2	0.015005054
1	0x3d87bbdd	0.06627629
2	0x3d413c9d	0.047176946
3	0xbd06622a	-0.03280846
4	0xbdc785da	-0.09742327
5	0x3d583261	0.05278242
6	0x3b16fd66	0.002303922
7	0x3c7b3caa	0.015334288
8	0xbc96d8d3	-0.018413937
9	0xbbabdd2b	-0.005244871
