models/fashion_fcnn_normal_0.500/model.pth (torch, 360455 bytes, 6 tensors)

fc_0.weight f4 [100, 784]
0	0x3b1e04f4	0.002411184
1	0x3af7ced1	0.0018906241
2	0x3cca7fe9	0.024719195
3	0x3c9180c7	0.017761601
4	0x3c97bb9b	0.018522074
5	0x3d4852a1	0.048906926
6	0xbc4bc4c9	-0.012437054
7	0xbd92d8ee	-0.07170282
8	0x3ee54d8a	0.4478572
9	0x3f0599b9	0.5218769
10	0x3e3dfd2d	0.1855361
11	0xbdd8afb9	-0.105803914
12	0xbeef4f31	-0.46740106
13	0xbf033ffb	-0.512695
14	0xbeb1c8b6	-0.34723443
15	0xbf005098	-0.50122976
16	0xbe10cd3b	-0.14140789
17	0xbd0bbb95	-0.03411444
18	0x3e26f998	0.1630615
19	0x3ea730e6	0.32654494
20	0xbd9afe07	-0.07567983
21	0xbd5e4d82	-0.054273136
22	0xbdd2358c	-0.102641195
23	0xbd748fe5	-0.05970754
24	0x3d157bb7	0.036494937
25	0x3c042e82	0.008067729
26	0x3b7f6b0d	0.003897372
27	0x3c9f77fb	0.01946639
28	0xbc1a818c	-0.0094303
29	0xbcfe50c0	-0.031044364
30	0x3d91cd12	0.07119192
31	0x3c87a25c	0.016556911
32	0xbc65c427	-0.014023817
33	0x3d2e874f	0.04260951
34	0x3e07c5a1	0.13258983
35	0x3ebae89d	0.36505595
36	0x3ed69fcb	0.41918787
37	0x3ef3c991	0.4761472
38	0x3f106315	0.5640119
39	0xbe9f646b	-0.311313
40	0xbe2e9b5e	-0.17051455
41	0xbe8e8faf	-0.27843997
42	0xbe95e776	-0.29278153
43	0xbef7bbc9	-0.48385456
44	0xbce81afb	-0.028333178
45	0x3f07290e	0.5279702
46	0x3f0a0d0a	0.53926146
47	0x3e89a094	0.26880324
48	0x3f02daca	0.51115096
49	0x3dda5abb	0.10661837
50	0xbdc69a8d	-0.09697447
51	0xbc5a58ad	-0.013326806
52	0xbb15ef51	-0.002287824
53	0xbc64336e	-0.013928277
54	0xbd569fe7	-0.05239859
55	0x3cd9953a	0.026560415
56	0xbd26a24e	-0.04068213
57	0xbd1ffacf	-0.03905755
58	0x3d492f55	0.049117405
59	0x3da8acd9	0.08236093
60	0xbd2e1749	-0.042502675
61	0x3e299f9a	0.1656479
62	0x3e20651d	0.15663572
63	0xbe90e296	-0.2829787
64	0xbe20dd38	-0.15709388
65	0xbb932804	-0.004490854
66	0x3d913eed	0.0709208
67	0x3df4c6d4	0.11951986
68	0x3e3737ab	0.1789233
69	0xbdb9250f	-0.090402715
70	0xbeae8e3b	-0.34092888
71	0x3e2c1076	0.16803154
72	0x3e98015e	0.29688543
73	0x3e42bae9	0.19016613
74	0xbd99fc89	-0.075188704
75	0xbe8fda4f	-0.28096244
76	0xbd77ddd8	-0.0605143
77	0xbd97d314	-0.07413307
78	0xbe4375bc	-0.19087881
79	0x3dcba6e6	0.09943943
80	0x3db1711a	0.086641505
81	0xbcd9f67d	-0.026606793
82	0xbc8bd592	-0.017069612
83	0x3b17a01a	0.00231362
84	0xbd06d042	-0.032913454
85	0xbb9a1c6e	-0.004703096
86	0x3d7ebbc0	0.06219077
87	0x3afe7466	0.0019413352
88	0x3c52a175	0.012855877
89	0xbbf6aa78	-0.0075276457
90	0xbe038edc	-0.12847465
91	0xbed73511	-0.42032674
92	0x3e57f7d8	0.21090639
93	0x3eb4b4dd	0.35294238
94	0x3deea794	0.11653057
95	0x3d4c512e	0.049882106
96	0xbc402628	-0.011727847
97	0xbe1bc8fc	-0.15213388
98	0xbda30201	-0.079593666
99	0xbd9a3b46	-0.07530837
100	0xbd4c3d57	-0.049863186
101	0xbe48d680	-0.19613075
102	0xbcb0513e	-0.021523114
103	0x3ea20f71	0.31652406
104	0xbec3d852	-0.38250977
105	0xbe6badcf	-0.23015521
106	0xbec50c4f	-0.38485953
107	0x3dab2f49	0.08358628
108	0x3dc0dd4d	0.0941721
109	0xbcf6f19d	-0.030144507
110	0x3c8c599e	0.017132577
111	0xbc2a6965	-0.010401105
112	0xbcbcbf00	-0.023040295
113	0x3bfa78be	0.007643788
114	0x3d86f2d5	0.06589285
115	0xbc36716c	-0.01113544
116	0xbd384c0e	-0.044994406
117	0xbe0cc21b	-0.1374592
118	0xbedac639	-0.42729357
119	0xbde40c1c	-0.11135122
120	0x3d9d4233	0.07678642
121	0x3eb0d3bd	0.34536543
122	0xbca7ff37	-0.020507438
123	0x3bd8fe60	0.0066221207
124	0xbd3805c2	-0.044927366
125	0x3d75b6d1	0.0599888
126	0x3e53eec8	0.20696557
127	0x3ea08bb7	0.31356594
128	0xbc9bb3ba	-0.019006599
129	0xbe0bb148	-0.13641846
130	0x3d97fdc4	0.07421449
131	0x3f0a0ae5	0.53922874
132	0xbe20e527	-0.15712415
133	0xbea423d1	-0.32058576
134	0xbe0f9ee8	-0.14025462
135	0xbe0d3809	-0.13790907
136	0x3dce53d3	0.10074582
137	0x3d3127d1	0.043250863
138	0x3d8ec5b5	0.069713034
139	0x3b91a788	0.00444502
140	0xbc4f3640	-0.012647212
141	0x3d0d5448	0.034504205
142	0x3d7672c3	0.06016804
143	0xbc4cac07	-0.012492186
144	0x3e66a4e4	0.22523838
145	0xbe38d457	-0.18049751
146	0xbea3643d	-0.31912413
147	0xbe3b3d40	-0.18285084
148	0x3db46341	0.08807994
149	0xbd02a863	-0.031898867
150	0xbe1a3cfc	-0.15062326
151	0xbe11bc6c	-0.14232033
152	0xbdfb904b	-0.12283381
153	0xbd0d92c1	-0.034563784
154	0x3da6819d	0.081301905
155	0x3ca709e2	0.020390455
156	0xbeb29b7d	-0.34884253
157	0xbd881196	-0.06643979
158	0x3e12bcc8	0.14329827
159	0x3ec8a070	0.39184904
160	0x3d9dcaf3	0.07704725
161	0xbf0cee6d	-0.5505131
162	0xbe84277a	-0.25811368
163	0xbe872df5	-0.2640225
164	0x3e8f0666	0.2793457
165	0xbd194522	-0.037419446
166	0x3d05c21a	0.032655813
167	0xbceaf60e	-0.028681781
168	0x3c0507ef	0.008119567
169	0x3da30fb4	0.079619795
170	0x3d308483	0.043095123
171	0x3db45ad9	0.0880639
172	0x3e66e730	0.22549129
173	0xbd7da7a5	-0.061927456
174	0xbe62ddf9	-0.22154988
175	0x3d36a715	0.044592936
176	0x3d83319d	0.06405947
177	0xbe03b27c	-0.12861055
178	0x3ca8545c	0.020548038
179	0xbd9d2a9a	-0.07674141
180	0xbecdd016	-0.4019782
181	0xbb2c003b	-0.0026245255
182	0xbd801dba	-0.0625567
183	0xbdb10eb6	-0.08645384
184	0xbdc8b8d7	-0.098008804
185	0x3db51a16	0.08842866
186	0xbd9236a6	-0.071393296
187	0x3e203a97	0.1564735
188	0x3e90adc7	0.28257582
189	0xbedc5fed	-0.43041936
190	0xbe2f6255	-0.17127354
191	0xbd679006	-0.056533836
192	0x3e770db4	0.24126321
193	0x3e0382f9	0.12842931
194	0x3d33c462	0.043888457
195	0xbd9243ff	-0.071418755
196	0x3ced3a14	0.028958358
197	0x3de02487	0.10944467
198	0x3da1f2f9	0.079076715
199	0x3e3d120d	0.18463917
200	0x3e47c2a7	0.19507848
201	0xbe43ddb1	-0.19127537
202	0xbdf4ac71	-0.11946953
203	0xbe0f336c	-0.1398446
204	0x3e392bfe	0.18083188
205	0x3dc9e9b1	0.09859026
206	0xbdc47809	-0.095932074
207	0x3defb145	0.11703733
208	0xbc91dee9	-0.017806487
209	0xba65657c	-0.0008750779
210	0xbdcc938a	-0.09989078
211	0xbcf82c37	-0.03029452
212	0x3e8850e3	0.26624212
213	0x3eaac690	0.33354616
214	0xbd831a07	-0.06401449
215	0x3e15a322	0.14613011
216	0xbe3d80a2	-0.18506101
217	0xbeea036e	-0.45705742
218	0xbc763b4f	-0.015028789
219	0x3e8d818f	0.27637908
220	0x3ddd3803	0.10801699
221	0x3e855644	0.26042378
222	0x3e18cace	0.14921114
223	0x3c899ba5	0.01679785
224	0x3b9a8801	0.00471592
225	0x3e032682	0.12807658
226	0x3dfc0cfd	0.12307165
227	0x3d950bfc	0.072776765
228	0x3c8c81bf	0.017151712
229	0xbe1d788f	-0.1537802
230	0x3e1879b4	0.14890176
231	0xbc80a03d	-0.015701408
232	0x3ea5374d	0.32268754
233	0x3b5ae94c	0.0033403216
234	0xbcdc0317	-0.026856942
235	0xbe13ea20	-0.1444478
236	0xbcac58ca	-0.021038432
237	0xbe023d3e	-0.12718675
238	0xbe54e70c	-0.20791262
239	0x3cb96111	0.022629293
240	0xbd8bd33d	-0.068274
241	0x3d01cad7	0.031687584
242	0x3d943a18	0.07237643
243	0x3e85701e	0.260621
244	0xbe7d7114	-0.24750167
245	0xbe6ebd35	-0.23314364
246	0x3da3901b	0.0798647
247	0x3d32663f	0.04355454
248	0x3be93658	0.007117074
249	0x3e0aacc9	0.13542475
250	0x3e21022b	0.15723483
251	0x3d5f376a	0.054496206
252	0x3d2c811d	0.04211532
253	0x3df4c8ae	0.11952339
254	0x3d4c0e21	0.049818162
255	0xbc9b0477	-0.018923027

fc_0.bias f4 [100]
0	0xbe127fe8	-0.14306605
1	0x3e2c9732	0.16854551
2	0xbe15325d	-0.14569993
3	0x3d88f5f1	0.066875346
4	0xbe427edd	-0.18993707
5	0x3cbbe788	0.022937551
6	0x3e893488	0.2679789
7	0x3ee8cf55	0.45470682
8	0xbe6c97d2	-0.2310479
9	0x3ebc2913	0.36750087
10	0xbc8c11c6	-0.017098319
11	0x3eb9d2f8	0.3629377
12	0xbce47660	-0.027888477
13	0x3e92092a	0.28522617
14	0x3df58dc7	0.119899325
15	0xbeb072fc	-0.34462726
16	0x3ed2bef7	0.4116132
17	0xbf9d7f26	-1.2304428
18	0xbd41e70a	-0.047339477
19	0x3f565fd6	0.83739984
20	0x3cfc592b	0.030804237
21	0x3ea4548a	0.32095748
22	0xbecea9ae	-0.4036383
23	0xbf081ed8	-0.53172064
24	0x3e92aa25	0.28645435
25	0xbd394835	-0.045234878
26	0xbedbcb56	-0.4292857
27	0x3e4abd0c	0.19798678
28	0x3f083d3c	0.53218436
29	0xbd9a1533	-0.07523575
30	0x3e80b46e	0.25137657
31	0xbccb42d2	-0.024812136
32	0x3d708645	0.0587218
33	0xbe37d5f4	-0.1795271
34	0x3ec27324	0.3797847
35	0x3d218afc	0.039439186
36	0x3e721a03	0.23642735
37	0x3e7f4a1e	0.24930617
38	0xbd80f2f5	-0.062963404
39	0x3efb485c	0.49078643
40	0xbfc398d7	-1.5281018
41	0x3dfbbb51	0.12291587
42	0xbe62a31c	-0.22132534
43	0x3e85489b	0.26031956
44	0xbcf9657d	-0.030443901
45	0xbd85d3a8	-0.06534511
46	0x3ba09791	0.0049008806
47	0xbd188a35	-0.03724118
48	0x3ec28b02	0.3799668
49	0x3d850864	0.06495741
50	0xbb427dc3	-0.002967701
51	0xbe17ed1b	-0.14836542
52	0x3e2ee887	0.1708089
53	0x3f498f3f	0.787342
54	0xbf0fb9dd	-0.5614298
55	0x3e433763	0.19064097
56	0xbd0cc7f7	-0.03437039
57	0xbe829284	-0.25502408
58	0x3e34e68f	0.17666076
59	0xbe4c8afe	-0.19974896
60	0xbedb7994	-0.42866194
61	0x3dda30ed	0.10653863
62	0x3f1021b8	0.5630145
63	0xbc8aa4a5	-0.016924212
64	0xbf0abe03	-0.54196185
65	0x3ebed444	0.3727132
66	0x3f031ce8	0.5121598
67	0xbb973b4c	-0.004615223
68	0xbf63288d	-0.8873375
69	0x3f24ed57	0.6442465
70	0x3e520c71	0.20512559
71	0xbd53253c	-0.05154918
72	0x3fd728d4	1.6809335
73	0x3f094d16	0.5363325
74	0x3ece363d	0.40275756
75	0x3e57b6ef	0.21065877
76	0xbd98a728	-0.074537575
77	0x3f0e0d7d	0.5548933
78	0x3e82a65c	0.25517547
79	0x3ecb520a	0.39711028
80	0x3e3abd36	0.1823624
81	0xbe783297	-0.24238048
82	0x3f3844e0	0.71980095
83	0x3f87f57c	1.0621791
84	0xbd303725	-0.04302134
85	0x3ed42d73	0.41440925
86	0x3c47a7bf	0.01218599
87	0x3eabaa68	0.33528447
88	0xbf0bb327	-0.5457024
89	0x3ea0685c	0.3132962
90	0x3ecb841c	0.3974923
91	0x3e21fe26	0.15819606
92	0x3d4bb219	0.049730394
93	0xbceee65b	-0.029162576
94	0xbc3e1ab0	-0.0116030425
95	0x3e9c7c12	0.30563408
96	0xbf1330ba	-0.57496226
97	0x3e0854d1	0.13313605
98	0x3cbec34a	0.02328648
99	0x3f186b81	0.5953904

fc_1.weight f4 [100, 100]
0	0x3e2fab4c	0.17155188
1	0x3dc9a4e1	0.09845901
2	0x3e556537	0.20839392
3	0xbd46778a	-0.048453845
4	0x3ea9194a	0.33027107
5	0xbcb7e811	-0.022449525
6	0x3e37e5ec	0.17958802
7	0xbe486fe9	-0.1957394
8	0x3cc95aa4	0.024579354
9	0xbd9a2936	-0.075273916
10	0xbe713367	-0.23554765
11	0x3cf4f5f5	0.029902438
12	0xbef537a3	-0.4789401
13	0xbeecd0da	-0.4625309
14	0x3dd0c41f	0.10193657
15	0x3dafd40d	0.08585367
16	0x3e28e2ab	0.16492717
17	0x3eb57541	0.3544102
18	0xbaffe3ff	-0.0019522904
19	0xbe6a6a20	-0.22892046
20	0xbeb18f78	-0.3467977
21	0x3e8d3320	0.27578068
22	0x3ce76e4f	0.028250841
23	0xbe4be2b1	-0.19910695
24	0xbcca3ecc	-0.024688147
25	0x3e0bd482	0.13655284
26	0x3f182393	0.5942928
27	0x3cbc243b	0.022966495
28	0xbe3fb894	-0.18722755
29	0xbbbc33f3	-0.0057434975
30	0xbe8534c3	-0.26016816
31	0xbe2fe0b2	-0.17175558
32	0xbd14603c	-0.03622459
33	0x3e77d60c	0.24202746
34	0x3e99d9c8	0.30048966
35	0x3c99e8af	0.01878771
36	0x3e11cfd7	0.14239441
37	0x3e9e2915	0.30890718
38	0xbef09beb	-0.46993956
39	0x3edfd135	0.437143
40	0x3e49cd88	0.1970731
41	0x3debdd9d	0.11516879
42	0xbe46cc48	-0.19413865
43	0xbed20cbf	-0.4102535
44	0x3cd1fa9b	0.025632193
45	0x3d338766	0.043830298
46	0xbd45f775	-0.048331697
47	0x3e1f46d9	0.1555437
48	0xbc9c438a	-0.019075174
49	0xbe3ff765	-0.18746717
50	0xbb8531be	-0.0040647676
51	0x3ca0d22e	0.019631471
52	0xbef2a25a	-0.4738949
53	0x3d2a9e12	0.041654654
54	0x3e04445b	0.129167
55	0x3f253b5a	0.6454369
56	0xbebb962a	-0.36638004
57	0xbe1a8bf4	-0.1509245
58	0xbe6dc500	-0.23219681
59	0x3caf17c6	0.02137364
60	0xbe442eeb	-0.19158523
61	0xbd606417	-0.054782953
62	0xbd9ae6d8	-0.07563561
63	0xbd3f6739	-0.0467293
64	0xbeb63b76	-0.3559224
65	0xbd22fc9c	-0.03979169
66	0x3d393c66	0.045223616
67	0xbd13468b	-0.035955947
68	0xbf12d500	-0.5735626
69	0x3e4e069e	0.20119712
70	0x3cfbf827	0.030757977
71	0xbddbed87	-0.10738664
72	0x3d0cc4a0	0.034367204
73	0xbe9d0d0d	-0.3067402
74	0xbe31e290	-0.17371583
75	0xbe5ed748	-0.21761811
76	0xbe0674d0	-0.13130498
77	0x3c67c2c7	0.01414556
78	0xbdb92362	-0.09039952
79	0x3e8bb9f5	0.2729031
80	0xbe9fa783	-0.3118249
81	0x3e3066cd	0.17226715
82	0xbdb10020	-0.08642602
83	0x3f09f40f	0.5388803
84	0x3d017e64	0.031614676
85	0xbe5df72c	-0.2167632
86	0xbdb6e86c	-0.0893105
87	0xbd32581e	-0.043541066
88	0x3d9ec400	0.07752228
89	0xbd442d33	-0.047894668
90	0xbdc1c599	-0.09461517
91	0xbe11817e	-0.14209554
92	0xbcf74ae4	-0.030187078
93	0xbeacdd98	-0.33762813
94	0xbe4b6f9a	-0.19866791
95	0xbde95d11	-0.11394704
96	0xbcb9cd7c	-0.02268099
97	0xbe86c238	-0.26320052
98	0xbdbdca1e	-0.092670664
99	0xbdb46d71	-0.08809937
100	0x3e5a8598	0.21340024
101	0x3e036692	0.12832096
102	0x3e994fd5	0.2994372
103	0x3c48bde9	0.012252309
104	0xbe4360cb	-0.19079892
105	0x3c5db64d	0.013532233
106	0xbe8edcf2	-0.27902943
107	0x3e520f3a	0.20513621
108	0x3d9a41c6	0.075320765
109	0xbe33316b	-0.1749932
110	0xbd82e132	-0.06390609
111	0xbdde4537	-0.108530454
112	0xbe3b6954	-0.18301898
113	0xbd425312	-0.047442503
114	0xbd015e5c	-0.03158413
115	0xbd88f59a	-0.0668747
116	0x3d58a848	0.05289486
117	0x3e1a9ed8	0.15099657
118	0x3e14cbe0	0.14530897
119	0xbe6f8766	-0.23391494
120	0xbed30d33	-0.41221008
121	0x3e92cd26	0.2867214
122	0xbd6f6f2a	-0.058455624
123	0xbc719716	-0.014745494
124	0x3d8566e2	0.06513764
125	0x3df34e76	0.118801996
126	0x3dcf950d	0.10135851
127	0xbd94200a	-0.072326735
128	0xbe678912	-0.22610882
129	0xbe87a73d	-0.2649478
130	0x3e768ed5	0.24077924
131	0x3e8924d4	0.2678591
132	0xbd035e80	-0.032072544
133	0xbde7585f	-0.11296152
134	0x3e9b7cbd	0.30368605
135	0xbda9ea62	-0.08296658
136	0x3dba8ec1	0.091092594
137	0x3e927d24	0.286111
138	0xbe696bb0	-0.22794986
139	0x3e254a31	0.16141583
140	0xbdc5055a	-0.09620161
141	0xbec9142e	-0.39273208
142	0xbdabeab7	-0.08394378
143	0x3eda735d	0.4266614
144	0xbd0f9d28	-0.035061985
145	0xbd1e7408	-0.038684875
146	0x3eae37b9	0.34026888
147	0xbd5756ca	-0.052573003
148	0x3d86d09e	0.06582759
149	0xbd8c8055	-0.06860415
150	0x3bb2b8a7	0.005454141
151	0x3e31a563	0.17348246
152	0xbdb03270	-0.0860337
153	0xbc65b18c	-0.014019381
154	0xbe60e426	-0.21962032
155	0xbb7b1612	-0.0038312715
156	0xbe865234	-0.2623459
157	0x3d5ce1cd	0.053926278
158	0xbd1e1c5b	-0.03860126
159	0x3d4b2b88	0.04960206
160	0x3eaa40c0	0.33252525
161	0x3cd22711	0.025653394
162	0x3ea9532e	0.33071274
163	0xbd23dad8	-0.040003628
164	0xbcf79402	-0.030221943
165	0xbddc3ecb	-0.10754164
166	0x3dfa9779	0.12235922
167	0x3d616171	0.055024568
168	0x3e6ca7a1	0.2311082
169	0xbe8a26e5	-0.269828
170	0xbc1a7b8f	-0.009428873
171	0x3e0c62de	0.1370959
172	0xbd7d805a	-0.061889984
173	0xbe1c7057	-0.15277229
174	0x3e42fa71	0.19040848
175	0x3d6d6e7d	0.057966698
176	0x3dcf2f6d	0.101164676
177	0xbdcd71ae	-0.10031448
178	0xbd1af229	-0.0378286
179	0x3d393495	0.04521616
180	0xbeeb96ad	-0.46013394
181	0xbdd0f8ad	-0.10203681
182	0x3ad130df	0.0015959999
183	0xbde4ba0f	-0.111683
184	0xbd4fa1e9	-0.05069152
185	0x3e68840a	0.22706619
186	0xbe517a25	-0.2045675
187	0x3e18ef89	0.14935125
188	0xbd8a08da	-0.067399696
189	0x3c9dc3c6	0.019258391
190	0x3f0a5296	0.54032266
191	0xbe001dd6	-0.12511382
192	0x3cf37dc9	0.029723065
193	0xbdfccbaf	-0.12343537
194	0xbe3c252a	-0.18373552
195	0xbd254f0c	-0.040358588
196	0xbe1dd819	-0.15414466
197	0x3d0f31e8	0.034959704
198	0xbbf322fa	-0.007419941
199	0x3e17c577	0.1482142
200	0x3e0d8269	0.13819279
201	0x3e603ca7	0.21898137
202	0x3ebc5158	0.3678081
203	0x3d55e80f	0.05222326
204	0xbe44b269	-0.19208683
205	0x3b459453	0.0030148223
206	0xbdac7bab	-0.08422025
207	0xbe13ed03	-0.14445882
208	0x3e6d8966	0.23196945
209	0x3e6a3c7b	0.22874634
210	0xbb81e8b5	-0.0039645084
211	0x3d3a379c	0.04546319
212	0xbebe76c7	-0.37199995
213	0x3e4f4423	0.20240836
214	0xbd35084f	-0.044197377
215	0xbe59ec77	-0.2128161
216	0xbda309b2	-0.079608336
217	0x3d7a078b	0.06104235
218	0xbd756633	-0.059911918
219	0x3e05782b	0.13034122
220	0x3f17efa4	0.5935004
221	0x3dabb66b	0.08384403
222	0x3d15a46f	0.03653377
223	0x3e798e76	0.24370751
224	0xbd49df44	-0.04928519
225	0xbe2c1319	-0.1680416
226	0x3cebf35a	0.028802563
227	0x3cbcb288	0.02303435
228	0x3e1a4a40	0.15067387
229	0xbe5c56b6	-0.21517453
230	0xbcff8605	-0.031191835
231	0xbe265c55	-0.1624616
232	0xbc33b839	-0.010969215
233	0x3e04f72e	0.12984917
234	0xbe538724	-0.20657021
235	0xbd8d2635	-0.06892053
236	0xbcd48ae2	-0.02594513
237	0x3bb7e75a	0.005612296
238	0xbe99a0c5	-0.3000547
239	0x3d0097d5	0.0313948
240	0x3dd88fd3	0.10574307
241	0x3c4ed5fd	0.012624261
242	0x3a9c7de6	0.0011939376
243	0xbe4117df	-0.18856762
244	0xbe405687	-0.18783008
245	0x3c34fb9e	0.011046318
246	0xbe663ced	-0.22484179
247	0xbe38bc37	-0.18040548
248	0x3d959ff3	0.073058985
249	0x3eab5248	0.33461213
250	0x3b3e50b9	0.0029039814
251	0x3cde0de1	0.027106227
252	0xbc89b2d6	-0.016808908
253	0xbe735007	-0.23760997
254	0xbe8793d3	-0.26479968
255	0xbe8eb13c	-0.27869594

fc_1.bias f4 [100]
0	0x3e872f2a	0.2640317
1	0xbe87e7ce	-0.2654404
2	0x3dd05d52	0.101740494
3	0x3dbb033b	0.091314755
4	0xbd39abfa	-0.045330025
5	0x3d67566e	0.05647891
6	0x3ddc584b	0.10759028
7	0x3d37ccdd	0.044873107
8	0xbe0c1c4c	-0.1368267
9	0x3dc73f20	0.09728837
10	0x3ef93f1d	0.48680964
11	0x3dc2c2ff	0.09509849
12	0x3e112424	0.14173943
13	0x3e14e8fc	0.14542001
14	0x3e29341b	0.16523783
15	0xbd2704fd	-0.04077624
16	0x3aa4a6be	0.00125619
17	0xbdd2530f	-0.102697484
18	0x3e471b7f	0.19444083
19	0x3eb7fda9	0.35935715
20	0x3d8b3e89	0.06799037
21	0x3c5dd9b2	0.013540672
22	0xbd5b47f0	-0.0535354
23	0x3d8bdf1e	0.068296656
24	0xbe79ef6d	-0.2440774
25	0x3eb6d145	0.35706535
26	0xbe555ffb	-0.20837395
27	0x3e15e3f7	0.14637743
28	0xbe84c5cf	-0.25932166
29	0xbd1fbe8c	-0.03900008
30	0xbed18147	-0.40918943
31	0xbc27e846	-0.010248249
32	0x3eaf7bdf	0.34274194
33	0xbe7ba314	-0.24573928
34	0x3e1cea78	0.15323818
35	0xbefa84d9	-0.4892948
36	0xbe8b5144	-0.27210438
37	0xbe1364bb	-0.14393894
38	0xbdba6cc1	-0.091027744
39	0x3e83bbbb	0.25729164
40	0x3e7fd639	0.24984063
41	0x3e41cee7	0.18926583
42	0x3e9fd649	0.31218174
43	0xbdb38742	-0.08766033
44	0x3e143c85	0.14476211
45	0x3e2ffc34	0.17186052
46	0x3e382e2f	0.17986368
47	0x3e058421	0.13038684
48	0x3e48542a	0.19563356
49	0x3d2ee362	0.042697318
50	0xbe392c45	-0.18083294
51	0xbea1cd69	-0.31602028
52	0x3de4d064	0.1117256
53	0xbea53fa5	-0.3227512
54	0x3d86c9c5	0.06581453
55	0x3d894c34	0.06703988
56	0x3e0db4be	0.13838479
57	0xbdfdc1cb	-0.12390479
58	0x3e5f1562	0.217855
59	0x3c02589d	0.007955697
60	0x3e24ac23	0.1608129
61	0x3e6d4a11	0.23172785
62	0x3c3b75dd	0.011441675
63	0x3e25d17b	0.16193192
64	0x3ea9d69b	0.33171543
65	0xbd94b9a8	-0.072619736
66	0x3dff8b92	0.12477793
67	0x3dd1909d	0.10232661
68	0x3ea32696	0.31865376
69	0x3d86c03b	0.06579634
70	0x3eeb084f	0.45904776
71	0x3ec0c7a4	0.37652314
72	0x3d4162f1	0.0472135
73	0x3e948338	0.29006362
74	0x3eeb4e44	0.4595815
75	0xbda0c0a7	-0.078492455
76	0xbe526aeb	-0.20548598
77	0x3e75151f	0.23933838
78	0x3db959a6	0.09050302
79	0xbe3d7b2d	-0.18504019
80	0xbe028094	-0.12744361
81	0x3e9aa34b	0.30202708
82	0xbddcb10a	-0.10775955
83	0xbd6358e2	-0.055504687
84	0xbe588190	-0.21143174
85	0xbcb6847f	-0.022279976
86	0xbe846030	-0.25854635
87	0xbea4e6f5	-0.32207456
88	0xbd923bd3	-0.07140317
89	0x3e8e67d6	0.27813596
90	0x3e8b84f2	0.27249867
91	0x3e4be1c9	0.19910349
92	0xbdb6dfd8	-0.089294136
93	0x3e45c11f	0.19311951
94	0xbd4d38ce	-0.050103
95	0x3edc0465	0.42972103
96	0x3edcf8a7	0.43158457
97	0x3f05ee15	0.5231641
98	0x3cb15ef9	0.021651732
99	0x3e252f9f	0.16131447

fc_2.weight f4 [10, 100]
0	0x3e385306	0.18000421
1	0xbee9ff9f	-0.45702836
2	0xbeef0e9b	-0.4669083
3	0xbe659596	-0.22420344
4	0x3efb3057	0.49060318
5	0x3ea8e76d	0.32989064
6	0x3f7b8b5f	0.9825954
7	0x3ecf9424	0.4054271
8	0xbe3bd3a2	-0.1834245
9	0xbf5375f9	-0.82601887
10	0xbe7b2e98	-0.24529493
11	0x3ecfb56c	0.405681
12	0x3f6e3ea3	0.93064326
13	0xbea7d162	-0.32776934
14	0x3ee21b08	0.44161248
15	0x3f515056	0.8176321
16	0x3ef664eb	0.4812387
17	0xbefdf9d4	-0.49604666
18	0x3e952a2e	0.29133743
19	0xbd8bc81b	-0.068252765
20	0x3f818f78	1.0121908
21	0xbed98cc3	-0.42490205
22	0x3e1025ec	0.14076966
23	0x3f6cf811	0.9256602
24	0x3f230938	0.6368594
25	0xbe3f09f0	-0.18656135
26	0xbed2037a	-0.41018277
27	0x3db8450d	0.089975454
28	0x3f878a13	1.0589012
29	0x3ecdeaf8	0.4021833
30	0xbec1f513	-0.3788229
31	0xbde6c68c	-0.112683386
32	0xbec59deb	-0.38597044
33	0x3f54f91c	0.8319261
34	0x3e6f601c	0.23376507
35	0x3e4d798e	0.200659
36	0xbf0d1086	-0.5510334
37	0x3ef6dfca	0.48217613
38	0xbf050509	-0.5196081
39	0xbf07efd7	-0.5310034
40	0x3f3154f2	0.6927024
41	0x3f5832ff	0.84452814
42	0x3e5d3eaa	0.21605936
43	0x3de8aaf9	0.113607354
44	0x3e2bcc8f	0.16777252
45	0x3ecf7ade	0.40523428
46	0x3f324377	0.69634193
47	0xbf0d6851	-0.552373
48	0xbf1e1ead	-0.6176556
49	0x3e5f186c	0.2178666
50	0x3f044a92	0.51676285
51	0xbeb38956	-0.35065717
52	0xbc7a580d	-0.015279782
53	0x3ed89e75	0.42308393
54	0xbddfdeb2	-0.10931148
55	0xbeec0d47	-0.4610388
56	0xbf499212	-0.7873851
57	0x3f04a2df	0.5181102
58	0xbe0590f1	-0.13043572
59	0x3f7b0166	0.9804901
60	0xbf642960	-0.89125633
61	0x3e070152	0.13184097
62	0xbd5fd9a1	-0.054650906
63	0xbf6b360c	-0.91879344
64	0xbf4744bd	-0.7783926
65	0xbfa0637f	-1.2530364
66	0xbf0b430b	-0.54399174
67	0xbefb7985	-0.4911615
68	0x3eac2cf5	0.3362805
69	0x3f36f0c8	0.71461153
70	0x3e144ffa	0.14483634
71	0xbf2953e1	-0.66143614
72	0x3f11c522	0.56941426
73	0x3ec47a5c	0.38374603
74	0xbe893bbf	-0.26803395
75	0xbf275a51	-0.65372187
76	0x3ec8ba3a	0.3920458
77	0x3d376f2e	0.044783764
78	0x3e23943b	0.15974514
79	0xbf367895	-0.71277744
80	0x3f18418b	0.5947501
81	0xbf5ad6fd	-0.85484296
82	0x3ef7c2d3	0.48390827
83	0xbf60f3cd	-0.8787201
84	0xbc98d086	-0.01865412
85	0xbd308576	-0.04309603
86	0x3eaa0ae9	0.3321145
87	0xbea31233	-0.31849822
88	0xbf3cbced	-0.7372578
89	0x3f7f9d01	0.99848944
90	0x3f8ee9cd	1.11651
91	0xbf6f06ea	-0.93369925
92	0xbee1238f	-0.43972442
93	0x3f032a30	0.5123625
94	0x3c15d318	0.009144567
95	0xbf6eedc0	-0.9333153
96	0xbd3b1d42	-0.0456822
97	0xbf0e7c8b	-0.5565879
98	0xbe0390b6	-0.12848172
99	0x3e96b992	0.29438454
100	0x3d440286	0.04785397
101	0x3ebe714b	0.3719581
102	0xbe6acf2d	-0.22930594
103	0xbeaf2b06	-0.34212512
104	0x3f56d587	0.83919567
105	0xbee8f92f	-0.45502612
106	0x3c863f51	0.016387613
107	0x3d1fa44d	0.03897505
108	0x3d2bea3f	0.04197144
109	0xbe26cb75	-0.1628855
110	0xbef0ebf9	-0.47055033
111	0xbf5d25fa	-0.8638607
112	0xbdf60013	-0.12011733
113	0xbe0959b9	-0.13413133
114	0xbd9346ff	-0.07191276
115	0xbd7595fe	-0.059957497
116	0xbe39798f	-0.18112777
117	0xbda812e6	-0.082067296
118	0x3f3a293e	0.7271918
119	0xbdb1f416	-0.08689134
120	0xbd8449a8	-0.06459361
121	0xbd0b20bd	-0.03396677
122	0xbd8f76e7	-0.07005101
123	0xbebd8918	-0.37018657
124	0xbd9af918	-0.07567042
125	0x3e9111e1	0.28333953
126	0x3f126214	0.57180905
127	0xbf16363d	-0.5867651
128	0xbe64d5ab	-0.22347133
129	0x3e1f8195	0.15576775
130	0xbb3be31f	-0.002866931
131	0x3ed7df03	0.42162332
132	0x3e9454d9	0.28970984
133	0xbec8d05f	-0.39221475
134	0xbf09b322	-0.5378896
135	0xbe312c92	-0.17302158
136	0xbcdf2384	-0.027238615
137	0x3dc84bc1	0.09780074
138	0x3d0c38f8	0.034234017
139	0xbdbe04f0	-0.092782855
140	0x3f41dfea	0.7573229
141	0x3ed78606	0.4209444
142	0xbd3d7ceb	-0.04626171
143	0x3e14e883	0.14541821
144	0x3e8d15d3	0.27555713
145	0xbe329f98	-0.17443693
146	0xbc9ec7a6	-0.01938231
147	0x3e14c712	0.14529064
148	0x3d1249c5	0.035714883
149	0x3f12cba4	0.5734198
150	0xbe4cea0c	-0.20011157
151	0x3e82d0a6	0.2554981
152	0x3d5e3a67	0.054254916
153	0x3f0402ec	0.5156696
154	0xbc9d1563	-0.019175237
155	0x3e03af40	0.12859821
156	0x3ec8e8c9	0.392401
157	0xbe96f657	-0.29484817
158	0xbd78977f	-0.060691353
159	0x3d925c18	0.07146472
160	0xbd732663	-0.05936278
161	0xbe9aacb2	-0.3020988
162	0xbdbc68fc	-0.09199712
163	0xbe2d42f4	-0.16920072
164	0x3f4d1e90	0.8012476
165	0xbe024dab	-0.1272494
166	0xbeb341dd	-0.35011187
167	0x3e97d0c3	0.2965146
168	0x3de21d66	0.110407636
169	0xbe9ca998	-0.3059814
170	0xbecdbc3e	-0.4018268
171	0x3d89cdae	0.067286834
172	0xbe403732	-0.18771055
173	0x3e2b67c2	0.16738799
174	0xbd1aab15	-0.037760813
175	0xbe64f06b	-0.22357337
176	0xbe578c15	-0.21049531
177	0xba0bee5c	-0.00053379475
178	0x3c2d4473	0.010575402
179	0x3eff5768	0.49871373
180	0x3d5c88d0	0.053841412
181	0xbd11b3b2	-0.03557176
182	0x3f082177	0.53176063
183	0x3e03bfb9	0.12866105
184	0x3dceb899	0.10093803
185	0xbd6fc128	-0.058533818
186	0x3e5f4bcd	0.2180626
187	0xbdbca29a	-0.09210701
188	0x3e8b4faf	0.2720923
189	0x3e2fc16b	0.17163627
190	0xbe80f691	-0.25188115
191	0x3f24b5be	0.64339817
192	0xbe9e109f	-0.30872056
193	0xbeedcaf8	-0.46443915
194	0xbdb291dd	-0.087192275
195	0xbeee856d	-0.4658617
196	0x3d8e10d3	0.06936803
197	0xbd9f6d5d	-0.07784531
198	0xbdae0768	-0.084975064
199	0x3f1586df	0.5840892
200	0xbf8c1ed9	-1.0946914
201	0x3e1be747	0.15224944
202	0xbf07aefb	-0.53001374
203	0xbe558154	-0.20850116
204	0xbb3892e8	-0.0028163735
205	0xbf809b25	-1.0047346
206	0x3bb575d2	0.005537727
207	0x3f1eeffb	0.6208493
208	0x3e9f7941	0.31147197
209	0xbf0e99a9	-0.55703217
210	0x3f102122	0.56300557
211	0x3cdfdd5d	0.027327234
212	0x3f53da69	0.8275514
213	0x3f3ad732	0.7298461
214	0x3e32c142	0.17456535
215	0x3f0e6739	0.55626255
216	0xbf37ce6d	-0.71799356
217	0xbec5618f	-0.38550994
218	0xbfcad10f	-1.584505
219	0x3ebd1f6e	0.3693804
220	0x3ef2e879	0.47442988
221	0x3ea8edc9	0.32993916
222	0x3ec3995b	0.38202938
223	0xbf669baf	-0.90081304
224	0x3e6a982c	0.22909611
225	0x3f38f867	0.7225403
226	0xbf2fb39d	-0.68633443
227	0x3eeeb726	0.46624106
228	0xbf288641	-0.65829855
229	0xbf7ab39d	-0.9793032
230	0x3e94a9f0	0.29035902
231	0x3f798ec3	0.9748346
232	0x3f2dc38e	0.6787652
233	0xbf9ad741	-1.209694
234	0x3f1ff9a6	0.6249031
235	0xbf7c1845	-0.9847453
236	0xbf0c36ec	-0.54771304
237	0x3ead19de	0.33808798
238	0x3d66d3a2	0.056354173
239	0x3e34e78d	0.17666455
240	0xbf2a8777	-0.6661295
241	0xbea4d016	-0.32190007
242	0xbf97410f	-1.1816729
243	0xbf2fe380	-0.6870651
244	0x3f03e132	0.51515496
245	0x3f1508db	0.5821664
246	0x3f4b8b39	0.7950931
247	0xbf15b20c	-0.584748
248	0xbf2c2e57	-0.6725821
249	0xbf9a12a1	-1.2036935
250	0x3ec552e6	0.3853981
251	0xbe9d6492	-0.30740792
252	0xbeb8bff7	-0.36083958
253	0xbf7f79e2	-0.99795353
254	0x3dd4bd70	0.10387695
255	0xbe891e8c	-0.26781118

fc_2.bias f4 [10]
0	0xbbb823ca	-0.0056195008
1	0xbdd97887	-0.10618692
2	0x3e8ccea3	0.275014
3	0x3c994e17	0.018713994
4	0x3d842d69	0.06453974
5	0xbe6876f1	-0.22701623
6	0x3e65822b	0.22412936
7	0xbe95b574	-0.2924
8	0x3e426d9e	0.18987128
9	0xbe0a19ba	-0.13486376
